results/rdesktop_run_001/Robotarm/Robotarm-2999908.pt (torch, 884287 bytes, 48 tensors)

network_body.linear_encoder.seq_layers.0.weight f4 [128, 19]
-0.5479077 -0.25670463 0.5066193 0.08101237 0.32895234 0.016899936 0.019400598 0.1990918
-0.08407769 -0.12222574 -0.31028482 -0.34416556 -0.28238297 0.43958145 -0.22727904 -0.23885432
-0.040799238 0.37764198 -0.11052786 0.12164738 -0.5701405 -0.14575395 0.43910488 0.19120601
-0.4369868 0.16374977 0.037109133 -0.27763632 0.13189565 0.029780818 -0.26700726 0.06482155
-0.16919 0.3064061 0.22104119 0.12088028 -0.3319222 0.06277365 -0.31740296 -0.10243273
-0.076025724 0.24491936 -0.20798953 0.056503776 -0.28191945 -0.4825924 0.26835877 0.20906459
-0.11548907 0.007050619 0.09400719 0.54602474 -0.040606335 0.13202539 -0.08913081 -0.29246947
-0.11996164 -0.10220712 -0.25128844 0.14211006 0.17479655 0.096301384 0.21768159 -0.0076336027
-0.0779532 0.11077196 -0.4007569 0.20601049 -0.5222584 0.22513995 -0.13872942 0.11781584
-0.11277591 -0.12200718 0.4663165 0.10347498 -0.04132481 0.0050186613 -0.22852127 -0.18551138
0.112782106 -0.064553395 -0.323322 -0.22431561 0.14311273 -0.11069955 -0.024224505 -0.2742889
-0.12787727 -0.35660857 0.18636051 0.034452993 0.31561455 0.15056655 0.12208212 -0.11544778
-0.3994689 0.44379953 0.451612 0.0696285 0.043526188 0.078197174 0.14419425 0.15149072
0.16175371 -0.3107596 -0.17322172 -0.051353145 -0.10756212 -0.050623637 -0.117811635 -0.042259753
-0.096414514 0.24920478 -0.18103784 -0.15953067 -0.08789664 0.13444316 0.12800093 0.38793752
0.0146388905 0.2699424 0.015433917 0.081025444 -0.19414446 0.17303804 -0.31915188 0.46074018
0.13032277 -0.14019735 0.09478885 -0.09164499 -0.011307165 0.050015677 -0.07781137 -0.39864153
-0.011059788 -0.18641269 0.34916466 -0.0057843993 0.28634703 -0.34402332 -0.0015455843 -0.142978
0.11026283 -0.04117107 -0.2558672 0.36542293 -0.44948086 0.31214657 -0.06784659 -0.2681623
0.05858484 -0.008645106 0.1919301 0.4071186 -0.21502878 -0.5562322 -0.0038848768 0.2587319
-0.12126381 -0.0009525902 0.091340914 -0.3572392 -0.24207993 0.22825001 0.07819938 -0.3600456
0.37467268 0.46748298 0.60542846 0.021736395 0.31414217 -0.16881293 -0.023563623 -0.31303757
0.27337456 -0.10437528 -0.11098959 -0.15268536 0.14232822 0.2658082 0.3289797 -0.011498557
-0.10481383 0.074419215 0.39552015 0.09829735 0.080551185 0.3206725 0.32853654 -0.14565122
-0.12913689 -0.4792668 0.082324065 0.16949394 0.18917604 0.07767535 0.18290676 0.24893348
-0.75491315 -0.12898926 -0.14068304 -0.1491671 0.40445763 -0.11730462 -0.19431393 -0.31039125
-0.05330734 -0.2540906 -0.22871247 -0.001086998 0.3867381 0.07166909 -0.17573604 0.20996743
0.1320816 -0.119994774 0.14193918 0.12654574 0.14391656 0.069050066 0.01938831 -0.0320639
-0.044100862 -0.65211946 -0.16901042 -0.25382838 -0.27128512 -0.057030562 0.07407207 -0.07334008
0.20968811 0.044646025 0.48656058 0.26720574 -0.076726295 -0.18012117 -0.37957764 0.1851263
-0.21489905 -0.19863863 -0.25173447 0.055187434 -0.27835003 -0.11691968 -0.30819848 -0.3569062
-0.33595368 -0.43939564 0.11908157 -0.031714004 -0.020117901 -0.010657076 -0.10196253 0.25605866
00000000: ae43 0cbf ca6e 83be cdb1 013f d0e9 a53d
00000010: 716c a83e bc71 8a3c 01ee 9e3c b9de 4b3e
00000020: ed30 acbd 7d51 fabd a7dd 9ebe 7836 b0be
00000030: 8094 90be d210 e13e d6bb 68be 3a96 74be
00000040: 1a1d 27bd 4a5a c13e 6e5c e2bd 4322 f93d
00000050: baf4 11bf 8640 15be 5bd2 e03e 82cb 433e
00000060: bcbc dfbe 05ae 273e bfff 173d 5926 8ebe
00000070: a70f 073e e7f6 f33c 2db5 88be 29c1 843d
00000080: 2540 2dbe 43e1 9c3e 9f58 623e 1590 f73d
00000090: b5f1 a9be 798f 803d a482 a2be 40c8 d1bd
000000a0: 60b3 9bbd 24cc 7a3e 35fb 54be 8170 673d
000000b0: bf57 90be 5a16 f7be 5266 893e 0715 563e
000000c0: 8985 ecbd e108 e73b d786 c03d 47c8 0b3f
000000d0: d452 26bd aa31 073e 378a b6bd 8fbe 95be
000000e0: 73ae f5bd f751 d1bd e1a8 80be 4d85 113e
000000f0: defd 323e a939 c53d ece7 5e3e 4d23 fabb
00000100: eda5 9fbd 69dc e23d 0230 cdbe 6af4 523e
00000110: bab2 05bf 168b 663e 160f 0ebe 6e49 f13d
00000120: 0ef7 e6bd e6de f9bd 09c1 ee3e b1ea d33d
00000130: 3444 29bd 9573 a43b 7b01 6abe b2f6 3dbe
00000140: 4efa e63d 9234 84bd 768a a5be feb2 65be
00000150: 258c 123e 72b6 e2bd 7872 c6bc 986f 8cbe
00000160: 42f2 02be 6695 b6be 4ad5 3e3e 951e 0d3d
00000170: 3b98 a13e 1e2e 1a3e 3106 fa3d e36f ecbd
00000180: 3087 ccbe b139 e33e b039 e73e 6399 8e3d
00000190: 8448 323d d725 a03d a8a7 133e 6220 1b3e
000001a0: c4a2 253e e21b 9fbe 0961 31be ad57 52bd
000001b0: 8749 dcbd bb5a 4fbd 3a47 f1bd 9018 2dbd
000001c0: f974 c5bd 8a2f 7f3e fc61 39be 025c 23be
000001d0: 2703 b4bd 78ab 093e ad12 033e bf9f c63e
000001e0: f5d7 6f3c e435 8a3e 8ade 7c3c abf0 a53d
000001f0: cecd 46be e230 313e e067 a3be 23e6 eb3e
00000200: 5573 053e e58f 0fbe a820 c23d 5eb0 bbbd
00000210: b041 39bc 3ddd 4c3d 915b 9fbd be1a ccbe
00000220: 1d34 35bc f8e2 3ebe b6c5 b23e 0f8b bdbb
00000230: 149c 923e d323 b0be 3495 caba d368 12be
00000240: 7bd1 e13d ffa2 28bd 0701 83be b718 bb3e
00000250: 5b22 e6be add1 9f3e 27f3 8abd 924c 89be
00000260: a8f6 6f3d 34a4 0dbc 5389 443e d971 d03e
00000270: 8130 5cbe 3c65 0ebf 6b99 7ebb 8278 843e
00000280: 2959 f8bd 3fb7 79ba f210 bb3d 0ee8 b6be
00000290: cde3 77be 5fba 693e ff26 a03d e657 b8be
000002a0: 19d5 bf3e ee59 ef3e 5cfd 1a3f 8610 b23c
000002b0: 3ed7 a03e 4cdd 2cbe 8008 c1bc 7646 a0be
000002c0: c0f7 8b3e b5c2 d5bd 834e e3bd 8d59 1cbe
000002d0: 7dbe 113e 0318 883e 0770 a83e 7264 3cbc
000002e0: a2a8 d6bd 1a69 983d 9e81 ca3e 1f50 c93d
000002f0: 05f8 a43d 302f a43e f135 a83e 9825 15be
00000300: 763c 04be 7562 f5be 8599 a83d d28f 2d3e
00000310: 5db7 413e 4114 9f3d e94b 3b3e 6be8 7e3e
00000320: fd41 41bf c315 04be 370f 10be 43bf 18be
00000330: 1215 cf3e 683d f0bd 3bfa 46be 9aeb 9ebe
00000340: cc58 5abd 2a18 82be 9a33 6abe 9a79 8eba
00000350: 8902 c63e 3ec7 923d 26f4 33be b401 573e
00000360: 6640 073e d2bf f5bd 8158 113e 3595 013e
00000370: dd5e 133e 1f6a 8d3d 3cd4 9e3c 7055 03bd
00000380: 1ba3 34bd 4df1 26bf 1111 2dbe cbf5 81be
00000390: e2e5 8abe e198 69bd 19b3 973d 5333 96bd
000003a0: 7bb8 563e c0de 363d 781e f93e 31cf 883e
000003b0: ad22 9dbd af71 38be 0058 c2be c091 3d3e
000003c0: 7f0e 5cbe ed67 4bbe 57e3 80be 380c 623d
000003d0: e583 8ebe 9673 efbd 31cc 9dbe 69bc b6be
000003e0: 1f02 acbe 77f8 e0be 0ae1 f33d 8be6 01bd
000003f0: 4cce a4bc 049b 2ebc bbd1 d0bd 1f1a 833e

network_body.linear_encoder.seq_layers.0.bias f4 [128]
0.034152057 0.08346277 -0.033675205 -0.021765228 0.031851202 -0.040606588 0.008609809 0.07347651
0.015619241 0.08178455 0.062161654 -0.055611692 -0.033422474 0.0034655216 0.021572756 -0.016917607
0.12352534 0.06453685 -0.101152144 -0.018207423 0.031669136 0.023180287 0.13895003 0.099999495
0.056848194 -0.078945406 0.039394505 -0.11328442 0.002980631 0.072905056 -0.12484735 0.10518913
-0.0317096 0.09040538 -0.02645084 0.04983938 -0.015104202 0.059820253 0.045964096 -0.013678252
0.09629514 0.0932098 0.03776949 0.04521577 -0.06850771 -0.1491115 -0.014723636 0.04582992
0.06281778 0.06974526 0.054562688 0.16016476 0.104936555 0.033402916 0.0964325 -0.020048028
-0.009347329 0.027017573 0.10350358 0.06856766 0.15570891 0.062087867 0.08324468 0.0160107
0.016395092 0.08317393 0.050618753 0.040836427 0.0053956355 0.09172101 0.082343616 0.0033249292
0.03716105 0.018296795 0.07599112 -0.065556616 -2.748906e-05 0.12571731 0.044944376 -0.037393715
0.10618777 0.0014218505 0.050838746 -0.025926912 -0.027853275 0.051284906 -0.031569723 -0.029657977
0.00071218156 0.04605462 -0.03592848 0.064494535 0.017009476 -0.0169836 -0.08221389 -0.003581398
0.15984556 -0.068534225 0.053655416 -0.00923237 0.06395018 0.10083575 0.011461292 0.0031619421
0.049502928 0.034752816 0.07267911 0.057777904 -0.048564762 0.032478597 0.075384915 0.0996535
0.06560759 -0.016549362 0.08132966 0.107416004 -0.055818245 0.058024604 -0.053020846 -0.03964121
0.052711993 0.06682097 0.06983262 0.052994236 0.06943353 -0.006593049 -0.020501668 0.060395956
00000000: 07e3 0b3d 87ee aa3d 03ef 09bd fe4c b2bc
00000010: 6876 023d 1853 26bd 2810 0d3c da7a 963d
00000020: d8e7 7f3c a87e a73d 389d 7e3d 16c9 63bd
00000030: 01e6 08bd ce1d 633b 59b9 b03c cb96 8abc
00000040: dafa fc3d e52b 843d db28 cfbd bc27 95bc
00000050: 7fb7 013d 96e4 bd3c eb48 0e3e 89cc cc3d
00000060: a7d9 683d 21ae a1bd 225c 213d a901 e8bd
00000070: b156 433b 3f4f 953d f8af ffbd 666d d73d
00000080: ede1 01bd 7526 b93d 6faf d8bc 6124 4c3d
00000090: 9d77 77bc 1506 753d d944 3c3d bf1a 60bc
000000a0: 6336 c53d c8e4 be3d 2eb4 1a3d 2c34 393d
000000b0: c54d 8cbd afb0 18be 683b 71bc 27b8 3b3d
000000c0: 9ca6 803d 9ad6 8e3d 207d 5f3d 3b02 243e
000000d0: fae8 d63d 7fd1 083d 677e c53d c33b a4bc
000000e0: 8a25 19bc f553 dd3c aff9 d33d 346d 8c3d
000000f0: 2872 1f3e d94f 7e3d 307c aa3d df28 833c
00000100: 004f 863c 1857 aa3d 9c55 4f3d 1944 273d
00000110: dfcd b03b 3ad8 bb3d c5a3 a83d 0ee7 593b
00000120: 2f36 183d 29e3 953c 3ba1 9b3d 8c42 86bd
00000130: 4f98 e6b7 0abc 003e 9817 383d 272a 19bd
00000140: f978 d93d 635d ba3a 4a3c 503d ad64 d4bc
00000150: 8d2c e4bc 1f10 523d 414f 01bd 49f5 f2bc
00000160: b2b1 3a3a c5a3 3c3d be29 13bd b615 843d
00000170: 7557 8b3c 3121 8bbc c25f a8bd e3b5 6abb
00000180: 8eae 233e ac5b 8cbd c8c5 5b3d 5e43 17bc
00000190: 50f8 823d f982 ce3d 25c8 3b3c 9638 4f3b
000001a0: 95c3 4a3d f858 0e3d c9d8 943d 86a8 6c3d
000001b0: d8eb 46bd 4708 053d 6863 9a3d 2217 cc3d
000001c0: 465d 863d 8792 87bc 2a90 a63d ecfc db3d
000001d0: aca1 64bd 35ab 6d3d 632c 59bd d25e 22bd
000001e0: 88e8 573d 6fd9 883d 6804 8f3d 7c10 593d
000001f0: 2b33 8e3d 810a d8bb 1df3 a7bc c061 773d

network_body.linear_encoder.seq_layers.2.weight f4 [128, 128]
0.020526912 -0.029816892 0.05463416 0.035469614 0.19534092 -0.06768282 0.07506434 0.13383852
0.07428368 -0.1225517 0.07653847 -0.15192094 -0.1317427 0.30193245 -0.1572636 0.048547857
-0.15793788 0.13184673 0.07056722 0.13887897 0.15619409 -0.15181169 -0.05820832 -0.14125521
0.15373254 0.07322698 0.0121253785 0.05057635 0.042180467 0.021989593 0.07260579 -0.14223132
0.14741372 -0.008579127 -0.006339994 0.08731364 0.0070612724 0.037934873 0.11738816 0.015698703
0.06491414 0.073364936 -0.014740768 0.05057355 -0.053078678 0.017727915 0.01820969 -0.01639681
-0.117810175 -0.0730425 0.083473206 0.11896202 0.24062127 0.06724741 -0.018955063 0.059154738
-0.0009941971 0.014686866 -0.041185796 0.23865855 0.034823023 -0.007411427 0.04097272 -0.13988481
0.11718573 0.076479726 0.20033649 0.0653395 -0.13495298 -0.05365044 0.20025226 -0.039422736
-0.14132981 -0.0131232785 0.24444236 -0.11026249 -0.20590468 0.15353543 0.067943126 0.011294176
-0.07464998 -0.012411404 -0.046140503 0.08460818 0.028673917 -0.06019163 -0.019292837 0.025566475
0.011600783 0.010397921 -0.120126754 0.08082362 -0.019401096 0.028530596 0.0035037084 -0.076724075
0.054672237 0.13589144 -0.026079094 -0.07828875 -0.04563879 0.19907755 -0.16526558 -0.021986892
0.03826897 -0.033165216 0.23055111 -0.010951914 -0.3278473 0.14000002 -0.06963188 -0.060854577
0.036389306 -0.17663516 -0.123977505 -0.015557323 0.021832354 0.13424824 0.12367019 -0.00338721
-0.0061555947 0.214174 -0.11645 0.021408765 0.016433999 -0.2643793 0.06811164 -0.13744427
-0.08382043 -0.23268576 0.20875183 -0.2238575 -0.014977957 0.2832991 0.079742596 -0.23208936
0.01128982 0.049123738 -0.03086112 0.10584219 0.27679804 -0.22716714 -0.13302997 0.15200122
-0.056048937 -0.1787831 -0.08348147 0.17328753 -0.1082884 -0.023632327 0.19469349 -0.017213482
0.22291553 -0.20099138 -0.19197822 0.09757059 -0.08849772 -0.13717574 -0.0274697 0.01798469
0.079367146 -0.03911962 -0.2908311 -0.28139693 0.07845759 -0.048979748 -0.04247356 -0.005706385
0.016512929 -0.15270564 -0.044524115 -0.36088938 0.14935116 -0.0050502573 -0.08205582 -0.08652332
0.09011737 -0.011880374 -0.050387193 -0.025867656 0.009329516 -0.011426236 0.15663503 0.05755752
0.24005395 -0.13107322 0.21273881 -0.09134542 0.19788712 -0.100043505 -0.14282623 0.22023857
-0.04692269 -0.10791963 -0.19283307 -0.1982133 -0.0192107 -0.105612956 -0.13289283 0.02400407
0.12070235 -0.019482816 -0.1984562 0.093066305 0.19609743 0.122697406 -0.07195368 -0.06560089
-0.029771032 0.028496925 -0.09154196 0.09956508 -0.0617987 -0.14700913 -0.0816878 -0.014067518
-0.03615602 -0.20079954 0.28160033 -0.035372302 0.40254134 -0.10880011 0.116124116 0.06113348
-0.049716726 0.09196127 -0.046660386 0.17662875 -0.10105577 -0.23570833 0.10605392 0.092336774
0.22747466 -0.109615944 0.017398568 -0.22888604 0.26389238 0.02234769 -0.20320112 0.07391498
-0.1797084 0.12629667 -0.019351179 0.08545649 0.17918956 -0.16777147 0.081763774 0.2317794
-0.037834615 -0.14172791 -0.11894185 -0.0896007 -0.08430534 0.039406534 -0.18222247 -0.16443963
00000000: 0e28 a83c 8e42 f4bc 12c8 5f3d 9648 113d
00000010: 7307 483e 4a9d 8abd 55bb 993d f70c 093e
00000020: 0b22 983d 63fc fabd 34c0 9c3d 2a91 1bbe
00000030: 8fe7 06be e496 9a3e b609 21be 1eda 463d
00000040: 78ba 21be d402 073e 8c85 903d 4a36 0e3e
00000050: 58f1 1f3e 8674 1bbe d96b 6ebd 35a5 10be
00000060: 106c 1d3e 07f8 953d 86a9 463c 2629 4f3d
00000070: 6dc5 2c3d 8523 b43c 58b2 943d 16a5 11be
00000080: 9ff3 163e 778f 0cbc b9bf cfbb 7ed1 b23d
00000090: 3f62 e73b 9961 1b3d 3469 f03d 919a 803c
000000a0: b4f1 843d 5b40 963d 4383 71bc 3626 4f3d
000000b0: 0769 59bd 223a 913c 7d2c 953c 9a52 86bc
000000c0: 7646 f1bd 4e97 95bd 00f4 aa3d 5ca2 f33d
000000d0: 6c65 763e 03b9 893d a647 9bbc 3d4c 723d
000000e0: b84f 82ba 2ea1 703c 70b2 28bd e862 743e
000000f0: 96a2 0e3d 8edb f2bb 03d3 273d f73d 0fbe
00000100: 12ff ef3d 67a1 9c3d 0225 4d3e b7d0 853d
00000110: 1d31 0abe 90c0 5bbd ee0e 4d3e bc79 21bd
00000120: c3b8 10be 0503 57bc 194f 7a3e 4dd1 e1bd
00000130: add8 52be 6438 1d3e c425 8b3d 350b 393c
00000140: 17e2 98bd 3459 4bbc d3fd 3cbd 0e47 ad3d
00000150: 90e5 ea3c 808b 76bd 030c 9ebc c970 d13c
00000160: 3611 3e3c 0b5c 2a3c 0405 f6bd db86 a53d
00000170: 0cef 9ebc ffb8 e93c 799e 653b 8321 9dbd
00000180: ffef 5f3d 2027 0b3e d3a3 d5bc da55 a0bd
00000190: bdef 3abd fcda 4b3e 613b 29be db1d b4bc
000001a0: ecbf 1c3d 40d8 07bd 9715 6c3e a86f 33bc
000001b0: 9adb a7be 2a5c 0f3e 299b 8ebd a642 79bd
000001c0: f40c 153d d9df 34be ebe7 fdbd 24e4 7ebc
000001d0: c4d9 b23c 5f78 093e cc46 fd3d f4fb 5dbb
000001e0: dfb4 c9bb 6e50 5b3e 567d eebd 6f61 af3c
000001f0: 98a0 863c b95c 87be 1e7e 8b3d 31be 0cbe
00000200: 0caa abbd 2d45 6ebe 0ac3 553e e73a 65be
00000210: 1b66 75bc 940c 913e 1650 a33d d5a8 6dbe
00000220: f0f8 383c f935 493d 76d0 fcbc cac3 d83d
00000230: 79b8 8d3e 819e 68be 0239 08be 35a6 1b3e
00000240: 9293 65bd eb12 37be 55f8 aabd 4972 313e
00000250: 4fc6 ddbd 9598 c1bc bb5d 473e 4a03 8dbc
00000260: f843 643e afd0 4dbe f095 44be 17d3 c73d
00000270: 4b3e b5bd cc77 0cbe 2308 e1bc a154 933c
00000280: 3e8b a23d e53b 20bd d0e7 94be 4213 90be
00000290: 5fae a03d fd9e 48bd c1f8 2dbd a0fc babb
000002a0: 1f46 873c de5e 1cbe eb5e 36bd 7ec6 b8be
000002b0: 83ef 183e a17c a5bb e20c a8bd 2333 b1bd
000002c0: 758f b83d e6a5 42bc cd62 4ebd 68e8 d3bc
000002d0: d4da 183c 1b35 3bbc ef64 203e 6fc1 6b3d
000002e0: b4d0 753e 0f38 06be 34d8 593e 4f13 bbbd
000002f0: eca2 4a3e 9ce3 ccbd 0a41 12be 3886 613e
00000300: 0232 40bd f804 ddbd 0876 45be 6df8 4abe
00000310: c25f 9dbc 9b4b d8bd 0f15 08be 2fa4 c43c
00000320: cb32 f73d 6d9a 9fbc 1a38 4bbe 8c99 be3d
00000330: c4cd 483e c748 fb3d 735c 93bd c259 86bd
00000340: 61e2 f3bc 6272 e93c 5a7a bbbd c7e8 cb3d
00000350: a220 7dbd 9089 16be ef4b a7bd 727b 66bc
00000360: 5618 14bd 659e 4dbe eb2d 903e 8ce2 10bd
00000370: e619 ce3e 98d2 debd 7bd2 ed3d 1a67 7a3d
00000380: c4a3 4bbd 3156 bc3d f61e 3fbd 2bde 343e
00000390: 54f6 cebd 865d 71be cc32 d93d 101b bd3d
000003a0: 1eef 683e 537e e0bd 7187 8e3c 1a61 6abe
000003b0: e71c 873e 8112 b73c f413 50be bd60 973d
000003c0: 7b05 38be ea53 013e 5d86 9ebc d003 af3d
000003d0: 787d 373e 49cc 2bbe c473 a73d 9457 6d3e
000003e0: 78f8 1abd 1f21 11be c997 f3bd 9280 b7bd
000003f0: 47a8 acbd bf68 213d 8798 3abe dd62 28be

network_body.linear_encoder.seq_layers.2.bias f4 [128]
0.034226406 -0.14325653 0.05384132 0.058600906 -0.016006408 -0.045304343 0.058550786 0.06597544
-0.07008572 0.03363916 0.05437029 -0.06601397 -0.068135016 0.07070461 -0.14107959 0.03427658
0.047766674 0.047401667 0.043842215 -0.09072843 0.049572222 -0.12751123 -0.13796923 0.07067537
0.06700295 0.03985189 0.07501372 0.030144574 -0.09604145 -0.122271545 0.048662584 -0.13328105
0.042826477 -0.14812978 -0.12901688 0.070649125 -0.08226771 0.040988732 0.04426682 -0.05336569
0.053488623 0.043185167 0.04812369 0.042363532 0.059623726 0.05861939 -0.13035591 0.07256904
0.02262618 0.075965226 -0.13441035 -0.1303899 -0.1190795 0.054566555 -0.1581143 0.0072955894
-0.14662258 0.038131125 0.09057722 0.058405943 -0.12665595 0.052278575 -0.12350095 0.06370772
-0.053503472 0.04754441 0.06872215 -0.11005983 -0.10167233 0.067690015 0.037651364 -0.13434714
0.020659285 -0.1616149 0.029314961 0.06852495 -0.07268674 -0.091529936 0.08143932 -0.121095054
-0.12997803 0.07266528 0.03120779 0.051582765 0.008661553 -0.15795836 -0.13725066 0.034274444
0.056346085 0.06140893 -0.059131145 0.06621607 -0.07135228 -0.13083072 -0.006170264 -0.1392622
0.03457181 0.049712837 -0.11254448 0.024840625 0.058899757 0.08486548 0.012353022 0.08460029
-0.14085491 -0.08503889 0.045064755 -0.043298103 0.032505337 0.069690004 0.034420088 -0.11000652
0.065689735 0.05024631 -0.14179134 0.01900205 0.042166322 0.08524574 -0.088693984 0.014100206
-0.1394281 -0.043903816 -0.08785866 -0.13532804 0.016404541 0.042635642 -0.11525104 -0.14023659
00000000: fd30 0c3d d7b1 12be b788 5c3d 8107 703d
00000010: df1f 83bc 0c91 39bd f3d2 6f3d 221e 873d
00000020: 1a89 8fbd 37c9 093d 62b3 5e3d 5532 87bd
00000030: 5f8a 8bbd 94cd 903d 2b77 10be 9965 0c3d
00000040: fda6 433d 4028 423d e593 333d d4cf b9bd
00000050: 3e0c 4b3d 4e92 02be ce47 0dbe 40be 903d
00000060: d838 893d bc3b 233d cba0 993d c1f1 f63c
00000070: 61b1 c4bd 8169 fabd 6b52 473d d47a 08be
00000080: d16a 2f3d 55af 17be 001d 04be 7db0 903d
00000090: f97b a8bd cde3 273d 2051 353d fb95 5abd
000000a0: e316 5b3d eee2 303d 591d 453d 6285 2d3d
000000b0: 0238 743d e31a 703d 057c 05be 149f 943d
000000c0: 8a5a b93c a893 9b3d dea2 09be ee84 05be
000000d0: f4df f3bd 2e81 5f3d b7e8 21be d70f ef3b
000000e0: 3b24 16be 622f 1c3d 8d80 b93d 123b 6f3d
000000f0: 19b2 01be 0f22 563d 11ee fcbd 3179 823d
00000100: 7526 5bbd edbd 423d 33be 8c3d 0c67 e1bd
00000110: 9539 d0bd 10a1 8a3d 5138 1a3d 4c92 09be
00000120: a93d a93c 607e 25be ee25 f03c cf56 8c3d
00000130: c9dc 94bd 0c74 bbbd a9c9 a63d af00 f8bd
00000140: f618 05be 89d1 943d 7ba7 ff3c 7348 533d
00000150: 30e9 0d3c d6bf 21be 708b 0cbe 5c63 0c3d
00000160: 27cb 663d ee87 7b3d 8033 72bd 4a9c 873d
00000170: 2521 92bd 7df8 05be ed2f cabb c09a 0ebe
00000180: 2c9b 0d3d b09f 4b3d b87d e6bd 917e cb3c
00000190: df40 713d f4cd ad3d 5464 4a3c eb42 ad3d
000001a0: 453c 10be df28 aebd d295 383d 5a59 31bd
000001b0: 5124 053d a2b9 8e3d 14fc 0c3d 194b e1bd
000001c0: 5788 863d 13cf 4d3d c031 11be 30aa 9b3c
000001d0: 98b6 2c3d 5295 ae3d 31a5 b5bd 8d04 673c
000001e0: 3dc6 0ebe 7dd4 33bd 3eef b3bd 6f93 0abe
000001f0: d162 863c b6a2 2e3d bd08 ecbd 2e9a 0fbe

network_body.linear_encoder.seq_layers.4.weight f4 [128, 128]
-0.10155354 0.036957305 -0.13586946 0.022469234 -0.18120578 0.17576571 -0.107426725 -0.0081713535
-0.014545522 -0.08430978 -0.14561157 0.046610665 -0.077135585 -0.29176518 -0.050650015 -0.053094503
-0.1381437 0.12820329 -0.121057704 -0.03128825 -0.016507447 0.2306948 0.11319991 0.119008176
-0.11576857 0.013099707 -0.0081144795 -0.16504017 0.09113273 0.13556243 -0.05425152 0.234887
-0.0016392961 0.0031789073 0.098517515 0.021547161 0.11896918 -0.04372362 -0.12473438 -0.13341455
0.05216733 0.036899935 -0.11561674 -0.22061242 -0.13651119 -0.016998176 -0.073073186 -0.100064546
0.07581223 -0.26137662 0.17774959 0.15708444 0.102930464 -0.036425937 0.12299552 0.054123048
0.018312914 -0.08067407 -0.14471535 0.005691816 0.06443856 -0.04399339 -0.017738342 -0.07875878
0.026120773 -0.04456535 -0.17631055 0.00031342224 0.043509346 -0.151543 0.12270273 0.110507786
0.0111398585 0.070591375 -0.024043102 -0.24533883 -0.03234772 0.16465043 -0.18331188 0.1897182
0.015205082 0.03497053 -0.12623043 -0.28124908 0.0033642333 0.11549552 0.19505781 -0.030741489
0.012465194 -0.18992476 0.14278024 -0.07698252 0.10427951 0.09793436 0.101181984 -0.027953418
-0.09433191 0.057306908 0.025281085 -0.1673449 0.015654273 0.005918056 0.049637366 -0.11063935
0.12104622 -0.012601267 -0.039081164 0.033484396 -0.15734163 -0.0026524863 -0.08690236 0.19603382
-0.12856694 -0.16010968 -0.00035892724 -0.0808487 -0.03493845 -0.16674297 0.04084522 -0.019139592
0.10812587 0.13008818 0.14472954 0.08090297 0.069892235 -0.113688886 0.06444512 0.062722124
-0.17793559 0.05477062 -0.1765765 0.11136026 0.11134363 0.055810694 -0.09855521 -0.30440032
-0.048430093 -0.080093525 -0.18510893 0.03815949 0.051728 -0.31495 -0.08627954 0.07457669
-0.189718 0.018436432 0.1102904 0.045473617 -0.08251577 0.113510795 0.10171181 -0.11369523
-0.060469277 -0.01614295 0.008163865 -0.2467706 0.15744492 0.16482496 -0.12103116 -0.044715513
-0.011318694 0.1095939 0.016975062 -0.1600637 0.11924096 -0.26289317 0.012159748 0.09200382
0.09002726 0.009623692 -0.13680774 -0.004688928 0.13296826 0.10174605 0.08892062 -0.02817067
0.16871598 -0.23575729 -0.11010831 0.009946718 0.039718777 0.15205915 -0.02723318 0.17023757
-0.07528399 -0.098620474 -0.053743567 -0.1282468 -0.12819758 -0.16288352 0.0070562297 -0.1099837
0.011227715 0.0558679 -0.079251215 0.0544636 -0.05436361 -0.15035935 -0.087323025 0.041240364
-0.069303 0.13844682 -0.19475974 -0.029691922 -0.118181325 0.07701452 -0.0041424255 0.22661695
0.17848274 -0.022173222 -0.11485732 -0.08053619 -0.06691967 0.133716 0.042456526 0.01495422
-0.06741077 0.11244785 0.019240247 -0.23814757 0.044239253 -0.061777156 0.023148365 0.12244429
0.03929524 -0.06591095 0.083674066 -0.15641841 -0.12370545 -0.14646107 -0.01844278 -0.18959925
0.015758751 0.153157 0.043761015 0.057379417 -0.09719509 -0.06291082 0.06607034 0.22150347
-0.17088722 -0.19464754 0.08492402 0.16922542 -0.06335941 -0.080828965 -0.023161447 -0.02816135
-0.063091986 -0.1513012 0.1477751 0.09993183 -0.0036848595 -0.19399478 0.045021266 0.19533144
00000000: 4dfb cfbd 8b60 173d 5d21 0bbe 6611 b83c
00000010: 028e 39be edfb 333e 8b02 dcbd 24e1 05bc
00000020: 5750 6ebc 9baa acbd 331b 15be d3ea 3e3d
00000030: 43f9 9dbd 3f62 95be 6476 4fbd 9f79 59bd
00000040: 8b75 0dbe b947 033e 1aed f7bd 1c28 00bd
00000050: a03a 87bc 423b 6c3e 5bd5 e73d 8fba f33d
00000060: 1218 edbd 27a0 563c 98f2 04bc 4a00 29be
00000070: cca3 ba3d e1d0 0a3e d836 5ebd 3886 703e
00000080: a6dd d6ba 3755 503b 8dc3 c93d ac83 b03c
00000090: 1da6 f33d 8a17 33bd bd74 ffbd d39d 08be
000000a0: 69ad 553d 6324 173d 78c8 ecbd 39e8 61be
000000b0: 97c9 0bbe c23f 8bbc 65a7 95bd a4ee ccbd
000000c0: 7143 9b3d 28d3 85be fd03 363e beda 203e
000000d0: 35cd d23d 5d33 15bd 13e5 fb3d 21b0 5d3d
000000e0: f704 963c 7238 a5bd 4330 14be 6a82 ba3b
000000f0: 5df8 833d 6a32 34bd 0050 91bc 494c a1bd
00000100: 3bfb d53c 288a 36bd c18a 34be d252 a439
00000110: db36 323d 172e 1bbe 924b fb3d e851 e23d
00000120: f483 363c 3692 903d 0af6 c4bc 1a3a 7bbe
00000130: 0b7f 04bd 1f9a 283e 1cb6 3bbe 7d45 423e
00000140: bc1e 793c 423d 0f3d 8d42 01be e1ff 8fbe
00000150: 787a 5c3b ea88 ec3d 3cbd 473e 93d5 fbbc
00000160: d03a 4c3c a37b 42be fc34 123e 03a9 9dbd
00000170: 7f90 d53d cf91 c83d 8038 cf3d 91fe e4bc
00000180: 1731 c1bd a6ba 6a3d 471a cf3c 765c 2bbe
00000190: 643d 803c 40ec c13b 8d50 4b3d e296 e2bd
000001a0: 15e7 f73d 8b75 4ebc 9213 20bd ef26 093d
000001b0: 2a1e 21be 56d5 2dbb ddf9 b1bd 17bd 483e
000001c0: 0da7 03be cbf3 23be 662e bcb9 0194 a5bd
000001d0: 9f1b 0fbd abbe 2abe 514d 273d a2ca 9cbc
000001e0: 1971 dd3d d635 053e fb33 143e 75b0 a53d
000001f0: a923 8f3d b8d5 e8bd cefb 833d 7574 803d
00000200: bf34 36be 2857 603d 78d0 34be d910 e43d
00000210: 2108 e43d c199 643d 50d7 c9bd 5cda 9bbe
00000220: a25e 46bd 1308 a4bd 328d 3dbe 204d 1c3d
00000230: bde0 533d 2041 a1be 54b3 b0bd aabb 983d
00000240: 6f45 42be 0008 973c efdf e13d 8b42 3a3d
00000250: 07fe a8bd 5978 e83d 484e d03d 0bd9 e8bd
00000260: a2ae 77bd 383e 84bc bbc1 053c 6fb1 7cbe
00000270: 3e39 213e e0c7 283e 2fdf f7bd 9d27 37bd
00000280: 0b72 39bc c472 e03d 490f 8b3c bde7 23be
00000290: 9b34 f43d ef99 86be ae39 473c 806c bc3d
000002a0: 3660 b83d b1ac 1d3c 5417 0cbe 94a5 99bb
000002b0: d528 083e 3c60 d03d 041c b63d 2dc6 e6bc
000002c0: e2c3 2c3e 5c6a 71be 7780 e1bd 8ff7 223c
000002d0: 28b0 223d 65b5 1b3e 1e18 dfbc c252 2e3e
000002e0: 7e2e 9abd 88f9 c9bd 3722 5cbd 2153 03be
000002f0: 3a46 03be f0ca 26be f237 e73b 223f e1bd
00000300: 73f4 373c bdd5 643d 764e a2bd 3915 5f3d
00000310: 60ac 5ebd cdf7 19be 6ad6 b2bd a8eb 283d
00000320: bbee 8dbd 01c5 0d3e 196f 47be 793c f3bc
00000330: 0d09 f2bd cab9 9d3d 2fbd 87bb 460e 683e
00000340: 2ec4 363e 9ea4 b5bc 513a ebbd 28f0 a4bd
00000350: 2e0d 89bd d9ec 083e e5e6 2d3d 8b02 753c
00000360: a80e 8abd 0f4b e63d b99d 9d3c f5dc 73be
00000370: 3834 353d 0b0a 7dbd a4a1 bd3c 12c4 fa3d
00000380: 0cf4 203d 52fc 86bd 4f5d ab3d 262c 20be
00000390: 4859 fdbd e4f9 15be 5015 97bc 4e26 42be
000003a0: 7f18 813c 30d5 1c3e c03e 333d ae06 6b3d
000003b0: 380e c7bd 63d7 80bd e34f 873d ced1 623e
000003c0: 0ffd 2ebe af51 47be a5ec ad3d 6e49 2d3e
000003d0: 94c2 81bd a889 a5bd 13bd bdbc a2b2 e6bc
000003e0: 5f36 81bd b4ee 1abe 5b52 173e 0fa9 cc3d
000003f0: af7d 71bb 91a6 46be 3868 383d f704 483e

network_body.linear_encoder.seq_layers.4.bias f4 [128]
-0.06087862 -0.04767197 0.054951925 -0.055900868 -0.02040305 -0.029206477 -0.046541378 -0.06959485
0.019618008 -0.07003817 0.027257621 0.021462068 -0.051190075 -0.019500727 0.0023228913 -0.051577367
0.035982512 0.06226916 -0.045819353 0.041455682 0.0690417 -0.09454361 -0.05043965 0.05284925
-0.018458111 -0.07038589 -0.066346906 -0.06455233 -0.047593676 0.041700233 -0.023828642 0.015866192
-0.07163511 -0.040821582 -0.038291723 -0.07556543 0.05283538 0.002940251 0.062424075 0.03192505
0.06210065 0.0725772 -0.019171182 -0.04285467 0.009790445 -0.056046735 -0.06292266 0.05330685
-0.074415974 -0.033222795 0.08224795 -0.04639787 0.044823427 0.06605556 0.022787204 0.059243184
-0.0056667035 0.09612658 -0.05001814 0.071508534 -0.038283434 0.10209574 -0.06517792 0.07937807
-0.0656647 -0.053278733 -0.051279597 -0.02111738 0.072354 0.06044153 -0.047702342 0.04444423
-0.04423639 -0.009411888 0.03961347 0.052621365 0.06176064 -0.001400084 0.055956353 -0.06605752
0.102106154 0.026698535 0.05929782 -0.07249488 0.07152135 -0.035511978 0.050059695 -0.051133055
0.06109319 -0.00630506 -0.06686012 0.08562627 0.049233366 0.019638978 0.044693656 0.068232566
-0.057899345 -0.037599843 -0.05641713 0.07389482 -0.08752019 0.026942458 -0.061065897 0.060033564
0.029146677 0.053586327 0.09419014 -0.052530777 0.051903408 0.055822514 0.0543807 0.022139834
-0.06158064 0.03828436 -0.07013118 0.06380503 -0.057837527 -0.035147112 0.03392025 0.020891182
0.059333786 0.0538373 0.0371655 0.049669553 -0.066367745 -0.050758667 -0.05613248 0.034981724
00000000: dc5b 79bd af43 43bd 4515 613d 4ff8 64bd
00000010: 4c24 a7bc 6c42 efbc 2ca2 3ebd bf87 8ebd
00000020: f2b5 a03c 2c70 8fbd 604b df3c 38d1 af3c
00000030: afac 51bd fdbf 9fbc a63b 183b ca42 53bd
00000040: 6662 133d f20d 7f3d 13ad 3bbd 6fcd 293d
00000050: bc65 8d3d 15a0 c1bd ce99 4ebd 7578 583d
00000060: 7735 97bc 7a26 90bd e3e0 87bd 0334 84bd
00000070: 96f1 42bd ddcd 2a3d 4934 c3bc d1f9 813c
00000080: 6eb5 92bd 8834 27bd c8d7 1cbd 0cc2 9abd
00000090: e969 583d 3ab1 403b 63b0 7f3d d7c3 023d
000000a0: 405d 7e3d 5ba3 943d e20c 9dbc 6188 2fbd
000000b0: 1a68 203c 4391 65bd 98dd 80bd 4958 5a3d
000000c0: 6767 98bd a014 08bd 9d71 a83d b10b 3ebd
000000d0: c598 373d 2348 873d 3bac ba3c fba8 723d
000000e0: c1af b9bb 03de c43d d2df 4cbd 1173 923d
000000f0: 17cf 1cbd 9217 d13d 007c 85bd f890 a23d
00000100: 377b 86bd cd3a 5abd 8e0a 52bd 5bfe acbc
00000110: 552e 943d 8a91 773d 8863 43bd 270b 363d
00000120: 3831 35bd 5234 1abc bc41 223d 8089 573d
00000130: baf8 7c3d 0683 b7ba 7d32 653d 2a49 87bd
00000140: 081d d13d e3b6 da3c 45e2 723d 3278 94bd
00000150: c979 923d 0275 11bd 650b 4d3d e570 51bd
00000160: da3c 7a3d ad9a cebb f5ed 88bd d35c af3d
00000170: eda8 493d ece1 a03c b210 373d 84bd 8b3d
00000180: dd27 6dbd 4b02 1abd a615 67bd 2b56 973d
00000190: c93d b3bd 6eb6 dc3c 3c20 7abd c1e5 753d
000001a0: 03c5 ee3c 567d 5b3d c3e6 c03d 832a 57bd
000001b0: ab98 543d 26a6 643d 4cbe 5e3d 995e b53c
000001c0: fb3b 7cbd 10d0 1c3d f0a0 8fbd 36ac 823d
000001d0: 0be7 6cbd 6bf6 0fbd f6ef 0a3d fc23 ab3c
000001e0: fc07 733d 8084 5c3d da3a 183d 4d72 4b3d
000001f0: d0eb 87bd 52e8 4fbd 2ceb 65bd ff48 0f3d

action_model._continuous_distribution.log_sigma f4 [1, 5]
-3.0463343 -2.6881096 -2.6321309 -1.1439294 -0.7518959
00000000: 24f7 42c0 fd09 2cc0 d574 28c0 476c 92bf
00000010: 407c 40bf

action_model._continuous_distribution.mu.weight f4 [5, 128]
-0.03768168 0.0019879898 0.04043783 -0.027756 -0.000265846 0.097514 -0.059388604 -0.059152618
-0.018278288 -0.02770369 0.029034056 -0.052932296 -0.05731742 0.06720981 -0.13736624 -0.018042289
0.051283237 0.00049890217 -0.012832246 0.009246342 -0.012471842 -0.036624093 -0.02864344 -0.025093883
-0.036697455 -0.032139882 0.0031747487 -0.024587026 -0.036906596 -0.041867588 -0.036444064 -0.04548475
-0.026369933 -0.038293347 0.01421195 -0.0015805264 -0.057304077 0.121782035 -0.0068991757 -0.083404735
0.009040839 0.04214071 -0.0776125 -0.016405791 -0.059380125 0.015484193 0.010120493 0.004382529
-0.002034841 -0.061211895 -0.007124707 -0.0465691 0.019496998 0.043150704 -0.03691847 0.054823883
0.033326175 0.049715724 -0.014399191 0.029955007 -0.024039727 0.042980395 -0.009122298 0.010623817
-0.018961595 -0.034683336 -0.04000548 0.06687707 0.0039933035 -0.014343714 -0.010962035 0.051599707
-0.041970458 0.04063329 -0.001372523 0.02381264 -0.006713033 -0.055342358 -0.016098237 -0.045826387
0.03648717 -0.007934253 0.019975293 -0.04768298 0.019053774 -0.014861114 0.040245738 -0.016421668
-0.0042057815 0.07010021 0.00083937857 0.05949317 -0.006212702 0.09051213 -0.06418462 0.011401605
-0.03980723 -0.037878208 -0.028903116 0.034732122 -0.027023667 -0.02049217 -0.042706873 0.031091902
0.011677798 0.026974253 0.05151924 -0.02169654 -0.009469767 -0.0035050954 -0.00025902424 0.030141933
0.014188191 0.025134416 -0.013758249 0.007725709 -0.028673207 -0.0018160447 0.022674302 -0.0038835814
0.008584654 -7.461792e-05 0.021882316 0.08358212 -0.032190867 0.0016467087 -0.03743409 0.063897744
-0.09640069 -0.07980706 0.024191929 -0.09003374 -0.0055238507 -0.030630583 -0.08918982 -0.09356191
0.027323447 -0.08158064 -0.018646996 0.031444773 -0.06893512 -0.13819629 0.17139699 -0.084217705
0.13451807 -0.0072932085 -0.08253992 -0.018253265 0.016625358 -0.06998432 -0.05762941 -0.0011709539
0.0064734244 -0.0898494 -0.13907586 -0.14268011 -0.106138095 0.028030667 0.08718166 0.03483389
-0.09311572 -0.104620196 -0.08083281 -0.10132216 0.06628515 -0.03017854 0.05272857 0.073539644
-0.0014764186 0.04030544 -0.006902455 -0.02769554 0.15231004 -0.00971597 -0.0019328225 0.06537344
-0.025835706 -0.1226912 0.08190866 -0.12603849 0.06157954 0.034759406 0.037271656 0.030870613
-0.047133468 0.07092316 -0.10886146 0.03620184 -0.10098429 0.066946104 -0.11880188 0.040377054
-0.11104302 -0.104115345 -0.09617044 -0.06633506 0.03891162 0.010695007 -0.07960401 0.0044881636
-0.088870265 -0.15346657 -0.0046475264 0.027222637 -0.0014679972 0.069943614 0.03767426 -0.1052856
0.05750121 -0.0072126924 0.03538666 -0.06097747 0.17410763 -0.007843516 0.017786793 -0.07744524
0.016547395 -0.098375 -0.07315038 0.04517509 0.014888145 -0.101300366 0.06471149 0.027090512
-0.12393265 -0.068419784 -0.06858807 0.020614175 -0.084243305 0.0019330749 -0.10433852 0.058245454
0.02939069 0.025147574 0.07586049 -0.08572351 0.004266044 0.0034287476 0.025440175 0.017951813
-0.04814625 -0.0052890885 -0.076068886 0.011183125 -0.07635528 0.008101792 0.011184137 0.0041173683
0.03112468 0.012486499 -0.002946117 -0.020034358 -0.10405266 -0.063191265 -0.1065139 0.11085073
00000000: 1b58 1abd ef48 023b 23a2 253d 8d60 e3bc
00000010: 3f61 8bb9 6cb5 c73d 7741 73bd 044a 72bd
00000020: 59bc 95bc d9f2 e2bc d4d8 ed3c 89cf 58bd
00000030: acc5 6abd 4ca5 893d bca9 0cbe 6ccd 93bc
00000040: 5f0e 523d c2c8 023a 573e 52bc f87d 173c
00000050: b256 4cbc 2503 16bd a6a5 eabc b091 cdbc
00000060: 1250 16bd 1ca5 03bd 720f 503b bb6a c9bc
00000070: 5f2b 17bd 597d 2bbd 5f46 15bd 384e 3abd
00000080: c205 d8bc 7cd9 1cbd 3dd9 683c aa29 cfba
00000090: aeb7 6abd dc68 f93d 7b12 e2bb 1ad0 aabd
000000a0: 0720 143c bd9b 2c3d 4df3 9ebd 7065 86bc
000000b0: 9338 73bd 6ab1 7d3c 6dd0 253c 519b 8f3b
000000c0: f85a 05bb 53b9 7abd 6076 e9bb 3ebf 3ebd
000000d0: 2bb8 9f3c cbbe 303d d237 17bd 028f 603d
000000e0: 0781 083d b7a2 4b3d 96ea 6bbc 3464 f53c
000000f0: f6ee c4bc 360c 303d b175 15bc 850f 2e3c
00000100: 5955 9bbc 1d10 0ebd c9dc 23bd d8f6 883d
00000110: 42da 823b e601 6bbc 1b9a 33bc 375a 533d
00000120: 37e9 2bbd 186f 263d 3be6 b3ba ba12 c33c
00000130: 01f9 dbbb abae 62bd 73e0 83bc 73b4 3bbd
00000140: 9273 153d abfe 01bc 3aa3 a33c 3a4f 43bd
00000150: a916 9c3c 087c 73bc b7d8 243d bc86 86bc
00000160: a7d0 89bb b390 8f3d be09 5c3a 1caf 733d
00000170: ec93 cbbb 6c5e b93d 3a73 83bd cccd 3a3c
00000180: e80c 23bd 2e26 1bbd 3ac6 ecbc 4543 0e3d
00000190: bd60 ddbc 32df a7bc 67ed 2ebd 72b4 fe3c
000001a0: 3c54 3f3c 1cf9 dc3c d705 533d f1bc b1bc
000001b0: 1527 1bbc beb5 65bb a5cd 87b9 37ec f63c
000001c0: 9675 683c b1e6 cd3c 476a 61bc f227 fd3b
000001d0: 13e4 eabc 5908 eeba 75bf b93c af83 7ebb
000001e0: a6a6 0c3c 317c 9cb8 8b42 b33c 1a2d ab3d
000001f0: 92da 03bd 60d6 d73a 7d54 19bd d2dc 823d
00000200: ba6d c5bd e271 a3bd 272e c63c 9c63 b8bd
00000210: 6b01 b5bb fdec fabc 27a9 b6bd 639d bfbd
00000220: 6cd5 df3c c013 a7bd 96c1 98bc 3ccc 003d
00000230: db2d 8dbd 5483 0dbe b182 2f3e 557a acbd
00000240: 1bbf 093e defb eebb b10a a9bd df87 95bc
00000250: e731 883c f053 8fbd d10c 6cbd b17a 99ba
00000260: 051f d43b f602 b8bd e769 0ebe bc1a 12be
00000270: ee5e d9bd 92a0 e53c 4c8c b23d fbad 0e3d
00000280: 74b3 bebd 1d43 d6bd ac8b a5bd fe81 cfbd
00000290: 82c0 873d fc38 f7bc eaf9 573d f49b 963d
000002a0: 6384 c1ba 5117 253d fd2d e2bb c2e1 e2bc
000002b0: 2af7 1b3e bb2f 1fbc c356 fdba 83e2 853d
000002c0: 67a5 d3bc 8645 fbbd babf a73d 3c10 01be
000002d0: d43a 7c3d e15f 0e3d 2aaa 183d 5ee4 fc3c
000002e0: 060f 41bd 2940 913d c2f2 debd 6148 143d
000002f0: dad0 cebd 0a1b 893d 664e f3bd 6962 253d
00000300: 866a e3bd 6d3a d5bd 02f5 c4bd adda 87bd
00000310: ca61 1f3d 1c3a 2f3c 6d07 a3bd 7211 933b
00000320: 9d01 b6bd 5726 1dbe 474a 98bb 0202 df3c
00000330: d069 c0ba 993e 8f3d 5350 1a3d fa9f d7bd
00000340: 6486 6b3d 7358 ecbb 9af1 103d 83c3 79bd
00000350: 4549 323e 1782 00bc 9cb5 913c 9c9b 9ebd
00000360: 678e 873c d578 c9bd decf 95bd 8409 393d
00000370: 68ed 733c 9176 cfbd 7587 843d ecec dd3c
00000380: 67d0 fdbd ac1f 8cbd e777 8cbd 0fdf a83c
00000390: c187 acbd 3b5f fd3a 6faf d5bd c992 6e3d
000003a0: bfc4 f03c 4902 ce3c bf5c 9b3d cf8f afbd
000003b0: 2cca 8b3b d7b4 603b ea67 d03c ae0f 933c
000003c0: 0135 45bd 1750 adbb 01ca 9bbd 6d39 373c
000003d0: 2860 9cbd 61bd 043c ac3d 373c fdea 863b
000003e0: 2ff9 fe3c 2c94 4c3c a413 41bb 181f a4bc
000003f0: 9019 d5bd 6c6a 81bd f623 dabd b505 e33d

action_model._continuous_distribution.mu.bias f4 [5]
0.04231662 0.07968966 -0.037842315 -0.11909662 0.080409765
00000000: 3154 2d3d 5534 a33d 8b00 1bbd eee8 f3bd
00000010: e0ad a43d

critic.network_body.linear_encoder.seq_layers.0.weight f4 [128, 19]
-0.4812018 0.00033283484 -0.4007006 0.27489787 0.016007213 -0.0076720095 -0.2511815 -0.13910651
0.49581474 0.43734145 -0.15420257 0.29541656 0.2720373 0.15470839 0.28497708 -0.12660648
-0.28835538 -0.0977051 0.4733304 -0.2082458 0.23687692 0.21051326 -0.26159456 0.063494585
-0.20574178 0.14100546 0.23213068 -0.0398242 0.2951982 -0.22989658 0.059115026 -0.100635484
0.07874573 0.6096438 -0.31509566 0.019776087 -0.78315437 -0.5472331 -0.1664045 -0.41157612
0.098468155 0.29184982 -0.055711213 -0.4211372 0.04102022 0.49247572 -0.27625892 -0.5811272
0.5964207 0.27360675 0.43981326 0.40832788 -0.28268254 -0.6223313 0.32129687 -0.25069225
-0.4538307 -0.19418663 -0.27170992 -0.0068935007 0.3233414 -0.17518707 0.4247258 0.015795255
0.11843087 0.1392858 0.5077598 -0.4426697 0.4673477 -0.03832677 0.1195996 0.09128323
0.044726714 -0.37541163 0.08603338 -0.45304465 -0.10076723 0.07120455 -0.09622915 -0.078459024
-0.18476479 0.4841556 -0.078499675 -0.23946002 0.21519314 0.035115115 -0.1696123 -0.022897057
0.06898197 -0.19379532 -0.3140308 -0.31871867 -0.13661537 -0.2020272 -0.51873636 0.119862065
-0.10228728 0.21114317 0.033129677 -0.3672127 0.19290373 0.21164979 -0.110917546 0.25246876
0.12339727 -0.34164473 0.03584071 0.097760454 -0.046009853 0.2227969 -0.14383326 0.03326835
0.82977307 -0.06957718 -0.427075 0.39945152 0.053669576 0.0137754455 -0.11579069 0.20254456
-0.2003692 0.111425236 0.019565871 0.5670226 -0.3487766 0.26341555 0.11777431 -0.12551527
-0.49474037 -0.01314852 0.27388254 0.026065962 -0.42429903 -0.010084894 0.4547272 -0.0003114016
0.44721815 -0.19614269 0.3771394 -0.07308505 -0.027911527 0.13788998 -0.11558865 -0.19066231
0.34175375 -0.049160454 0.2837682 0.6621893 0.46959752 -0.16284652 0.2197457 -0.27813897
0.31343365 -0.11845834 0.12520276 -0.04910103 0.31125036 -0.08860494 0.101049855 0.04029005
0.04563111 -0.09438101 -0.2817649 -0.2618321 0.24828751 0.11752603 0.11604302 0.60938907
-0.50012606 0.5157451 -0.22307067 -0.20515107 -0.29702395 -0.21217586 -0.03253747 0.0006622163
-0.11883511 0.039153375 0.008214747 0.1921995 0.48626158 -0.34091905 -0.02747958 -0.04773041
-0.24438463 0.5955453 0.095558934 -0.30541584 -0.4584855 -0.24390341 0.086998835 -0.2760216
-0.012647212 0.18053737 -0.0695896 0.18550332 0.018076865 0.24324283 -0.09762658 0.11803515
-0.10141938 0.128593 0.14038157 0.32945374 -0.34412593 -0.33449662 -0.19395676 0.6138924
-0.24609783 -0.47538176 0.111140706 0.2773296 0.0044382163 0.04645975 0.0037478493 0.42778882
-0.32981023 0.2809033 0.3528045 0.17631824 0.113363996 -0.2804036 0.034353532 -0.24232265
0.10758497 0.658008 -0.32786784 -0.20131345 0.19322316 0.5026873 0.22086106 -0.19903475
-0.54402035 -0.03688119 -0.33127892 0.0575251 -0.49114323 0.2965298 -0.057402454 -0.062416114
0.06983139 -0.05630079 -0.147423 0.104966044 -0.23014575 0.078387015 -0.00383594 -0.40752357
-0.44368765 0.24375719 0.13768159 -0.20889808 0.37700805 0.17286265 0.31396788 0.06634778
00000000: 1560 f6be 5680 ae39 a128 cdbe 6abf 8c3e
00000010: 8f21 833c 7b65 fbbb dd9a 80be f071 0ebe
00000020: 6edb fd3e 38eb df3e 47e7 1dbe d740 973e
00000030: 7948 8b3e e06b 1e3e 84e8 913e 21a5 01be
00000040: 51a3 93be 9d19 c8bd 5d58 f23e 633e 55be
00000050: dd8f 723e ca90 573e b9ef 85be 7309 823d
00000060: f9ad 52be bc63 103e aab3 6d3e b31e 23bd
00000070: 3824 973e 026a 6bbe 9922 723d fa19 cebd
00000080: 7145 a13d 9e11 1c3f 3854 a1be 7601 a23c
00000090: ce7c 48bf 7817 0cbf f165 2abe 1bba d2be
000000a0: aca9 c93d 576d 953e 7131 64bd 4c9f d7be
000000b0: d104 283d c725 fc3e cf71 8dbe c1c4 14bf
000000c0: 07af 183f 2f16 8c3e 342f e13e 5a10 d13e
000000d0: c4bb 90be 1b51 1fbf 0681 a43e bc5a 80be
000000e0: 7f5c e8be dcd8 46be 901d 8bbe e0e2 e1bb
000000f0: 018d a53e 3d64 33be a975 d93e 0d65 813c
00000100: e28b f23d f0a0 0e3e 8cfc 013f 9aa5 e2be
00000110: 3348 ef3e 88fc 1cbd a3f0 f43d b4f2 ba3d
00000120: 5c33 373d f435 c0be 4532 b03d 78f5 e7be
00000130: 0d5f cebd b1d3 913d ca13 c5bd 20af a0bd
00000140: fb32 3dbe 3ee3 f73e 70c4 a0bd 0235 75be
00000150: 975b 5c3e ded4 0f3d d9ae 2dbe 9c92 bbbc
00000160: 6b46 8d3d 4872 46be a5c8 a0be 182f a3be
00000170: e6e4 0bbe 38e0 4ebe e8cb 04bf 3e7a f53d
00000180: fe7b d1bd ea35 583e fcb2 073d 4e03 bcbe
00000190: 8e88 453e b9ba 583e bd28 e3bd 9643 813e
000001a0: b5b7 fc3d 0fec aebe b5cd 123d a236 c83d
000001b0: d474 3cbd df24 643e 0749 13be 6544 083d
000001c0: 026c 543f 7b7e 8ebd 93a9 dabe e984 cc3e
000001d0: a1d4 5b3d 68b2 613c ab23 edbd d767 4f3e
000001e0: 952d 4dbe ea32 e43d 9b48 a03c 6528 113f
000001f0: d992 b2be 67de 863e a833 f13d 1387 00be
00000200: 9c4e fdbe e46c 57bc 553a 8c3e 4988 d53c
00000210: b93d d9be 1c3b 25bc 01d2 e83e 9e43 a3b9
00000220: c7f9 e43e a1d9 48be 6a18 c13e 9dad 95bd
00000230: b7a6 e4bc 0833 0d3e beb9 ecbd fb3c 43be
00000240: 59fa ae3e 795c 49bd 114a 913e 3d85 293f
00000250: 166f f03e 3dc1 26be 0405 613e 3b68 8ebe
00000260: 607a a03e 499a f2bd 2735 003e 291e 49bd
00000270: 355c 9f3e 8276 b5bd 3af3 ce3d 2e07 253d
00000280: b0e7 3a3d d54a c1bd 7d43 90be db0e 86be
00000290: 153f 7e3e 7db1 f03d f6a7 ed3d ec00 1c3f
000002a0: 4308 00bf df07 043f a36c 64be 1f13 52be
000002b0: 8613 98be a144 59be 0346 05bd 9598 2d3a
000002c0: d25f f3bd 4a5f 203d 2597 063c f2cf 443e
000002d0: 47f7 f83e f18c aebe db1c e1bc f680 43bd
000002e0: f73f 7abe a875 183f 67b4 c33d 775f 9cbe
000002f0: 9dbe eabe d1c1 79be 722c b23d b452 8dbe
00000300: 4036 4fbc cade 383e fe84 8ebd 95f4 3d3e
00000310: ef15 943c a614 793e 72f0 c7bd 6abc f13d
00000320: f7b4 cfbd e2ad 033e 30c0 0f3e 29ae a83e
00000330: 4631 b0be 2443 abbe 9a9c 46be 0d28 1d3f
00000340: 1201 7cbe 3d65 f3be bd9d e33d 25fe 8d3e
00000350: 756e 913b 944c 3e3d 7a9e 753b 2307 db3e
00000360: e3dc a8be 8fd2 8f3e cba2 b43e c58c 343e
00000370: 622b e83d 1091 8fbe 4ab6 0c3d 6e23 78be
00000380: 8255 dc3d 3673 283f 4bde a7be 1d25 4ebe
00000390: 4bdc 453e 1db0 003f 6729 623e c4cf 4bbe
000003a0: eb44 0bbf bb10 17bd 649d a9be 709f 6b3d
000003b0: 2077 fbbe c1d2 973e d61e 6bbd 0aa8 7fbd
000003c0: c303 8f3d a89b 66bd 0ef6 16be 70f8 d63d
000003d0: 54ab 6bbe 5f89 a03d 6564 7bbb eea6 d0be
000003e0: 072b e3be 7c9b 793e 67fc 0c3e 61e9 55be
000003f0: 3307 c13e e802 313e 66c0 a03e 58e1 873d

critic.network_body.linear_encoder.seq_layers.0.bias f4 [128]
0.103610404 0.13719273 0.22280414 0.10815399 0.120314814 -0.008742966 0.098935075 0.114670224
0.060056835 0.14706169 0.12987983 0.14964347 0.073626265 -0.36922392 0.13187724 0.08339493
-0.024659613 -0.0062349886 0.11172498 -0.030354947 0.046096627 0.07044222 0.008358268 0.098757334
0.024947198 0.02273898 0.0038386916 0.13819622 0.06833952 0.022849178 0.013982685 0.07697155
0.14800112 0.0041590254 0.2709595 0.14140089 0.079093546 0.12069911 -0.02212985 0.099441126
0.056603715 0.07610134 0.19240631 0.078424625 0.114679664 -0.004591114 0.11860286 -0.013817075
0.050081193 -0.03273089 0.10030053 0.1272277 0.08126993 0.029017637 -0.05208248 -0.0056838403
-0.030011324 0.10626057 0.06646463 0.08510232 0.047795635 0.048856575 -0.024680603 0.118748784
0.10229228 0.048454046 0.17413218 0.09442103 0.03722719 -0.05866577 0.07178564 0.028975874
0.10760549 0.06016879 0.13248153 0.12953334 0.054835305 0.069858484 0.122059666 0.04922918
-0.024110133 0.092695974 0.038865972 0.15745874 0.051087707 0.020314882 0.14642704 0.08329972
0.09127989 0.13295126 0.09924464 0.10031371 -0.016824499 0.061584223 -0.06231535 0.15763299
0.059566673 0.08223828 0.024158075 0.0635967 0.09600159 0.14178614 0.08493548 0.19725809
0.008098404 0.10123218 -0.01944038 0.09195239 0.03590673 0.055380836 0.07532063 -0.02497103
-0.015429663 0.02638736 0.00016374265 0.10114695 -0.030662697 0.11412771 0.11864029 -0.028963955
0.13837501 0.13211729 0.07793121 -0.010516566 0.034531794 -0.029835155 -0.005519839 0.11284724
00000000: b131 d43d 407c 0c3e c526 643e d77f dd3d
00000010: 9d67 f63d a83e 0fbc 799e ca3d 39d8 ea3d
00000020: 28fe 753d 5797 163e 38ff 043e 233c 193e
00000030: 5ec9 963d eb0a bdbe d40a 073e f6ca aa3d
00000040: f502 cabc e04e ccbb 11d0 e43d f0aa f8bc
00000050: d1cf 3c3d 0344 903d 1ef1 083c 4941 ca3d
00000060: 115e cc3c 1947 ba3c 8f92 7b3b 4f83 0d3e
00000070: 97f5 8b3d 332e bb3c a217 653c 43a3 9d3d
00000080: 9b8d 173e 6f48 883b 34bb 8a3e 65cb 103e
00000090: ccfb a13d 1831 f73d a949 b5bc caa7 cb3d
000000a0: 4cd9 673d 05db 9b3d 2906 453e 179d a03d
000000b0: 2cdd ea3d 0e71 96bb 0ee6 f23d 0361 62bc
000000c0: f021 4d3d d310 06bd 5d6a cd3d fa47 023e
000000d0: d970 a63d 65b6 ed3c 7054 55bd 823f babb
000000e0: 4fda f5bc 249f d93d 9c1e 883d 204a ae3d
000000f0: 5bc5 433d d51d 483d fa2e cabc 9032 f33d
00000100: 9d7e d13d c077 463d b54f 323e d05f c13d
00000110: 8a7b 183d 854b 70bd 5a04 933d d05e ed3c
00000120: 4460 dc3d 8d73 763d 3da9 073e 63a4 043e
00000130: fc9a 603d f711 8f3d 6bfa f93d 89a4 493d
00000140: 9d82 c5bc 63d7 bd3d ed31 1f3d dd3c 213e
00000150: 5841 513d 656b a63c f8f0 153e 0b99 aa3d
00000160: f3f0 ba3d 6024 083e c640 cb3d 4671 cd3d
00000170: 88d3 89bc bd3f 7c3d 613e 7fbd 8b6a 213e
00000180: 2ffc 733d 8b6c a83d 28e7 c53c fd3e 823d
00000190: 7b9c c43d 6330 113e a7f2 ad3d 06fe 493e
000001a0: 2baf 043c d152 cf3d 6f41 9fbc 8951 bc3d
000001b0: ef12 133d 04d7 623d b441 9a3d 0c90 ccbc
000001c0: b2cc 7cbc 4e2a d83c 55b2 2b39 2226 cf3d
000001d0: 5630 fbbc cabb e93d aef9 f23d d145 edbc
000001e0: 2eb2 0d3e c149 073e 669a 9f3d ad4d 2cbc
000001f0: 3671 0d3d db68 f4bc c4df b4bb 741c e73d
