results/rdesktop_run_001/Robotarm/Robotarm-499992.pt (torch, 884223 bytes, 48 tensors)

network_body.linear_encoder.seq_layers.0.weight f4 [128, 19]
00000000: 56ae e7be 90be a5be 0b45 e43e faaf 213d
00000010: 40bd c63e b296 253c 01ee 9e3c c648 7e3e
00000020: 6709 d7bd ac98 edba 3c2e 89be cdd4 b5be
00000030: 992d 95be 62c6 f63e be3a 84be 5fb3 55be
00000040: 1fcf 18bd b40d a73e f0df e9bc a38e 943d
00000050: 85f4 00bf 373b febd e142 e03e 589e 393e
00000060: 8d44 ebbe 05ae 273e 6f15 523d 6f02 9cbe
00000070: a6f9 e53c f0db 2e3d cf57 94be 058f 833c
00000080: 6061 1cbe 526a a53e 5869 633e ca4d 9a3d
00000090: 41c5 9abe fd83 a93c 4da5 70be de81 71be
000000a0: 13c9 e7bd aca4 7a3e bada 37be 0732 0e3d
000000b0: bf57 90be 3a73 efbe 4474 6b3e fbae 723e
000000c0: 6dd1 f3bd 6424 cebc 79e8 dd3d 76e4 093f
000000d0: 0089 b7bd 0714 ee3d 5125 e5bd 7427 a1be
000000e0: 33c7 96bd 2ee1 10bd 99c0 2bbe 971a 123e
000000f0: e28d fc3d 069d 093e 6583 533e 4d23 fabb
00000100: 0528 51bd f05a c63d fc0a b5be 444f 693e
00000110: 533e 06bf 478c 553e 4a57 ecbd 4426 8e3d
00000120: 6b7a 9ebd 7c69 d0bd 5ad3 db3e a2e7 f53d
00000130: e3e5 53bd 47af 113e b62e 5bbe 67f6 5dbe
00000140: baa4 fb3d 9de8 97bd 768a a5be 8783 80be
00000150: 9692 123e 5805 38be 2999 50bd 3ef2 8bbe
00000160: af1a 1fbe 9672 c2be e324 493e 322a e93c
00000170: a481 b43e d1f0 4b3e e9ce 843d 5a3b 83bc
00000180: b8d4 dabe 228a bd3e 2481 c73e 1e10 0c3e
00000190: ae2f 413d d725 a03d 6336 093e e3ee 043e
000001a0: 79d4 2f3e aafe aabe deb6 2bbe 9589 b1bd
000001b0: 1937 ebbd 21cd 56bd 5af4 d9bd 9a07 83bd
000001c0: 1ea7 06be abac 983e f3b2 4bbe 7a3d e6bd
000001d0: 5fa7 f7bc f004 093e 515e e43d 3eab de3e
000001e0: f5d7 6f3c c5b0 8d3e 6e91 723d 41cf da3d
000001f0: 4e62 4abe 07d1 603e aac2 a0be 056f ea3e
00000200: 1d9c f53d 58b0 c7bd 1426 a63d fc95 bfbd
00000210: 7c75 913d f52b 7a3d 5907 2b3d 47e7 c8be
00000220: efb9 39bd 7b50 36be 9a35 aa3e 0f8b bdbb
00000230: e9e5 8c3e 0f91 b4be b09e 01bd 6dbd 1dbe
00000240: edfe db3d dc4b 6ebd 23fd 87be e05b b83e
00000250: 3c47 ddbe 56d4 b23e c2f3 36bd 0077 9bbe
00000260: 97a2 0a3e e11b f2bb 342f a53d 8c9a a13e
00000270: d76e f5bd 1887 19bf 6b99 7ebb 441f 873e
00000280: c763 30be 5041 a03d 0a1e cf3d 5d14 cbbe
00000290: 4bab 7abe 7094 713e 22cc a23d 742c b7be
000002a0: 6955 d03e 52dc e73e 0cc1 293f bea2 ec3c
000002b0: 224e 8a3e 8df0 59be 610d 0cbd 08ee 90be
000002c0: 212d a63e b5c2 d5bd 5a62 05be ccaa eabd
000002d0: 813b 573e 6c5e 813e 8212 bd3e a224 8d3c
000002e0: 8f47 febd 6da7 bf3d 2773 bf3e bf6b d53d
000002f0: aa30 903d 9a69 c63e 2029 963e 3abc d4bc
00000300: 15de aebd b79a fabe bcca 963d e477 143e
00000310: 5db7 413e 4e89 b63c cd23 303e 7520 2a3e
00000320: 19e9 4ebf b8dd 12be e565 2cbe 6a49 4dbe
00000330: dca6 e03e b022 20be 26ea 11be 38e0 49be
00000340: dc25 7bbd ad17 55be 011c 88be f158 b1bc
00000350: 5d16 a53e 9fa3 1c3e fb33 21be b401 573e
00000360: 3dd2 973d 9921 e1bd 1abb 203e ed14 bf3d
00000370: fd51 1a3e 5b2e b23d 0d81 fdbc ebc9 053d
00000380: 8ce7 a8bd 561c 12bf 6cc9 17be f9c4 55be
00000390: 4a38 85be aa34 a4bd 3291 fe3d 8ffc 01bd
000003a0: 0d85 373e a020 4d3d 781e f93e 5ea4 8e3e
000003b0: 4578 8dbd c178 74be af2c bfbe 8e72 453e
000003c0: 7245 70be c223 43be 882e 8ebe ee4c ee3c
000003d0: 94bb 9cbe 7143 26be 6658 abbe 9d6a bcbe
000003e0: edb1 5cbe a313 bfbe 1501 023e bbb1 4abd
000003f0: 2bde bcbb 049b 2ebc 137b 8cbd e4a2 973e
-0.45250195 -0.3237195 0.44583926 0.039474465 0.3881626 0.010106729 0.019400598 0.24832448
-0.1049984 -0.0018127165 -0.26793087 -0.35513917 -0.2913635 0.4819823 -0.25826067 -0.20869206
-0.0373069 0.32627642 -0.028549165 0.07253768 -0.5037311 -0.12413638 0.43801025 0.1812681
-0.45950738 0.16374977 0.051289972 -0.30470607 0.028073143 0.042690217 -0.28973243 0.016059408
-0.1527152 0.32307678 0.22208154 0.07534368 -0.30228618 0.02069282 -0.23500557 -0.23584697
-0.11317649 0.2447688 -0.17954531 0.03471568 -0.28191945 -0.46767598 0.2299357 0.23699562
-0.11905179 -0.025163837 0.10835356 0.5386423 -0.089616776 0.11624914 -0.11188758 -0.31475413
-0.07362213 -0.035370998 -0.16772689 0.14267956 0.123317495 0.13438806 0.20655592 -0.0076336027
-0.051063556 0.09685314 -0.35359943 0.22784144 -0.5243885 0.20854293 -0.115400866 0.06940892
-0.07738193 -0.101763695 0.42934686 0.12007071 -0.05173291 0.14227019 -0.21404538 -0.21676026
0.122872785 -0.07417414 -0.323322 -0.25100347 0.1431373 -0.17970788 -0.050927315 -0.27333254
-0.15537523 -0.37978047 0.19642977 0.028462503 0.35255158 0.19916083 0.064847775 -0.016019512
-0.42740417 0.3701945 0.38965714 0.13678023 0.04716461 0.078197174 0.13399653 0.12981753
0.17170896 -0.33397418 -0.16768977 -0.0866882 -0.114851184 -0.05244172 -0.106423095 -0.06397934
-0.13149688 0.29819235 -0.19892482 -0.112421945 -0.030231176 0.1338079 0.11150802 0.43490022
0.0146388905 0.27673927 0.059220724 0.10684062 -0.19764063 0.21954738 -0.31398517 0.45787826
0.11992667 -0.09750432 0.081127316 -0.09354779 0.071024865 0.061077077 0.041755054 -0.3923895
-0.045343336 -0.17804138 0.3324402 -0.0057843993 0.27519158 -0.3526692 -0.031645477 -0.15404291
0.107419826 -0.058177814 -0.26560315 0.36007595 -0.4321841 0.34927624 -0.04466606 -0.30364227
0.13538586 -0.0073885773 0.08065644 0.31563222 -0.11984032 -0.5997176 -0.0038848768 0.2639104
-0.17225562 0.07824957 0.10113151 -0.39663973 -0.24479406 0.2359178 0.079490915 -0.35776103
0.40690163 0.4528528 0.6631019 0.028886195 0.27012736 -0.21283169 -0.034192447 -0.28306603
0.32456306 -0.10437528 -0.130258 -0.11458358 0.21018793 0.2526735 0.36928183 0.017229382
-0.124159925 0.09358106 0.37392542 0.104209416 0.07040532 0.38752443 0.2932825 -0.02596866
-0.085384525 -0.48946163 0.07362887 0.1449886 0.18917604 0.022282269 0.17201157 0.16613944
-0.8082443 -0.14342391 -0.16835745 -0.20047536 0.43877304 -0.15638232 -0.14249477 -0.19714439
-0.061315402 -0.20809813 -0.26583865 -0.021648856 0.32243624 0.15296791 -0.15742485 0.20996743
0.07413147 -0.10992736 0.15696374 0.09330163 0.15070339 0.08700248 -0.030945325 0.032663267
-0.08247289 -0.5707449 -0.1482293 -0.2087592 -0.26019508 -0.080178574 0.124300376 -0.031735
0.17921849 0.05007994 0.48656058 0.27859777 -0.06907705 -0.23874189 -0.37338778 0.1928198
-0.23463991 -0.1905661 -0.27769876 0.029089417 -0.3061186 -0.16236664 -0.3346588 -0.3680009
-0.21552248 -0.3731967 0.12695725 -0.049485903 -0.005763789 -0.010657076 -0.06859412 0.29616463

network_body.linear_encoder.seq_layers.0.bias f4 [128]
00000000: fe45 cb3c 5f60 953d 224d 83bd d4be 00bd
00000010: 271e 543d 944a 27bd 426b 063a c13f a73d
00000020: 4945 0f3d 8932 c13d d5ac cf3d e8eb 1ebd
00000030: a395 65bd ba09 d6bb d3e0 043d f956 d9bc
00000040: 4e13 0b3e a1d8 b63d 23d7 08be f810 acbc
00000050: ee3c 783c 559a 0d3d 88c5 013e 815e 943d
00000060: a118 5f3d b876 82bd d4d1 7b3d 0726 2fbe
00000070: 275b 2e3d bb29 9f3d 09dc 3dbe 800a 823d
00000080: 2f1b babd 692a df3d 61eb 0d3b 282d 8e3d
00000090: 1822 dabc add0 823d 5fdf 6b3d 776f babc
000000a0: 1c4e 723d f6f0 9b3d 3b67 693d ae72 843d
000000b0: bf1c b7bd 2440 0cbe c6ca c7bd 6a77 823d
000000c0: 1f9b ca3d 550e a63d a6b0 743d 7ee2 eb3d
000000d0: 16af 7e3d cab1 563d 5b5e 1c3d fc42 633d
000000e0: 4f32 7ebd 32e5 813d 44f2 913d 6f2b 7c3d
000000f0: e425 0c3e c422 893d f67d ba3d 029c c6bb
00000100: a3b8 7d3d a074 c93d e379 603d 2071 b73d
00000110: b1a3 a53c 49a2 a13d 2642 a03d e70a 1bbc
00000120: c2b5 ed3c 8802 9f3a 2f6b 9e3d c2d7 d5bd
00000130: 7e92 38bd 4679 023e ec20 bf3c 0015 87bd
00000140: 19e9 c23d 1686 853b 1293 8e3d b8ba aabb
00000150: 75c0 8bbd 880c 8e3d 0ac9 bebc 4b5a e1bc
00000160: 3fba b93b 8d16 793d 5320 40bd c21b bf3d
00000170: 0fdd 51bd 7fd7 cdba 9172 1abe 661f d3bc
00000180: 13db 2e3e 7c57 b9bd 3a38 543d 7241 1dbc
00000190: 0bff 753d 7ee5 cc3d 95f0 613c ab43 323d
000001a0: 5f51 083d 3d23 993d 36d6 9e3d 97d5 8e3d
000001b0: 68b2 6abd ea66 633d 0006 a23d 5481 ba3d
000001c0: b90b 893d 1231 a3bb c96e 843d 8ab7 ec3d
000001d0: 4548 67bd e903 513d e252 9dbd 14d5 13be
000001e0: 2d02 8f3d b985 873d 0c34 9a3d 2016 883d
000001f0: 1a00 b33d 6ab2 c7bc d1c8 53bc 627b a63d
0.024813648 0.07293772 -0.06411196 -0.031431988 0.051786568 -0.040842608 0.0005127677 0.08166457
0.034978185 0.09433467 0.10140387 -0.038799196 -0.056050908 -0.006531921 0.03244097 -0.02653073
0.13581583 0.089280374 -0.13363318 -0.021004185 0.0151512455 0.03457101 0.12673008 0.07244588
0.054466847 -0.063703 0.061479405 -0.1710435 0.0425674 0.07771631 -0.18540968 0.06349659
-0.09087216 0.10896761 0.002165519 0.069422066 -0.026627585 0.06387458 0.05758607 -0.022758229
0.059156522 0.07614319 0.056983214 0.06467186 -0.0894103 -0.13696343 -0.09755473 0.06370433
0.09892868 0.08108202 0.059738778 0.11517809 0.062178694 0.052415647 0.038175922 0.055483803
-0.062059697 0.06342544 0.071262866 0.06156486 0.13686329 0.06696084 0.091060564 -0.006061078
0.06194366 0.098366976 0.05480374 0.08957124 0.020219656 0.078922816 0.07825117 -0.009463049
0.029017333 0.0012131492 0.077352874 -0.10441543 -0.04506158 0.12741575 0.023331128 -0.06595802
0.09517116 0.004074822 0.06961645 -0.005210247 -0.06823818 0.06935984 -0.023289222 -0.027508875
0.005667954 0.06081252 -0.046905827 0.09331466 -0.05123621 -0.0015704482 -0.15082766 -0.025771808
0.17075758 -0.090498894 0.051811434 -0.009598123 0.06005768 0.1000471 0.013790269 0.043521564
0.033280727 0.07477424 0.07755701 0.06974333 -0.057299048 0.05551807 0.07911301 0.09106699
0.06691689 -0.004980215 0.06466443 0.11558445 -0.056465406 0.05102912 -0.07681824 -0.14436752
0.06982837 0.066173024 0.075294584 0.06644845 0.08740254 -0.024377067 -0.012926296 0.08129002

network_body.linear_encoder.seq_layers.2.weight f4 [128, 128]
00000000: 6384 c53c f14e 90bd a8bc 393d 6c43 073d
00000010: 4764 5b3e 1f2c d9bd 3eb0 613d dbaa 0b3e
00000020: 7a89 b13d 9e8e a0bd 74a6 8a3d bb25 24be
00000030: ea88 18be dff1 943e f3e5 09be 8cb6 1f3d
00000040: b849 02be e234 2d3e fbdc 443d 33e6 083e
00000050: 4102 cb3d 8b74 24be 67d9 c23b 1dcb 04be
00000060: 0fb0 053e 5c35 a23d 5115 fb3c 5f71 423d
00000070: 0c1d 743d a168 0e3b 492b 503d d055 23be
00000080: 4587 e43d 013a 9ebc ef50 5ebb 1ffc cf3d
00000090: 40cc 9c3d e2b0 6f3d fb34 cb3d 2590 69bc
000000a0: 93d8 e73d 0a80 843d 1210 013c 9eb9 d63c
000000b0: 9f05 8bbc c672 c53c 9b36 10bd 2fc8 8abb
000000c0: 1f5e 06be 57d5 96bd ad90 b33d b33c ab3d
000000d0: 0c5e 5f3e 8621 d33d e4ec 8dbc 124e 9f3d
000000e0: d33e 373d 62aa 6e3d a5e0 07bd 46bf 4a3e
000000f0: 9559 8b3d 29da 52bc 3dff 093d 5d44 02be
00000100: 0667 0d3e 01b7 863d ecf7 3f3e a3f1 aa3d
00000110: b905 a5bd bd9b b4bd 9e01 383e 0ef1 afbd
00000120: 5117 e2bd d3cf 463a f36e 763e ec30 2abe
00000130: 4e0e 49be d83e 133e 03fc a93c 551b 83bc
00000140: 6250 fbbd 072e 4c3c 129a b9bc bd5d 913d
00000150: 9e04 40ba 0647 5cbd 7f51 68bc 3c0c bb3c
00000160: 03a1 963b b0da c13b 3357 f3bd 0d48 c33d
00000170: dd5f b3bb 5698 d33c aae2 923c 219e 86bd
00000180: d66d 913d f0b3 433d aafd 66bb 066f 6cbd
00000190: e60f 78bd d766 323e c1ee 15be 4e35 0fbc
000001a0: 2460 223d 4d87 0b3c 767a 833e d8ec 523c
000001b0: 8a94 80be a6a3 103e d659 8fbd ec32 0dbd
000001c0: 2d58 f83a 673e 47be ea94 20be 711d 06bd
000001d0: 0aeb 4cba d7d7 013e ba3d 203e 7102 45bc
000001e0: 2538 1b3b c933 4c3e 6187 19be f68b fe3c
000001f0: 671a 89bc cad1 6cbe 57b7 5e3d 5ada f9bd
00000200: 102c f8bc 5aee ffbd ca14 373e 4139 12be
00000210: a8f3 a83c d161 973e be84 2e3d af9d 36be
00000220: 2d7f 883d e3e8 35bd be83 c2bc 013c d03d
00000230: c5a6 843e 94b3 3ebe 99f3 90bd 9fdc 0b3e
00000240: f54f d4bd eb97 25be e120 a5bd b7e1 3b3e
00000250: ad09 b5bc d2a9 0dbd e830 773d d62a 40bd
00000260: 19e5 4c3e 03f9 20be 915d fcbd 7de8 943d
00000270: 8077 7cbd a9fb ddbd b4d3 77bd 8698 eaba
00000280: 63d6 d93d 6b66 8fbd 630c 4ebe 63ef 75be
00000290: 2ac3 f53c 5e3f 95bd 8720 debd 99ce eebc
000002a0: 3c63 a0bd fb8f 1dbe 1191 46bc 54e0 9abe
000002b0: 6a5e 843d 8a5b 60bd 712c 82bd 5b89 08be
000002c0: f1da 823d ee49 8bbd e425 97bc e16c a73b
000002d0: 1784 f3ba 37cd 8c3c dba3 cc3d b451 673d
000002e0: 98a7 003e 39df 1cbe cb73 003e bd7f 99bd
000002f0: fced af3d 0bae debd b4fb ddbd 7a24 df3d
00000300: 2236 ddbb 6e77 c7bd 6268 d8bd ef21 0dbe
00000310: fe25 85bd 83d6 b1bd 8d8a 69bc f65c 853d
00000320: 1674 f33d ae53 00bd 5fbd 1cbe e394 1b3e
00000330: 8a74 4c3e cf1c 163e db09 453d da33 5fbd
00000340: cba0 cf3c 13c6 4d3c cbc3 a3bd 2550 a13d
00000350: 7a89 67bd f88b c4bd 177e 07bc 76d6 c0bc
00000360: 01f6 cabd 2915 07be 29b5 3c3e 3797 b9bd
00000370: 73cd 8b3e 8661 afbd ba0c 763d cad6 c237
00000380: bc27 36bd ad61 163e c003 1cbd 97b8 e83d
00000390: 8f88 2a3c 2812 10be 1064 503d 92b4 db3d
000003a0: 2f72 253e 77b9 fdbd bc4c a63d e0a0 6ebe
000003b0: c3fc 543e 1568 683b bc74 16be 925d b83c
000003c0: 3834 4bbe b196 cf3d 97d2 783c d030 7e3d
000003d0: 87a4 803e 95ae 0bbe 8d6b 0b3d bdcc 543e
000003e0: 9cde e3bc a00b eebd dd96 abbd daf1 eabd
000003f0: 8e71 27be 715d 45bc 8823 a5bd 805a 15be
0.024110978 -0.07046307 0.045345932 0.033023283 0.21424972 -0.106041186 0.05509972 0.13639395
0.086688 -0.07839702 0.0677003 -0.16030018 -0.14895979 0.29090783 -0.13466625 0.03899245
-0.12723434 0.16914704 0.048062306 0.13369064 0.09912539 -0.16060083 0.0059463265 -0.12968107
0.13055442 0.07920334 0.030649813 0.0474714 0.059598014 0.0021729844 0.05082253 -0.15950704
0.11158613 -0.019314768 -0.0033922752 0.1015551 0.07656145 0.058518298 0.099222146 -0.014255558
0.11320605 0.06469734 0.007877367 0.026211556 -0.016970454 0.02410258 -0.035208326 -0.0042352895
-0.13121842 -0.0736491 0.08767829 0.08361187 0.2181322 0.103091285 -0.017324872 0.077785626
0.04473765 0.05826796 -0.033173222 0.19799528 0.06804196 -0.012869396 0.03369068 -0.12721391
0.13808832 0.06577874 0.18746918 0.0834687 -0.08057732 -0.08818767 0.17969367 -0.085908994
-0.110396035 0.0007584069 0.24065761 -0.16620225 -0.19634363 0.14379442 0.020750051 -0.016004244
-0.12271191 0.012462146 -0.022656474 0.07097957 -0.0007324907 -0.05377867 -0.014179586 0.022832982
0.004596831 0.005915962 -0.11881866 0.09535227 -0.0054740743 0.025829475 0.017930347 -0.065731294
0.07101028 0.047779024 -0.003524641 -0.057723068 -0.060562037 0.17422043 -0.14641859 -0.008740736
0.039642468 0.008516145 0.25679368 0.012873851 -0.25113326 0.14124927 -0.06999557 -0.03447239
0.0018947177 -0.19457398 -0.15681806 -0.03274292 -0.0007817006 0.12679993 0.15648547 -0.012024508
0.0023684588 0.1994163 -0.14993049 0.031072598 -0.016736222 -0.23126903 0.054374065 -0.121998504
-0.030294448 -0.12496634 0.17879024 -0.14279653 0.020623997 0.29566815 0.04260706 -0.17833589
0.06664882 -0.04441155 -0.02374446 0.10167695 0.25908485 -0.18623191 -0.070777126 0.13658379
-0.10366813 -0.16171233 -0.08062912 0.18347822 -0.02209934 -0.03458578 0.060349375 -0.04691585
0.20009269 -0.1571999 -0.12322534 0.07270906 -0.0616374 -0.10839016 -0.06050463 -0.0017898239
0.10636594 -0.070019566 -0.20121913 -0.240171 0.030000288 -0.07287477 -0.10846048 -0.029151248
-0.078314275 -0.15386955 -0.012119547 -0.30249274 0.064633206 -0.0547748 -0.06356133 -0.13333647
0.06389416 -0.0680121 -0.018450685 0.005109415 -0.0018578795 0.017187698 0.099921905 0.056474403
0.12563932 -0.15319528 0.12544172 -0.07495067 0.08590314 -0.1087304 -0.10839024 0.10895629
-0.006750838 -0.09739576 -0.105667844 -0.13782476 -0.06501387 -0.08683493 -0.0142542245 0.065118715
0.11887376 -0.031329803 -0.15306614 0.15193515 0.19966331 0.14659427 0.048105102 -0.05449281
0.025345227 0.012559432 -0.07996329 0.078766145 -0.056527592 -0.095970094 -0.008269808 -0.023539763
-0.09910203 -0.13191666 0.18428482 -0.09062045 0.27305183 -0.08563523 0.06007073 2.3226621e-05
-0.044471487 0.14685698 -0.038089514 0.11363333 0.010408535 -0.14069426 0.050876677 0.107278004
0.16156839 -0.1238889 0.08120105 -0.23303556 0.20799546 0.0035462428 -0.14692968 0.022505555
-0.19844139 0.10136164 0.015186927 0.06205827 0.25125524 -0.13640817 0.034038115 0.20781226
-0.02781611 -0.11623311 -0.08378384 -0.11471911 -0.16351911 -0.012046204 -0.08063418 -0.14585304

network_body.linear_encoder.seq_layers.2.bias f4 [128]
00000000: 333a 243d 1a99 08be 61f0 843d a497 6a3d
00000010: 5630 8abc 663f 31bd 2b50 523d 9a55 a03d
00000020: 5251 99bd 1f06 893d 4610 ae3d 3a3d 6fbd
00000030: aa17 73bd 0972 b13d 2201 ecbd 9259 433d
00000040: c6fc 723d 17fc 833d 68a2 3e3d ec5c f6bd
00000050: 3be2 8b3d dfa1 f2bd 10e6 acbd 6683 993d
00000060: 3bf0 7a3d bedc 2a3d fbb3 903d 3c84 213d
00000070: d1e7 e5bd 32b5 c3bd a3ad 953d 6297 eebd
00000080: a92e 253d a9b6 f6bd 0ec4 cabd e39c 913d
00000090: b94d 3abd cb79 283d db3e 033d 08a1 febc
000000a0: bf65 553d f101 523d 8a68 8d3d a30e 473d
000000b0: 6cce 653d 779a 823d 5a2d d6bd d395 8f3d
000000c0: cabe 4d3d c7f0 9e3d 24ce dcbd d540 c6bd
000000d0: dedb d7bd 3a57 493d 6681 fbbd 19de 813c
000000e0: da8f edbd 1a2e f13c b1b4 9b3d 73b8 533d
000000f0: fd49 93bd 87c9 743d 0b37 d8bd 9149 953d
00000100: 39ef 21bd 2e4e 6d3d b8f2 b23d 4791 9bbd
00000110: 2626 d1bd 1363 823d 2c32 423d f8c1 d9bd
00000120: b775 0d3d 4a26 d1bd 07fe 5c3d 2de6 833d
00000130: 2c4c a1bd 3b0a abbd cb44 a73d 5dfb bbbd
00000140: 3e8e f6bd 74cd 943d 746c f93c a941 553d
00000150: a303 a83c 976c 0cbe 16ff d7bd 81b7 513d
00000160: f27c 923d d80b 883d b8ab 5fbd d3a8 893d
00000170: 288b ddbc a566 c7bd 4bbe 87bc b065 edbd
00000180: cdb4 fd3c 67e0 b53d 2173 c0bd e8d4 d73c
00000190: fe02 843d 9ce3 af3d 7345 8c3c 16c4 b63d
000001a0: 62d2 ebbd 5f11 c3bd 6572 853d 3808 95bd
000001b0: e976 493d 6d12 9b3d d567 7f3d 2da8 bdbd
000001c0: 96a2 8b3d 20b5 543d b026 d7bd 4715 8e3c
000001d0: 81e5 773d d63a c93d fe21 83bd 4211 993b
000001e0: d1be d1bd 5d27 91bd 1d37 e6bd 3a40 efbd
000001f0: 9386 ea3c f435 713d b327 d4bd cea9 e2bd
0.040094566 -0.13339654 0.06491161 0.057273522 -0.016868751 -0.043273352 0.051345985 0.07828827
-0.07486214 0.06690621 0.08499198 -0.058408 -0.05934874 0.086643286 -0.115236536 0.047692843
0.059323095 0.06444567 0.0465416 -0.12029442 0.068302594 -0.11847281 -0.084423184 0.074957654
0.061264258 0.041714422 0.070655786 0.03943275 -0.11225856 -0.09556045 0.07308509 -0.11649968
0.0403277 -0.120465584 -0.09900676 0.07110002 -0.04548428 0.041131776 0.032042366 -0.031082645
0.052098986 0.051271383 0.06904705 0.048597943 0.056105062 0.06377118 -0.10457869 0.070109986
0.05023078 0.077607684 -0.10781506 -0.096803345 -0.10539983 0.04915545 -0.1228054 0.015852975
-0.11599703 0.029440928 0.076028235 0.051689576 -0.071918465 0.059762504 -0.105573736 0.07289422
-0.03953478 0.057935886 0.08737701 -0.07596069 -0.10212354 0.06366553 0.04741113 -0.106327
0.03453609 -0.10212381 0.053953197 0.06440387 -0.07875857 -0.08351561 0.08167418 -0.09178803
-0.12038849 0.072657496 0.030447222 0.05206457 0.020509547 -0.13713299 -0.10546701 0.051200394
0.07152738 0.06642884 -0.054607123 0.06721654 -0.027043894 -0.09736375 -0.016570231 -0.11591661
0.030970002 0.08880692 -0.09396959 0.026346639 0.06445883 0.08588335 0.01712296 0.08924119
-0.11514737 -0.09524798 0.0651596 -0.07276958 0.049185667 0.07571874 0.06235488 -0.092605926
0.0681812 0.051930547 -0.10505426 0.01734413 0.060521606 0.09825675 -0.06402968 0.0046712467
-0.102414735 -0.07087586 -0.11240981 -0.11682172 0.028628623 0.058889344 -0.103591345 -0.11067544

network_body.linear_encoder.seq_layers.4.weight f4 [128, 128]
00000000: 7f75 d1bd a1b6 203d 29b4 1fbe 596e 103d
00000010: 2448 30be 8c3a 373e 1d3d 01be 1288 dabb
00000020: e939 143d b783 56bd bf3b f6bd af0f a03c
00000030: 1ce1 93bd 850c 8ebe 79d8 68bd 63ae 90bb
00000040: aa3f 33be b3eb dd3d ccb9 11be 7ced 9f3c
00000050: 74b5 aebc a697 5c3e 3df6 c53d 085d fd3d
00000060: b240 eebd fe4a ddbc 43cf 05bd 7817 23be
00000070: f985 a43d 288e 013e f904 a6bd 9bbb 653e
00000080: 2f14 16bd f9b8 4bbb 3513 bc3d e59b d13c
00000090: 22fb d83d e682 2bbd 64af 2cbe 8dd1 14be
000000a0: e2f4 f13c 25b9 2a3d 4995 bcbd 4f81 55be
000000b0: 0eab ddbd 200d 34bd 5cbb 90bd b3e1 cbbd
000000c0: 9e8a 2e3d 3c15 77be 9cc5 303e 429b 103e
000000d0: c23a ba3d 503f 98bd b4c9 f03d d693 713d
000000e0: 5983 ee3b d7bb e1bd 6e43 32be 4f99 173c
000000f0: a98b 623d 5e69 e1bb 23ce a7bc af1a 67bd
00000100: 855c 3b3c 4225 a3bd 6e7c 2fbe 659c 1cbc
00000110: d510 133d 1adc ffbd e663 c73d 1492 d73d
00000120: 3019 bfbb a2e9 703d d458 6bbc 2437 86be
00000130: 398e 5dbd 1fa6 f63d 6738 44be f2dc 363e
00000140: dc2c 0c3c c4bf 4f3d ef6f 25be 6960 8dbe
00000150: e252 e1bb a1ef ed3d b678 3c3e 1d0a 5dbd
00000160: bd07 a63c 7f8f 39be bb09 e23d 7ed7 c0bd
00000170: 117d cb3d 4d20 b23d 98a1 4b3d 6266 0ebd
00000180: e24a cbbd 9f00 b63c d623 d83c 67bc 38be
00000190: 9ca9 48bb 7055 60bc 4d4c a93c 67ac cdbd
000001a0: 46a3 e93d e9be 4cbd 3210 81bd 87c4 a03d
000001b0: 02c7 25be b9ac d6bb e39d 6bbd cab3 3d3e
000001c0: b747 d1bd b906 edbd 5e4e 3dbc 77aa a3bd
000001d0: 1536 823c 522b 40be b062 f93c d45b 9a3c
000001e0: 543e de3d 3bd1 203e cad1 193e 4c2a 9b3d
000001f0: f565 5d3d 6adc bebd aab6 6b3d ba0c 193d
00000200: dd54 27be f240 003d 5e1c 3ebe 7c83 f63d
00000210: 6acb 123e f3a1 633d ef50 a9bd 9219 8dbe
00000220: 0e9a b3bc 91a3 fcbc 9b37 15be 5b40 aa3b
00000230: 9fd4 6d3d afe1 87be a011 cbbd 5d7d d33d
00000240: b716 59be f349 853c cee9 d73d 1714 e23d
00000250: c81d c3bd 26a4 9b3d 3c58 9b3d 93fc 97bd
00000260: fea1 6abd b2fb 17bd 4ba7 d1bb 3a5a 83be
00000270: a4a0 023e f995 193e 7f54 1bbe a57c 7bbd
00000280: bc7e 1ebd 363a c03d a633 223c b105 08be
00000290: c6dd c93d 0e4c 79be e74e 58bc d890 a63d
000002a0: cb84 c53d d667 8e3c 0251 01be df53 173d
000002b0: e464 313e 6c97 b33d 2f76 a53d 212e 57bc
000002c0: e791 153e 3f52 51be 745c f7bd 3ea2 43bc
000002d0: 9b0f 903c 49ce b73d 6293 2abd 9013 343e
000002e0: 4ced b8bd 3819 07be 6a61 6abd 08ce d5bd
000002f0: 28cc 14be f70c bdbd 8384 76bb 944b 8bbd
00000300: ebd5 a63b 0689 df3c 1175 7abd 516b cc3c
00000310: f1ab aebd 6515 84bd a749 b7bd 9c96 e13c
00000320: 8148 6ebd c194 023e 1930 28be ed75 e4bc
00000330: 724d 13be c1df 2a3d c50d 1a3a f15f 593e
00000340: cc2e 243e 89fd 113c d6f9 02be b261 5dbd
00000350: 8e35 a9bd 4f37 043e 5ea0 a63c 8c25 ad3b
00000360: a60b 65bd 1d33 0d3e 9069 3e3c 4b4c 73be
00000370: 24d5 773d 47f9 99bd 2660 dbbb b380 d83d
00000380: 3225 6f3d 8824 bfbd 03a7 9f3d f507 28be
00000390: d343 fabd 8638 13be 4e0e 1abd a571 2dbe
000003a0: c081 37bb ff8f f33d 88ee bc3c 2fa6 ce3d
000003b0: 1777 a6bd cea2 81bd 01a8 fd3d 0e22 513e
000003c0: 69ba cfbd 3739 ecbd d9ff 963d 42b8 433e
000003d0: 8688 18bb ec6b c9bd 30c6 2abd b4a3 bf3c
000003e0: eafc 9cbd e931 24be b23e e93d 2545 aa3d
000003f0: 39e5 84bc d0d1 1abe 2cbc be3c e957 2f3e
-0.10227489 0.03923667 -0.1559607 0.035261486 -0.1721502 0.17893428 -0.12620969 -0.006669053
0.03618804 -0.052371707 -0.120231144 0.019538729 -0.072206706 -0.27743927 -0.05684707 -0.0044153198
-0.17504755 0.10835972 -0.14231032 0.019522421 -0.021326758 0.21542224 0.09666107 0.1237126
-0.116334334 -0.027013298 -0.032668363 -0.15926921 0.08033366 0.12651885 -0.08106417 0.22434847
-0.036640342 -0.0031085594 0.09183351 0.025587032 0.10594775 -0.04187288 -0.16863781 -0.14533062
0.029535715 0.041680474 -0.092081614 -0.20850109 -0.10823642 -0.04395783 -0.07066986 -0.09955158
0.042612664 -0.24129194 0.17262882 0.14121726 0.090932384 -0.07433951 0.11757222 0.058978878
0.0072788415 -0.11022156 -0.17408535 0.00925286 0.05530897 -0.006879016 -0.020484036 -0.05642193
0.011435633 -0.07966091 -0.1713731 -0.009558772 0.035904724 -0.12493153 0.09735851 0.10525909
-0.00583186 0.05881656 -0.01436444 -0.26213944 -0.054090712 0.12043404 -0.19162141 0.17857721
0.008555617 0.05071999 -0.1615598 -0.27612618 -0.0068763355 0.11617971 0.18405423 -0.053964723
0.020267362 -0.18121146 0.11037012 -0.09416102 0.09935964 0.08697567 0.049714655 -0.03476561
-0.09926392 0.022217093 0.026384275 -0.1804062 -0.0030618673 -0.013692245 0.020666266 -0.10042649
0.11408095 -0.049986754 -0.06301917 0.078499846 -0.16189197 -0.006551352 -0.05752362 0.18525615
-0.10218757 -0.11573548 -0.011554329 -0.07991498 0.015894929 -0.18766525 0.030442566 0.018842615
0.10851732 0.15704815 0.15021434 0.07576427 0.054052312 -0.093193844 0.05754725 0.037365653
-0.16340967 0.031311937 -0.18565509 0.120367974 0.14335409 0.05557437 -0.0826739 -0.2755857
-0.021924045 -0.030839713 -0.14571993 0.00519566 0.0580641 -0.2653937 -0.09915471 0.103266455
-0.21200071 0.016270613 0.105426416 0.11038988 -0.09527165 0.07599668 0.07585189 -0.074212216
-0.057283394 -0.03710527 -0.0063981167 -0.25654775 0.12756592 0.14998616 -0.15168951 -0.061398167
-0.038695082 0.09386103 0.009900009 -0.13283421 0.09856753 -0.24345419 -0.013202406 0.081330955
0.09644469 0.017383497 -0.12628558 0.03694522 0.17323643 0.08769116 0.08079182 -0.013133557
0.14606439 -0.2044153 -0.12078181 -0.011940537 0.017585566 0.08974893 -0.04164446 0.17585588
-0.09029636 -0.13193214 -0.057221808 -0.10439688 -0.14531004 -0.092309885 -0.0037615604 -0.06801525
0.005091419 0.027287018 -0.0611468 0.024953516 -0.08528889 -0.06449393 -0.08949595 0.027537636
-0.058174614 0.12752058 -0.16424598 -0.027888263 -0.14385012 0.041717295 0.00058766856 0.21228005
0.16033477 0.008910545 -0.12790617 -0.054048248 -0.08262168 0.12911724 0.02034014 0.005284017
-0.055919312 0.1378903 0.011621848 -0.23759572 0.060506 -0.07518249 -0.0066948114 0.105714224
0.05838508 -0.0933314 0.07795527 -0.16409285 -0.12219968 -0.1437703 -0.0376113 -0.16937883
-0.002800092 0.118926995 0.02306296 0.10090291 -0.08128183 -0.06329881 0.1238556 0.20423147
-0.10142977 -0.1153435 0.07373018 0.19113258 -0.0023274734 -0.098350376 -0.041692913 0.02339349
-0.07665427 -0.16034664 0.11388911 0.083139695 -0.016222583 -0.151191 0.023283087 0.17123379

network_body.linear_encoder.seq_layers.4.bias f4 [128]
00000000: 9c3c 72bd cb12 f2bc 5520 573d b87e 73bd
00000010: 171e 82bc 6599 d7bc 7d7a cdbc b66b 35bd
00000020: e738 0d3d b7d3 31bd afd3 823c 8d98 243d
00000030: 6c1e 89bd fd55 1abd 6573 793c 6b2c 1cbd
00000040: 22be 373d 8caf 823d 35cc 4ebd f81a ed3c
00000050: 57a6 6a3d 9809 8bbd 81df 1dbd ccac 7f3d
00000060: 01d5 05bc 38dd 8fbd 84d5 17bd 7b1d 67bd
00000070: 1bf0 2dbd e450 4d3d e051 8d3c 23da d63c
00000080: b0f1 8abd f964 d4bc d041 67bd cf8b 47bd
00000090: c704 5c3d d919 dabb 2936 8c3d 4391 fa3c
000000a0: 91cb 543d f9c4 903d 256f 7fbc 2b08 8bbc
000000b0: 8f29 fb3c 68d6 d5bc 8da0 49bd b214 4c3d
000000c0: 7d48 3dbd f18f 4dbd 4899 a53d 4ea1 ffbc
000000d0: a539 333d 443e 843d 78d5 2a3d 0f69 563d
000000e0: c1a0 a4bb 4e23 a73d 784c 86bd 906c 883d
000000f0: 9e44 4dbd a79b b03d a526 5ebd 3e18 a53d
00000100: 47f4 48bd eda1 f4bc 8a94 84bd 0813 92bc
00000110: 675f 8b3d 7968 8a3d 336d 2dbd ddac 353d
00000120: ab0b 63bd 8f82 113c 18c9 103d a085 4e3d
00000130: 1b94 943d ff4e 4b3b 1d6c 7c3d eb20 3abd
00000140: e80e b33d 4d7c 443d 1e25 6d3d 80f5 30bd
00000150: a9e8 413d e3f0 d1bb d5eb 5e3d 15d3 4abd
00000160: 0930 763d 5007 66ba a6b8 3ebd d907 973d
00000170: dd00 993d 6899 1c3b 0aad 333d b024 933d
00000180: 39e6 7ebd 73e3 36bd e725 00bd 5299 883d
00000190: fbc6 5fbd 99a6 123d 687a 42bd 959e 603d
000001a0: d3bc 253d e2e0 6b3d 05c0 a63d 4ab2 d4bc
000001b0: eac8 913d 5466 653d 86bb 893d 199f 033d
000001c0: eaf5 1cbc 4567 f23c 41fc 7cbd d66a 943d
000001d0: 06fb 1ebd 032d cbbc 957a 033d 7654 853c
000001e0: 067e 8e3d 8c6b 763d 7ddc 9c3c 1ee3 083d
000001f0: 43b1 57bd 1887 d7bc 4ccb 83bd 055b 623d
-0.059139833 -0.029549977 0.05252107 -0.05944702 -0.015883489 -0.026318261 -0.025082821 -0.044292174
0.034478094 -0.043414798 0.01597008 0.040184546 -0.06695256 -0.03767966 0.015225266 -0.038128298
0.04485906 0.06381139 -0.050487716 0.028943524 0.05728754 -0.06788939 -0.038543228 0.06242065
-0.00816846 -0.07024616 -0.03706886 -0.0564246 -0.04246531 0.05012597 0.017250955 0.026227063
-0.067843795 -0.025927054 -0.056459248 -0.048717316 0.053715494 -0.0066559133 0.06846268 0.030586844
0.05195195 0.070688196 -0.015590464 -0.016971668 0.030659465 -0.026103213 -0.04922538 0.049824424
-0.04621171 -0.0501861 0.08085877 -0.031204846 0.043756146 0.06457189 0.041707486 0.052346285
-0.005024046 0.08161031 -0.06557554 0.06661332 -0.050114267 0.08623438 -0.054236073 0.080612645
-0.049061086 -0.029862368 -0.06473644 -0.01783134 0.06805306 0.06758208 -0.04234047 0.04435431
-0.05543105 0.008881225 0.035348028 0.050420403 0.072548114 0.0031022427 0.061626542 -0.04544155
0.087430775 0.047970105 0.057896726 -0.043202877 0.047341023 -0.0064068898 0.054424126 -0.04951771
0.060104404 -0.00087748934 -0.046562813 0.07374544 0.07470868 0.0023895148 0.043866195 0.07184732
-0.062231276 -0.044650506 -0.031286146 0.066698685 -0.054633122 0.03580341 -0.047480017 0.054838736
0.04046328 0.05758751 0.081420936 -0.025963921 0.071183994 0.05600579 0.067252204 0.03213415
-0.009580115 0.029590258 -0.061764006 0.0724694 -0.038813613 -0.024801737 0.032099325 0.016275626
0.06957631 0.06016116 0.019148106 0.03341972 -0.052659284 -0.026309535 -0.0643526 0.055262584

action_model._continuous_distribution.log_sigma f4 [1, 5]
00000000: cc73 c7bf 2714 80bf fe6a 99bf df80 a5be
00000010: ef91 34be
-1.5582213 -1.000615 -1.1985776 -0.32324883 -0.17633794

action_model._continuous_distribution.mu.weight f4 [5, 128]
00000000: c011 c1bc 53da 943c 5ec5 ee3c 13bd 7dbc
00000010: 7e53 fb3c 5e08 7b3d 3876 38bd 8102 2ebd
00000020: 7a69 c63a 33c2 20bc 1945 da3c 1900 65bd
00000030: bf26 34bd 7501 183d 3b51 f2bd 1e6a 9f3a
00000040: 8c75 2b3d adce 033c 3872 11bb 1e08 03ba
00000050: 6eaa 89bc 0e0e 64bc 33fa 1fbc 681e 03bc
00000060: 1d58 eabb fe27 6dbc a079 bd3c f74e 2ebc
00000070: 6ddd 93bc 0e0f fbbc c8a9 02bd 1ebd fcbc
00000080: f4c8 f1bb c8a0 76bc 3e19 d93c d414 b33c
00000090: 8940 2bbd eb59 c53d 0a19 bb3b c0d2 a6bd
000000a0: 2e16 90b9 ffa6 1b3d f17d 68bd b89e a53b
000000b0: de0f 6bbd df6c 203a bdd3 863c ba34 00bb
000000c0: bcb2 5b3c a592 49bd c29d b5bc 9536 c3bc
000000d0: 4985 853c d345 fa3c a288 48bd 446b 233d
000000e0: 1910 be3a bacf e13c bf15 dabb f767 a63c
000000f0: 2b96 41bc 59ff f53c f8bf e23b cb77 533b
00000100: b42d 213b d1d4 dbbb 5205 d0bc 80a0 293d
00000110: 825f e4ba 5a4c 81bc a553 1f3c 5d36 0e3d
00000120: f765 d7bc 30be 543d 4b85 9ebc ecc5 983c
00000130: 70fe b53c be34 25bd d92a ecbb 22a3 0abd
00000140: d06f dc3c 9062 c23b 93c1 a6bb 9e5f 26bd
00000150: 4661 b8bb d20d c7bc de25 ad3c b5cc 2c3b
00000160: e07b 303c 72ef 5b3d da40 923c b954 5b3d
00000170: 61c3 34ba cdad 833d 7bce 35bd 0872 133c
00000180: 6414 adbc fdeb edbc b7cb 3cbc 1761 a93c
00000190: 94e0 3abb a1da 17bc 2489 e6bc 80de 8b3c
000001a0: 741f 1f3c 7b5c d73c 1872 4f3d 2940 2cbb
000001b0: c02c 803c 9182 3e3c 9eb3 d7bb fad5 f63c
000001c0: a4e1 313d 86dc 3b3c 1271 b03b 21d0 d0ba
000001d0: 2983 81bc ba3b 973b 0e43 9e3b 27f9 2cbc
000001e0: f3bb 673b 4739 df3c 8df7 b03c 090f 7c3d
000001f0: 56b2 45bc 6fce d63c 0b5d e1bc 50da 273d
00000200: 6737 b7bd ecfc 97bd fab7 1b3d 2f08 a8bd
00000210: 6171 8dbc 0374 8ebc bb13 97bd 48b6 8fbd
00000220: 124e 4e3d 43e6 8cbd c9d9 4b3c 54d1 0d3d
00000230: 3b27 7bbd 21e8 1dbe 668a 293e cc67 a0bd
00000240: 80fa 0d3e ee0b 2e3d 8b0d aebd fc2f 273c
00000250: 8334 653d 3bf6 81bd dc64 57bd 6fe8 203d
00000260: 50ca 043d 4880 a6bd bf36 0ebe c725 06be
00000270: ebd1 ddbd 6b42 853d aad8 853d 6e08 853d
00000280: e1c7 b3bd 7ae0 c8bd 3cbc 8ebd 2118 c7bd
00000290: bebf 383d 60ab a5bc 9f8a 8e3d ca63 413d
000002a0: 3a66 2f3d b550 763d 86c1 303b c480 a8bc
000002b0: eb03 253e ee2d 59bd fdb4 b0bc 16ff b93d
000002c0: 9769 9cbc 60c5 f1bd f552 ad3d 8e54 f8bd
000002d0: 4b6a 913d a718 2b3d ea33 973d 320b 213d
000002e0: 4e16 5cbd 6501 a03d 4070 cfbd 8d85 4e3d
000002f0: f54e c2bd 7bd3 913d a090 f0bd 0057 4e3d
00000300: 221f d1bd 08fd d2bd 1350 bfbd 4cc6 a3bd
00000310: 8ac7 8e3d 475a ef3c 8a15 8fbd ff9d 093d
00000320: 7139 a8bd 8a50 12be 515b b63c f545 063d
00000330: e4cd 663d b4f8 8f3d ca95 a73d 2ada bbbd
00000340: 0154 6a3d f290 d13c 0dae 373d fb38 31bd
00000350: 74e1 3b3e c99e 35bd 366c 183d 60f5 93bd
00000360: 7e49 633d 0574 fcbd 5909 8bbd f0ce 213d
00000370: fa27 013d f06e ddbd 09e8 ab3d 6c32 3a3d
00000380: 1974 ecbd 05aa 98bd ff91 70bd d03c d23c
00000390: 5090 a0bd 6707 273c 6c04 babd ef00 ac3d
000003a0: e9ab 113d 8c19 403d ed2a 9b3d 6f0c b6bd
000003b0: 1dd1 683d 93f9 343d 2e47 1e3d 9221 063d
000003c0: c65d 77bd 3a06 803b f6c4 8fbd 51e5 443b
000003d0: 44df 86bd da5e f23c 60d4 073d f943 c33c
000003e0: bc01 4f3d c9de 5c3d b203 f33b ec51 eebc
000003f0: ad0e c1bd 6072 91bd bd54 d6bd 3a94 023e
-0.023568034 0.018170511 0.029146846 -0.015486973 0.03067946 0.061287276 -0.045034617 -0.042482857
0.0015137636 -0.009811926 0.026644276 -0.055908296 -0.043982264 0.037110765 -0.118319 0.0012162363
0.04186015 0.008044881 -0.0022193324 -0.0004998463 -0.0168049 -0.0139193665 -0.009764242 -0.008002855
-0.007151617 -0.014474867 0.023129284 -0.010638944 -0.01804992 -0.030646827 -0.031900197 -0.030851897
-0.007378692 -0.015052982 0.026501294 0.021860518 -0.041809592 0.09636291 0.005709772 -0.08145666
-0.00027482345 0.038001057 -0.056760732 0.005054321 -0.05738818 0.00061197387 0.016458387 -0.0019562677
0.013409313 -0.049212117 -0.022169951 -0.023829738 0.016298907 0.030550873 -0.04895843 0.03989722
0.0014500647 0.027564872 -0.0066554244 0.020313246 -0.011815588 0.030028986 0.006919857 0.0032267447
0.0024593892 -0.0067087193 -0.025393162 0.04141283 -0.0017423483 -0.015783478 0.009724532 0.034719814
-0.026293738 0.05193919 -0.019350668 0.018649064 0.022216052 -0.040333502 -0.0072072563 -0.03384698
0.026908785 0.0059321597 -0.005088994 -0.04061853 -0.0056268303 -0.024298582 0.02113622 0.0026367132
0.010771722 0.05369515 0.01785319 0.053547595 -0.0006895569 0.06429634 -0.04438637 0.008999355
-0.021127887 -0.029043192 -0.011523179 0.020676179 -0.0028515207 -0.009268434 -0.028141566 0.01707387
0.009712089 0.026289215 0.050645918 -0.002628336 0.015646338 0.011627809 -0.0065826913 0.030131329
0.04342808 0.011466151 0.005384573 -0.0015931168 -0.015809612 0.0046152743 0.004829771 -0.010557449
0.003535983 0.027248992 0.021602416 0.061537776 -0.012066444 0.026221482 -0.027510187 0.040979683
-0.08946114 -0.07421288 0.03801725 -0.08204686 -0.017265977 -0.017389303 -0.0737681 -0.07017189
0.050367422 -0.068798564 0.012442061 0.03462346 -0.06131671 -0.15420581 0.16556701 -0.07832298
0.1386509 0.042491846 -0.08498677 0.010204311 0.055958282 -0.06345793 -0.05258642 0.039284166
0.032419503 -0.081299365 -0.13888071 -0.13100348 -0.10831054 0.06506809 0.06535466 0.064957485
-0.08778358 -0.098084405 -0.069694966 -0.09721399 0.045104735 -0.02022332 0.069600336 0.047214307
0.0428221 0.060135562 0.0026970818 -0.020569213 0.16114776 -0.053022318 -0.021570677 0.09081857
-0.019093318 -0.118052244 0.084630884 -0.121255025 0.07100352 0.041771557 0.07382949 0.039317317
-0.05373221 0.07812766 -0.10128832 0.050420333 -0.09487716 0.07120415 -0.11746335 0.05037594
-0.10211016 -0.10302168 -0.09341445 -0.079968065 0.06971653 0.029217852 -0.0698653 0.033597942
-0.08214081 -0.14288536 0.02226034 0.03278156 0.056348696 0.07029858 0.08182867 -0.09172471
0.05720902 0.02558181 0.044843722 -0.04326723 0.18347722 -0.044340882 0.037212573 -0.07224536
0.05549001 -0.123268165 -0.06788892 0.03950399 0.031532265 -0.10812175 0.083938666 0.045458242
-0.11545581 -0.07454304 -0.058732983 0.025663763 -0.078400254 0.010194636 -0.09082875 0.083986156
0.035564337 0.046899363 0.07576547 -0.0888909 0.05684005 0.044183325 0.0386421 0.03274686
-0.060392164 0.0039069923 -0.07019989 0.003004391 -0.06585553 0.029586244 0.03316152 0.023836123
0.050538763 0.053923402 0.007416212 -0.029091798 -0.09426627 -0.071018934 -0.10465381 0.12751856

action_model._continuous_distribution.mu.bias f4 [5]
00000000: 4850 b73c f80f 893d 0af2 e5bc 0f70 84bd
00000010: 2a9f 163d
0.022377148 0.06692499 -0.028069515 -0.06466686 0.036772884

critic.network_body.linear_encoder.seq_layers.0.weight f4 [128, 19]
00000000: 0763 eabe 9cb0 02b9 ca9a adbe b193 873e
00000010: 6fdc 763c edb6 a5bd dd9a 80be a3be 00be
00000020: 62c9 f03e 5436 d93e ea6a e4bd c6e9 4f3e
00000030: 7caa bd3e 1871 1f3e e9db 9a3e d796 eabd
00000040: 7e67 6fbe 158c 89bc c0d0 cb3e 5970 83be
00000050: 305f 0d3e 74d2 853e 7f86 3ebe 36cc 9cbc
00000060: 8dd7 2dbe bc63 103e bc34 8b3e 3c89 abbc
00000070: cef2 b03e a3e7 41be 9446 963d f88f dbbd
00000080: 318d f63d 03c1 fe3e 88e8 57be 04f9 b3bd
00000090: 44b0 26bf 42e7 c8be ddb2 53be 1b38 d5be
000000a0: de14 0f3e fa33 c73e 5f8e 32be becc a2be
000000b0: d104 283d 3ede be3e 0452 41be ccdd cbbe
000000c0: 2075 eb3e e9af b03e 8104 c53e c8e3 843e
000000d0: 466d 92be ccf8 d5be 13c4 483e d5a4 aabe
000000e0: 4f28 ebbe f9f5 3ebe 882f 39be 3dda 4dbc
000000f0: 297c 9e3e 87fb 2cbe c5ff d63e 0d65 813c
00000100: 0aed ea3d e220 003e b4d4 9b3e f9f3 dabe
00000110: 6aa8 e03e 461e 86bd 8ee4 dd3d 0d07 d13d
00000120: a6a6 b33c 69eb a8be 0504 bd3d 44b1 92be
00000130: c33b 92bd 244f ab3d c7e9 9bbc 6dfa 78bd
00000140: 0a40 50be 7f18 de3e 70c4 a0bd 6603 57be
00000150: a7ba 503e d189 713d 1438 0ebe 834b a9bd
00000160: 8d23 193e 5e27 2ebe e054 6cbe 831a 85be
00000170: ef3d ffbd d039 f8bd 500f edbe 2c57 b13d
00000180: 3d16 55be 5128 1a3e 97da 773d 82cc c4be
00000190: 0e92 8a3e b9ba 583e d412 b0bd 910b a23e
000001a0: 43fe 2b3e 80fd 9bbe 2feb 013e d67a d63d
000001b0: 1ce3 babc 0860 1b3e 5361 0ebe 2b05 193d
000001c0: 425d 253f 0aba 6abd 6b61 afbe 423f ae3e
000001d0: 67db 803d 4f2e 1f3d a786 fbbd c070 223e
000001e0: 952d 4dbe faaa 173e 74a8 e73b 9961 1b3f
000001f0: bd71 a0be c5dd 5a3e c37f 493e 9d8a cbbd
00000200: 4c88 afbe 3a6a 06bd 1ed0 803e 0960 b43c
00000210: 5758 8bbe 47fa acbd a046 ba3e 19de 72bb
00000220: 3606 f13e a96e 59be c872 d53e 9dad 95bd
00000230: 009b 6fbc d431 0d3e 4fdc 94be a511 1fbe
00000240: aec9 ae3e c9bd b1bd 53a8 953e f845 0f3f
00000250: 77da bb3e 3c2c 02be 4dc6 153e 8cb6 7cbc
00000260: 4e17 8f3e b141 81be 9aa7 c63d c919 cc3b
00000270: 5173 903e 7e12 c5bd 3af3 ce3d 18c7 713d
00000280: 3777 6c3c c59a 49be 0082 7ebe 68ab 96be
00000290: 4fb6 6f3e 6bdc 043e 77cb 303d ce64 dc3e
000002a0: 7b73 d4be d598 ba3e cbd0 acbd cc3f 6cbe
000002b0: ca51 8fbe a1eb 0ebe cb5c 9bbc 9439 08bc
000002c0: 7a9f ebbd 4a5f 203d 9327 203d 0826 433e
000002d0: 2769 1d3e 446a 94be e6e9 12bd 4e32 07be
000002e0: 93b4 56be cca7 033f 8bd4 073e 5765 a6be
000002f0: 51ca bbbe 33e3 b8bd 1044 b93d f850 a0be
00000300: ae17 52bd d7af 723e f0da b9bd e4e0 633e
00000310: ef15 943c 97e6 913e 450e 80bd 6236 4c3e
00000320: f1fc 31bd a76c 033e 22d0 4f3e f2cc a23e
00000330: ad58 85be 9a21 74be 908d 42be 5dae f43e
00000340: 24d1 f6bd 3d1b c3be cbf5 5d3d 6fe1 643e
00000350: 6199 3d3d e126 61bb 9eea 32bc 2307 db3e
00000360: 3001 91be 9551 8a3e 5ea2 c73e 5a7f 5f3e
00000370: 407a ae3d e0b7 88be 74b9 963d 4ccf 8bbe
00000380: 5398 303e 9053 133f 6a4b a8be e867 74bc
00000390: 85c7 2c3e 5eda cf3e 94b6 3c3e 1e16 3abe
000003a0: 55e5 03bf 3aa8 51bd 649d a9be d573 5b3d
000003b0: 8796 fdbe 1245 943d 4dc7 55bd dd9b a3bd
000003c0: 4bd6 c03d 520c 7dbd f8f5 a3bd 9102 173c
000003d0: 543b 2fbe c795 d33c 4c99 533e 51d3 94be
000003e0: fa68 e7be 3b0e 133e 3073 bb3d 781f 02be
000003f0: b0a6 913e e802 313e 81de 4f3e c924 eebc
-0.45778677 -0.00012463558 -0.33907157 0.26479867 0.015067204 -0.08091531 -0.2511815 -0.12572722
0.47028643 0.42424262 -0.11153205 0.20304021 0.37044132 0.15570486 0.30245903 -0.11454552
-0.23379323 -0.01679043 0.398077 -0.25671652 0.13805842 0.26137125 -0.18605994 -0.019140344
-0.16976757 0.14100546 0.2718867 -0.020939462 0.34560245 -0.18936019 0.073376805 -0.10720819
0.12038649 0.4975663 -0.21084797 -0.0878773 -0.6511271 -0.39238936 -0.206737 -0.41644368
0.13972804 0.38906842 -0.17437123 -0.3179683 0.04102022 0.37278932 -0.18878943 -0.39817655
0.45987797 0.3450921 0.3848 0.25955033 -0.28598994 -0.4179138 0.19606046 -0.33328882
-0.4592919 -0.18648519 -0.18084538 -0.012564239 0.30954102 -0.16892825 0.41992012 0.015795255
0.11470993 0.12512544 0.30435717 -0.4276426 0.4387849 -0.06548743 0.10834609 0.10206423
0.02193005 -0.32992104 0.09229282 -0.28650868 -0.07140305 0.08364704 -0.019032372 -0.0607857
-0.20336929 0.43378064 -0.078499675 -0.2099739 0.20383702 0.058969323 -0.1388858 -0.08266356
0.14954968 -0.17007205 -0.23079252 -0.2599679 -0.12462985 -0.12120402 -0.46300745 0.08659205
-0.20809264 0.15054442 0.060511198 -0.38437277 0.27064556 0.21164979 -0.08597341 0.3164945
0.16796212 -0.30466843 0.12687372 0.10472648 -0.022813372 0.15173352 -0.13904314 0.037358444
0.64595425 -0.057306327 -0.34254012 0.34032637 0.06291848 0.038862523 -0.12281542 0.15863323
-0.2003692 0.14811316 0.0070696417 0.606958 -0.31336775 0.21373661 0.19677643 -0.09938548
-0.34283674 -0.03281615 0.2515878 0.02201845 -0.27215835 -0.08446174 0.36382008 -0.003705865
0.4707505 -0.2123362 0.41689134 -0.07308505 -0.014624357 0.13788539 -0.29074332 -0.15534075
0.34138244 -0.08678777 0.29229984 0.5596614 0.36690113 -0.12712187 0.14626427 -0.015424382
0.27947468 -0.2524543 0.09699936 0.00622866 0.2821298 -0.09622668 0.101049855 0.05902776
0.01443272 -0.19687946 -0.24854279 -0.29427648 0.23409389 0.12974708 0.04316279 0.43045658
-0.41494355 0.36444727 -0.084382616 -0.23071212 -0.27992088 -0.13957073 -0.018965146 -0.008314509
-0.11505027 0.039153375 0.03910024 0.19057477 0.15372144 -0.28987324 -0.035867594 -0.13202783
-0.20967321 0.5142791 0.13264672 -0.3249919 -0.36677793 -0.0902771 0.09046185 -0.31311774
-0.051292114 0.2369989 -0.09074962 0.22253758 0.018076865 0.2849624 -0.06252722 0.1994262
-0.043454114 0.12834416 0.2029424 0.31796986 -0.26044217 -0.23840943 -0.18999314 0.4778928
-0.12051609 -0.3810672 0.054189485 0.22351621 0.04628885 -0.003435545 -0.010920195 0.42778882
-0.28321218 0.27015367 0.38991064 0.21825925 0.08519411 -0.26702785 0.07359591 -0.27306592
0.17245607 0.5754938 -0.32870036 -0.014917351 0.16872986 0.40596288 0.18429023 -0.181725
-0.5152181 -0.051185824 -0.33127892 0.053577263 -0.49528906 0.072397366 -0.05219202 -0.07988713
0.09415873 -0.061779328 -0.08005899 0.0092169205 -0.17112476 0.025828255 0.20663947 -0.29067472
-0.45197278 0.14360897 0.0915283 -0.12707317 0.28447485 0.17286265 0.20299722 -0.029070275

critic.network_body.linear_encoder.seq_layers.0.bias f4 [128]
00000000: a69d 2f3d 449c db3c 92c4 e83c b2f3 7d3d
00000010: cb11 5b3d 7cff b23b bfe0 183d 4614 483d
00000020: 0bb9 ef3b fa40 2c3d 91c2 ab3c 1822 443d
00000030: ca4a 803c ea70 f6bd e5b1 0fb9 ca17 013d
00000040: bcb7 003b ff95 21bd 16b0 9a3b 4023 d23b
00000050: 6722 763c 0cfd 103d 9f7f 003c e591 ba3b
00000060: 3246 473d 5a43 e03c 4a3d e03c 0f6e 05bc
00000070: d683 d63b 82a1 d0b9 6ffb 773c 9702 2b3d
00000080: 0866 f139 1f23 5dbb db2e 913d 9cb0 ff3a
00000090: b68f 063b ae52 723d 2ef1 64bc 7095 463d
000000a0: 7093 c53c fa7d 4cbd 321e 853d fe98 cfbc
000000b0: 00fb 20bc 6e8a 863c 934a 2c3d 2b61 ed3c
000000c0: ba0b adbc 97ec b2bd 1126 373d c5bd 70bc
000000d0: bea2 833d b999 3e3c bdac 513a 451c cd3c
000000e0: ec97 393c dc0d 6a3b 73f9 043d b2e9 e53b
000000f0: c900 363d e84e 6e3c 24ce 0f3b 3aa6 a4bc
00000100: b387 233d 35f1 0f3d 3ae8 c63c 8f67 de3c
00000110: e7d0 be3a e298 d0bb 013a 163d a1b0 5a3d
00000120: 491d e93c 0334 00bd a456 3d3d 99a8 fc3c
00000130: 26a2 303d a914 69bc 3959 763b b710 c9bb
00000140: f269 8dbc 41f0 253c 9710 a5bc 598e 2e3d
00000150: 1ed2 223d 70eb bd3c aa09 243d c113 a93b
00000160: 3e07 083c bb69 cb3c 07a9 263d 7bc5 683c
00000170: 5220 b8bc 0134 e43b bb76 ce3b 5c3e b93c
00000180: 541a e3bb 3d76 01bc 41f3 843c 1ecf 2b3c
00000190: 039c d43c c228 423d 514a 793c 4c16 df3b
000001a0: 9fe6 703c 10c7 553d 44ce 6bbd 1dd2 413b
000001b0: 5993 b7bc 95b2 c83c b303 213c e6b4 4bbc
000001c0: e7f7 883c 34e6 af3c ddb9 d6bc 515a fa3b
000001d0: 3562 5a3c 679d d43c b0b6 7a3d c3c5 4d3c
000001e0: 9d39 283d cf84 df3c 16a4 ba3c 121f 2dbd
000001f0: 2877 323c 66a9 1f3b 4ab2 cfbb 64df 313d
0.042874955 0.026807912 0.028414045 0.061999984 0.053483766 0.005462585 0.03732371 0.04884746
0.00731576 0.042054154 0.0209668 0.047884077 0.015660662 -0.120332554 -0.00013703814 0.031516828
0.0019640764 -0.039449688 0.004720698 0.0064128935 0.015022851 0.035397574 0.007842927 0.0056936615
0.048650928 0.027375866 0.027372975 -0.008143916 0.006546478 -0.00039793184 0.01513563 0.041750517
0.0004604312 -0.0033742858 0.07089015 0.001950759 0.0020532436 0.05916088 -0.013973517 0.04848236
0.024118155 -0.049924828 0.064999 -0.025341507 -0.009825468 0.01642343 0.042063307 0.028976997
-0.021123756 -0.08736532 0.044714037 -0.014693682 0.06427525 0.01163333 0.00079984573 0.025037894
0.011327725 0.0035713827 0.032464456 0.007016384 0.044434343 0.01454518 0.0021942938 -0.020098794
0.039924335 0.035142142 0.024280656 0.02714899 0.0014558107 -0.0063658813 0.03667641 0.053391103
0.028456347 -0.031299602 0.046225205 0.030842112 0.043123387 -0.014226117 0.0037589802 -0.006136026
-0.017262433 0.010128082 -0.020149512 0.042616222 0.039751165 0.023183554 0.04004828 0.0051598256
0.008302508 0.02483069 0.04068854 0.014207239 -0.022476349 0.006964207 0.006300775 0.022612743
-0.006930629 -0.007901725 0.016229274 0.010486392 0.025953298 0.04740215 0.015215472 0.006808078
0.014703422 0.052191794 -0.057569757 0.00295747 -0.022409128 0.024499217 0.009827542 -0.012433266
0.016719772 0.021472074 -0.026211673 0.007640161 0.013329078 0.025953962 0.06120938 0.012559357
0.04107057 0.027285008 0.02278332 -0.04226596 0.010892667 0.0024362444 -0.0063383924 0.043425933
