results/rdesktop_run_001/Robotarm/Robotarm-4999976.onnx (onnx, 147507 bytes, 9 tensors)

action_model._continuous_distribution.log_sigma f4 [1, 5]
0	0xc057963e	-3.368545
1	0xc04163cf	-3.0217168
2	0xc03b765a	-2.9290986
3	0xbfa98a3d	-1.3245312
4	0xbf6ab44a	-0.9168135

action_model._continuous_distribution.mu.bias f4 [5]
0	0x3d32d048	0.043655664
1	0x3da6f491	0.08152116
2	0xbd1dae0c	-0.038496062
3	0xbdff2063	-0.12457349
4	0x3daca36d	0.084296085

action_model._continuous_distribution.mu.weight f4 [5, 128]
0	0xbd22176a	-0.03957311
1	0xb9f79a2a	-0.00047226372
2	0x3d1e9538	0.038716525
3	0xbcf77521	-0.030207219
4	0x3b420f42	0.0029611145
5	0x3dd12a85	0.10213188
6	0xbd75bf31	-0.059996787
7	0xbd70e7d9	-0.058814857
8	0xbcc5ed25	-0.02416093
9	0xbce641ca	-0.028107543
10	0x3cfe9e91	0.03108147
11	0xbd60cdb2	-0.054883666
12	0xbd6d9a2e	-0.058008365
13	0x3d89b51b	0.06723996
14	0xbe0eed76	-0.13957772
15	0xbca80222	-0.02050883
16	0x3d253d87	0.04034188
17	0x3a6dad03	0.0009066613
18	0xbc6c0a44	-0.014406744
19	0x3bfe870b	0.007767563
20	0xbc46e824	-0.012140308
21	0xbd29941d	-0.041401017
22	0xbcf903a2	-0.03039724
23	0xbc967647	-0.018366946
24	0xbd2519f8	-0.04030797
25	0xbd08ab0f	-0.03336626
26	0xb9b62fcf	-0.00034749365
27	0xbcd6b056	-0.02620713
28	0xbd25b621	-0.040456895
29	0xbd2da036	-0.042389117
30	0xbd022d47	-0.03178146
31	0xbd60f133	-0.054917526
32	0xbcd954dd	-0.026529724
33	0xbd254d1e	-0.040356748
34	0x3ca8eaaa	0.020619709
35	0xbb92cc10	-0.0044798926
36	0xbd81b5cf	-0.06333505
37	0x3dfaf1d5	0.12253157
38	0xbbb02f21	-0.005376712
39	0xbdc2a7a1	-0.09504629
40	0x3c32c46d	0.010911089
41	0x3d22d76d	0.039756227
42	0xbda55c79	-0.080742784
43	0xbca4a13d	-0.020096416
44	0xbd820e69	-0.06350405
45	0x3c3b86df	0.01144573
46	0x3ba638ae	0.0050726747
47	0xbc30c5ad	-0.010789317
48	0xbb850f7d	-0.0040606842
49	0xbd82c2d6	-0.06384818
50	0xbbcef796	-0.0063161356
51	0xbd473461	-0.048633937
52	0x3cd45fce	0.02592459
53	0x3d2c3f9b	0.042052846
54	0xbd282f26	-0.04106059
55	0x3d667a39	0.056268904
56	0x3d073f05	0.033019084
57	0x3d4e1a72	0.05031819
58	0xbc827e4e	-0.015929367
59	0x3cfe0c5c	0.031011753
60	0xbcceda85	-0.025250683
61	0x3d30cfae	0.04316681
62	0xbc3dad29	-0.011576929
63	0x3c1c4600	0.009538174
64	0xbc9f313f	-0.019432662
65	0xbd189afb	-0.037257176
66	0xbd32927c	-0.04359673
67	0x3d8558ef	0.06511103
68	0x3b90f2b4	0.0044234637
69	0xbc8cb8c9	-0.017177956
70	0xbc501e65	-0.012702559
71	0x3d4ae33a	0.049533106
72	0xbd38d6da	-0.045126773
73	0x3d50d064	0.050979987
74	0xbb688831	-0.0035481567
75	0x3cdbf9ca	0.026852507
76	0xbb23325b	-0.002490184
77	0xbd651244	-0.055925623
78	0xbc15102b	-0.009098093
79	0xbd3f0088	-0.046631366
80	0x3d167768	0.03673497
81	0xbc1144bd	-0.008866486
82	0x3c79a55d	0.01523718
83	0xbd45f178	-0.048325986
84	0x3c2f51a2	0.010700615
85	0xbc7dc71b	-0.015489365
86	0x3d10cc4a	0.035351075
87	0xbc923539	-0.017847644
88	0xba8cb977	-0.0010736425
89	0x3d944c56	0.072411224
90	0xba892581	-0.0010463448
91	0x3d693c18	0.056942075
92	0xbc4f3ea0	-0.012649208
93	0x3dbd3766	0.09239082
94	0xbd855ac3	-0.06511452
95	0x3bd8da8a	0.0066178488
96	0xbd2771b1	-0.04087991
97	0xbd29a66b	-0.041418474
98	0xbcf0b8e3	-0.029385036
99	0x3d103502	0.035206802
100	0xbcf6324e	-0.030053284
101	0xbca96961	-0.020680131
102	0xbd349c4f	-0.04409438
103	0x3cc5a433	0.024126148
104	0x3c695fdf	0.014244049
105	0x3cec960a	0.028880138
106	0x3d552293	0.052034926
107	0xbcda034c	-0.0266129
108	0xbbd66566	-0.0065428494
109	0xbc2ecc2b	-0.010668795
110	0xbb10dbc5	-0.002210365
111	0x3cfe02ca	0.03100719
112	0x3c262a50	0.010141924
113	0x3cb9b173	0.022667622
114	0xbc809b23	-0.015698975
115	0x3c0294c5	0.00797004
116	0xbcee3405	-0.02907754
117	0xbb0bdb69	-0.0021340495
118	0x3cb6dd51	0.022322329
119	0xbb186881	-0.0023255649
120	0x3c01254a	0.007882426
121	0x3aff5b13	0.0019482098
122	0x3ca49f92	0.02009562
123	0x3da8c352	0.082403794
124	0xbd09a261	-0.033602122
125	0xbb6f46db	-0.003651074
126	0xbd218a39	-0.03943846
127	0x3d62d57f	0.055379387
128	0xbdc826f4	-0.09773055
129	0xbda61d49	-0.081110545
130	0x3d08ce3a	0.033399798
131	0xbdbad322	-0.09122302
132	0xbc8830fd	-0.016624922
133	0xbcb10468	-0.021608546
134	0xbdb8ca8e	-0.09023009
135	0xbdbf7bd1	-0.09349788
136	0x3cc207ec	0.023685418
137	0xbda908ac	-0.08253607
138	0xbc4fa458	-0.01267346
139	0x3cbc7d67	0.023009015
140	0xbd8fa5b2	-0.07014026
141	0xbe0adace	-0.1356003
142	0x3e2a67a1	0.16641094
143	0xbdadb93a	-0.08482595
144	0x3e054d20	0.13017702
145	0xb9eee2ea	-0.00045563962
146	0xbdab715a	-0.083712295
147	0xbc45b087	-0.012066013
148	0x3c579e49	0.013160297
149	0xbd914eee	-0.07095133
150	0xbd70d4c2	-0.05879665
151	0xbbea3ad3	-0.0071481257
152	0x3bae1729	0.0053128195
153	0xbdbaaeaf	-0.091153495
154	0xbe0ff285	-0.14057358
155	0xbe1294b6	-0.14314541
156	0xbddba72b	-0.10725244
157	0x3ca7a9dd	0.02046674
158	0x3db21859	0.0869605
159	0x3cfa548a	0.03055789
160	0xbdc09880	-0.09404087
161	0xbdd8d313	-0.10587134
162	0xbdaee779	-0.08540244
163	0xbdd1673f	-0.10224771
164	0x3d69f752	0.05712063
165	0xbcd1e9b4	-0.025624134
166	0x3d54233c	0.051791415
167	0x3d854cd7	0.06508797
168	0x3be050bc	0.006845562
169	0x3d348d87	0.044080283
170	0xbc0fd209	-0.008778104
171	0xbce478d9	-0.027889656
172	0x3e174c2a	0.14775148
173	0xbc41f2c3	-0.011837664
174	0xbb2eb81c	-0.002666003
175	0x3d740da1	0.05958331
176	0xbcd88d35	-0.02643452
177	0xbdfe560f	-0.12418758
178	0x3da743d1	0.08167232
179	0xbe028f10	-0.12749887
180	0x3d82feaf	0.06396233
181	0x3d1873d1	0.037219826
182	0x3d02a1fe	0.03189277
183	0x3d0c037c	0.03418301
184	0xbd365d80	-0.044522762
185	0x3d961f43	0.073301814
186	0xbde2abff	-0.11067962
187	0x3d219cbc	0.039456114
188	0xbdd1b26f	-0.10239112
189	0x3d8bf753	0.06834283
190	0xbdf5f00c	-0.12008676
191	0x3d228303	0.039675724
192	0xbde60bbb	-0.11232706
193	0xbdd8c52e	-0.10584484
194	0xbdc822c5	-0.09772257
195	0xbd8640d9	-0.065553375
196	0x3d344d27	0.04401889
197	0x3b715ecf	0.0036830192
198	0xbda5835e	-0.08081697
199	0x3c1c39bc	0.009535249
200	0xbdb872f8	-0.090063035
201	0xbe19d13b	-0.15021221
202	0x3b87c280	0.0041430593
203	0x3d071fd4	0.032989338
204	0x39531281	0.00020129421
205	0x3d89f60c	0.06736383
206	0x3d0f51f2	0.03499026
207	0xbddb40f2	-0.10705747
208	0x3d6ea312	0.058260985
209	0xbbf8f3a2	-0.0075974027
210	0x3d2e5f72	0.042571492
211	0xbd7f7f01	-0.06237698
212	0x3e2ee22b	0.17078464
213	0xbc21350b	-0.009839307
214	0x3cd88b57	0.02643363
215	0xbda13911	-0.07872213
216	0x3c434848	0.011919089
217	0xbdc2f701	-0.095197685
218	0xbd985716	-0.07438485
219	0x3d4270fa	0.047471024
220	0x3bd1da9d	0.0064042346
221	0xbdc9e1a7	-0.09857493
222	0x3d743da8	0.059629112
223	0x3cf24e00	0.029578209
224	0xbe007a8e	-0.12546751
225	0xbd8e95e7	-0.06962185
226	0xbd8feef9	-0.07028002
227	0x3cb65d80	0.022261381
228	0xbdaf2a28	-0.085529625
229	0xbaf11bdd	-0.0018395145
230	0xbdd8cce4	-0.10585955
231	0x3d729d16	0.05923184
232	0x3cf1c733	0.02951393
233	0x3cf8814c	0.030335091
234	0x3d9c09dc	0.07619068
235	0xbdaf3257	-0.085545234
236	0xbae8338b	-0.0017715556
237	0xb8336658	-4.277224e-05
238	0x3cbca829	0.023029404
239	0x3c808c3a	0.015691865
240	0xbd3295d2	-0.04359991
241	0x3b171685	0.0023054194
242	0xbd9ef712	-0.07761969
243	0x3c42017a	0.011841172
244	0xbd9f809d	-0.07788203
245	0x3bb3a111	0.005481847
246	0x3c9714f8	0.018442616
247	0x3b66a03a	0.0035190717
248	0x3cf94d9a	0.030432511
249	0x3c74a0c1	0.014930905
250	0x3bc2ed3d	0.005948691
251	0xbc8e9b13	-0.01740793
252	0xbdd82e5a	-0.10555716
253	0xbd816960	-0.06318927
254	0xbddc9e78	-0.10772413
255	0x3de10fb7	0.109893255

network_body.linear_encoder.seq_layers.0.bias f4 [128]
0	0x3ce7272d	0.028216923
1	0x3da9a7ae	0.082839355
2	0xbd098c0f	-0.033580836
3	0xbcb2d6f5	-0.021831015
4	0x3cf3439f	0.02969533
5	0xbd159769	-0.03652135
6	0x3b54b740	0.0032457858
7	0x3d9320e8	0.07184011
8	0x3c08e092	0.008354323
9	0x3da7ae36	0.08187525
10	0x3d707853	0.0587085
11	0xbd33ea46	-0.043924592
12	0xbd00f557	-0.031483974
13	0x3b643ad3	0.00348251
14	0x3c9d3d47	0.019194258
15	0xbc8a4e8a	-0.016883153
16	0x3dfb2bd5	0.1226422
17	0x3d79c93e	0.060982935
18	0xbdc68176	-0.096926615
19	0xbca56b5d	-0.020192796
20	0x3d03ac01	0.032146458
21	0x3ca00d5b	0.019537618
22	0x3e0f7159	0.14008082
23	0x3dc2ff4c	0.0952135
24	0x3d70bcc9	0.05877379
25	0xbda2e364	-0.079535276
26	0x3cff81d8	0.031189844
27	0xbddd552b	-0.1080726
28	0x3a3ba6d3	0.00071583426
29	0x3d9438b1	0.072373755
30	0xbe02486c	-0.12722939
31	0x3dd61a60	0.104542494
32	0xbce77e0a	-0.028258342
33	0x3dad4115	0.08459679
34	0xbcf9a47a	-0.030473936
35	0x3d42ef05	0.047591228
36	0xbc66874f	-0.014070346
37	0x3d7317f9	0.059349034
38	0x3d568f8f	0.052383002
39	0xbc659697	-0.014012954
40	0x3dd2eee6	0.102994725
41	0x3dbfdcfd	0.09368322
42	0x3d0e46d2	0.03473551
43	0x3d375405	0.04475786
44	0xbd88c5c8	-0.06678349
45	0xbe1abec3	-0.15111832
46	0xbc58f730	-0.013242528
47	0x3d3955eb	0.045247953
48	0x3d727074	0.059189275
49	0x3d8b04d7	0.067880325
50	0x3d5b907f	0.0536046
51	0x3e22dd86	0.15904817
52	0x3de1cae1	0.11025024
53	0x3cf1435a	0.029451061
54	0x3dcaa78d	0.09895239
55	0xbcce1fa4	-0.025161572
56	0xbc051bf1	-0.0081243375
57	0x3ccfd4ed	0.025370086
58	0x3dd54752	0.10413994
59	0x3d8cd0f7	0.068757944
60	0x3e20634d	0.1566288
61	0x3d74f83e	0.059807055
62	0x3da5b933	0.080919646
63	0x3ca6d8c3	0.020367032
64	0x3c7fe084	0.015617494
65	0x3db04e17	0.086086445
66	0x3d4e1701	0.050314907
67	0x3d0d0155	0.0344251
68	0x3bde8414	0.0067906473
69	0x3dbceefc	0.0922527
70	0x3da80ffc	0.08206174
71	0x3c13fe8a	0.009032855
72	0x3d1751db	0.036943298
73	0x3c776e4b	0.0151019795
74	0x3d9b0fc3	0.07571366
75	0xbd845fcf	-0.064635865
76	0x3b0ca00c	0.00214577
77	0x3e00093b	0.12503521
78	0x3d390a83	0.04517604
79	0xbcf4ed3f	-0.029898284
80	0x3ddd9823	0.108200334
81	0x3ade3cc0	0.0016955361
82	0x3d46497a	0.048409916
83	0xbd640f51	-0.05567867
84	0xbcd70a47	-0.026250018
85	0x3d4b1e69	0.04958955
86	0xbd022c0e	-0.031780295
87	0xbd0582ed	-0.032595564
88	0xba3d5daf	-0.0007223738
89	0x3d27f1ea	0.04100219
90	0xbd142e77	-0.036177125
91	0x3d78832f	0.06067198
92	0x3ca56eca	0.02019443
93	0xbc9af8da	-0.01891749
94	0xbda70031	-0.081543334
95	0xbb794e28	-0.003804097
96	0x3e2355c9	0.15950693
97	0xbd8ca03b	-0.06866499
98	0x3d5fe8b0	0.054665267
99	0xbc32df84	-0.010917548
100	0x3d852bc3	0.065024875
101	0x3dd1a210	0.10235989
102	0x3c485622	0.012227567
103	0xba977c3a	-0.0011557408
104	0x3d460883	0.04834796
105	0x3d0a602f	0.033783134
106	0x3d8c36d5	0.06846396
107	0x3d654f0b	0.055983584
108	0xbd42c7af	-0.047553714
109	0x3ce2f463	0.027704423
110	0x3d9df444	0.077126056
111	0x3dca4a42	0.09877445
112	0x3d8377c2	0.06419326
113	0xbc6fb5c7	-0.014630741
114	0x3da6ebc8	0.081504405
115	0x3dcf0b87	0.101096205
116	0xbd6219dd	-0.055200446
117	0x3d5ac504	0.053410545
118	0xbd5ee6bd	-0.054419268
119	0xbd0c3eee	-0.034239702
120	0x3d4e7983	0.05040885
121	0x3d85547e	0.06510256
122	0x3d8dc2bf	0.069219105
123	0x3d4e71ab	0.05040137
124	0x3d93cbb9	0.072165914
125	0xbbef9340	-0.0073112547
126	0xbca72de2	-0.02040762
127	0x3d780390	0.060550272

network_body.linear_encoder.seq_layers.0.weight f4 [128, 19]
0	0xbf0e6747	-0.5562634
1	0xbe7afbb5	-0.24510081
2	0x3f02a9c2	0.5104028
3	0x3da0821c	0.078373164
4	0x3ea9449c	0.33060157
5	0x3d0a1348	0.033709794
6	0x3c9eee01	0.019400598
7	0x3e4b48b6	0.19851956
8	0xbd852028	-0.06500274
9	0xbde53388	-0.111914694
10	0xbe9fe1c8	-0.31226945
11	0xbea7ea6b	-0.32796034
12	0xbe8cc42f	-0.27493426
13	0x3edfef89	0.43737438
14	0xbe6bac3d	-0.23014922
15	0xbe6cbe9a	-0.23119584
16	0xbd3f8006	-0.046752952
17	0x3ebb9427	0.3663647
18	0xbdf9b913	-0.12193503
19	0x3e02605e	0.12732074
20	0xbf14cbb3	-0.5812332
21	0xbe15d720	-0.14632845
22	0x3ee0d3be	0.43911546
23	0x3e433291	0.19062258
24	0xbeddccc8	-0.43320298
25	0x3e27ae05	0.16374977
26	0x3d02d8db	0.03194509
27	0xbe8c8510	-0.2744527
28	0x3e07380a	0.13204971
29	0x3cd32080	0.025772333
30	0xbe8725ee	-0.26396126
31	0x3d8939a6	0.06700449
32	0xbe31f18e	-0.17377302
33	0x3e9e1ddd	0.3088216
34	0x3e5f0648	0.2177974
35	0x3df661a8	0.12030345
36	0xbea8de82	-0.3298226
37	0x3da39c92	0.07988848
38	0xbea483d3	-0.32131824
39	0xbdc969c2	-0.09834625
40	0xbda129cf	-0.078693025
41	0x3e7b891f	0.24564026
42	0xbe59047d	-0.21193118
43	0x3d5f3234	0.054491237
44	0xbe9057bf	-0.28191945
45	0xbefa901a	-0.48938066
46	0x3e879e51	0.26487973
47	0x3e45fde0	0.19335127
48	0xbe054010	-0.13012719
49	0x3b103c57	0.0022008622
50	0x3db9d342	0.09073497
51	0x3f07138f	0.5276422
52	0xbd3a03bc	-0.045413718
53	0x3df862e0	0.12128234
54	0xbdb72f1f	-0.089445345
55	0xbe927465	-0.28604427
56	0xbdefe2ea	-0.11713202
57	0xbdc6e5eb	-0.09711822
58	0xbe876292	-0.2644239
59	0x3e076780	0.13223076
60	0x3e2e40cb	0.17016904
61	0x3dcccc73	0.09999933
62	0x3e70cc5b	0.23515455
63	0xbbfa234d	-0.0076336027
64	0xbda84be2	-0.082175985
65	0x3e0523c5	0.13001926
66	0xbebf9831	-0.374208
67	0x3e52f22b	0.20600192
68	0xbf01e8dc	-0.5074594
69	0x3e753d98	0.23949277
70	0xbe12b3fa	-0.14326468
71	0x3dfd9b65	0.12383155
72	0xbde1b82a	-0.11021455
73	0xbdf2b3ff	-0.11850738
74	0x3eee7637	0.46574566
75	0x3df4942d	0.11942325
76	0xbd2315a4	-0.03981556
77	0xbc243701	-0.01002288
78	0xbe6a66a4	-0.22890717
79	0xbe3bf1b7	-0.18353926
80	0x3de7ee6d	0.11324773
81	0xbd863feb	-0.0655516
82	0xbea58a76	-0.323322
83	0xbe647207	-0.22309123
84	0x3e101233	0.14069442
85	0xbdcb98f5	-0.099412836
86	0xbc9fd361	-0.019509973
87	0xbe8dd3ea	-0.2770074
88	0xbdf921bc	-0.121646374
89	0xbeb503c8	-0.35354447
90	0x3e3f0247	0.18653212
91	0x3d20cc64	0.039257422
92	0x3ea10667	0.31450197
93	0x3e13d0c9	0.14435114
94	0x3e0036fc	0.12520975
95	0xbdef25b1	-0.11677111
96	0xbec7ce54	-0.39024603
97	0x3ee75eca	0.45189506
98	0x3ee36595	0.44413438
99	0x3d968aaa	0.07350667
100	0x3d661cf0	0.05617994
101	0x3da025d7	0.078197174
102	0x3e04fb81	0.12986566
103	0x3e2bf043	0.16790871
104	0x3e2b189f	0.16708611
105	0xbea65d54	-0.3249308
106	0xbe24529b	-0.16047136
107	0xbd452cec	-0.048138544
108	0xbdf9c87b	-0.12196442
109	0xbd0ac4db	-0.033879142
110	0xbdef949c	-0.11698267
111	0xbcff818d	-0.031189704
112	0xbdbc8cdb	-0.092065535
113	0x3e78bbe1	0.2429042
114	0xbe3e30fc	-0.18573374
115	0xbe306461	-0.17225792
116	0xbdb3a2e4	-0.08771303
117	0x3e0ee9f1	0.13956429
118	0x3dfc441f	0.123176806
119	0x3ebda5df	0.37040612
120	0x3c6fd7f5	0.0146388905
121	0x3e829bf5	0.2550961
122	0xbae60d15	-0.0017551506
123	0x3d897837	0.06712382
124	0xbe54d751	-0.20785262
125	0x3e1f6700	0.15566635
126	0xbea63913	-0.3246542
127	0x3ee3d703	0.44499978
128	0x3df8f474	0.12156001
129	0xbe07a9e0	-0.13248396
130	0x3dc11cba	0.09429307
131	0xbdcac8b2	-0.09901561
132	0xbd19666d	-0.037451196
133	0x3d3fcc29	0.04682556
134	0xbdc5b478	-0.09653562
135	0xbecb7862	-0.39740282
136	0xbc0b7abc	-0.008513149
137	0xbe3e580f	-0.18588279
138	0x3eb47982	0.35248953
139	0xbbbd8b0f	-0.0057843993
140	0x3e8ff0c4	0.28113377
141	0xbeaef7a3	-0.34173307
142	0x3c218f60	0.009860843
143	0xbe14aa84	-0.14518172
144	0x3de2f446	0.11081748
145	0xbd11f5dc	-0.03563486
146	0xbe84fbfa	-0.25973493
147	0x3ebce4b7	0.36893246
148	0xbee47fd6	-0.4462878
149	0x3ea05aa1	0.31319144
150	0xbd91349c	-0.070901126
151	0xbe88576c	-0.26629198
152	0x3d6cb70e	0.057791762
153	0xbba2fe16	-0.004974137
154	0x3e47a999	0.1949829
155	0x3ed00415	0.40628114
156	0xbe582c84	-0.21110731
157	0xbf0ac7f5	-0.5421136
158	0xbb7e996b	-0.0038848768
159	0x3e861109	0.26184872
160	0xbdd6edad	-0.10494552
161	0x3bc0c92c	0.0058833566
162	0x3dbe32db	0.09287044
163	0xbeaff6de	-0.34368032
164	0xbe73eeef	-0.23821615
165	0x3e6c8f1d	0.23101468
166	0x3d9b37ef	0.07579028
167	0xbeb57588	-0.35441232
168	0x3eb81bd0	0.3595872
169	0x3ee99c71	0.45627168
170	0x3f187e83	0.5956804
171	0x3cbf1999	0.023327636
172	0x3ea68c28	0.32528806
173	0xbe2dd244	-0.16974741
174	0xbccdfc3a	-0.025144685
175	0xbea0fd2c	-0.31443155
176	0x3e876975	0.26447645
177	0xbdd5c2b5	-0.10437528
178	0xbdd983d1	-0.10620845
179	0xbe2137b4	-0.15743905
180	0x3e09d439	0.13459863
181	0x3e883dd7	0.2660968
182	0x3ea5610a	0.32300597
183	0xbc699d07	-0.01425863
184	0xbdd451a7	-0.103671364
185	0x3da43825	0.08018521
186	0x3ece9454	0.4034754
187	0x3dc84708	0.09779173
188	0x3dad7033	0.08468666
189	0x3e9ff405	0.3124086
190	0x3ea8c7b5	0.32964864
191	0xbe22da5b	-0.15903609
192	0xbdfc6cda	-0.12325449
193	0xbef3c8be	-0.47614092
194	0x3da84791	0.08216775
195	0x3e29e8df	0.1659274
196	0x3e41b75d	0.18917604
197	0x3da309a1	0.07960821
198	0x3e333b6b	0.17503135
199	0x3e76e702	0.2411156
200	0xbf408b8d	-0.7521294
201	0xbe0ac030	-0.13549876
202	0xbe1827f5	-0.14858992
203	0xbe15639d	-0.1458878
204	0x3ecf7119	0.40515974
205	0xbddb00f2	-0.1069354
206	0xbe47cb55	-0.19511159
207	0xbea364a1	-0.3191271
208	0xbd8bde00	-0.068294525
209	0xbe832d87	-0.25620672
210	0xbe4d33e0	-0.2003932
211	0x3cbc2cff	0.022970675
212	0x3ec36a4d	0.3816704
213	0x3d9142dc	0.070928305
214	0xbe4fb504	-0.20283896
215	0x3e5701b4	0.20996743
216	0x3e0abd29	0.13548721
217	0xbe12e659	-0.14345683
218	0x3df17adc	0.11791012
219	0x3dfde054	0.12396303
220	0x3dfa67a1	0.12226797
221	0x3d52fdf3	0.051511716
222	0x3cc4fb07	0.02404548
223	0xbcaaea38	-0.020863637
224	0xbd5dbcb6	-0.054135047
225	0xbf2ca542	-0.67439663
226	0xbe2630f3	-0.1622961
227	0xbe7d2ec8	-0.24724877
228	0xbe8e138e	-0.27749294
229	0xbd67ce7e	-0.05659341
230	0x3d9355de	0.07194112
231	0xbd9686b8	-0.07349914
232	0x3e538682	0.2065678
233	0x3d2c4fb4	0.0420682
234	0x3ef91e78	0.48656058
235	0x3e8b1373	0.27163276
236	0xbda3d112	-0.07998861
237	0xbe2b83fe	-0.1674957
238	0xbebf8324	-0.3740474
239	0x3e3b024c	0.18262595
240	0xbe4c0773	-0.19924717
241	0xbe470f2b	-0.1943938
242	0xbe7d88e3	-0.2475925
243	0x3d701981	0.058618072
244	0xbe8d7c1b	-0.27633747
245	0xbde529ca	-0.11189611
246	0xbe959027	-0.29211542
247	0xbeb3d5f7	-0.3512418
248	0xbeb4ea0f	-0.35334823
249	0xbee6f915	-0.4511191
250	0x3df57a03	0.119861625
251	0xbd1371fb	-0.035997372
252	0xbca4a53b	-0.02009832
253	0xbc2e9b04	-0.010657076
254	0xbdc42c39	-0.09578747
255	0x3e848a0f	0.2588658

network_body.linear_encoder.seq_layers.2.bias f4 [128]
0	0x3d0829ed	0.03324311
1	0xbe1b85a0	-0.15187693
2	0x3d4e6721	0.05039132
3	0x3d6b93db	0.057514053
4	0xbc81628a	-0.015794057
5	0xbd33d411	-0.043903414
6	0x3d698b4f	0.05701762
7	0x3d854700	0.06507683
8	0xbd912339	-0.07086796
9	0x3d0b5388	0.03401521
10	0x3d507a8d	0.050898124
11	0xbd88215e	-0.06646989
12	0xbd8eb8a2	-0.0696881
13	0x3d85a81e	0.065262064
14	0xbe11df70	-0.14245391
15	0x3cf80050	0.030273587
16	0x3d454318	0.04815969
17	0x3d3a048a	0.045414485
18	0x3d3ce2a6	0.046114586
19	0xbdbc4046	-0.09191947
20	0x3d281298	0.041033357
21	0xbe007d05	-0.12547691
22	0xbe125163	-0.14288859
23	0x3d8b49c0	0.06801176
24	0x3d8f1f2b	0.06988367
25	0x3d130093	0.03588922
26	0x3d91e9b6	0.07124655
27	0x3d05985c	0.032616004
28	0xbdba2579	-0.090891786
29	0xbe019630	-0.12654948
30	0x3d534c5e	0.0515865
31	0xbe06b84e	-0.13156244
32	0x3d1aaa02	0.03775979
33	0xbe11e7eb	-0.14248626
34	0xbe05ae81	-0.13054849
35	0x3d949c04	0.0725632
36	0xbdb438ee	-0.08799921
37	0x3d29a1ca	0.04141406
38	0x3d20cc78	0.039257497
39	0xbd4d3c54	-0.05010636
40	0x3d6621a0	0.05618441
41	0x3d35e991	0.0444122
42	0x3d3d6762	0.04624117
43	0x3d30e13a	0.043183543
44	0x3d749a15	0.059717257
45	0x3d6dfbd4	0.05810149
46	0xbe02f470	-0.12788558
47	0x3d958c8e	0.07302199
48	0x3cea1b23	0.028577393
49	0x3d997fe8	0.07495099
50	0xbe0e6eb8	-0.13909423
51	0xbe02ea6b	-0.12784736
52	0xbded9b77	-0.11601918
53	0x3d6b9312	0.057513304
54	0xbe2901c0	-0.16504574
55	0x3ba48a6b	0.0050213835
56	0xbe185201	-0.14875032
57	0x3d1c955f	0.03822839
58	0x3daaed9b	0.08346101
59	0x3d6c0b60	0.057628036
60	0xbdee7bc5	-0.11644701
61	0x3d5d6138	0.054047793
62	0xbe012310	-0.12611032
63	0x3d81dbb9	0.06340737
64	0xbd4e6c83	-0.050396454
65	0x3d4102df	0.04712188
66	0x3d8c6ff1	0.06857289
67	0xbddcfd32	-0.10790481
68	0xbdd386f9	-0.10328478
69	0x3d89f4d2	0.06736149
70	0x3d163c4b	0.036678594
71	0xbe07d974	-0.13266546
72	0x3cbaf2dc	0.022820882
73	0xbe12bcc7	-0.14329825
74	0x3cdb389d	0.026760394
75	0x3d8a5c4d	0.06755886
76	0xbd99b66e	-0.07505499
77	0xbdc1cff5	-0.09463493
78	0x3da5f891	0.08104051
79	0xbdfbe888	-0.12300211
80	0xbdf2a93f	-0.118486874
81	0x3d971418	0.073768795
82	0x3cfb0b88	0.030645147
83	0x3d4d0a27	0.05005851
84	0x3bd992b1	0.0066398014
85	0xbe1fb99e	-0.15598151
86	0xbe0ffebc	-0.14062017
87	0x3d0f8ad5	0.03504451
88	0x3d5ba8bc	0.053627715
89	0x3d6fcff0	0.058547914
90	0xbd7171e1	-0.058946494
91	0x3d819bdd	0.06328557
92	0xbd889ecb	-0.06670912
93	0xbe09c635	-0.13454516
94	0xbc1cbba2	-0.0095662195
95	0xbe0a277e	-0.13491628
96	0x3d116929	0.03550068
97	0x3d418071	0.047241632
98	0xbde63039	-0.112396665
99	0x3c9a3748	0.018825188
100	0x3d72826e	0.05920642
101	0x3da8e1f3	0.082462214
102	0x3c676051	0.014122085
103	0x3da98f34	0.08279267
104	0xbe0986eb	-0.13430373
105	0xbdae95d8	-0.08524674
106	0x3d24a771	0.040198747
107	0xbd30ee66	-0.043196104
108	0x3d03d277	0.032183137
109	0x3d89618a	0.06708057
110	0x3d0a1e6c	0.03372042
111	0xbde987a6	-0.11402826
112	0x3d829105	0.063753165
113	0x3d557bd7	0.052120056
114	0xbe162626	-0.1466299
115	0x3c99138d	0.01868608
116	0x3d2b72c6	0.041857503
117	0x3db1fe55	0.08691088
118	0xbdcf8931	-0.10133589
119	0x3c5e2e9f	0.01356092
120	0xbe0de9db	-0.1385874
121	0xbd331e87	-0.043730285
122	0xbdc11d03	-0.09429362
123	0xbe0813cb	-0.132888
124	0x3c9490c4	0.018135436
125	0x3d2c8773	0.042121362
126	0xbdd36252	-0.103214875
127	0xbe0e5227	-0.13898526

network_body.linear_encoder.seq_layers.2.weight f4 [128, 128]
0	0x3c928987	0.017887844
1	0xbcbc41b3	-0.022980547
2	0x3d6c0962	0.057626136
3	0x3d364e9a	0.044508554
4	0x3e483797	0.19552456
5	0xbd82ad3f	-0.063807
6	0x3d8e08fd	0.06935308
7	0x3e06e665	0.13173826
8	0x3d9529f8	0.072833955
9	0xbe02bae9	-0.12766613
10	0x3d9f9aac	0.07793173
11	0xbe1bc77d	-0.15212817
12	0xbe04c76e	-0.12966701
13	0x3e9c24c0	0.30496788
14	0xbe284823	-0.16433768
15	0x3d54005c	0.051758155
16	0xbe23a3e4	-0.15980488
17	0x3e056990	0.1302855
18	0x3d90757f	0.070536606
19	0x3e0a0b86	0.13480958
20	0x3e23e385	0.1600476
21	0xbe16819d	-0.14697881
22	0xbd77bca5	-0.06048264
23	0xbe0a683a	-0.13516322
24	0x3e25088f	0.16116546
25	0x3d98bf31	0.07458342
26	0x3c4f4287	0.012650139
27	0x3d407975	0.04699083
28	0x3d3a400d	0.04547124
29	0x3cbd8d85	0.02313877
30	0x3d97afe9	0.07406599
31	0xbe11476b	-0.141874
32	0x3e15f0a0	0.14642572
33	0xbc0f5ad3	-0.0087496815
34	0xbb3f8e2b	-0.0029229026
35	0x3daf5b50	0.08562338
36	0x3b4f214a	0.0031605535
37	0x3d0af75e	0.033927314
38	0x3df5781d	0.119858004
39	0x3c9bf12a	0.019035894
40	0x3d649ed3	0.05581553
41	0x3d986491	0.074410565
42	0xbc85302e	-0.016258325
43	0x3d6453ff	0.055744167
44	0xbd897881	-0.067124374
45	0x3c711bec	0.01471613
46	0x3cbdc8e5	0.023167083
47	0xbca00693	-0.019534385
48	0xbdf030a9	-0.11728031
49	0xbda3894c	-0.07985172
50	0x3dacb3f3	0.0843276
51	0x3df7f901	0.121080406
52	0x3e7888dc	0.24270958
53	0x3d7b2837	0.06131765
54	0xbca33b84	-0.01992584
55	0x3d7acce9	0.061230574
56	0xbc84016e	-0.016113963
57	0x3c9a269b	0.018817237
58	0xbd2dd74d	-0.042441655
59	0x3e730ef5	0.23736174
60	0x3d0f316d	0.034959245
61	0xbc2fa167	-0.010719634
62	0x3d3451b9	0.04402325
63	0xbe14f517	-0.1454662
64	0x3ded47a5	0.11585931
65	0x3da4dc68	0.08049852
66	0x3e563517	0.2091869
67	0x3d81a7d9	0.063308425
68	0xbe137875	-0.1440142
69	0xbd49f11b	-0.0493022
70	0x3e4f9fab	0.20275752
71	0xbcf415c8	-0.029795542
72	0xbe15b28b	-0.1461889
73	0xbc7848cc	-0.015154075
74	0x3e7a3457	0.24434029
75	0xbddde883	-0.10835364
76	0xbe543edb	-0.20727102
77	0x3e1aa178	0.15100658
78	0x3d93e01d	0.072204806
79	0x3c747b97	0.014922044
80	0xbd9843ce	-0.07434808
81	0xbc88e707	-0.016711725
82	0xbd52c018	-0.051452726
83	0x3db6eac2	0.08931495
84	0x3ced9f53	0.029006636
85	0xbd6fa147	-0.058503415
86	0xbca405e8	-0.020022348
87	0x3cbd3d02	0.02310038
88	0x3c30b6a6	0.010785734
89	0x3c67e226	0.014153039
90	0xbdec7833	-0.11546364
91	0x3d9d8487	0.07691293
92	0xbcafcd3f	-0.021460174
93	0x3cdac458	0.026704952
94	0x3aa142b2	0.0012303202
95	0xbda16aa8	-0.07881671
96	0x3d4e679f	0.05039179
97	0x3e0d064e	0.13771936
98	0xbcee5f87	-0.029098285
99	0xbdaa9ca3	-0.08330657
100	0xbd265943	-0.04061247
101	0x3e4e96d9	0.20174731
102	0xbe2bd0f1	-0.16778924
103	0xbc89fe86	-0.016844999
104	0x3d2ab9c1	0.041681055
105	0xbd1e1bfe	-0.038600914
106	0x3e692af3	0.2277029
107	0xbc810be8	-0.015752748
108	0xbeab5774	-0.3346516
109	0x3e0adbc9	0.13560404
110	0xbd97d295	-0.07413212
111	0xbd816f76	-0.063200876
112	0x3d14b670	0.0363068
113	0xbe32f5ec	-0.17476624
114	0xbe0195a9	-0.12654747
115	0xbc8b6af6	-0.017018776
116	0x3cb09834	0.021556951
117	0x3e097181	0.13422205
118	0x3dfbf3a3	0.123023294
119	0x39200a94	0.0001526273
120	0xbc036c26	-0.00802139
121	0x3e5f974f	0.21835063
122	0xbde61bfd	-0.11235807
123	0x3c9f4aab	0.019444784
124	0x3c999535	0.018747905
125	0xbe8820ff	-0.26587674
126	0x3d934c70	0.07192314
127	0xbe0cb4fb	-0.13740914
128	0xbd81a352	-0.06329979
129	0xbe504c11	-0.20341517
130	0x3e55792a	0.20847002
131	0xbe4f7f5d	-0.20263429
132	0xbc3122cb	-0.010811518
133	0x3e989529	0.298013
134	0x3d7ed02b	0.062210243
135	0xbe629b86	-0.2212964
136	0x3d0ec66f	0.03485721
137	0x3ce5799e	0.028012093
138	0xbcda91fe	-0.026680943
139	0x3ded38f9	0.11583132
140	0x3e949a0f	0.29023787
141	0xbe8a579a	-0.2701996
142	0xbdae3a40	-0.08507204
143	0x3e3dc709	0.18532957
144	0xbd57d7e3	-0.05269612
145	0xbe38c116	-0.18042406
146	0xbd911b78	-0.070853174
147	0x3e266c3e	0.16252229
148	0xbdf7617f	-0.12079143
149	0xbc4e8c74	-0.012606729
150	0x3e5687a8	0.20950186
151	0xbc0b0e73	-0.008487332
152	0x3e820d81	0.25400928
153	0xbe48a254	-0.19593173
154	0xbe37cd4f	-0.17949413
155	0x3dce9d3a	0.10088582
156	0xbd4b688d	-0.049660254
157	0xbe1c9834	-0.15292436
158	0xbd358310	-0.044314444
159	0x3d0afcae	0.03393238
160	0x3da00c77	0.078148775
161	0xbd4f4093	-0.050598692
162	0xbea93fb2	-0.33056408
163	0xbe939e26	-0.28831595
164	0x3da5838f	0.080817334
165	0xbd7aefb4	-0.061263755
166	0xbc4e002a	-0.012573281
167	0xbc07f16e	-0.008297307
168	0x3b285ced	0.0025690154
169	0xbe0d786b	-0.13815467
170	0xbd39ff62	-0.045409568
171	0xbeafad33	-0.34311828
172	0x3e109aa2	0.14121488
173	0xbd344cd0	-0.044018567
174	0xbded5afd	-0.1158962
175	0xbd20edb8	-0.039289206
176	0x3da7584c	0.08171138
177	0xbd2dfe77	-0.042479005
178	0xbd7fdc1e	-0.06246578
179	0xbc5fbb42	-0.013655486
180	0x3bf7bfed	0.007560721
181	0x39bc1e4c	0.00035880727
182	0x3e4d0e14	0.20024902
183	0x3d4fd0be	0.05073618
184	0x3e6f7135	0.23383029
185	0xbde8c533	-0.11365738
186	0x3e5a5e78	0.213251
187	0xbddc4de6	-0.107570454
188	0x3e4ad6fd	0.19808574
189	0xbde7875f	-0.11305117
190	0xbddea02b	-0.10870393
191	0x3e7de461	0.24794151
192	0xbd52c1aa	-0.051454224
193	0xbdbbd6fd	-0.09171865
194	0xbe2771ab	-0.16351955
195	0xbe596110	-0.21228433
196	0xbd5bf02d	-0.053695846
197	0xbdba0684	-0.09083274
198	0xbdffdfe1	-0.124938734
199	0x3cdcce5d	0.02695387
200	0x3e0899cc	0.13339919
201	0xbcbed748	-0.023296013
202	0xbe56610d	-0.2093546
203	0x3d9d092d	0.07667766
204	0x3e6c7959	0.23093165
205	0x3d9a8754	0.07545343
206	0xbd75bafb	-0.05999277
207	0xbd330c50	-0.043712914
208	0xbc96c6b0	-0.018405288
209	0x3c0a5bab	0.008444707
210	0xbd8b5e6a	-0.068051174
211	0x3dd8cecd	0.10586319
212	0xbd97a95d	-0.0740535
213	0xbe0fa539	-0.14027871
214	0xbdb31636	-0.08744471
215	0xbca98e28	-0.020697668
216	0xbd7b0e83	-0.061293136
217	0xbe395e3b	-0.18102352
218	0x3e97f864	0.29681695
219	0xbd904358	-0.07044095
220	0x3ecfdbbb	0.4059733
221	0xbdf2c3c9	-0.11853749
222	0x3dfa8446	0.122322604
223	0x3db20cbd	0.08693836
224	0xbd9b150f	-0.07572376
225	0x3da4a4d0	0.08039248
226	0xbd7eb605	-0.062185306
227	0x3e2d646b	0.16932838
228	0xbdb712da	-0.089391425
229	0xbe6e2fff	-0.23260497
230	0x3de9e48d	0.11420546
231	0x3dbf0c9a	0.093285754
232	0x3e75b241	0.2399378
233	0xbe0078e4	-0.12546116
234	0x3c558bca	0.013033817
235	0xbe7d6c2b	-0.24748294
236	0x3e8b8a66	0.27254027
237	0xbc529130	-0.012851998
238	0xbe372d0d	-0.1788828
239	0x3dc29482	0.09500982
240	0xbe50fa97	-0.20408092
241	0x3e10ad53	0.14128618
242	0xbc3f8f10	-0.011691824
243	0x3d69a08a	0.057037868
244	0x3e3e93d6	0.18611082
245	0xbe106386	-0.14100465
246	0x3d95436c	0.0728825
247	0x3e72b62c	0.23702306
248	0xbd741d23	-0.0595981
249	0xbe108a47	-0.14115249
250	0xbdbf9efd	-0.093564965
251	0xbdda0b2e	-0.106466636
252	0xbdac685e	-0.08418344
253	0x3d0d477e	0.03449201
254	0xbe373d07	-0.17894374
255	0xbe5466ed	-0.20742388

network_body.linear_encoder.seq_layers.4.bias f4 [128]
0	0xbd691176	-0.056901418
1	0xbd4f0917	-0.050545778
2	0x3d68dd79	0.056851838
3	0xbd55c4cf	-0.052189644
4	0xbcac007a	-0.020996321
5	0xbd05016e	-0.032472067
6	0xbd55b6a8	-0.052176148
7	0xbda5d59f	-0.080973856
8	0x3c5cf0d0	0.013485149
9	0xbd9b785f	-0.07591318
10	0x3cdcdd85	0.026961097
11	0x3cb878f4	0.022518612
12	0xbd6f2544	-0.05838515
13	0xbc912693	-0.017718589
14	0xbbbdfca1	-0.005797938
15	0xbd5ccf1e	-0.05390846
16	0x3d0920fa	0.033478715
17	0x3d852ce5	0.065027036
18	0xbd23fc17	-0.040035333
19	0x3d353fc6	0.044250272
20	0x3d8aab8c	0.06771001
21	0xbdc14ad4	-0.094381005
22	0xbd37b24a	-0.044847764
23	0x3d528a78	0.051401585
24	0xbc61e8d6	-0.013788423
25	0xbd98894b	-0.074480616
26	0xbd8aa3b2	-0.06769504
27	0xbd893e7d	-0.06701372
28	0xbd3665a2	-0.04453052
29	0x3d27e439	0.040989134
30	0xbb9ebe5a	-0.004844469
31	0x3ca0b974	0.019619681
32	0xbda83f2a	-0.082151726
33	0xbd45038b	-0.048099082
34	0xbd1d649c	-0.038426027
35	0xbd99b573	-0.07505312
36	0x3d58acd7	0.052899208
37	0x3b2f7229	0.0026770926
38	0x3d81699c	0.063189715
39	0x3d03e877	0.032204118
40	0x3d83e6fa	0.0644054
41	0x3d92d8c1	0.07170249
42	0xbc9acaaf	-0.018895475
43	0xbd4a1605	-0.049337406
44	0x3c177db3	0.009246278
45	0xbd7f534a	-0.06233529
46	0xbd90d239	-0.07071347
47	0x3d59ab80	0.05314207
48	0xbdabac9d	-0.08382533
49	0xbccced63	-0.025015539
50	0x3dabb4b0	0.08384073
51	0xbd2e1c43	-0.04250742
52	0x3d3f087e	0.04663896
53	0x3d8627bb	0.06550547
54	0x3cc80af3	0.024419283
55	0x3d75e7a8	0.060035378
56	0xbbad8c81	-0.0052962904
57	0x3dc7c805	0.097549476
58	0xbd3e0b2c	-0.046397373
59	0x3d9236ec	0.07139382
60	0xbd34c99c	-0.044137582
61	0x3dd3ce71	0.1034211
62	0xbd810e0d	-0.06301508
63	0x3da24b39	0.07924504
64	0xbd9fd50d	-0.07804308
65	0xbd535ba2	-0.05160106
66	0xbd475ef6	-0.048674546
67	0xbcb9c786	-0.022678148
68	0x3d94d459	0.072670646
69	0x3d7a4672	0.061102338
70	0xbd599ab7	-0.053126063
71	0x3d33a9c7	0.043863084
72	0xbd2a7026	-0.04161086
73	0xbc3082f1	-0.010773406
74	0x3d2ab4a6	0.041676186
75	0x3d6e54c2	0.0581863
76	0x3d82646d	0.06366811
77	0x3b310329	0.002700994
78	0x3d6758af	0.05648106
79	0xbd8a5c19	-0.067558475
80	0x3dd38899	0.10328788
81	0x3d1bd9e7	0.038049605
82	0x3d83c3fe	0.06433867
83	0xbd8f20f4	-0.06988707
84	0x3d899388	0.067175925
85	0xbce3512b	-0.027748665
86	0x3d48f029	0.04905716
87	0xbd47a916	-0.048745237
88	0x3d6081d6	0.05481132
89	0xbbeea754	-0.0072831307
90	0xbd860efb	-0.06545826
91	0x3daf8671	0.085705645
92	0x3d527fc6	0.051391385
93	0x3cacea5f	0.02110785
94	0x3d2574f5	0.040394742
95	0x3d8d8866	0.069107816
96	0xbd8cab1e	-0.068685755
97	0xbd042b0b	-0.03226761
98	0xbd6650f0	-0.05622953
99	0x3d99151d	0.0747473
100	0xbdac6574	-0.08417788
101	0x3cf93ce2	0.030424539
102	0xbd73229e	-0.059359185
103	0x3d6b73e8	0.057483584
104	0x3d03d13f	0.032181975
105	0x3d67b1a5	0.0565659
106	0x3dc1d2f0	0.09464061
107	0xbd509a20	-0.050928235
108	0x3d6ebc31	0.058284942
109	0x3d6412c1	0.055681948
110	0x3d5bcf1a	0.053664304
111	0x3cc705d7	0.024294777
112	0xbd91c544	-0.071177036
113	0x3d3151f2	0.04329104
114	0xbd8f0719	-0.06983776
115	0x3d80e54e	0.062937364
116	0xbd8e71e0	-0.06955314
117	0xbd10fa6f	-0.035395082
118	0x3d1348e5	0.03595819
119	0x3b8f2bd3	0.004369238
120	0x3d71bf3c	0.059020266
121	0x3d512df5	0.05106922
122	0x3d1b1699	0.037863348
123	0x3d4e41f3	0.050355863
124	0xbd969e11	-0.073543675
125	0xbd54754b	-0.05186967
126	0xbd5905c6	-0.05298402
127	0x3cfeb95e	0.03109425

network_body.linear_encoder.seq_layers.4.weight f4 [128, 128]
0	0xbdd42d01	-0.10360146
1	0x3d073bbe	0.03301596
2	0xbe08f2b0	-0.13373828
3	0x3cd150d2	0.025551233
4	0xbe3cc45a	-0.18434277
5	0x3e384e13	0.17998533
6	0xbdde0a7b	-0.10841843
7	0x3b1ac599	0.0023616313
8	0xbbe3781f	-0.00694181
9	0xbdbea72c	-0.09309229
10	0xbe14986c	-0.1451127
11	0x3d579085	0.05262806
12	0xbdc44347	-0.09583145
13	0xbe987f5a	-0.29784662
14	0xbd6d8f47	-0.057997968
15	0xbd73b868	-0.059502035
16	0xbe195b46	-0.14976224
17	0x3e02d0ef	0.12775014
18	0xbdd19ff2	-0.10235585
19	0xbd00e275	-0.031465966
20	0xbc8883fb	-0.016664496
21	0x3e692e56	0.22771582
22	0x3dda91c6	0.10672335
23	0x3dfe255a	0.12409468
24	0xbddec194	-0.10876766
25	0x3c7ad08d	0.015308511
26	0xbbbc73eb	-0.005751123
27	0xbe365b9f	-0.17808388
28	0x3dbb81d3	0.091556214
29	0x3e05c03f	0.13061617
30	0xbd504013	-0.050842356
31	0x3e6acef5	0.2293051
32	0x3acb574c	0.0015513687
33	0xbb62d6d8	-0.003461292
34	0x3dbcbab5	0.09215299
35	0x3cc3f1b8	0.023918971
36	0x3dec0b68	0.11525613
37	0xbd3370c8	-0.04380873
38	0xbdeefce4	-0.11669329
39	0xbe0c3a3f	-0.13694094
40	0x3d3ee8fc	0.04660891
41	0x3d26f9b6	0.040765487
42	0xbddea17b	-0.10870644
43	0xbe605dc5	-0.2191077
44	0xbe0497b8	-0.12948501
45	0xbca876b6	-0.020564418
46	0xbda3dea2	-0.08001448
47	0xbdca6cc3	-0.09884026
48	0x3d9f31f8	0.07773203
49	0xbe8735b8	-0.26408172
50	0x3e2fdc31	0.1717384
51	0x3e1e086c	0.154329
52	0x3dc59c28	0.09648925
53	0xbcf9b72b	-0.03048285
54	0x3dec6f0d	0.11544619
55	0x3d526a30	0.0513708
56	0x3c3805c4	0.011231843
57	0xbd97a81e	-0.07405113
58	0xbe0e9f9a	-0.1392807
59	0x3a05a242	0.00050977257
60	0x3d73cf68	0.05952397
61	0xbd2e7b5e	-0.04259812
62	0xbcc3f608	-0.023921028
63	0xbd9eded8	-0.07757348
64	0x3c4e1b94	0.012579817
65	0xbd2cb55d	-0.04216515
66	0xbe31c053	-0.17358522
67	0xbb816d1c	-0.0039497744
68	0x3d1c932e	0.0382263
69	0xbe258345	-0.16163357
70	0x3de02b35	0.10945741
71	0x3dd42dfe	0.10360335
72	0xba5cac78	-0.0008418034
73	0x3d8524b1	0.06501139
74	0xbcd6bede	-0.02621406
75	0xbe74b14d	-0.2389576
76	0xbd4a764c	-0.049429223
77	0x3e1e9111	0.15485026
78	0xbe349f72	-0.17638949
79	0x3e3f5d0b	0.18687837
80	0x3c34309e	0.010997919
81	0x3cf36c4b	0.029714724
82	0xbe048e73	-0.12944965
83	0xbe8e153a	-0.2775057
84	0x3ab99dcd	0.0014161408
85	0x3ddff988	0.10936266
86	0x3e41076b	0.18850486
87	0xbd1bccd5	-0.03803714
88	0x3cc8a6be	0.024493571
89	0xbe3f27f0	-0.18667579
90	0x3e08c83b	0.13357632
91	0xbd971d0b	-0.073785864
92	0x3dc3dc7c	0.095635384
93	0x3dbb9885	0.0915995
94	0x3de46aff	0.111532204
95	0xbd0f0e82	-0.034925945
96	0xbdc9a05c	-0.09845039
97	0x3d8781ef	0.0661658
98	0x3ca38725	0.019961903
99	0xbe2f336f	-0.17109464
100	0x3ca30100	0.019897938
101	0x3c67c9e3	0.014147255
102	0x3d447dd8	0.047971576
103	0xbdd6469a	-0.10462685
104	0x3de8ecf6	0.11373322
105	0xbbfba750	-0.0076798573
106	0xbd30a97c	-0.043130383
107	0x3cda71f8	0.026665673
108	0xbe26e222	-0.162972
109	0xbb7b4f95	-0.0038346995
110	0xbdb0a163	-0.08624532
111	0x3e42cdea	0.19023862
112	0xbe0c8cbd	-0.13725562
113	0xbe26132d	-0.16218252
114	0xbbc14d03	-0.005899073
115	0xbda8b435	-0.08237497
116	0xbd033d38	-0.032040805
117	0xbe2c9981	-0.16855432
118	0x3d0c95a0	0.03432238
119	0xbc47b075	-0.012188067
120	0x3dd05cb9	0.101739354
121	0x3e188f9e	0.14898536
122	0x3e0d6e68	0.13811648
123	0x3d9bd739	0.0760941
124	0x3d7fdb7d	0.06246518
125	0xbdec69d2	-0.11543621
126	0x3d706b19	0.058695886
127	0x3d886002	0.06658937
128	0xbe38ee71	-0.18059708
129	0x3d7de2e8	0.061983973
130	0xbe2eb683	-0.1706181
131	0x3dec5b74	0.11540881
132	0x3dd975cb	0.1061817
133	0x3d568f39	0.05238268
134	0xbdbcb17c	-0.0921354
135	0xbe9e5093	-0.30920848
136	0xbd3d2cdb	-0.046185356
137	0xbdafc43e	-0.08582352
138	0xbe3ea5f2	-0.1861799
139	0x3cff2809	0.03114702
140	0x3d2d043e	0.042240374
141	0xbea3bfea	-0.31982356
142	0xbda9c3fa	-0.08289333
143	0x3d904511	0.07044423
144	0xbe40f669	-0.18843998
145	0x3be9fc64	0.007140683
146	0x3de4b303	0.11166956
147	0x3d3473c7	0.044055726
148	0xbd9bd708	-0.07609373
149	0x3df0d51f	0.117593996
150	0x3ddbf719	0.107404895
151	0xbdd6d41e	-0.10489677
152	0xbd528621	-0.051397447
153	0xbcc5c1a7	-0.024140192
154	0x3bd31ea9	0.006442864
155	0xbe82b76d	-0.25530568
156	0x3e253e44	0.16137034
157	0x3e2e0c6b	0.16996925
158	0xbdebd275	-0.11514751
159	0xbd266fec	-0.04063408
160	0xbc82df88	-0.015975729
161	0x3de72417	0.112861805
162	0x3c9e9339	0.01935731
163	0xbe27f5c2	-0.16402343
164	0x3df8a998	0.121417224
165	0xbe87f38a	-0.26552993
166	0x3b6f5fa6	0.0036525517
167	0x3dbf2068	0.09332353
168	0x3dafd32f	0.08585202
169	0x3c3ea61d	0.011636284
170	0xbe009eda	-0.12560597
171	0xbc5624d5	-0.013070305
172	0x3e048231	0.12940289
173	0x3dd18fd5	0.10232512
174	0x3dc1a1a9	0.09454662
175	0xbceb803f	-0.028747676
176	0x3e328952	0.17435196
177	0xbe7206ca	-0.23635402
178	0xbdda2431	-0.10651434
179	0x3c8240ce	0.015900042
180	0x3d3291d2	0.043596096
181	0x3e13a165	0.14417036
182	0xbcb5692c	-0.022144876
183	0x3e314bc1	0.17314054
184	0xbd932533	-0.071848296
185	0xbdd94f8f	-0.10610878
186	0xbd4ecbe4	-0.050487414
187	0xbe0b3282	-0.13593486
188	0xbe0187e3	-0.12649493
189	0xbe33bc8d	-0.17552395
190	0x3c2eb844	0.01066405
191	0xbde9bae1	-0.114125974
192	0x3b825fa9	0.0039786887
193	0x3d7ddc74	0.06197782
194	0xbda901c7	-0.08252292
195	0x3d711550	0.058858216
196	0xbd4c8666	-0.04993286
197	0xbe238388	-0.15968144
198	0xbdb6654a	-0.08906038
199	0x3d3802a2	0.044924386
200	0xbd9d6e42	-0.07687046
201	0x3e1146bc	0.1418714
202	0xbe4c6f2c	-0.19964284
203	0xbcd66e6c	-0.0261757
204	0xbdf85ca3	-0.12127044
205	0x3d8f4817	0.06996172
206	0xbafa9905	-0.001911909
207	0x3e712586	0.2354947
208	0x3e398af3	0.18119411
209	0xbcfa0fe1	-0.03052515
210	0xbdfbef79	-0.12301535
211	0xbdae7b28	-0.08519584
212	0xbd788d80	-0.06068182
213	0x3e0be700	0.13662338
214	0x3d428d52	0.047498055
215	0x3c9b35fc	0.01894664
216	0xbd88b52e	-0.06675182
217	0x3de127ec	0.109939426
218	0x3c2b906c	0.010471445
219	0xbe71483d	-0.23562713
220	0x3d4691bf	0.048478838
221	0xbd6c81a5	-0.057740826
222	0x3c53866c	0.012910467
223	0x3dff5b42	0.12468578
224	0x3d096d79	0.033551667
225	0xbd8034c6	-0.06260066
226	0x3db0510f	0.08609211
227	0xbe1c340b	-0.15254228
228	0xbe02de32	-0.12780073
229	0xbe10b74f	-0.14132427
230	0xbcc125bd	-0.023577565
231	0xbe40034f	-0.18751262
232	0x3c990764	0.018680282
233	0x3e2047c8	0.15652382
234	0x3d1f0da4	0.038831368
235	0x3d686810	0.056739867
236	0xbdd40bc7	-0.10353809
237	0xbd8357e3	-0.064132474
238	0x3d630ffa	0.05543516
239	0x3e69577b	0.22787277
240	0xbe32f58d	-0.17476483
241	0xbe50f19f	-0.20404671
242	0x3dba8800	0.09107971
243	0x3e280222	0.16407064
244	0xbd916066	-0.07098465
245	0xbd9b0ed5	-0.07571188
246	0xbcab97be	-0.02094638
247	0xbcbd6b4e	-0.023122456
248	0xbd79e472	-0.061008878
249	0xbe0a6ce5	-0.13518102
250	0x3e1a9d05	0.1509896
251	0x3dd376d1	0.10325397
252	0xba222501	-0.00061853236
253	0xbe4ccf1d	-0.20000882
254	0x3d431434	0.04762669
255	0x3e54d170	0.20783019
