results/rdesktop_run_001/Robotarm/Robotarm-1499984.pt (torch, 884223 bytes, 48 tensors)

network_body.linear_encoder.seq_layers.0.weight f4 [128, 19]
000000 1b 54 07 bf ea a7 8e be 36 ad 01 3f b3 15 9a 3d
       -0.5286271 -0.27862483 0.50654924 0.0752367
000010 b5 ef b1 3e b5 44 24 3c 01 ee 9e 3c b9 f9 5a 3e
       0.34753194 0.010026147 0.019400598 0.21384324
000020 0c 14 c9 bd 16 8b c5 bd c7 ca 9a be 59 7e b3 be
       -0.09818277 -0.09645669 -0.30232832 -0.35057333
000030 51 f7 9a be 08 4a e8 3e e6 e6 74 be d8 06 6c be
       -0.30266812 0.4536898 -0.23916206 -0.23049486
000040 a0 46 53 bd 9e d7 b7 3e 08 b3 65 bd 9b 99 e4 3d
       -0.051581025 0.3590669 -0.05607894 0.111621104
000050 0e a5 09 bf 09 3c 1c be 7f 2a df 3e 56 46 3d 3e
       -0.5376748 -0.15257277 0.4358711 0.18483862
000060 26 31 e2 be 05 ae 27 3e 8d e3 3c 3d d8 5a 91 be
       -0.44178122 0.16374977 0.046115447 -0.2838962
000070 61 6e 05 3e 1e f7 13 3d 3d 4d 8c be 8d 5e 79 3d
       0.13030387 0.03612434 -0.27402678 0.060881186
000080 31 5d 24 be 8b dd 9b 3e c7 ef 65 3e 7a 3a e3 3d
       -0.16051175 0.3044246 0.22454749 0.11095138
000090 a8 5a aa be 35 a1 83 3c 5a 69 9a be a8 33 1f be
       -0.3327229 0.01606808 -0.30158502 -0.15547049
0000a0 98 1c a2 bd 8d 6d 87 3e df 96 54 be 62 a0 0a 3d
       -0.0791561 0.26450768 -0.20760678 0.03384436
0000b0 bf 57 90 be 3c d8 f3 be 67 88 80 3e c3 fb 78 3e
       -0.28191945 -0.4762591 0.25104067 0.2431479
0000c0 db 1b eb bd 00 76 6b bc 44 31 fa 3d 67 70 0a 3f
       -0.114799224 -0.014371395 0.12216428 0.5407776
0000d0 b6 03 74 bd 45 0f f4 3d a8 ab a5 bd fd 8a 93 be
       -0.05957385 0.11916975 -0.080893815 -0.28816977
0000e0 0b e1 cf bd e5 f5 9e bd fa 69 50 be 40 8e 0b 3e
       -0.101503454 -0.077617444 -0.20352927 0.13628483
0000f0 b7 ef 13 3e a3 0e ee 3d fc ba 5a 3e 4d 23 fa bb
       0.14446913 0.116238855 0.21360391 -0.0076336027
000100 30 52 86 bd 48 ba d1 3d e4 92 ca be 89 f5 5d 3e
       -0.06558645 0.102406085 -0.39565194 0.21675695
000110 b0 3f 05 bf f6 f2 53 3e 2e 3e 01 be ba ba bf 3d
       -0.52050304 0.20698151 -0.12621376 0.09361787
000120 92 df c4 bd b1 d8 08 be 9f 34 e1 3e 5e 42 22 3e
       -0.09612955 -0.13363911 0.4398546 0.1584563
000130 1c 92 06 bd 01 e4 46 3d 8b 9f 7a be 62 8f 50 be
       -0.032854185 0.048557285 -0.24474923 -0.20367196
000140 c7 12 f3 3d 1f 63 8e bd 76 8a a5 be 50 c9 6b be
       0.11868816 -0.069524996 -0.323322 -0.23026013
000150 7e 93 0e 3e eb 07 f8 bd 11 3e f9 bc 95 da 8e be
       0.13923451 -0.12110885 -0.030425103 -0.2790114
000160 86 11 07 be 79 33 ba be 68 c3 3b 3e 6c 32 2b 3d
       -0.13190278 -0.36367396 0.1833626 0.041796133
000170 5a 1b a6 3e c8 d9 20 3e 7f b4 a3 3d eb 58 c7 bd
       0.32442743 0.15708077 0.07993411 -0.09733757
000180 2a 15 d4 be e7 6e d6 3e 15 2c e1 3e 51 12 ac 3d
       -0.41422397 0.41881487 0.43978944 0.08401931
000190 18 15 1c 3d d7 25 a0 3d 66 c1 19 3e 40 53 0d 3e
       0.038106054 0.078197174 0.15015182 0.13801289
0001a0 7d 44 42 3e 4f 34 a2 be 28 42 37 be 79 34 6f bd
       0.18971439 -0.31680533 -0.1789633 -0.05839965
0001b0 55 87 ce bd cf 43 2b bd 8d fa e5 bd ae 72 4a bd
       -0.10084406 -0.041812714 -0.112294294 -0.049425773
0001c0 5c e7 d9 bd 04 40 90 3e f4 59 44 be 83 7f 06 be
       -0.106398314 0.2817384 -0.1917494 -0.1313458
0001d0 de 72 9d bd c9 c6 07 3e a1 2f 01 3e c4 5f d0 3e
       -0.07687925 0.13259424 0.12615825 0.40698063
0001e0 f5 d7 6f 3c fd 6f 8c 3e a8 e3 1b 3d 20 c7 bc 3d
       0.0146388905 0.2742919 0.038058907 0.092176676
0001f0 fd be 44 be 27 2b 41 3e 96 e6 98 be cb 5f eb 3e
       -0.19213481 0.18864118 -0.29863423 0.45971522
000200 01 fa 0f 3e e2 3e dc bd a1 4d c7 3d 01 44 9b bd
       0.14060213 -0.107541814 0.097316034 -0.0758133
000210 42 f5 5e 3c e5 75 7e 3d 8a 3e 00 bd c5 27 d4 be
       0.013608279 0.06212415 -0.031309642 -0.41436592
000220 3c bd 02 bd 11 b7 36 be 4f 41 b1 3e 0f 8b bd bb
       -0.03191875 -0.17843272 0.3462014 -0.0057843993
000230 e7 d9 92 3e 13 9c b1 be d1 64 fa 3b 52 83 12 be
       0.2868187 -0.34689388 0.007641413 -0.14307907
000240 a9 8b de 3d 57 0a 2d bd f2 88 83 be 9a e0 b9 3e
       0.10866482 -0.04224619 -0.25690418 0.3630417
000250 28 4c e0 be 34 44 a5 3e e2 f4 92 bd 2b f0 9b be
       -0.43808103 0.32278597 -0.07175614 -0.3045667
000260 5a 83 bd 3d 34 e2 8c 3a af c3 03 3e d2 ed bc 3e
       0.09253569 0.0010748566 0.12867616 0.36900192
000270 e4 3f 2b be 5e 76 13 bf 6b 99 7e bb 88 b9 85 3e
       -0.16723591 -0.5760249 -0.0038848768 0.26118112
000280 41 5c 17 be 44 12 cc 3c 00 77 b5 3d d3 d5 c0 be
       -0.14781286 0.024911053 0.08860588 -0.37663135
000290 3e 93 80 be 25 40 6b 3e ff 83 93 3d b2 15 b9 be
       -0.25112337 0.22973688 0.07202911 -0.36149365
0002a0 dd 8d c3 3e 9f 6e eb 3e 9e 8c 20 3f 79 76 63 3c
       0.3819417 0.45982835 0.62714565 0.013883227
0002b0 47 8b 93 3e 56 90 2c be 1e 4d 83 bc 3e 1b 9f be
       0.28817198 -0.16851935 -0.016027983 -0.31075472
0002c0 b9 2f 8a 3e b5 c2 d5 bd 18 e7 ec bd 68 cd 1c be
       0.26989534 -0.10437528 -0.11567515 -0.15312731
0002d0 94 d3 2a 3e 23 75 87 3e 43 e9 a7 3e ee 33 70 3c
       0.16682273 0.26456556 0.32795152 0.0146608185
0002e0 17 38 e0 bd 68 48 b1 3d 3c f4 c9 3e 89 33 b2 3d
       -0.10948198 0.086563885 0.3944415 0.08701236
0002f0 f9 8d 97 3d cf dd b3 3e 82 a0 a6 3e 70 2e f3 bd
       0.07400126 0.35130164 0.32544333 -0.118740916
000300 6b c9 0c be af bf fa be 1c 51 a5 3d 86 00 1d 3e
       -0.1374871 -0.48974368 0.08072111 0.15332231
000310 5d b7 41 3e d3 4d 73 3d 03 36 31 3e 4a 76 70 3e
       0.18917604 0.05940039 0.1730576 0.23482624
000320 d1 7e 45 bf 46 3c 11 be 11 4d 15 be 89 0d 29 be
       -0.7714663 -0.14183149 -0.1458018 -0.1650907
000330 83 c6 ce 3e 91 15 ff bd 69 6f 35 be 99 59 8d be
       0.40385827 -0.12455285 -0.17718281 -0.2760742
000340 c1 b8 c6 bd 6b cd 7d be 6d fe 7a be ec c9 a3 3b
       -0.09703208 -0.24785392 -0.24511118 0.004998436
000350 61 6b be 3e 92 9a cb 3d 35 04 4b be b4 01 57 3e
       0.371913 0.09941591 -0.19825824 0.20996743
000360 bf f6 fd 3d f5 0b 10 be c1 e8 1e 3e d3 41 fe 3d
       0.12400579 -0.14067061 0.15518476 0.12414899
000370 d5 3f ea 3d e6 1a af 3d cf 0c 33 3c 1d 3c 05 3c
       0.11437956 0.08550052 0.010928347 0.008132008
000380 08 a7 7f bd ce 14 1c bf af f7 11 be 02 b7 45 be
       -0.062415153 -0.60969245 -0.1425464 -0.19308093
000390 17 4e 8d be f4 82 94 bd 6f e5 e6 3d 83 f1 32 bd
       -0.2759864 -0.0725154 0.1127423 -0.043687355
0003a0 09 8e 41 3e bc d5 2f 3d 78 1e f9 3e cf e3 8a 3e
       0.18901838 0.042928442 0.48656058 0.2712693
0003b0 bd c2 97 bd f8 f1 70 be 08 5f c0 be f7 20 3e 3e
       -0.0741019 -0.23529804 -0.37572503 0.18567263
0003c0 41 bf 70 be b0 50 48 be 1e 1a 86 be 39 36 33 3d
       -0.23510458 -0.1956203 -0.261918 0.043752883
0003d0 12 98 90 be d1 44 f7 bd 7e 0c a4 be 60 1e b7 be
       -0.2824102 -0.120736726 -0.3204078 -0.35765362
0003e0 e9 e9 91 be c3 1e da be be 81 f3 3d af 66 14 bd
       -0.28498772 -0.42601594 0.11889981 -0.03623074
0003f0 6c 59 ff bb 04 9b 2e bc 7c b3 ab bd 03 50 8c 3e
       -0.0077926423 -0.010657076 -0.08383843 0.27404794

network_body.linear_encoder.seq_layers.0.bias f4 [128]
000000 75 5c cf 3c 8f ff a2 3d c9 19 3d bd ab a1 05 bd
       0.025312642 0.079589 -0.04616717 -0.03262488
000010 56 f4 1c 3d a0 90 2b bd 43 10 d9 3b e3 6e 9c 3d
       0.038318954 -0.041885972 0.006624253 0.076383375
000020 33 d7 a3 3c 02 9b a0 3d 31 5d 9d 3d fb 12 27 bd
       0.020000076 0.078420654 0.076837905 -0.040789586
000030 45 73 3c bd 4f 66 ac bb d1 1b a4 3c 72 b8 b3 bc
       -0.046008367 -0.0052612196 0.020032795 -0.021938536
000040 40 8a 05 3e 5e 59 98 3d 3f 59 0b be b3 58 0b bc
       0.1304102 0.074389204 -0.13608263 -0.008505034
000050 62 0d f9 3c c1 32 04 3d 0d a4 0d 3e ec 00 c5 3d
       0.03040189 0.032274965 0.13832112 0.096193165
000060 1d 40 32 3d 2d b8 99 bd 78 5c 35 3d dd 23 08 be
       0.043518174 -0.07505832 0.04427764 -0.13294931
000070 8c b3 4a 3c 53 e7 9c 3d 29 c6 03 be 40 d1 b8 3d
       0.012371909 0.07661309 -0.12868561 0.09024286
000080 a9 c8 30 bd 40 62 c8 3d 43 88 a1 bc ae f0 81 3d
       -0.043160114 0.09784365 -0.019718295 0.06344734
000090 e4 8d 58 bc be 4b 7a 3d 88 ae 41 3d cb 05 15 bc
       -0.013217423 0.06110739 0.047285587 -0.009095619
0000a0 ca 45 a6 3d 31 22 a5 3d ee 02 2d 3d b0 4d 48 3d
       0.0811878 0.08063162 0.042239122 0.048902214
0000b0 3a 7d 92 bd ca b8 10 be 49 52 01 bd b4 17 40 3d
       -0.07152791 -0.14132991 -0.031572614 0.046897605
0000c0 23 ce a0 3d 19 92 99 3d 77 52 4d 3d 5d 66 18 3e
       0.078518175 0.07498569 0.050127473 0.14882798
0000d0 ee 26 b3 3d f8 bf 22 3d 58 68 a0 3d a2 4c 67 3c
       0.087476596 0.039733857 0.07832402 0.014117392
0000e0 02 f3 a1 bc b8 6c 09 3d 30 d8 b2 3d c9 4a 8e 3d
       -0.019769195 0.033550948 0.08732641 0.06947858
0000f0 98 16 15 3e ef 3a 7e 3d 13 9f b4 3d 7a c9 19 3c
       0.145594 0.062067922 0.088194035 0.009386415
000100 f1 e8 07 3d 09 71 b1 3d 8a 8e 3e 3d f2 26 8d 3d
       0.033181135 0.08664138 0.046522655 0.06892194
000110 1a ba 28 3c 61 eb a2 3d 1f 6b a2 3d b2 d7 b7 bb
       0.010298276 0.07955051 0.07930588 -0.0056104297
000120 fa 2a 0e 3d d3 d2 8b 3c d4 ec 9b 3d 87 9a 99 bd
       0.034708954 0.017068302 0.07613531 -0.07500177
000130 80 a6 56 bc 20 4c 06 3e fe ca 36 3d ca 3c 41 bd
       -0.01310122 0.13114977 0.044627182 -0.047177114
000140 ab 5f cf 3d 09 4f c3 3b 5b a4 5f 3d ec 12 4a bc
       0.10125669 0.0059603495 0.0546001 -0.012333613
000150 00 25 26 bd 3d eb 7c 3d 5d b6 d2 bc d7 2f c5 bc
       -0.04056263 0.06174778 -0.025721723 -0.024070663
000160 39 0a 08 3b 26 aa 55 3d 94 ae 15 bd 40 45 9d 3d
       0.0020758046 0.05216422 -0.036543444 0.07679224
000170 eb 3c 02 3b f7 03 dd bb 87 0a ce bd cd 9b dc bb
       0.0019872736 -0.0067448574 -0.10060602 -0.00673244
000180 5a 42 2a 3e 74 ee 89 bd f9 77 4d 3d 01 57 ec bb
       0.16626874 -0.067349344 0.050163243 -0.00721252
000190 26 56 6f 3d 50 22 d6 3d 6c d9 82 3c 5b b7 30 3c
       0.058431767 0.10455763 0.015972815 0.010785903
0001a0 c1 9f 4c 3d 7b 9f 41 3d 36 07 90 3d b5 a1 78 3d
       0.04995704 0.047271233 0.070326254 0.06070109
0001b0 44 47 3e bd 2b 10 25 3d 24 c7 a7 3d 20 07 c8 3d
       -0.046454683 0.040298622 0.0819228 0.09766984
0001c0 88 6c 86 3d 15 10 28 bc 6d 29 9f 3d b9 f2 e3 3d
       0.065636694 -0.0102577405 0.07771573 0.1113028
0001d0 36 4c 3e bd 29 5d 52 3d 51 8b 85 bd 88 26 be bd
       -0.0464594 0.051358376 -0.06520713 -0.09284693
0001e0 78 52 68 3d a1 ac 7e 3d 6e 7b 96 3d 6c f1 69 3d
       0.056719273 0.06217635 0.07347761 0.057115003
0001f0 77 3d 9d 3d 9d cb 9a bb e8 13 30 bc be 64 86 3d
       0.07677739 -0.0047239796 -0.0107469335 0.06562184

network_body.linear_encoder.seq_layers.2.weight f4 [128, 128]
000000 8a 59 47 3b 50 25 43 bd 27 5c 58 3d ab e0 8c 3c
       0.003041836 -0.047643006 0.05282226 0.017196974
000010 1b 9d 4c 3e c8 ae b0 bd 23 29 9e 3d b2 f6 0b 3e
       0.19981806 -0.08627087 0.0772269 0.13668326
000020 a7 e2 95 3d 30 db d1 bd 93 37 9a 3d 98 a7 1f be
       0.07318621 -0.10246885 0.07530131 -0.15591276
000030 be b4 0a be d4 96 9a 3e c7 96 2a be 38 e9 0c 3d
       -0.1354551 0.30193198 -0.1665908 0.034402102
000040 c4 d2 17 be 9b ae 17 3e 37 77 80 3d 8f 19 16 3e
       -0.14826494 0.148127 0.062727384 0.14658187
000050 47 6f 19 3e c5 b2 2c be 88 ea 58 bd f3 a1 13 be
       0.14983855 -0.1686507 -0.05295804 -0.14417247
000060 b8 15 0e 3e f0 a4 8e 3d d5 f7 89 3c 55 33 4e 3d
       0.13875473 0.06965053 0.016841808 0.050341923
000070 28 f3 23 3d 98 38 a7 3c 16 3f 8a 3d 5b e6 20 be
       0.040026814 0.020412728 0.06750314 -0.15712874
000080 46 71 10 3e 06 aa 06 bc 96 c3 c8 bb f1 f3 bf 3d
       0.1410571 -0.008219248 -0.0061268313 0.093727
000090 80 54 7b 3c a0 bc 51 3d 4e d4 dd 3d ec 0e 34 3c
       0.015339971 0.051205277 0.108315095 0.010989886
0000a0 51 8c bf 3d 34 d7 84 3d fb 7c 2d bc eb 70 23 3d
       0.09352935 0.06486359 -0.01058888 0.03990261
0000b0 01 22 01 bd bb 7c ac 3c 67 32 09 bb 38 c8 40 bc
       -0.03152657 0.02105557 -0.0020934583 -0.011766486
0000c0 cc 4a fc bd cd 70 8b bd 17 dc 99 3d 36 26 c5 3d
       -0.12318954 -0.068086244 0.07512682 0.09626429
0000d0 7d ff 76 3e ee 7f 9f 3d 4b 0a a3 bc 49 12 80 3d
       0.24120899 0.077880725 -0.019902369 0.062534876
0000e0 f4 86 da 3c 68 b7 dc 3c 0a 56 2d bd e0 7b 72 3e
       0.026675679 0.026942924 -0.04231838 0.23680067
0000f0 19 60 2d 3d 91 0d 1b bb c3 86 2a 3d ff 23 16 be
       0.042327974 -0.002365921 0.041632425 -0.14662169
000100 7c 2b 00 3e 9a 8d 85 3d 7f 79 3f 3e 39 6c 92 3d
       0.12516588 0.06521149 0.18698691 0.07149548
000110 80 31 e6 bd 36 8f 98 bd 11 f9 49 3e e4 de 5e bd
       -0.1123991 -0.0744919 0.19723918 -0.054411784
000120 f1 34 14 be 57 90 94 bb c5 e1 7b 3e f3 9a 08 be
       -0.1447332 -0.004533808 0.24597843 -0.13340358
000130 f8 fb 5b be 15 0e 23 3e 3d af 88 3d f4 42 9b 3b
       -0.21482837 0.1592334 0.06674049 0.004738206
000140 2d e8 af bd 2b d2 b2 3b 49 ef 3f bd c7 8e ae 3d
       -0.08589206 0.005457183 -0.04685906 0.08523326
000150 f7 54 df 3c dc 21 57 bd 1a d0 83 bc 3f c8 f7 3c
       0.027262194 -0.052522525 -0.016090441 0.030246852
000160 8f 2a f5 3b 34 a4 28 3c 4a c5 08 be 9e 90 b5 3d
       0.00748188 0.010293055 -0.1335651 0.08865474
000170 e6 78 85 bc e4 7f f0 3c 88 f1 3c 3c 68 cf 9d bd
       -0.016293 0.029357858 0.011532195 -0.07705575
000180 49 6f 87 3d b1 7b 04 3e cb d3 a1 bc f1 c4 92 bd
       0.06613023 0.1293781 -0.019754311 -0.0716647
000190 2d 12 65 bd 75 67 55 3e c1 b9 26 be 5d 07 ba bc
       -0.055925537 0.20840247 -0.16281797 -0.02270859
0001a0 e0 8d 06 3d 51 3d 92 bc 57 57 75 3e 15 11 03 ba
       0.032850146 -0.017851504 0.23959099 -0.0004999799
0001b0 50 b2 a9 be 4b 19 17 3e 22 1c 47 bd 44 0e 80 bd
       -0.33143854 0.14755742 -0.048610814 -0.06252721
0001c0 63 2f e4 3c a9 e1 3b be 6c 02 f0 bd 85 7e 56 bc
       0.027854627 -0.18347801 -0.11719212 -0.013091688
0001d0 be fb 01 3d ed 8f f3 3d 38 5b f5 3d 27 6f 00 bc
       0.03173422 0.11892686 0.11980289 -0.007839001
0001e0 64 de 8b bb c9 6c 4c 3e 9d 53 04 be b3 e8 cb 3c
       -0.0042684544 0.19963373 -0.12922521 0.024891233
0001f0 72 c7 8f ba 36 37 8b be 7d bf 86 3d 54 1f fb bd
       -0.0010969474 -0.2719056 0.06579492 -0.12261835
000200 0a 1c 50 bd 6f 32 4e be be 9e 3d 3e e6 1e 4a be
       -0.05080799 -0.20136426 0.18517587 -0.1973835
000210 6a 7a c0 3b 4d 34 93 3e d5 b2 af 3d d4 df 41 be
       0.005873968 0.2875084 0.085790314 -0.1893304
000220 d8 2a 0a 3d 10 f0 03 bc 08 ef 0e bd 79 db ca 3d
       0.033732265 -0.008052841 -0.034895927 0.09905142
000230 56 ae 85 3e fe 10 50 be 58 c8 b5 bd 3d 8f 0e 3e
       0.2610957 -0.20318982 -0.08876103 0.13921829
000240 19 0e 9f bd 33 b3 31 be 8c 73 b1 bd 45 7b 3a 3e
       -0.07766361 -0.17353515 -0.08664617 0.18211086
000250 89 87 6c bd ec 20 09 bd 27 c9 18 3e f5 4d 93 bd
       -0.057746444 -0.033478662 0.14920484 -0.071926035
000260 3e 07 39 3e e0 cf 11 be 62 0c 19 be 54 c2 9e 3d
       0.18069169 -0.14239454 -0.1494613 0.07751909
000270 d2 7c b8 bd 56 c7 05 be 96 d8 26 bd 3b 5f 9a b9
       -0.090081826 -0.13064322 -0.040733896 -0.0002944412
000280 b5 ea c9 3d e5 37 86 bd b4 38 5c be e1 77 81 be
       0.0985922 -0.0655363 -0.21506006 -0.25286773
000290 cb 02 ef 3d 95 64 8e bd 8c 5f bc bd 1b 27 ee bc
       0.116704546 -0.06952778 -0.091979116 -0.029071381
0002a0 87 9a 8d bd f8 66 12 be 47 e4 8d bc e2 55 b0 be
       -0.069142394 -0.14297092 -0.017320765 -0.34440523
0002b0 43 25 06 3e 9e 7e a7 bc 49 dd 7d bd bc 42 01 be
       0.13100152 -0.020446118 -0.061978612 -0.12623113
0002c0 51 18 86 3d b5 47 36 bd f2 f6 da bc a8 37 28 bc
       0.06547607 -0.04450198 -0.02672908 -0.010267176
0002d0 25 bf fa bb 3b 65 a8 3c c3 02 06 3e 0f 9b 2f 3d
       -0.0076521807 0.020556083 0.13086991 0.042872485
0002e0 b4 a6 23 3e 27 cd 1b be a8 92 31 3e 22 7f 0e be
       0.15981561 -0.15214978 0.17341101 -0.13915685
0002f0 b1 87 09 3e 56 86 eb bd 6b cc 07 be e0 22 05 3e
       0.13430668 -0.11500232 -0.13261573 0.13001585
000300 1f 9e be bc 77 22 0a be 78 25 20 be 0f c3 19 be
       -0.023268757 -0.1348971 -0.15639293 -0.15015815
000310 5f e6 41 bd 17 26 b8 bd 96 18 a6 bd 5f 8d 4a 3d
       -0.04733884 -0.0899164 -0.08110158 0.04945123
000320 1c 27 e7 3d d4 0d ba bc aa ac 2c be 0e 8b f3 3d
       0.112867564 -0.022711672 -0.16862741 0.11891757
000330 24 63 58 3e 72 16 05 3e a7 7e 0f bd 28 16 7e bd
       0.21131569 0.12996843 -0.035032894 -0.06203285
000340 8b 5c b6 3b 14 e4 2b 3d cf d3 ac bd 4f 94 b4 3d
       0.005565231 0.04196556 -0.08438837 0.0881735
000350 d4 b7 ca bc a9 1d 10 be 62 a1 f3 bc c8 f1 da bc
       -0.02474586 -0.14073814 -0.02974004 -0.026726618
000360 87 95 25 bd 1a 14 33 be cb 7c 4f 3e 85 a4 6e bd
       -0.040425804 -0.17488137 0.20262448 -0.058262367
000370 47 3c 9e 3e be 27 7b bd 68 1b d5 3d 2b c5 58 3d
       0.30905363 -0.061317198 0.10405618 0.05292241
000380 ca f5 23 bd 37 4f 0c 3e 45 93 07 bd 78 67 2c 3e
       -0.040029325 0.13702093 -0.03309943 0.16836345
000390 87 3f ee bc a6 76 55 be c2 a9 d6 3d 6f 49 97 3d
       -0.029083027 -0.20846042 0.104815975 0.07387053
0003a0 f1 b3 5b 3e f7 74 e3 bd 14 e0 87 3d ec d8 6f be
       0.21455361 -0.11106294 0.066345364 -0.23422593
0003b0 b0 14 87 3e 20 81 17 3d 15 d0 50 be 61 e0 85 3d
       0.2638297 0.036988378 -0.20391877 0.065369375
0003c0 2e dd 47 be 83 f8 d5 3d fc 94 29 bd a6 e1 6d 3d
       -0.19517967 0.104477905 -0.04140185 0.058076523
0003d0 91 db 70 3e 2b c2 1d be 4c 6b 76 3d a4 db 56 3e
       0.23521258 -0.154061 0.06016092 0.20982224
0003e0 6d b4 04 bd fb d6 fb bd 42 8c ec bd e8 9e 02 be
       -0.03239863 -0.12296864 -0.115501896 -0.1275593
0003f0 2c 5e 12 be cb 78 9e 3d aa 16 0b be 37 34 0d be
       -0.14293736 0.07737883 -0.13582864 -0.1378945

network_body.linear_encoder.seq_layers.2.bias f4 [128]
000000 e4 81 13 3d 8d 91 0d be 45 ef 73 3d d2 b5 72 3d
       0.036012545 -0.13825054 0.059554357 0.05925543
000010 7a cf 6b bc 2e 4e 1d bd e1 b1 76 3d 03 f0 87 3d
       -0.014392728 -0.038404636 0.060228232 0.066375755
000020 30 2d 89 bd c3 85 2d 3d 2f ae 8d 3d 68 27 82 bd
       -0.06698072 0.042363893 0.069179885 -0.063551724
000030 64 9f 89 bd 11 05 8e 3d 13 03 05 be 9d 74 07 3d
       -0.067198545 0.0693456 -0.12989454 0.033070195
000040 14 93 3d 3d dd f9 65 3d c4 f7 46 3d 99 61 c2 bd
       0.046282843 0.05614649 0.04857613 -0.094912715
000050 45 b2 2a 3d a3 61 ef bd 0d 27 e6 bd a5 c7 9b 3d
       0.041673917 -0.116885446 -0.11237917 0.076064385
000060 cb d7 86 3d b0 c3 13 3d c3 aa 92 3d 96 fa 00 3d
       0.06584128 0.036075294 0.071614765 0.031488977
000070 6d 75 d2 bd 05 2b de bd 27 a9 91 3d b6 31 f3 bd
       -0.102763034 -0.10848049 0.071123414 -0.11874716
000080 9e ae 33 3d 89 b5 0d be 58 e2 ee bd b3 33 8a 3d
       0.0438677 -0.13838781 -0.116642654 0.06748142
000090 ef 4a 8b bd f5 88 2a 3d 69 11 0d 3d 1b 1f 47 bd
       -0.06801402 0.04163452 0.03444043 -0.04861365
0000a0 a1 6d 50 3d bf 25 4a 3d 24 a2 66 3d 6e 90 3a 3d
       0.0508858 0.049352404 0.056306973 0.045547895
0000b0 03 12 6a 3d 89 2e 86 3d 71 a5 01 be 16 9e 97 3d
       0.057146084 0.065518446 -0.12660767 0.074031994
0000c0 37 55 f9 3c f8 b1 9c 3d e0 ca fe bd 06 74 eb bd
       0.030436141 0.07651132 -0.12441039 -0.11496739
0000d0 40 b7 e7 bd df 53 65 3d d6 0c 15 be 77 57 5a 3c
       -0.11314249 0.05598819 -0.14555678 0.013326517
0000e0 5e fd 06 be 79 a4 14 3d 34 5a b4 3d c8 cd 63 3d
       -0.1318259 0.036289666 0.088062674 0.05561617
0000f0 14 94 d5 bd 64 ca 53 3d b9 cf f6 bd bd f3 87 3d
       -0.10428634 0.051706687 -0.12051339 0.06638286
000100 b2 f0 4a bd 31 2e 76 3d b6 70 94 3d 87 82 9a bd
       -0.04954595 0.060102645 0.072480604 -0.07544427
000110 1c 7a b4 bd fb ed 65 3d 93 0c 2d 3d 62 1c 00 be
       -0.08812353 0.05613516 0.04224832 -0.12510827
000120 26 16 bd 3c 61 07 0e be 39 e8 19 3d 61 7c 9d 3d
       0.02308185 -0.13870002 0.03757498 0.07689739
000130 d9 cf 9a bd 0a e3 c3 bd 00 3a ab 3d 21 a1 d5 bd
       -0.07559175 -0.09564789 0.08360672 -0.104311235
000140 6c 5e e3 bd 78 f5 91 3d f2 88 03 3d 03 28 42 3d
       -0.11101994 0.071268976 0.032113023 0.04740144
000150 49 2a f0 3c fc 86 16 be 0e ea 05 be 45 54 4a 3d
       0.029317038 -0.1469993 -0.13077566 0.049396772
000160 ec 3b 71 3d 55 16 80 3d 6b a3 8e bd af 7a 84 3d
       0.058895037 0.062542595 -0.06964763 0.064687125
000170 58 5d 50 bd 6a 24 ec bd 0b 36 70 bc 0d 04 07 be
       -0.05087027 -0.11530383 -0.014661322 -0.13185139
000180 17 a7 02 3d 1c 3e 5d 3d 74 87 d4 bd de 0d f1 3c
       0.03189763 0.05401431 -0.10377398 0.029425558
000190 ff 0b 7e 3d fd 31 b2 3d fb 16 91 3b 6b e0 b3 3d
       0.06202316 0.08700941 0.0044277883 0.08783039
0001a0 3e 25 0a be 0f 41 c1 bd 6a c7 5e 3d 39 1c 31 bd
       -0.1349077 -0.09436237 0.054389395 -0.043239806
0001b0 b7 a7 21 3d e0 75 94 3d b8 da 2a 3d ed e0 cf bd
       0.039466586 0.07249045 0.041712493 -0.10150323
0001c0 0d c0 91 3d c2 8a 39 3d a8 bb 01 be 9a b3 93 3c
       0.07116709 0.045298345 -0.12669241 0.018029977
0001d0 96 c6 2f 3d 10 7a c1 3d 68 8f c0 bd 39 85 8a 3c
       0.042913996 0.0944711 -0.094023526 0.016909229
0001e0 e5 43 f9 bd a4 de 2e bd 99 bb c6 bd 46 25 ff bd
       -0.12171153 -0.042692795 -0.0970375 -0.12458281
0001f0 76 7e e0 3c cd 32 46 3d 9f 20 d5 bd 7d d1 0a be
       0.027404051 0.04838829 -0.104066126 -0.13556476

network_body.linear_encoder.seq_layers.4.weight f4 [128, 128]
000000 c8 a3 d1 bd 24 fc 19 3d 2f e9 1c be 48 1d d6 3c
       -0.10236317 0.037593976 -0.15323327 0.02613701
000010 f6 c6 34 be 48 4c 41 3e ac 58 0c be 11 2a eb bc
       -0.17654023 0.18876755 -0.137057 -0.028706582
000020 f1 fe f7 3b 37 40 a4 bd c8 5b 07 be eb e4 15 3d
       0.007568233 -0.080200605 -0.13218606 0.036595266
000030 c9 ce b7 bd a0 2d 95 be d8 49 62 bd 68 e3 0b bd
       -0.08974988 -0.29136372 -0.055246204 -0.03415242
000040 80 da 2d be d5 1f fa 3d 93 b3 11 be 70 1f 95 3b
       -0.16977882 0.12213103 -0.14228658 0.004550867
000050 67 59 ab bc 36 67 63 3e c3 dd d7 3d 4e 7c ea 3d
       -0.020916654 0.2220734 0.105403446 0.114494905
000060 28 39 de bd d8 f0 f2 b8 12 e7 4c bc b9 69 29 be
       -0.108507454 -0.0001158432 -0.012506263 -0.16544236
000070 03 a9 af 3d 51 ad 01 3e 75 90 9f bd 2e 86 66 3e
       0.08577158 0.12663771 -0.07791225 0.22512123
000080 53 d7 ed bb c7 c9 8e bb f2 ae c0 3d 33 dc 96 3c
       -0.0072583347 -0.00435755 0.09408368 0.018415546
000090 9a a7 e0 3d f0 8a 2c bd cc 80 09 be ad a4 12 be
       0.109694675 -0.04212469 -0.13428038 -0.14320631
0000a0 6f 18 c6 3c ab c4 1a 3d c6 ec e3 bd dc 4a 61 be
       0.024181573 0.037785213 -0.11129145 -0.22001213
0000b0 e2 97 08 be 28 75 1d bd 87 e3 8f bd 92 bb d1 bd
       -0.13339189 -0.038441807 -0.07025819 -0.10240854
0000c0 85 68 ac 3d b2 57 83 be 03 ad 33 3e de 21 17 3e
       0.08418373 -0.25652844 0.17546467 0.14759013
0000d0 9a b9 c2 3d 50 6b 48 bd 97 31 f6 3d f2 2f 3c 3d
       0.09508057 -0.048930466 0.12021177 0.04594416
0000e0 2f d4 4b 3c 69 dd a9 bd af 24 1a be a0 fc 0b ba
       0.012440725 -0.08294184 -0.15053056 -0.0005340073
0000f0 40 51 69 3d 1f af 02 bd 08 e5 be bc 75 b8 8b bd
       0.05696225 -0.03190529 -0.02330257 -0.06822292
000100 0b 04 7b 3c a4 93 8a bd b4 fb 30 be b6 6e 22 bc
       0.015320788 -0.067664415 -0.17283517 -0.009914091
000110 f7 1e 29 3d 4e 38 16 be 4f 54 df 3d d9 3f d1 3d
       0.041289296 -0.14669916 0.109047525 0.10217256
000120 de 49 8f bc 19 13 7e 3d 3a f4 78 bc ba fc 81 be
       -0.017491277 0.06202993 -0.015194947 -0.25388128
000130 96 39 5c bd 4e 96 10 3e 36 7e 43 be 78 3c 37 3e
       -0.053765856 0.14119837 -0.19091114 0.17894161
000140 17 42 2e 3c b2 47 27 3d 62 14 0b be e2 88 92 be
       0.010635874 0.04083986 -0.13581994 -0.28620058
000150 58 3a 38 3b b9 e4 e3 3d 09 e0 43 3e d4 ba 31 bd
       0.0028110947 0.1112761 0.19128431 -0.043391064
000160 e9 ef 81 3c cf b4 3d be 71 8a f7 3d af 01 b5 bd
       0.015861468 -0.18526004 0.120869525 -0.08838212
000170 5b a9 c8 3d 70 5b bb 3d 86 e1 b5 3d 07 29 09 bd
       0.09797927 0.091483 0.08880906 -0.033486392
000180 c0 9b c8 bd a6 41 bc 3c 08 67 d4 3c fe 0a 32 be
       -0.09795332 0.022980522 0.025928035 -0.17387006
000190 c4 a5 c8 3b 79 57 3a bc 70 62 aa 3c af 50 d8 bd
       0.0061232764 -0.011373394 0.020798892 -0.10562264
0001a0 64 fd e1 3d 15 4d 0d bd ad be 3d bd c2 b5 a5 3d
       0.110346586 -0.03449734 -0.04632442 0.08091308
0001b0 4f 7a 25 be c4 24 86 bc 6a 32 a4 bd 12 81 41 3e
       -0.16159938 -0.016374953 -0.08017428 0.18896893
0001c0 09 b9 0e be 35 5c 1d be 12 6b 0b bc e0 f2 a8 bd
       -0.13937773 -0.15367205 -0.008509414 -0.0824945
0001d0 7f 52 5a bc 74 cb 2d be 22 ef 17 3d c4 6a cb bb
       -0.013325333 -0.16972142 0.03709329 -0.006207796
0001e0 b3 0a d4 3d 1f 0b 24 3e 55 ec 1d 3e 7d 37 9b 3d
       0.10353603 0.16019867 0.15422185 0.07578943
0001f0 94 06 6f 3d 22 61 cd bd fe 4a 72 3d bb d6 40 3d
       0.058355883 -0.10028292 0.05915355 0.047079783
000200 ca 2b 33 be 15 46 15 3d 16 d7 41 be 01 b4 e0 3d
       -0.17497173 0.03644379 -0.18929705 0.10971833
000210 08 24 f7 3d cc 74 83 3d 47 e8 ec bd 78 f9 a4 be
       0.12067419 0.064187616 -0.11567741 -0.3222158
000220 91 0a 1a bd c9 16 98 bd 21 99 2e be 4f ce c1 3c
       -0.037607733 -0.07426221 -0.17050602 0.023657946
000230 da 73 26 3d 5d a8 98 be 07 21 bb bd b6 63 a1 3d
       0.04063783 -0.2981595 -0.09137159 0.078803465
000240 75 a2 61 be 2e e6 34 3c 6a dc c3 3d e5 41 9e 3d
       -0.22034629 0.011041207 0.09563525 0.07727412
000250 ea 52 bf bd bd cf ca 3d 30 dd c0 3d f3 c5 e5 bd
       -0.093419865 0.09902904 0.09417188 -0.112193964
000260 63 10 55 bd 35 80 00 bd 89 b6 69 b9 a5 52 86 be
       -0.05201758 -0.031372268 -0.00022288611 -0.26234928
000270 8a 6a 17 3e d9 45 1f 3e e6 fd 0e be 1e 46 66 bd
       0.14786735 0.15553989 -0.13964042 -0.056219213
000280 5a 8a a6 bc 4a c9 cc 3d 1d fa 39 3c 4c 5e 25 be
       -0.020329643 0.0999933 0.011351136 -0.16149253
000290 cc 15 dd 3d 85 49 83 be 29 f5 7b bb 9d 52 9c 3d
       0.10795173 -0.25642028 -0.0038445687 0.07632945
0002a0 20 cc 8f 3d ea 2f 07 ba ad fb 0e be 2d 3e 2b 3c
       0.07021356 -0.0005156981 -0.13963194 0.010451836
0002b0 f1 98 06 3e 02 1a a6 3d 6a 94 b9 3d 44 d4 d0 bc
       0.1314428 0.08110429 0.09061511 -0.025491841
0002c0 62 27 2d 3e a6 0b 6d be 2b b4 eb bd 50 b9 89 b9
       0.16909555 -0.23148975 -0.11508974 -0.00026268745
0002d0 bc 80 f1 3c 54 f6 01 3e 76 09 05 bd 41 fe 1e 3e
       0.02948033 0.12691623 -0.032479726 0.15526678
0002e0 09 41 a5 bd dc 08 dd bd f1 c5 6b bd 3f 2a fa bd
       -0.08069045 -0.107927054 -0.05756182 -0.12215089
0002f0 5f a3 0e be 2c 6e 21 be 84 a5 36 ba 03 95 c1 bd
       -0.13929509 -0.15764683 -0.0006967413 -0.0945225
000300 ab 2e d8 3a 12 22 2b 3d 8f 39 90 bd 2a 01 21 3d
       0.00164934 0.04178054 -0.070422284 0.03930775
000310 64 87 89 bd 79 ac fc bd ff 74 b1 bd 27 a8 fe 3c
       -0.06715277 -0.12337584 -0.08664893 0.03108604
000320 cb ae b6 bd ba 32 05 3e 5a 31 39 be 36 aa fd bc
       -0.08920058 0.13007632 -0.18085232 -0.030964952
000330 9c c6 0d be 4e 57 6c 3d 14 ae b7 bb 28 0e 58 3e
       -0.13845295 0.057700448 -0.0056054685 0.2109915
000340 5b 14 2d 3e de 3d 55 bc 2a be ef bd e0 63 a0 bd
       0.16902296 -0.013015239 -0.11706193 -0.0783155
000350 43 00 79 bd ad 67 01 3e 47 3a 1b 3d fd 78 e0 3b
       -0.060791265 0.12637205 0.037897374 0.0068503604
000360 9f 91 81 bd 4d 38 e8 3d 7c 91 f3 b6 c4 18 7a be
       -0.06326603 0.113388635 -7.258901e-06 -0.2442351
000370 69 d2 1a 3d 64 45 8a bd ba ed dd 3b 43 f4 e9 3d
       0.03779832 -0.067515165 0.006772724 0.11423542
000380 91 80 36 3d 68 0e cb bd d4 2e a6 3d 83 89 1d be
       0.044556204 -0.09914857 0.081144005 -0.15384488
000390 63 ad 02 be 06 5e 1f be 54 81 84 bd d6 43 3e be
       -0.12761454 -0.15563211 -0.0646998 -0.18580565
0003a0 1c e8 82 3a 8e 28 0f 3e b1 e5 52 3d d0 d7 d9 3d
       0.0009987387 0.13980314 0.051488582 0.10636866
0003b0 f8 fd b9 bd 0b dc a2 bd 25 b0 9e 3d db 91 59 3e
       -0.09081644 -0.07952126 0.07748441 0.21247046
0003c0 e9 05 31 be 0e 14 35 be b0 ce 9f 3d 22 c3 33 3e
       -0.17287411 -0.17683432 0.078030944 0.17554906
0003d0 81 2f 2d bd df d8 a5 bd a0 23 0e bd 92 ea 8f bc
       -0.04228163 -0.080980055 -0.034701943 -0.017567907
0003e0 ac c6 98 bd 8c 55 09 be 1a 29 03 3e 4b 56 b9 3d
       -0.07459769 -0.1341154 0.12808648 0.09049662
0003f0 23 4f 6c bc 4e ae 32 be 4e 84 0a 3d b0 cf 3b 3e
       -0.014423165 -0.17449304 0.03381758 0.18340945

network_body.linear_encoder.seq_layers.4.bias f4 [128]
000000 cd e0 6d bd 80 6b 1f bd 9b b2 5e 3d b3 65 6b bd
       -0.058075715 -0.03892088 0.05436955 -0.057470035
000010 95 39 c2 bc 6a 05 eb bc 72 96 18 bd 86 76 76 bd
       -0.023709098 -0.028689105 -0.03725285 -0.060171627
000020 cc b5 08 3d 04 30 8f bd de ca af 3c 54 ef e7 3c
       0.0333765 -0.0699158 0.02145904 0.028312363
000030 dd 0c 78 bd b2 61 dd bc 83 bc 2a 3c 65 0a 51 bd
       -0.060559142 -0.027024124 0.010420921 -0.051035304
000040 28 ec 11 3d 20 6c 83 3d 64 c1 2e bd 20 2e 38 3d
       0.035625607 0.064171076 -0.0426649 0.044965863
000050 01 ea 99 3d 1f 38 a5 bd f0 59 2c bd 99 9a 75 3d
       0.07515336 -0.08067345 -0.04207796 0.05996189
000060 55 42 59 bc a4 12 96 bd ef c6 33 bd 9d 2a 72 bd
       -0.013260444 -0.07327774 -0.04389089 -0.05912267
000070 35 7c 26 bd c5 e0 40 3d 10 d1 30 bb ae 65 4a 3c
       -0.040645797 0.047089357 -0.002698008 0.012353344
000080 4b c4 9f bd 99 c2 11 bd bb 0a 28 bd 15 24 63 bd
       -0.07801112 -0.035585973 -0.04102586 -0.055454332
000090 a3 8e 68 3d 83 1d f3 ba d8 db 8d 3d bb 45 07 3d
       0.056776654 -0.0018548224 0.069266975 0.033025485
0000a0 91 6b 82 3d 34 bd 8e 3d a8 09 14 bd 5d ee bf bc
       0.06368173 0.069696814 -0.03614202 -0.02342909
0000b0 16 c9 eb 3c 49 e1 28 bd be 03 66 bd c1 da 4f 3d
       0.028782409 -0.041230474 -0.056155913 0.05074573
0000c0 4b 7f 9a bd 16 39 04 bd 90 21 ad 3d 99 99 f6 bc
       -0.075438105 -0.032281004 0.08453667 -0.030102538
0000d0 09 86 23 3d ee d0 83 3d 28 b6 e1 3c 80 9a 64 3d
       0.039922748 0.064363346 0.02755268 0.055811405
0000e0 eb ab bf bb 7d d8 b8 3d 4a 94 6d bd 7a 6c 8f 3d
       -0.0058493516 0.09025667 -0.058002748 0.07003112
0000f0 6a 23 2f bd 9d c9 c4 3d 72 62 5b bd 80 ef a7 3d
       -0.042758383 0.09608767 -0.05356068 0.08199978
000100 4c 74 95 bd 4f ca 39 bd c2 ce 78 bd a3 7f ad bc
       -0.072975725 -0.045358952 -0.060744055 -0.021179026
000110 44 dc 91 3d 1e 58 8c 3d 34 0b 49 bd 33 da 2f 3d
       0.071220905 0.068527445 -0.04908295 0.0429327
000120 44 0a 5a bd d3 60 96 39 cd 58 3c 3d fe 59 47 3d
       -0.053232446 0.0002868237 0.045983125 0.048669808
000130 f1 e9 87 3d b2 59 3f 3c c8 f2 80 3d 9e 93 55 bd
       0.06636418 0.0116791 0.06296307 -0.05214273
000140 7e 3d c7 3d c5 ce 21 3d 0f cd 69 3d 98 dc 81 bd
       0.097285256 0.03950383 0.057080325 -0.06340903
000150 74 25 56 3d b3 50 ad bc e1 3a 4a 3d 59 7a 54 bd
       0.05228181 -0.021156644 0.049372558 -0.051874492
000160 be 1b 81 3d 88 ea 9c bb 40 3f 5a bd 9f 70 a5 3d
       0.063041195 -0.0047887005 -0.053282976 0.080781214
000170 2f 0e 85 3d 73 a5 48 3c 7d 94 3c 3d 2a 6a 94 3d
       0.06496846 0.012246477 0.046040047 0.07246812
000180 1b 7d 97 bd 95 fa b6 bc 77 1f 56 bd e1 ce 96 3d
       -0.07396909 -0.022336284 -0.0522761 0.07363678
000190 53 0a b1 bd 17 b5 fa 3c b0 92 7b bd 60 51 3c 3d
       -0.08644547 0.030603928 -0.06141919 0.045976043
0001a0 4b 13 1f 3d e1 35 5e 3d 46 f2 b8 3d c1 dd 26 bd
       0.03883676 0.0542506 0.09030585 -0.040738825
0001b0 a4 f1 80 3d 2a 2a 5b 3d ef 0f 83 3d 93 97 f5 3c
       0.06296089 0.053507008 0.063995235 0.029979503
0001c0 2d 3b d0 bc 31 90 0e 3d b2 89 92 bd a5 d8 94 3d
       -0.025418842 0.03480548 -0.071551695 0.07267884
0001d0 c8 bd 70 bd f4 88 20 bd e3 37 f6 3c 93 b0 a2 3c
       -0.05877474 -0.03919311 0.030055946 0.019859588
0001e0 c4 48 85 3d dd 7c 66 3d 01 1a ff 3c e5 9f 2f 3d
       0.065080196 0.056271423 0.03114033 0.042877097
0001f0 7d 93 98 bd b8 4a 11 bd f9 44 64 bd 4e 7c 1a 3d
       -0.07450006 -0.035471648 -0.05572984 0.037716202

action_model._continuous_distribution.log_sigma f4 [1, 5]
000000 4f 25 1f c0 32 9f 00 c0 cb 8b 04 c0 80 0f 4c bf
       -2.4866521 -2.0097165 -2.0710323 -0.7971115
000010 52 80 bf be
       -0.37402588

action_model._continuous_distribution.mu.weight f4 [5, 128]
000000 29 7f fb bc ee 92 18 3c 8b f9 e2 3c f8 93 a6 bc
       -0.030700283 0.0093123745 0.027706882 -0.020334229
000010 6f 6d 9d 3a c8 f2 a0 3d 6f ae 55 bd b2 88 5c bd
       0.0012010763 0.07858807 -0.052168306 -0.0538413
000020 8c b5 4a bc 0a 4c 9e bc da 90 a7 3c 7c a5 2e bd
       -0.012372386 -0.019323368 0.020454813 -0.042638287
000030 0a c0 4a bd 69 0f 51 3d 77 5f 0d be c2 1c 29 bc
       -0.04949955 0.051040087 -0.13805948 -0.010321798
000040 5e d0 47 3d b2 44 e3 3b 8c 63 c1 bb 4d b0 18 bb
       0.0487827 0.0069356794 -0.0059017595 -0.0023298443
000050 be 1c 46 bc d0 11 e3 bc 63 54 af bc fd 49 53 bc
       -0.012091814 -0.027718455 -0.021402543 -0.012896058
000060 7b 20 83 bc 53 65 c4 bc 8a 8e 2a 3c f3 b7 7f bc
       -0.016006699 -0.023974096 0.0104099605 -0.015607822
000070 b4 15 f4 bc 1e b2 0c bd 53 e1 bd bc 27 32 ca bc
       -0.029795505 -0.034349553 -0.023178732 -0.024682118
000080 2c 3e 84 bc 09 ea f4 bc 82 87 94 3c 93 fc 04 3c
       -0.016142927 -0.029896753 0.018131021 0.008116859
000090 e5 94 42 bd 0c 6f da 3d 48 99 16 b9 70 0b 8c bd
       -0.04750528 0.10665712 -0.00014362216 -0.06838119
0000a0 ff 8a d3 b9 38 35 14 3d 0d 65 88 bd 53 b7 c2 bb
       -0.00040348616 0.036183566 -0.06659899 -0.005942264
0000b0 0d 76 8f bd f3 50 0a 3c d1 d3 c0 3b 78 c3 80 3b
       -0.07004938 0.008442151 0.0058846255 0.0039295517
0000c0 62 d6 f4 3b e9 2e 5d bd 9b 9a 36 bc 15 6f 1a bd
       0.0074718455 -0.053999815 -0.011145259 -0.037703592
0000d0 c6 b0 8b 3c 0b ab 12 3d 5d de 0c bd 5b 50 31 3d
       0.017052066 0.03580765 -0.03439175 0.043289524
0000e0 f1 4a 8e 3c 4f 7d 19 3d a2 6c 0e bc e3 16 b2 3c
       0.01736972 0.03747302 -0.008692892 0.021739429
0000f0 e9 72 8a bc 75 15 18 3d 20 ba 41 bb 46 cd dc 3b
       -0.016900497 0.037129838 -0.0029560402 0.0067383377
000100 c2 7d 29 bc 6d 41 d7 bc 6d 77 04 bd 8b 79 44 3d
       -0.010344924 -0.026276315 -0.032340456 0.047967475
000110 d4 26 f2 3a fa 56 8c bc ea db df ba c3 c7 1c 3d
       0.0018474706 -0.017131317 -0.0017079089 0.038276445
000120 77 15 0d bd ca cf 39 3d d2 eb 28 bc 36 b4 8d 3c
       -0.0344443 0.04536418 -0.01031013 0.017297845
000130 03 9f 48 bb d4 94 3f bd f4 7d 5e bc 9d 1c 1a bd
       -0.0030612356 -0.046772793 -0.013579834 -0.037624944
000140 d1 80 04 3d 49 c6 1a 3b 6c ca 86 3b d9 0d 28 bd
       0.03234941 0.0023616722 0.004113486 -0.04102883
000150 7a 54 4c 3c ac 28 f5 bb 81 80 df 3c 02 64 06 bc
       0.012471313 -0.007481655 0.027282955 -0.008202555
000160 04 bb 5d 3b 91 96 7c 3d c6 18 03 3c 3d 38 56 3d
       0.0033833394 0.06166703 0.008001512 0.052299727
000170 fd 5a f3 ba 6b ae 9a 3d 68 45 5a bd 3d 9d f7 3b
       -0.0018566545 0.07552799 -0.053288847 0.007556586
000180 ec c3 01 bd f8 70 02 bd 75 37 ac bc 30 ee ec 3c
       -0.031680986 -0.031846017 -0.021022538 0.02892217
000190 2e b7 95 bc d4 2e a0 bc 31 eb 0d bd 15 4a 04 3d
       -0.018275823 -0.01955358 -0.034648124 0.032297213
0001a0 3b 45 94 3c 10 9c 8f 3c eb b5 5d 3d 45 3d 6d bc
       0.018099418 0.017530471 0.05412857 -0.01447994
0001b0 26 c5 c8 3b 53 7b df 39 79 4d 0a bb 94 e5 02 3d
       0.0061270176 0.00042625758 -0.0021103306 0.031957224
0001c0 24 77 bb 3c 15 25 20 3c ff 19 ca bb 2d 9e d8 3b
       0.02288396 0.009774466 -0.0061676498 0.006610653
0001d0 1d 51 a9 bc db c6 22 bb 86 c3 41 3c 1e a6 5a bc
       -0.02066856 -0.0024837765 0.011826402 -0.0133452695
0001e0 51 75 45 3c aa ca 10 3c 03 f5 33 3c 44 61 8c 3d
       0.012051896 0.008837381 0.010983708 0.068544894
0001f0 1a eb bc bc de c0 46 3c ca 4e fd bc 06 ec 5b 3d
       -0.023061324 0.012130944 -0.030921359 0.053691886
000200 1d 74 c3 bd cb 19 a1 bd 87 04 09 3d 38 86 b5 bd
       -0.09543631 -0.07866248 0.033451583 -0.08863491
000210 96 44 99 bc c4 96 90 bc 54 43 b1 bd c7 64 b7 bd
       -0.018709462 -0.017650016 -0.0865542 -0.08954769
000220 c9 ad 0c 3d 73 bc 9f bd ae 85 2f ba f1 53 e0 3c
       0.034345422 -0.07799616 -0.000669564 0.027383776
000230 40 f0 85 bd 49 df 14 be fb 13 2d 3e 3f be ac bd
       -0.06539965 -0.14538302 0.16902153 -0.08434724
000240 e2 ab 0f 3e 35 a7 8e 3b 6e ef a6 bd b5 3b ff bb
       0.14030412 0.0043534287 -0.08151136 -0.0077891
000250 35 e7 08 3d 1e 3a 8d bd 53 ff 65 bd ba 98 66 3c
       0.03342362 -0.068958506 -0.0561517 0.014074499
000260 e2 05 14 3b 46 c8 b0 bd c5 de 0f be 6d 5d 11 be
       0.0022586514 -0.08631949 -0.14049824 -0.14195795
000270 11 eb dc bd 77 6f 0c 3d ec d8 ac 3d fe 26 d4 3c
       -0.10787023 0.03428599 0.08439812 0.0258975
000280 6a 9d b9 bd 34 9a d0 bd 19 61 9d bd ca 14 cf bd
       -0.090632275 -0.10185662 -0.076845355 -0.10111387
000290 d3 b8 76 3d 27 3c ba bc 3f 3e 76 3d 78 eb 9a 3d
       0.060234856 -0.022733761 0.060117956 0.07564443
0002a0 b4 5a 9f 3c 0b 27 50 3d c2 8c 9f bb 08 f9 04 bd
       0.01945243 0.050818484 -0.0048690746 -0.032464057
0002b0 39 ff 1f 3e 5d 49 17 bd 74 52 29 bc a3 b9 98 3d
       0.15624703 -0.0369352 -0.0103346 0.074572824
0002c0 54 76 cb bc 09 94 fb bd 66 30 aa 3d eb b4 fd bd
       -0.024836697 -0.12284095 0.083100125 -0.12388023
0002d0 9f 4d a0 3d 61 cf 1a 3d 96 81 3e 3d 3e b0 18 3d
       0.07827305 0.03779543 0.0465103 0.037277453
0002e0 85 91 4a bd 4d e7 96 3d 1b 34 de bd a1 75 26 3d
       -0.049455184 0.07368336 -0.10849782 0.040639523
0002f0 79 fe c6 bd 25 1c 8a 3d 1f 98 f4 bd 3d 18 30 3d
       -0.097165056 0.067436494 -0.11943077 0.042991865
000300 05 17 dc bd c5 1a d5 bd 78 f8 c5 bd 55 20 93 bd
       -0.10746578 -0.104054965 -0.09666532 -0.07183901
000310 8f d9 68 3d 94 9c 6c 3c 87 67 9c bd b8 6f 9c 3c
       0.056848105 0.014441628 -0.07636934 0.01909624
000320 14 8e b6 bd 5b 13 1a be fe 45 63 3c 97 c8 19 3d
       -0.08913818 -0.15046446 0.013871668 0.037544813
000330 0b 2b a6 3c 10 23 90 3d c2 14 48 3d 8f 0f d3 bd
       0.020284196 0.07037938 0.04884792 -0.10305702
000340 30 3c 6c 3d 50 b2 f0 3a f8 70 22 3d d8 6b 72 bd
       0.057674587 0.0018363688 0.039658517 -0.05918488
000350 60 b1 3e 3e 4b 38 03 bd 87 ed e7 3c 7a c3 97 bd
       0.1862235 -0.032036107 0.028311504 -0.07410331
000360 11 6e 2e 3d a7 e3 df bd d6 15 93 bd 1b 85 32 3d
       0.042585436 -0.10932093 -0.07181899 0.04358397
000370 92 a2 a0 3c 30 08 d6 bd 6d 41 83 3d 99 55 24 3d
       0.01960877 -0.104507804 0.06408963 0.040120695
000380 08 4d f7 bd 0f ca 90 bd 72 63 85 bd d8 08 d7 3c
       -0.120752394 -0.070697896 -0.06513108 0.026249334
000390 63 b1 aa bd 48 ed 63 3a 5a c5 cd bd cb 2d 86 3d
       -0.08334615 0.00086947205 -0.100474074 0.06551703
0003a0 fe b3 1e 3d 8f 7a 1e 3d 4e 07 97 3d 92 35 b4 bd
       0.038745873 0.0386911 0.0737444 -0.0879928
0003b0 08 d3 06 3d 84 c1 94 3c a0 f2 06 3d 9a 5c fb 3c
       0.0329161 0.018158682 0.03294623 0.030683804
0003c0 be 28 6d bd dc 2c 74 3b 15 07 9a bd bb 8e 23 3c
       -0.057900183 0.0037258184 -0.07520882 0.00998276
0003d0 9f 13 96 bd 5e b7 a2 3c 3c 98 c3 3c 18 14 4d 3c
       -0.07327961 0.019862827 0.023876302 0.012516998
0003e0 c7 a5 3b 3d ff a2 1c 3d 5f ff 2e 3c 74 2c c2 bc
       0.045812394 0.038241383 0.010681002 -0.023702838
0003f0 94 8b ce bd 5c 26 8b bd 47 c5 d9 bd b3 c0 03 3e
       -0.10085216 -0.06794426 -0.10633331 0.12866478

action_model._continuous_distribution.mu.bias f4 [5]
000000 b5 b2 07 3d d7 5a 98 3d dd 06 0c bd 29 67 ca bd
       0.033129413 0.07439201 -0.034186233 -0.098829575
000010 ad 43 8f 3d
       0.0699533

critic.network_body.linear_encoder.seq_layers.0.weight f4 [128, 19]
000000 ad b4 00 bf 86 50 0e 3d 42 c1 bc be 6a be 79 3e
       -0.5027569 0.034744762 -0.36866194 0.24389043
000010 f4 c8 19 3d cf 26 a6 bd dd 9a 80 be 14 e6 1e be
       0.03754516 -0.08112871 -0.2511815 -0.15517455
000020 96 64 f8 3e f0 c4 df 3e 88 f9 17 be 2f ac 7c 3e
       0.4851424 0.4370494 -0.14841282 0.24675058
000030 54 fb b6 3e eb 68 0b 3e 0d 91 9f 3e 8e 70 b5 bd
       0.35738623 0.13614242 0.31165352 -0.08859359
000040 ff 3d 7a be cd 12 56 bd 48 8b e0 3e 10 7b 4a be
       -0.24437712 -0.052264024 0.43856263 -0.19773507
000050 45 48 33 3e 0d a7 45 3e a9 75 61 be c2 9e bd 3c
       0.17508037 0.19302006 -0.2201754 0.02314699
000060 4d 1c 5c be bc 63 10 3e 9d 4a 71 3e 5e d9 0e bd
       -0.21495171 0.14100546 0.23563619 -0.034875266
000070 7c 18 c4 3e be 93 60 be d1 28 6a 3d 71 a9 2c bd
       0.3829993 -0.21931359 0.05716783 -0.04215378
000080 bf 69 b7 3d bc 7a 0e 3f aa 3d 90 be 9b 25 0e bd
       0.08955716 0.5565603 -0.28172046 -0.034703832
000090 69 81 36 bf 82 10 dd be ec a0 3e be 39 b8 dc be
       -0.71291214 -0.43176657 -0.18616074 -0.431093
0000a0 79 c3 f5 3d d8 80 b7 3e 45 09 05 be 70 fb ca be
       0.12000174 0.35840487 -0.12991817 -0.39644957
0000b0 d1 04 28 3d a3 31 b8 3e 75 b1 78 be 80 b2 f4 be
       0.04102022 0.3597537 -0.24286444 -0.47792435
0000c0 be b9 f2 3e 2f 50 a0 3e 6b 28 d4 3e 0e 7f 95 3e
       0.47407335 0.31311175 0.41437086 0.29198498
0000d0 c9 d9 98 be 3b c3 11 bf 84 53 86 3e 79 15 92 be
       -0.29853657 -0.56938523 0.26235592 -0.28532007
0000e0 af 09 e4 be 86 4c 4d be 8d 7f 27 be 5d a8 94 ba
       -0.44538638 -0.20048723 -0.1635725 -0.001134168
0000f0 43 9b 9a 3e 32 89 20 be 63 3d ed 3e 0d 65 81 3c
       0.3019658 -0.15677336 0.46335897 0.015795255
000100 d8 79 bf 3d 04 82 2b 3e 81 89 eb 3e 47 55 ec be
       0.09349412 0.16748816 0.46003345 -0.4615881
000110 7d e8 fd 3e b6 85 73 bd af ea b0 3d 5a d0 bf 3d
       0.49591437 -0.05945369 0.08638512 0.09365912
000120 9b fe 87 3d bc 1f a8 be 17 49 ca 3d f4 22 a0 be
       0.06640359 -0.3283671 0.09877222 -0.31276667
000130 c0 a0 f0 bd 2d 71 5c 3d 65 7d 7b bd 28 bf 83 bd
       -0.11749411 0.05381887 -0.061398882 -0.064329445
000140 0d 7f 47 be df 18 df 3e 70 c4 a0 bd 76 eb 5c be
       -0.1948206 0.43573663 -0.078499675 -0.21574196
000150 78 e5 52 3e e0 96 e7 3d 02 08 15 be 17 c3 6c bd
       0.20595348 0.11308074 -0.14553836 -0.05780324
000160 85 fb 17 3e 91 d8 2c be a3 16 90 be b3 2c 86 be
       0.14842041 -0.16879489 -0.2814227 -0.26205978
000170 db da 07 be ae 2c 31 be ba 50 e0 be ea 4c 03 3e
       -0.1326708 -0.173022 -0.4381159 0.12822309
000180 bf 24 e4 bd 49 78 3c 3e b4 c8 26 3d 09 9f be be
       -0.11139821 0.1840526 0.04071875 -0.3723071
000190 cb c2 86 3e b9 ba 58 3e c1 4a d6 bd 1b 0a 8f 3e
       0.2632049 0.21164979 -0.10463477 0.27937397
0001a0 28 7d 8c 3d 0f 7f ab be 20 07 ad 3d 30 b5 0f 3d
       0.06859809 -0.33495376 0.084486246 0.035084903
0001b0 98 41 49 bd 19 b6 49 3e 36 38 22 be 0d 00 4b 3d
       -0.04913482 0.19698371 -0.15841755 0.049560595
0001c0 e4 79 40 3f 7f cb 89 bd 49 ce ca be 40 d0 ae 3e
       0.7518599 -0.06728267 -0.39610508 0.34143257
0001d0 b4 50 47 3d 3f 2f f9 3c 38 13 f0 bd 4c 85 4f 3e
       0.04866095 0.030418037 -0.11722416 0.20265692
0001e0 95 2d 4d be fd 3d 10 3e 4f 60 17 3d db 0a 2a 3f
       -0.2003692 0.14086147 0.03695708 0.66422814
0001f0 6f 20 a5 be 81 5d 8b 3e cd c2 2e 3e 91 ba ca bd
       -0.32251307 0.27219775 0.17066498 -0.09898866
000200 c1 68 d3 be 51 5e 47 bc a0 ab 87 3e e8 56 9c 3c
       -0.41290858 -0.012168483 0.26498127 0.019084409
000210 3e 71 91 be a7 1b 19 bd 5f 91 e7 3e 72 11 b3 3c
       -0.2840671 -0.037379887 0.45228097 0.021858905
000220 c9 7b e4 3e 13 1e 40 be bc bc e5 3e 9d ad 95 bd
       0.4462569 -0.18761472 0.44870555 -0.07308505
000230 e1 f1 24 bd cc a7 2a 3e 9b 4c 36 be ab fb 52 be
       -0.040269736 0.16665572 -0.1780266 -0.20603816
000240 0e 9a c5 3e 21 55 d3 bd c9 77 84 3e e1 0f 1f 3f
       0.38594097 -0.103189714 0.2587264 0.62133604
000250 ff 78 e6 3e 5a 95 01 be 75 99 48 3e ba d8 82 bd
       0.45014188 -0.1265463 0.19589789 -0.063889936
000260 ea b1 90 3e 77 ce 27 be 33 fd 12 3e b1 15 e4 bc
       0.28260738 -0.16387354 0.143544 -0.027842375
000270 41 e1 9b 3e 57 e2 ca bd 3a f3 ce 3d 1b 97 47 3d
       0.30445293 -0.09906452 0.101049855 0.04872809
000280 de 4e f5 3b c3 c4 07 be a7 c3 8c be 90 d0 92 be
       0.0074862083 -0.13258652 -0.2749302 -0.28674746
000290 d0 32 43 3e 30 e4 f1 3d 22 72 be 3d f6 6c 12 3f
       0.19062352 0.118111014 0.09299113 0.5719751
0002a0 8d 93 f3 be d9 a5 ec 3e de 8b ef bd f6 1d 6e be
       -0.4757351 0.46220282 -0.116965994 -0.23253617
0002b0 c6 34 a6 be 4b ed 46 be 28 ef 56 bc bf 01 3a bc
       -0.32462138 -0.19426458 -0.013118543 -0.011352955
0002c0 67 e1 1d be 4a 5f 20 3d 06 ed 51 3c 88 ce 2d 3e
       -0.15418015 0.039153375 0.012812858 0.16973317
0002d0 99 1f d1 3e 5d c2 a4 be 5f 0f 6c bd b3 64 3e bd
       0.4084442 -0.32179537 -0.057631847 -0.046482753
0002e0 56 40 70 be 2d f6 12 3f 86 21 cc 3d b8 2c aa be
       -0.23462042 0.57406884 0.099673316 -0.33237243
0002f0 05 f9 d1 be 1f ae df bd 61 29 59 3d 41 c6 39 be
       -0.410103 -0.10921883 0.053017978 -0.18142034
000300 3b 42 67 3c ad 11 46 3e 2d 48 8a bd 36 c3 79 3e
       0.014114912 0.1934268 -0.06752048 0.24390873
000310 ef 15 94 3c 73 1e 73 3e 20 bb 99 bd 43 11 e1 3d
       0.018076865 0.23742084 -0.075063944 0.109896205
000320 ea de d8 bd d5 4d 28 3e fe 6c cf 3d 94 e7 92 3e
       -0.105893925 0.1643594 0.101282105 0.28692305
000330 03 c7 ab be 2f 95 6b be 8b 7b 29 be 0d 1b 11 3f
       -0.3355027 -0.23006128 -0.16551034 0.566819
000340 4f 15 0e be 07 15 db be 4d 7a 9b 3d 98 3f 6c 3e
       -0.13875316 -0.4278948 0.075916864 0.23071134
000350 81 56 08 3d a9 a2 a5 3c ef e0 18 bc 23 07 db 3e
       0.03328562 0.020219164 -0.009330972 0.42778882
000360 e2 23 a5 be c1 49 90 3e 2d c9 d1 3e 7a 8b 3e 3e
       -0.3225394 0.2818127 0.40973797 0.18607894
000370 69 af e2 3d a0 49 82 be c8 7a 31 3d 82 6f 82 be
       0.11068613 -0.25446796 0.043329984 -0.254757
000380 a4 79 1c 3e 2f d2 21 3f 59 49 a9 be 74 05 10 bd
       0.15280777 0.6321134 -0.33063772 -0.03516145
000390 fe 96 33 3e 21 2c e5 3e af f2 78 3e d7 64 3c be
       0.17538068 0.4476023 0.24311326 -0.18397842
0003a0 2e 95 05 bf 81 fc 36 bd 64 9d a9 be ac 19 7e 3d
       -0.52180755 -0.0446744 -0.33127892 0.0620362
0003b0 4b 1e 00 bf f8 66 82 3e 66 18 57 bd 16 bb 92 bd
       -0.50046223 0.25469184 -0.052513503 -0.0716459
0003c0 87 d5 86 3d 57 38 5c bd e5 76 bb bd 1a 2b 37 3d
       0.06583696 -0.053764667 -0.09153537 0.04471884
0003d0 75 50 5c be 2a 57 7b 3d b9 8b 33 3e 4e ba c4 be
       -0.21515067 0.061362423 0.17533769 -0.3842339
0003e0 41 8b fa be 13 e1 64 3e 61 0b 0b 3e 73 e3 48 be
       -0.48934367 0.22351484 0.1357856 -0.19618015
0003f0 19 fd ae 3e e8 02 31 3e 4b bc 95 3e 1e ac 68 3d
       0.34177473 0.17286265 0.2924522 0.05680477

critic.network_body.linear_encoder.seq_layers.0.bias f4 [128]
000000 69 5e c9 3d 7e 22 b6 3d 97 0f 14 3e a5 42 d6 3d
       0.098324604 0.088932976 0.14459072 0.1046193
000010 2a 44 a7 3d 28 58 51 bb 1b 2b 8b 3d be 6d ce 3d
       0.08167298 -0.0031943414 0.06795331 0.100795254
000020 92 e6 29 3d 75 7e ee 3d f9 c7 b7 3d 35 1d cf 3d
       0.041479655 0.116452135 0.08973689 0.10112993
000030 26 ed 39 3d 8f 38 a3 be dc 0e ae 3d cf 01 4c 3d
       0.045392178 -0.31879088 0.08498928 0.049806412
000040 39 1f a8 bc 3d 77 a3 bc 6a 62 8c 3d f3 66 a4 bc
       -0.0205227 -0.019954318 0.068547085 -0.020068621
000050 2f 8b fc 3c d9 fc 81 3d d8 75 57 ba 6a 2e 8e 3d
       0.030828087 0.06347055 -0.0008219159 0.069424465
000060 ee 57 0a 3d f4 dc c5 3c 0c 06 56 3c c6 78 d8 3d
       0.033775263 0.02415321 0.013062965 0.10569911
000070 3e f4 2b 3d 5b 01 b5 3a a2 fd 9f 3b 5d 9c 78 3d
       0.041980974 0.0013809608 0.0048825303 0.060695995
000080 c6 ae bd 3d 2b e7 89 bc a9 fa 56 3e 62 af c1 3d
       0.09261851 -0.016833862 0.20994057 0.0945728
000090 33 bc 1d 3d 1b e7 be 3d e2 e2 a4 bc fe 6c 95 3d
       0.03850956 0.093214236 -0.020127717 0.07296179
0000a0 b1 f3 42 3d af 56 21 3d f6 20 1a 3e 44 90 49 3d
       0.047595683 0.03938931 0.15051636 0.049209848
0000b0 a2 bd 16 3d c7 22 3e ba 07 bb c6 3d bf 27 f8 3b
       0.03680194 -0.0007253107 0.097036414 0.0075730975
0000c0 86 3a db 3a a5 65 19 be a7 60 a2 3d ad aa c6 3d
       0.0016725815 -0.1498018 0.07928591 0.097005226
0000d0 92 3a 80 3d 27 db 52 3c 6e 97 18 bd 39 3e 46 bb
       0.062611714 0.012869633 -0.03725379 -0.003024949
0000e0 f4 0d 89 bc e6 ef 9e 3d 1a c1 7e 3d 71 17 30 3d
       -0.016730286 0.07760601 0.062195875 0.042991105
0000f0 08 7f 2d 3d d9 33 e4 3c d6 1b f0 bc 61 0b 5f 3d
       0.042357475 0.027856754 -0.029310148 0.05445421
000100 d4 01 a5 3d 01 20 14 3d 29 30 00 3e ec 78 95 3d
       0.08056989 0.036163334 0.12518372 0.07298455
000110 d4 df 24 3c 76 6b 3b bd 96 2d 6a 3d 96 89 18 3d
       0.01006313 -0.04575678 0.05717238 0.037240587
000120 9c ce 8e 3d ae ad ac 3c 1c 73 cc 3d 18 e1 b3 3d
       0.06973001 0.02107891 0.09982893 0.087831676
000130 44 d5 55 3d bc 17 0a 3d 3f 96 c1 3d 3e e0 7c 3c
       0.05220534 0.03371404 0.09452485 0.015434323
000140 ae 6a 13 bd 30 07 6a 3d 1d c5 a9 3c a8 c3 ea 3d
       -0.03599041 0.05713576 0.020723874 0.114631
000150 b4 99 3e 3d 4e b0 5b 3b 41 23 de 3d 79 9e 6f 3d
       0.0465333 0.0033521834 0.10846568 0.05850074
000160 70 35 86 3d 0d 4f b0 3d c1 39 ae 3d d4 bc 8f 3d
       0.06553161 0.08608828 0.085071094 0.07018438
000170 ae 45 0d bd 2b 21 d0 3c 2f 84 04 bd bd 45 d1 3d
       -0.03449028 0.02540644 -0.032352623 0.1021838
000180 f6 aa be 3c a1 db 65 3d ca 09 b5 3c 64 be 30 3d
       0.02327488 0.056117658 0.022099394 0.04315032
000190 e0 6d 99 3d c7 d7 c9 3d 86 cc 77 3d 95 2c 04 3e
       0.0749166 0.098556094 0.060497783 0.12907632
0001a0 40 9f e5 3b ee ba 96 3d 27 f3 44 bd 63 06 63 3d
       0.0070075095 0.07359873 -0.04808345 0.055426013
0001b0 29 8a 09 bc e5 e6 33 3d 4f 68 5e 3d fa 24 05 bd
       -0.008394756 0.04392137 0.054298695 -0.032505967
0001c0 7d d8 51 bb 5f 1a ca 3c af f8 9c bc a1 0a 7b 3d
       -0.0032019906 0.024670778 -0.01916155 0.061289433
0001d0 7a 69 47 bc 47 45 ac 3d b9 61 b6 3d d0 76 48 bc
       -0.012171144 0.08411651 0.08905358 -0.012235358
0001e0 59 6c d6 3d 26 8c ce 3d 6e ec 24 3d 87 2a 96 bc
       0.104698844 0.10085325 0.04026454 -0.018330825
0001f0 41 0a b1 3c 6b 4d cf bc 2b 05 a3 bc 21 51 a8 3d
       0.021611335 -0.02530547 -0.019899925 0.08218599
