results/rdesktop_run_001/Robotarm/Robotarm-999964.pt (torch, 884223 bytes, 48 tensors)

network_body.linear_encoder.seq_layers.0.weight f4 [128, 19]
-0.51031435 -0.3007552 0.49369758 0.07400053 0.34769315 0.01751156 0.019400598 0.22854453
-0.09555641 -0.08356575 -0.28938404 -0.34478366 -0.30888367 0.46677682 -0.24913399 -0.23027569
-0.044653434 0.34262988 -0.073397234 0.09888046 -0.52511454 -0.14702363 0.43793878 0.1830433
-0.45659816 0.16374977 0.047887098 -0.3008335 0.076666296 0.037722584 -0.2883509 0.035637468
-0.15809795 0.30631712 0.22444712 0.099002756 -0.3229646 0.02977942 -0.28759283 -0.19886881
-0.08573896 0.2709156 -0.20941532 0.042403217 -0.28191945 -0.45678347 0.247316 0.24716182
-0.09710982 -0.0123358015 0.12249102 0.5523431 -0.06946623 0.122185625 -0.09798095 -0.29346737
-0.07543165 -0.058113087 -0.20271511 0.13225071 0.14140834 0.12439615 0.21446158 -0.0076336027
-0.06358022 0.09967194 -0.38006404 0.21378396 -0.51889133 0.20402399 -0.124658465 0.078756444
-0.09374091 -0.11729322 0.43195194 0.13946213 -0.037543345 0.073988914 -0.24339132 -0.20633799
0.12058145 -0.06977853 -0.323322 -0.23869719 0.1419855 -0.13555712 -0.039987084 -0.27522433
-0.13769175 -0.36940065 0.1864131 0.03417713 0.33323517 0.1720617 0.0962767 -0.07029468
-0.41642055 0.40243816 0.42225903 0.1017173 0.0528311 0.078197174 0.14595526 0.14219742
0.16769764 -0.31992817 -0.16355757 -0.081120715 -0.104306 -0.046247303 -0.10392869 -0.056975614
-0.11938275 0.25881764 -0.20845653 -0.10677913 -0.058263607 0.13358665 0.11848972 0.41663864
0.0146388905 0.26077402 0.04650977 0.082289025 -0.20514823 0.20302528 -0.3102551 0.44835332
0.15241145 -0.09635335 0.097768426 -0.08247904 0.027745254 0.06469454 -0.015558641 -0.4165706
-0.034862883 -0.17981212 0.34036148 -0.0057843993 0.28026 -0.3508945 -0.0017852591 -0.15105534
0.10883668 -0.049014486 -0.26068878 0.35813984 -0.44130585 0.3340703 -0.063701846 -0.29517114
0.11451474 -0.015345971 0.10440718 0.3492665 -0.15386821 -0.5912346 -0.0038848768 0.26460305
-0.16772756 0.015850233 0.092532374 -0.39099336 -0.26484892 0.23541008 0.06523042 -0.37834984
0.39974535 0.4577086 0.62202847 0.016208582 0.2791254 -0.18738542 -0.020031663 -0.30714545
0.27905127 -0.10437528 -0.12009548 -0.14595562 0.1762957 0.26177388 0.3339001 0.019490965
-0.117026195 0.097265035 0.40485814 0.08319202 0.07167478 0.34800482 0.31516045 -0.091538936
-0.132082 -0.48998353 0.08028715 0.14679714 0.18917604 0.054243777 0.16943318 0.20953198
-0.77591014 -0.1461161 -0.15776975 -0.16858381 0.40738395 -0.13549286 -0.16600259 -0.25396296
-0.07486554 -0.24496719 -0.2600641 0.0074649965 0.3750817 0.09678359 -0.16721758 0.20996743
0.1105619 -0.11370277 0.14562197 0.120032266 0.14162897 0.084502526 -0.0011903984 0.019662622
-0.048477683 -0.590602 -0.14305532 -0.21764705 -0.27506763 -0.07394039 0.13790593 -0.035397496
0.18777177 0.05138576 0.48656058 0.27638227 -0.06709115 -0.22325963 -0.37200496 0.19384244
-0.23137501 -0.1912581 -0.27148503 0.023620587 -0.28698832 -0.13059682 -0.309016 -0.35302374
-0.26688507 -0.42666855 0.120153785 -0.03764585 -0.009738591 -0.010657076 -0.07072501 0.28202283
00000000: f6a3 02bf 96fc 99be eec5 fc3e 978d 973d
00000010: d604 b23e 6774 8f3c 01ee 9e3c 9407 6a3e
00000020: 14b3 c3bd 8524 abbd 252a 94be 7c87 b0be
00000030: 0026 9ebe 5ffd ee3e fb1c 7fbe 64cd 6bbe
00000040: 85e6 36bd 2f6d af3e 4a51 96bd d781 ca3d
00000050: e86d 06bf 5d8d 16be 8339 e03e b46f 3b3e
00000060: 3cc7 e9be 05ae 273e 4325 443d d906 9abe
00000070: 3803 9d3d ff82 1a3d bba2 93be 98f8 113d
00000080: 6ee4 21be 99d5 9c3e 77d5 653e f5c1 ca3d
00000090: 9e5b a5be f8f3 f33c 5e3f 93be 44a4 4bbe
000000a0: e897 afbd 73b5 8a3e f870 56be ffae 2d3d
000000b0: bf57 90be 86df e9be 6840 7d3e fd17 7d3e
000000c0: 83e1 c6bd 1a1c 4abc 92dc fa3d 5b66 0d3f
000000d0: 5044 8ebd 753c fa3d 3caa c8bd 5b41 96be
000000e0: e97b 9abd fd07 6ebd 8d94 4fbe bb6c 073e
000000f0: 59cd 103e 69c3 fe3d d19b 5b3e 4d23 fabb
00000100: 5936 82bd cd20 cc3d c197 c2be 2fea 5a3e
00000110: 10d6 04bf aaeb 503e f04c ffbd 0f4b a13d
00000120: 3cfb bfbd 6d37 f0bd ce28 dd3e 29cf 0e3e
00000130: 0dc7 19bd 8087 973d 933b 79be 444a 53be
00000140: 68f3 f63d 0ce8 8ebd 768a a5be 096d 74be
00000150: a664 113e 7ccf 0abe 7fc9 23bd 34ea 8cbe
00000160: 11ff 0cbe 1522 bdbe 13e3 3e3e 51fd 0b3d
00000170: cd9d aa3e f130 303e b82c c53d a8f6 8fbd
00000180: 1335 d5be 600c ce3e 5632 d83e 2951 d03d
00000190: 6c65 583d d725 a03d 4c75 153e 339c 113e
000001a0: eeb8 2b3e a0cd a3be a37b 27be 9e22 a6bd
000001b0: 629e d5bd d06d 3dbd 91d8 d4bd 435f 69bd
000001c0: f17e f4bd bf83 843e a175 55be 04af dabd
000001d0: d2a5 6ebd f0ca 083e bdaa f23d a951 d53e
000001e0: f5d7 6f3c 2c84 853e 0781 3e3d 2687 a83d
000001f0: 6112 52be dce5 4f3e c2d9 9ebe 918e e53e
00000200: bf11 1c3e e854 c5bd d03a c83d c5ea a8bd
00000210: 044a e33c 927e 843d ace9 7ebc be48 d5be
00000220: 62cc 0ebd ab20 38be dc43 ae3e 0f8b bdbb
00000230: 3d7e 8f3e 72a8 b3be 5bff e9ba 40ae 1abe
00000240: c4e5 de3d 6ac3 48bd 0079 85be 1b5e b73e
00000250: d7f2 e1be 430b ab3e 1d76 82bd ac20 97be
00000260: b486 ea3d ab6d 7bbc 6ed3 d53d 0fd3 b23e
00000270: a18f 1dbe 275b 17bf 6b99 7ebb 0d7a 873e
00000280: c6c0 2bbe 59d8 813c 9d81 bd3d 4830 c8be
00000290: 479a 87be 570f 713e 8797 853d 12b7 c1be
000002a0: 6cab cc3e c858 ea3e 423d 1f3f dcc7 843c
000002b0: 86e9 8e3e f7e1 3fbe 7119 a4bc 2b42 9dbe
000002c0: cfdf 8e3e b5c2 d5bd 9ef4 f5bd 6475 15be
000002d0: dc86 343e 3a07 863e f4f4 aa3e 84ab 9f3c
000002e0: 6eab efbd e432 c73d 9149 cf3e 9460 aa3d
000002f0: 3aca 923d b02d b23e b65c a13e c478 bbbd
00000300: 8140 07be 1fdf fabe 976d a43d fd51 163e
00000310: 5db7 413e b92e 5e3d e47f 2d3e 8d8f 563e
00000320: 0ca2 46bf 759f 15be 658e 21be 3ca1 2cbe
00000330: a194 d03e a4be 0abe 95fc 29be 6f07 82be
00000340: 1b53 99bd aed8 7abe 1f27 85be ee9c f43b
00000350: b50a c03e 7a36 c63d 163b 2bbe b401 573e
00000360: 476e e23d ffdc e8bd ed1d 153e 7ad3 f53d
00000370: 2f07 113e a90f ad3d 2407 9cba 8213 a13c
00000380: 8990 46bd b131 17bf 187d 12be dede 5ebe
00000390: aad5 8cbe 0f6e 97bd 3637 0d3e f7fc 10bd
000003a0: 3e47 403e e079 523d 781e f93e fa81 8d3e
000003b0: 1667 89bd 2c9e 64be 6f77 bebe a27e 463e
000003c0: 92ed 6cbe 2ad9 43be 1600 8bbe f67f c13c
000003d0: 22f0 92be 2cbb 05be 5837 9ebe 87bf b4be
000003e0: 29a5 88be 4d74 dabe 3013 f63d 8932 1abd
000003f0: 9c8e 1fbc 049b 2ebc 46d8 90bd 4c65 903e

network_body.linear_encoder.seq_layers.0.bias f4 [128]
0.018507442 0.07918087 -0.057565156 -0.03500361 0.044070687 -0.043583926 0.0059257085 0.079182856
0.026353523 0.08111134 0.08317751 -0.051821288 -0.051374663 -0.0062482194 0.023084182 -0.02443845
0.13593942 0.07884255 -0.13511497 -0.01389848 0.02052197 0.033607528 0.13496315 0.09373218
0.038977236 -0.06910421 0.050213028 -0.14550698 0.026787711 0.07735052 -0.14670624 0.078206
-0.057059728 0.101896174 -0.009721344 0.066565625 -0.016220657 0.06920622 0.048541505 -0.009671645
0.07991435 0.07847379 0.048607074 0.05453043 -0.07764249 -0.14718561 -0.041552432 0.05017729
0.08396998 0.0717328 0.053505063 0.13549212 0.08744888 0.04550421 0.0665303 0.030300511
-0.02460263 0.048405156 0.085145906 0.06728169 0.14434326 0.06250914 0.08818364 0.0039839474
0.040950865 0.08976206 0.04814118 0.0796513 0.015456979 0.07893786 0.080629125 -0.010691371
0.03058502 0.011789944 0.07670002 -0.08223541 -0.022095231 0.13175409 0.040521156 -0.061563592
0.09889678 0.0087438645 0.05708773 -0.008691393 -0.05317873 0.06449464 -0.022851694 -0.022196358
0.002293951 0.055683535 -0.038698155 0.078291334 -0.007426136 -0.0014345938 -0.10945977 -0.013076881
0.16901247 -0.06924686 0.050312992 -0.0044160536 0.059124116 0.10538078 0.014748919 0.02623346
0.044747543 0.059817307 0.074093744 0.06375758 -0.049178872 0.046576448 0.084740035 0.0932501
0.06627857 -0.011836656 0.07645648 0.12094108 -0.04655815 0.051812425 -0.07017964 -0.10888734
0.0603712 0.06282036 0.07153314 0.058256302 0.07763139 -0.011149342 -0.008249923 0.070189275
00000000: eb9c 973c 9429 a23d 71c9 6bbd f25f 0fbd
00000010: 7783 343d 0f85 32bd 722c c23b 9f2a a23d
00000020: 58e3 d73c b41d a63d f858 aa3d 8f42 54bd
00000030: 3d6e 52bd ddbd ccbb 0a1b bd3c 2533 c8bc
00000040: b433 0b3e 3478 a13d 945b 0abe 73b6 63bc
00000050: b11d a83c 0ca8 093d c833 0a3e a8f6 bf3d
00000060: 98a6 1f3d 8286 8dbd 2dac 4d3d c8ff 14be
00000070: e771 db3c f369 9e3d 293a 16be 782a a03d
00000080: 76b7 69bd f1ae d03d 4646 1fbc 8f53 883d
00000090: 2fe1 84bc febb 8d3d 75d3 463d d275 1ebc
000000a0: 22aa a33d deb6 a03d 3618 473d 4d5b 5f3d
000000b0: 0703 9fbd d3b7 16be e232 2abd b486 4d3d
000000c0: 74f8 ab3d a5e8 923d 2028 5b3d 72be 0a3e
000000d0: 6618 b33d 9f62 3a3d 0a41 883d c738 f83c
000000e0: 748b c9bc 7c44 463d fa60 ae3d fcca 893d
000000f0: b8ce 133e cb04 803d a099 b43d c68b 823b
00000100: 18bc 273d 2cd5 b73d b02f 453d 3920 a33d
00000110: 453f 7d3c 2caa a13d e220 a53d dc2a 2fbc
00000120: 708d fa3c 9c2a 413c e614 9d3d 0a6b a8bd
00000130: 0f01 b5bc 8bea 063e 83f9 253d 1b2a 7cbd
00000140: 658a ca3d 6d42 0f3c d3d4 693d 5866 0ebc
00000150: f1d1 59bd c415 843d 7a33 bbbc 23d5 b5bc
00000160: 1d56 163b 6b14 643d f581 1ebd 3557 a03d
00000170: f256 f3bb fb08 bcba 722c e0bd 6a40 56bc
00000180: 9b11 2d3e 4cd1 8dbd ff14 4e3d 8bb4 90bb
00000190: 212c 723d e1d1 d73d 73a5 713c 8ee7 d63c
000001a0: 3349 373d fe02 753d 76be 973d 5693 823d
000001b0: c96f 49bd f2c6 3e3d 2f8c ad3d e9f9 be3d
000001c0: 0fbd 873d 89ee 41bc 3795 9c3d f5af f73d
000001d0: c2b3 3ebd 4439 543d 58ba 8fbd 5300 dfbd
000001e0: cb47 773d f6a7 803d f87f 923d 299e 6e3d
000001f0: 35fd 9e3d bbab 36bc af2a 07bc 65bf 8f3d

network_body.linear_encoder.seq_layers.2.weight f4 [128, 128]
0.0138589265 -0.04673127 0.050184086 0.017752245 0.20231156 -0.09211319 0.07351092 0.13792184
0.079019204 -0.09623565 0.071402915 -0.15469874 -0.1386666 0.2917529 -0.15687416 0.034221515
-0.14689378 0.1523515 0.061395533 0.14903474 0.13183509 -0.172309 -0.04303011 -0.13833013
0.13532837 0.06816691 0.020654583 0.048994232 0.04752971 0.013784825 0.060861297 -0.15524319
0.13343194 -0.010867608 -0.008911398 0.096145816 0.018854028 0.05382637 0.10580122 0.002057678
0.103464 0.06408704 -0.0068164975 0.03332149 -0.019612625 0.025912259 -0.017412126 -0.006724775
-0.12594505 -0.06430131 0.07750522 0.090794176 0.23675655 0.08583299 -0.02143634 0.06428206
0.040646773 0.033993177 -0.043206017 0.23262253 0.046473812 0.00029818868 0.043459244 -0.14267407
0.12717216 0.06449388 0.18543303 0.07499199 -0.1002187 -0.08191589 0.19715096 -0.061424613
-0.1323871 -0.0062653087 0.24439545 -0.14004973 -0.20971692 0.15689828 0.05789972 0.0023455028
-0.090686776 0.00427896 -0.034260884 0.074058846 0.01829436 -0.052078437 -0.015595585 0.029455937
0.0023509644 0.009992147 -0.13788642 0.092152104 -0.014096459 0.025268465 0.0129504865 -0.07571527
0.06763484 0.10825576 -0.01597061 -0.074564755 -0.057027224 0.19938011 -0.15948671 -0.022294167
0.03465575 -0.01201664 0.24461919 0.003943867 -0.31861362 0.14206897 -0.048555296 -0.0583375
0.019493926 -0.18623501 -0.12204844 -0.01970978 0.02441871 0.12510781 0.123426534 -0.0096128285
-0.003616746 0.19748919 -0.13031462 0.02431826 -0.010635795 -0.26168233 0.061188824 -0.12321661
-0.028873846 -0.13412131 0.1850379 -0.16565672 0.02031012 0.29840645 0.05298708 -0.17824535
0.07067685 -0.045510843 -0.027439369 0.10323808 0.26119682 -0.2315759 -0.052424815 0.1535126
-0.081046574 -0.16284832 -0.07553271 0.18422614 -0.035786398 -0.021679074 0.13192981 -0.036877997
0.20102628 -0.13513474 -0.1280913 0.0745353 -0.05273946 -0.12868173 -0.054704044 0.0037217767
0.10390141 -0.07382076 -0.22217105 -0.2496859 0.10724542 -0.07848482 -0.0988957 -0.014981012
-0.11504157 -0.1571167 -0.012785509 -0.31454852 0.09036217 -0.036683314 -0.076958105 -0.12503855
0.059751365 -0.08199581 -0.039383397 -0.010240178 -0.014179508 0.028248912 0.11376237 0.0503745
0.12629318 -0.15429035 0.14717676 -0.11975326 0.11016749 -0.15253858 -0.103926815 0.11359567
-0.01304824 -0.113499746 -0.117519476 -0.14276145 -0.097031474 -0.09663397 -0.043990243 0.056358658
0.12415675 -0.01709642 -0.16517222 0.13919924 0.21246326 0.11081313 0.017192671 -0.052798644
0.011535166 0.027471047 -0.07157546 0.07929205 -0.037971117 -0.11913361 -0.017341984 -0.022574322
-0.07257347 -0.13473801 0.20659384 -0.09074753 0.2955541 -0.060231674 0.08236651 0.039131116
-0.050357603 0.15292272 -0.040686976 0.16149695 -0.0040774886 -0.17736298 0.096340485 0.08982369
0.19352423 -0.120716214 0.07818456 -0.2586053 0.26900494 -0.010522714 -0.1754922 0.064552255
-0.22477688 0.10604703 -0.035506032 0.051712215 0.254858 -0.13854474 0.04068204 0.21302065
-0.04250179 -0.14369544 -0.09372488 -0.14261463 -0.16698602 0.04940517 -0.0941441 -0.17868418
00000000: 8d10 633c 4a69 3fbd d48d 4d3d 286d 913c
00000010: c32a 4f3e d7a5 bcbd e58c 963d 623b 0d3e
00000020: d2d4 a13d 3217 c5bd b13b 923d 5969 1ebe
00000030: 9efe 0dbe a360 953e 9fa3 20be dc2b 0c3d
00000040: 536b 16be 0802 1c3e e279 7b3d 909c 183e
00000050: c7ff 063e c571 30be 5740 30bd 6aa6 0dbe
00000060: 8593 0a3e 189b 8b3d cd33 a93c 2dae 483d
00000070: 83ae 423d bfd9 613c b249 793d 12f8 1ebe
00000080: 62a2 083e 0d0e 32bc 1d01 12bc 19e8 c43d
00000090: c373 9a3c 0a79 5c3d 4fae d83d 1cda 063b
000000a0: efe4 d33d 1140 833d ed5c dfbb 1d7c 083d
000000b0: a8aa a0bc f245 d43c e0a3 8ebc 805b dcbb
000000c0: bdf7 00be 68b0 83bd 0fbb 9e3d 4cf2 b93d
000000d0: 4f70 723e 35c9 af3d 439b afbc 50a6 833d
000000e0: 3b7d 263d 6e3c 0b3d cbf8 30bd 9a34 6e3e
000000f0: 535b 3e3d 3556 9c39 5202 323d 2719 12be
00000100: 6b39 023e 5e15 843d 28e2 3d3e 6795 993d
00000110: 763f cdbd 85c3 a7bd f1e1 493e 6098 7bbd
00000120: 7c90 07be 384d cdbb cd42 7a3e 3269 0fbe
00000130: 08c0 56be f1a9 203e 4228 6d3d 02b7 193b
00000140: fdb9 b9bd 8536 8c3b 2455 0cbd 2aac 973d
00000150: 0ede 953c 3350 55bd a084 7fbc 944d f13c
00000160: a312 1a3b 1ab6 233c 1932 0dbe 3eba bc3d
00000170: d6f4 66bc d0ff ce3c 472e 543c 9c10 9bbd
00000180: 2384 8a3d 32b5 dd3d ccd4 82bc 68b5 98bd
00000190: 6195 69bd 4d2a 4c3e 7c50 23be 42a2 b6bc
000001a0: 30f3 0d3d 71e1 44bc 747d 7a3e 8e3b 813b
000001b0: 5321 a3be 877a 113e ebe1 46bd 4df3 6ebd
000001c0: bab1 9f3c 64b4 3ebe 88f4 f9bd 6876 a1bc
000001d0: bf09 c83c 431c 003e 0dc7 fc3d 207f 1dbc
000001e0: ee06 6dbb 9b3a 4a3e 3271 05be 1637 c73c
000001f0: c241 2ebc 3afb 85be 22a1 7a3d fd58 fcbd
00000200: d888 ecbc 1957 09be 937a 3d3e eaa1 29be
00000210: 6961 a63c bbc8 983e fb08 593d f385 36be
00000220: 06bf 903d 9469 3abd 87c8 e0bc 7d6e d33d
00000230: 97bb 853e 3c22 6dbe 67bb 56bd 6832 1d3e
00000240: bffb a5bd b6c1 26be e5b0 9abd c7a5 3c3e
00000250: c294 12bd 5098 b1bc 9c18 073e 620d 17bd
00000260: d5d9 4d3e c360 0abe 5e2a 03be f7a5 983d
00000270: 5505 58bd 25c5 03be 5911 60bd 0de9 733b
00000280: 43ca d43d 572f 97bd cf80 63be a9ad 7fbe
00000290: 7da3 db3d a6bc a0bd d489 cabd eb72 75bc
000002a0: ea9a ebbd 33e3 20be 507a 51bc 810c a1be
000002b0: cd0f b93d 3e41 16bd 369c 9dbd 1b0a 00be
000002c0: d9bd 743d 6bed a7bd 7c50 21bd 6bc6 27bc
000002d0: 2b51 68bc 436a e73c 3ffc e83d 7e55 4e3d
000002e0: 0053 013e 4afe 1dbe 81b5 163e 3241 f5bd
000002f0: 7e9f e13d 1333 1cbe 95d7 d4bd d9a4 e83d
00000300: 49c8 55bc 8e72 e8bd 0dae f0bd 0f30 12be
00000310: 70b8 c6bd 08e8 c5bd 1d2f 34bd 56d8 663d
00000320: e545 fe3d cb0d 8cbc e822 29be 3f8a 0e3e
00000330: f88f 593e fff1 e23d a5d7 8c3c 6443 58bd
00000340: fefd 3c3c f60a e13c 2896 92bd df63 a23d
00000350: 9a87 1bbd 52fc f3bd c710 8ebc c9ed b8bc
00000360: 66a1 94bd c3f8 09be 568d 533e d7d9 b9bd
00000370: de52 973e 7db5 76bd c6af a83d f347 203d
00000380: c643 4ebd c697 1c3e 63a7 26bd 755f 253e
00000390: 749c 85bb a49e 35be 294e c53d 7cf5 b73d
000003a0: 372b 463e 103a f7bd 3a1f a03d ea67 84be
000003b0: 04bb 893e 7667 2cbc 3ab4 33be f933 843d
000003c0: e92b 66be 2f2f d93d c66e 11bd 30d0 533d
000003d0: bf7c 823e acde 0dbe 36a2 263d 1622 5a3e
000003e0: 5b16 2ebd e624 13be d4f2 bfbd 9209 12be
000003f0: 62fe 2abe 135d 4a3d 9fce c0bd fcf8 36be

network_body.linear_encoder.seq_layers.2.bias f4 [128]
0.037333563 -0.14310832 0.06328474 0.059609834 -0.013328753 -0.038984835 0.057506163 0.06903535
-0.06644446 0.047663182 0.074779555 -0.06291957 -0.060365025 0.07518744 -0.12498129 0.030638007
0.059703987 0.06073864 0.042402726 -0.096257135 0.05042355 -0.10372728 -0.09863794 0.07775566
0.06569495 0.036529902 0.06841348 0.036680315 -0.099926636 -0.103653006 0.07049048 -0.11947649
0.04462166 -0.12512656 -0.108788155 0.0651264 -0.058576763 0.0421461 0.02678876 -0.04696271
0.04859932 0.050228514 0.06233722 0.046072293 0.057939164 0.06399144 -0.1190665 0.072937906
0.045680504 0.07657885 -0.11793716 -0.1083537 -0.11151448 0.051468037 -0.13993426 0.014206881
-0.12297051 0.032629617 0.08072299 0.045012277 -0.09167006 0.054560293 -0.10854511 0.068149135
-0.044600397 0.0587969 0.07664182 -0.077910244 -0.084008485 0.055947345 0.04420653 -0.11527656
0.027965138 -0.11471143 0.04705869 0.06777535 -0.07016655 -0.08828304 0.08302182 -0.10059327
-0.11476141 0.065230794 0.032760248 0.043102797 0.024106026 -0.14391938 -0.1227654 0.04735114
0.06444277 0.06332429 -0.06235319 0.062947616 -0.035254788 -0.10990143 -0.017233696 -0.11908554
0.032248992 0.066607445 -0.10309978 0.03362591 0.06132093 0.089438476 0.004329679 0.08952277
-0.1225429 -0.093528286 0.060030233 -0.047593396 0.043886308 0.07714908 0.05094918 -0.1015864
0.07577731 0.0451855 -0.11715234 0.017130136 0.047309697 0.10015695 -0.07117017 0.015289243
-0.11784793 -0.05384906 -0.11587884 -0.11426923 0.026862053 0.05294206 -0.1030614 -0.13060951
00000000: 14eb 183d fd8a 12be 6e9b 813d 7129 743d
00000010: d860 5abc 90ae 1fbd 958b 6b3d 6862 8d3d
00000020: 0814 88bd 783a 433d 0626 993d fadb 80bd
00000030: 5141 77bd dffb 993d 31f6 ffbd 8ffc fa3c
00000040: 2b8c 743d 15c9 783d 7bae 2d3d 7622 c5bd
00000050: ed88 4e3d f86e d4bd b002 cabd 5c3e 9f3d
00000060: 138b 863d 61a0 153d 5e1c 8c3d 193e 163d
00000070: 56a6 ccbd 0748 d4bd 505d 903d 17b0 f4bd
00000080: 34c5 363d 2d21 00be 53cc debd fd60 853d
00000090: 30ee 6fbd 64a1 2c3d 1a74 db3c f85b 40bd
000000a0: 1510 473d 6abc 4d3d 5055 7f3d 4db6 3c3d
000000b0: 9e51 6d3d f20d 833d 23d9 f3bd 7860 953d
000000c0: 7b1b 3b3d 5fd5 9c3d 0a89 f1bd 8be8 ddbd
000000d0: b461 e4bd 26d0 523d ed4a 0fbe fac3 683c
000000e0: f6d7 fbbd a2a6 053d 1852 a53d cb5e 383d
000000f0: 83bd bbbd 9d7a 5f3d e64c debd c691 8b3d
00000100: e8ae 36bd 05d5 703d 63f6 9c3d 688f 9fbd
00000110: a40c acbd 0b29 653d e811 353d 1e16 ecbd
00000120: 2517 e53c d4ed eabd 9dc0 403d cdcd 8a3d
00000130: 7bb3 8fbd bdcd b4bd 5807 aa3d d803 cebd
00000140: 0808 ebbd b997 853d 9c2f 063d 8f8c 303d
00000150: 007a c53c 9a5f 13be 6d6c fbbd 45f3 413d
00000160: 92fa 833d 2ab0 813d 0f66 7fbd aeea 803d
00000170: 5367 10bd 0014 e1bd ae2d 8dbc 1fe3 f3bd
00000180: 8517 043d 7c69 883d fa25 d3bd 52bb 093d
00000190: a82b 7b3d 852b b73d fbdf 8d3b b757 b73d
000001a0: c6f7 fabd c28b bfbd 43e2 753d 4bf1 42bd
000001b0: 21c2 333d 5600 9e3d 16b0 503d 880c d0bd
000001c0: 2231 9b3d 6e14 393d 91ed efbd 8054 8c3c
000001d0: d0c7 413d 161f cd3d abc1 91bd bc7f 7a3c
000001e0: 415a f1bd d590 5cbd e351 edbd fc05 eabd
000001f0: cf0d dc3c c6d9 583d db11 d3bd 80be 05be

network_body.linear_encoder.seq_layers.4.weight f4 [128, 128]
-0.10537259 0.043098085 -0.1525718 0.035725743 -0.17891192 0.18389094 -0.12658665 -0.012158481
0.009401477 -0.06438746 -0.12827681 0.026767781 -0.09457827 -0.28498486 -0.052522305 -0.017481796
-0.1716708 0.11069547 -0.14246935 0.0094980085 -0.019746015 0.22128522 0.1048489 0.1228201
-0.10123459 -0.011317797 -0.022257263 -0.16635707 0.08553454 0.13158031 -0.07056468 0.22878131
-0.01843475 -0.00089445437 0.09783433 0.032828335 0.10514239 -0.04501468 -0.15319575 -0.14552788
0.027744563 0.03904476 -0.10685274 -0.21484682 -0.12201348 -0.04558685 -0.06638518 -0.10336935
0.08262314 -0.2506015 0.17822845 0.14946188 0.09692229 -0.056764424 0.12297785 0.055218503
0.013860644 -0.09423618 -0.15786155 0.0058002747 0.053321827 -0.012367798 -0.016545858 -0.06617984
0.009138935 -0.071673535 -0.17063737 -0.009234883 0.041190878 -0.12396171 0.09743311 0.10754134
-0.020063601 0.059914652 -0.018325895 -0.2566201 -0.054599352 0.12660848 -0.18459678 0.18051015
0.015686732 0.049182918 -0.14843571 -0.27873793 0.00026226134 0.11792421 0.19244793 -0.051226705
0.016518585 -0.17958279 0.111352235 -0.08846656 0.08780079 0.09340323 0.06801818 -0.029811783
-0.101158574 0.022990594 0.03189148 -0.17189226 0.008385215 0.00029010157 0.023947574 -0.10636001
0.11472844 -0.038324907 -0.0628149 0.08257653 -0.16524926 -0.006087065 -0.07326581 0.19257292
-0.13407284 -0.12754776 -0.0071293935 -0.08437003 0.00028951257 -0.1786708 0.036274813 0.009776833
0.10950663 0.15744571 0.15791677 0.080362916 0.056648545 -0.09881031 0.062274266 0.044784587
-0.17754774 0.041464552 -0.18760698 0.11605759 0.12377801 0.05952846 -0.08773694 -0.30047986
-0.043842845 -0.047001537 -0.16493267 0.014127092 0.032907132 -0.289272 -0.086356275 0.09199078
-0.22191887 0.0067613763 0.10942913 0.10134566 -0.089789465 0.093842015 0.09520339 -0.095109366
-0.03722271 -0.042822033 -0.0065553505 -0.26030996 0.14282082 0.16156611 -0.13677637 -0.0501084
-0.03148347 0.1056559 0.019346923 -0.14119963 0.10615214 -0.25683624 -0.012980888 0.08189313
0.07355565 -0.0016737318 -0.1388434 0.028384268 0.14822212 0.08138827 0.09593188 -0.02642156
0.18024085 -0.2235536 -0.1081368 0.004727281 0.033198223 0.119024865 -0.027008936 0.16535582
-0.07639774 -0.11515378 -0.057894047 -0.11605153 -0.13716666 -0.12224579 0.007943027 -0.08817885
-0.005109862 0.035855077 -0.066111974 0.04042817 -0.07243688 -0.08422829 -0.10069536 0.037116826
-0.095356196 0.13472971 -0.18034978 -0.028114041 -0.14170533 0.0402048 -0.00058151275 0.21737795
0.17434902 -0.0013473972 -0.12971812 -0.06321327 -0.065771736 0.13560134 0.04018389 0.00818039
-0.06808631 0.124116085 -0.012543777 -0.24386072 0.04735365 -0.062398136 -0.008216229 0.11874988
0.044534307 -0.100709006 0.09075195 -0.15495941 -0.12329037 -0.14310957 -0.064940184 -0.18778647
0.007901575 0.13702208 0.030940011 0.11559893 -0.093349755 -0.06390831 0.09425976 0.21876763
-0.15742078 -0.1291351 0.083762094 0.17560813 -0.015522247 -0.0862336 -0.031074345 -0.0035414554
-0.06680397 -0.1505245 0.1308815 0.09533073 -0.011058021 -0.16895132 0.036632564 0.18619886
00000000: 96cd d7bd 9e87 303d c83b 1cbe 2855 123d
00000010: b034 37be e84d 3c3e ee9f 01be 5e34 47bc
00000020: a708 1a3c 93dd 83bd ff5a 03be 1b48 db3c
00000030: 41b2 c1bd 89e9 91be a121 57bd fc35 8fbc
00000040: 78ca 2fbe 4eb4 e23d 7ce3 11be 899d 1b3c
00000050: 65c2 a1bc 9898 623e 05bb d63d 1b89 fb3d
00000060: 1554 cfbd 486e 39bc dd54 b6bc 8259 2abe
00000070: bc2c af3d fdbc 063e 3784 90bd a645 6a3e
00000080: 7904 97bc d179 6aba 5d5d c83d 0177 063d
00000090: e554 d73d 5061 38bd 59df 1cbe 4305 15be
000000a0: 9148 e33c 66ed 1f3d 9cd5 dabd ce00 5cbe
000000b0: 34e2 f9bd 47b9 3abd f4f4 87bd 4fb3 d3bd
000000c0: 5236 a93d d74e 80be 8581 363e 890c 193e
000000d0: 327f c63d d081 68bd d0db fb3d cc2c 623d
000000e0: c117 633c e6fe c0bd 75a6 21be 3b10 be3b
000000f0: fd67 5a3d 4ea2 4abc 2e8b 87bc 4c89 87bd
00000100: 79bb 153c 93c9 92bd 90bb 2ebe e84d 17bc
00000110: c4b7 283d a3df fdbd 038b c73d a23e dc3d
00000120: 6c5c a4bc 1169 753d 3020 96bc b663 83be
00000130: 92a3 5fbd a7a5 013e f006 3dbe a7d7 383e
00000140: 7681 803c 0774 493d 88ff 17be bdb6 8ebe
00000150: 1f80 8939 4082 f13d 1211 453e 18d3 51bd
00000160: fc51 873c 8de4 37be a40c e43d f52d b5bd
00000170: e7d0 b33d 314a bf3d 1e4d 8b3d d737 f4bc
00000180: 3a2c cfbd c556 bc3c a4a0 023d 8604 30be
00000190: 2462 093c c618 9839 b42d c43c 47d3 d9bd
000001a0: bff6 ea3d 94fa 1cbd 19a5 80bd e21d a93d
000001b0: 1a37 29be 0176 c7bb 630c 96bd d631 453e
000001c0: 644a 09be e19b 02be b09d e9bb 32ca acbd
000001d0: b8c9 9739 7af5 36be e694 143d 022f 203c
000001e0: 0345 e03d 7339 213e efb4 213e 5095 a43d
000001f0: 4e08 683d 0f5d cabd 4d13 7f3d 0b70 373d
00000200: 13cf 35be bcd6 293d 0b1c 40be 9aaf ed3d
00000210: 537f fd3d 1dd4 733d 6daf b3bd 7fd8 99be
00000220: 8e94 33bd af84 40bd 1ce4 28be 5275 673c
00000230: a1c9 063d 761b 94be 8fdb b0bd a965 bc3d
00000240: b33e 63be 898e dd3b 611c e03d 508e cf3d
00000250: 8ae3 b7bd 3e30 c03d fff9 c23d b3c8 c2bd
00000260: d776 18bd 2866 2fbd 44ce d6bb 5947 85be
00000270: 9f3f 123e 9671 253e 1b0f 0cbe 773e 4dbd
00000280: d0f4 00bd 1f62 d83d 707d 9e3c a396 10be
00000290: 4b66 d93d 0a80 83be caad 54bc 96b7 a73d
000002a0: 58a4 963d 1f61 dbba f72c 0ebe 2086 e83c
000002b0: 8ac7 173e e5ae a63d ef77 c43d 0772 d8bc
000002c0: 0f91 383e 3ceb 64be d476 ddbd 4fe7 9a3b
000002d0: dcfa 073d 4fc3 f33d d841 ddbc 0953 293e
000002e0: 6b76 9cbd bfd5 ebbd 4f22 6dbd 6dac edbd
000002f0: 6b75 0cbe 005c fabd 7823 023c 1d97 b4bd
00000300: a170 a7bb c6dc 123d b765 87bd 0298 253d
00000310: c959 94bd e27f acbd 5e39 cebd d007 183d
00000320: 1c4a c3bd 96f6 093e 9dad 38be 6b4f e6bc
00000330: 341b 11be caad 243d a970 18ba 5398 5e3e
00000340: 8d88 323e 269b b0ba d4d4 04be f575 81bd
00000350: 55b3 86bd 14db 0a3e dd97 243d 0b07 063c
00000360: d670 8bbd 9330 fe3d 6a84 4dbc a0b6 79be
00000370: e7f5 413d 3095 7fbd 5d9d 06bc 2333 f33d
00000380: 9b69 363d 8640 cebd 29dc b93d aead 1ebe
00000390: a97f fcbd 518b 12be 5cff 84bd 194b 40be
000003a0: 9c75 013c 844f 0c3e e875 fd3c 22bf ec3d
000003b0: 282e bfbd 5ce2 82bd 430b c13d 9f04 603e
000003c0: ea32 21be fe3b 04be 768b ab3d 9ed2 333e
000003d0: 0651 7ebc 3e9b b0bd a08f febc c317 68bb
000003e0: 85d0 88bd 1823 1abe cd05 063e c23c c33d
000003f0: b42c 35bc 9301 2dbe 070c 163d eaaa 3e3e

network_body.linear_encoder.seq_layers.4.bias f4 [128]
-0.062392812 -0.042128507 0.05407237 -0.06158819 -0.01986732 -0.02854146 -0.022085814 -0.04766121
0.036720168 -0.048900224 0.017909897 0.034048434 -0.0619281 -0.029855369 0.012156753 -0.049621042
0.049023792 0.059557084 -0.049637478 0.034130465 0.07133536 -0.081374235 -0.03845082 0.061377667
-0.015773695 -0.07479846 -0.044605624 -0.065100506 -0.037046675 0.050997578 0.014637179 0.010906055
-0.07916197 -0.032977205 -0.04337478 -0.05432654 0.05553185 -0.00586838 0.06901104 0.03186725
0.050394844 0.06889547 -0.019529572 -0.021660034 0.03683646 -0.03600512 -0.055617217 0.048395243
-0.045016 -0.038337417 0.083456516 -0.030273467 0.04499884 0.063651785 0.036335204 0.05435209
-0.0050870264 0.08600484 -0.06441621 0.067561656 -0.04487215 0.09076815 -0.053521894 0.07979543
-0.05940437 -0.037981164 -0.062488034 -0.017941216 0.0706621 0.06426713 -0.049903862 0.043046065
-0.05513004 0.0053040013 0.035535652 0.049037296 0.06834018 0.016706267 0.061721377 -0.036536142
0.0922647 0.035943855 0.054922838 -0.04976684 0.047702122 -0.016342672 0.05005125 -0.05490894
0.06594245 -0.0023406954 -0.05497738 0.07703693 0.06846553 0.008459657 0.052409712 0.07180559
-0.067212 -0.0325515 -0.039412703 0.07078147 -0.07474547 0.025766483 -0.04645053 0.036106963
0.039375447 0.056166746 0.08661355 -0.03503926 0.06571858 0.05087365 0.068218686 0.030802483
-0.019172935 0.024543362 -0.06901704 0.072571516 -0.041693456 -0.019504998 0.030832475 0.025576085
0.06643237 0.056790974 0.022623925 0.03903546 -0.059441466 -0.034488678 -0.06383066 0.044419337
00000000: 9b8f 7fbd f18e 2cbd fd7a 5d3d e643 7cbd
00000010: cac0 a2bc c8cf e9bc 4fed b4bc 6738 43bd
00000020: e367 163d 9a4b 48bd c7b7 923c 5f76 0b3d
00000030: 52a8 7dbd 3f93 f4bc 1e2d 473c 6f3f 4bbd
00000040: 2ccd 483d 21f2 733d ab50 4bbd 63cc 0b3d
00000050: 4618 923d 89a7 a6bd 9b7e 1dbd 2667 7b3d
00000060: d637 81bc ef2f 99bd 63b4 36bd 6a53 85bd
00000070: 41be 17bd d6e2 503d c7d0 6f3c 4faf 323c
00000080: ac1f a2bd 1b13 07bd c1a9 31bd 8285 5ebd
00000090: 5d75 633d 8a4b c0bb a955 8d3d 3c87 023d
000000a0: d36a 4e3d 1119 8d3d 7bfc 9fbc 6270 b1bc
000000b0: d4e1 163d 1b7a 13bd e1ce 63bd 173a 463d
000000c0: b262 38bd b207 1dbd 40eb aa3d 1000 f8bc
000000d0: b450 383d de5b 823d 39d4 143d 4ca0 5e3d
000000e0: 12b1 a6bb 4e23 b03d a5ec 83bd c45d 8a3d
000000f0: dccb 37bd a7e4 b93d c639 5bbd c96b a33d
00000100: ff51 73bd 2392 1bbd 74f3 7fbd 75f9 92bc
00000110: 4bb7 903d 7c9e 833d fe67 4cbd 1251 303d
00000120: 09d0 61bd 30cd ad3b d58d 113d 55db 483d
00000130: f0f5 8b3d 95db 883c 8ecf 7c3d eca6 15bd
00000140: 46f5 bc3d dd39 133d c5f6 603d 50d8 4bbd
00000150: 4d63 433d 11e1 85bc 8a02 4d3d 32e8 60bd
00000160: d60c 873d 5a66 19bb f62f 61bd 8ac5 9d3d
00000170: a837 8c3d 609a 0a3c 91ab 563d cf0e 933d
00000180: 72a6 89bd b954 05bd 376f 21bd e0f5 903d
00000190: 2714 99bd 3b14 d33c e942 3ebd e5e4 133d
000001a0: 2648 213d 1a0f 663d 7262 b13d 5485 0fbd
000001b0: 7697 863d e360 503d 3db6 8b3d 7d55 fc3c
000001c0: 8f10 9dbc 290f c93c ce58 8dbd 60a0 943d
000001d0: c2c6 2abd f2c8 9fbc 6394 fc3c f084 d13c
000001e0: b20d 883d a79d 683d cf55 b93c a6e3 1f3d
000001f0: e578 73bd 0044 0dbd a6b9 82bd 0df1 353d

action_model._continuous_distribution.log_sigma f4 [1, 5]
-2.1790745 -1.6037126 -1.6753966 -0.61606294 -0.23486638
00000000: f575 0bc0 7446 cdbf 6573 d6bf 4db6 1dbf
00000010: d080 70be

action_model._continuous_distribution.mu.weight f4 [5, 128]
-0.027104585 0.015150223 0.024963122 -0.016824119 0.015098354 0.072138995 -0.052554525 -0.052160863
-0.0077135847 -0.01575804 0.028416913 -0.048972905 -0.045434598 0.049065292 -0.15974961 -0.004137237
0.053483162 -0.004362902 -0.0025204895 -0.00017900411 -0.026079169 -0.019342864 -0.015875397 -0.014273553
-0.009427901 -0.019509768 0.018566787 -0.012327141 -0.022465287 -0.03743996 -0.039981678 -0.016751304
-0.0113603 -0.023053912 0.021774702 0.014109954 -0.04455736 0.107191116 -0.00032820564 -0.08016003
-0.00858082 0.03423205 -0.06314975 -0.000425554 -0.089839436 0.0070817783 0.0052237413 0.00060551893
0.012247449 -0.049978495 -0.018269468 -0.03112557 0.0073515815 0.034104012 -0.046753906 0.042025123
0.016137326 0.030897208 -0.0031384006 0.02038031 -0.014555537 0.0339472 0.004558099 0.0065508904
-0.0049032075 -0.017738894 -0.027695468 0.051181775 -0.008053139 -0.014025609 0.0038417857 0.035971086
-0.029158136 0.060338143 -0.017654382 0.011303628 0.011206966 -0.052329905 -0.007812052 -0.0356609
0.030412102 -0.0023900273 -0.0022346287 -0.038772807 0.0070897248 -0.015365614 0.023212282 -0.0038714677
0.0008995131 0.05994256 0.012751601 0.05363189 0.0014498951 0.07268041 -0.057446834 0.0093844365
-0.025943248 -0.027369054 -0.016965782 0.023659974 -0.012278587 -0.012736466 -0.030505754 0.026973642
0.012028711 0.014986719 0.053127002 -0.008528516 0.0102612125 -0.004010321 -0.008258866 0.029343856
0.030866908 0.007301955 -0.0002729829 0.0028886355 -0.016998047 -0.00088392355 0.004004533 -0.021864504
0.0049203117 0.012553462 0.011809165 0.06821517 -0.017933948 0.020650744 -0.026339231 0.045041077
-0.09219045 -0.076393284 0.038038667 -0.08643021 -0.032046493 -0.020496571 -0.088431 -0.09104676
0.049880616 -0.076617435 0.0001436294 0.038278133 -0.062977836 -0.15051614 0.14325395 -0.08110366
0.14724861 0.014493892 -0.08198235 -0.0065393117 0.0491161 -0.06646795 -0.053952944 0.030771058
0.016070487 -0.08276781 -0.14054756 -0.13801254 -0.10790833 0.054241426 0.08420203 0.035735082
-0.08822028 -0.09995792 -0.07441241 -0.099883236 0.07591786 -0.021971028 0.0682385 0.08501135
0.026463067 0.056364678 -0.0013908163 -0.031796306 0.13965368 -0.051030505 -0.015562902 0.08343269
-0.020026952 -0.120650746 0.08558013 -0.12046482 0.08515756 0.040222194 0.05872009 0.03859836
-0.051314678 0.07578603 -0.10645797 0.04842407 -0.09432088 0.0682018 -0.118837476 0.04864189
-0.10481561 -0.10384394 -0.094181366 -0.07675902 0.06922053 0.021316174 -0.073549226 0.023476716
-0.08477034 -0.14884204 0.010311414 0.042041056 0.04643813 0.06572377 0.07385253 -0.09892783
0.059253335 0.006560581 0.0448767 -0.05506165 0.18940882 -0.0410528 0.032138176 -0.072203584
0.060557764 -0.115992285 -0.06925528 0.044529308 0.026939303 -0.10848323 0.07400645 0.04726194
-0.11793237 -0.072411545 -0.0631064 0.024947774 -0.08038113 0.0020970567 -0.09718892 0.07037659
0.03782627 0.050567746 0.07481729 -0.08838313 0.04701055 0.03820558 0.037250426 0.029519282
-0.057231095 0.0035255426 -0.07306615 0.0073613888 -0.070521854 0.023053924 0.03416283 0.009694594
0.050148737 0.05410047 0.011553604 -0.02627038 -0.09758976 -0.07089019 -0.105097 0.13098481
00000000: 6f0a debc a438 783c 767f cc3c bcd2 89bc
00000010: 165f 773c 9cbd 933d 6a43 57bd a1a6 55bd
00000020: 3dc2 fcbb 0117 81bc 96ca e83c d097 48bd
00000030: a119 3abd b0f8 483d 6795 23be a991 87bb
00000040: 2911 5b3d adf6 8ebb cc2e 25bb 0db3 3bb9
00000050: fba3 d5bc ed74 9ebc 1f0d 82bc 9fdb 69bc
00000060: 7c77 1abc f3d2 9fbc 6019 983c c7f7 49bc
00000070: 1f09 b8bc a55a 19bd d4c3 23bd 083a 89bc
00000080: 8d20 3abc 8fdb bcbc dc60 b23c 702d 673c
00000090: c781 36bd 0487 db3d 0413 acb9 f12a a4bd
000000a0: 9196 0cbc e836 0c3d a854 81bd e41c dfb9
000000b0: bdfd b7bd 430e e83b eb2b ab3b b0bb 1e3a
000000c0: 86a9 483c 40b6 4cbd daa9 95bc 0dfb febc
000000d0: 89e5 f03b a6b0 0b3d 0681 3fbd 8922 2c3d
000000e0: 6d32 843c 241c fd3c a0ad 4dbb 9cf4 a63c
000000f0: 597a 6ebc 380c 0b3d 1b5c 953b daa8 d63b
00000100: 16ab a0bb 2851 91bc 9be1 e2bc fba3 513d
00000110: 50f1 03bc abcb 65bc 78c6 7b3b 6b56 133d
00000120: 0bdd eebc 2125 773d ec9f 90bc da32 393c
00000130: 6c9d 373c e257 56bd 3efc ffbb 2a11 12bd
00000140: cd22 f93c 01a2 1cbb d972 12bb 3cd0 1ebd
00000150: ec50 e83b 0ec0 7bbc af27 be3c 73b8 7dbb
00000160: 4dcd 6b3a 5486 753d 17ec 503c 1dad 5b3d
00000170: 680a be3a 78d9 943d 5f4d 6bbd 2ec1 193c
00000180: ef86 d4bc 1135 e0bc d3fb 8abc 90d2 c13c
00000190: 202c 49bc 9cac 50bc 34e7 f9bc d4f7 dc3c
000001a0: 1214 453c db8a 753c b39b 593d 30bb 0bbc
000001b0: a51e 283c 0369 83bb 3250 07bc 8762 f03c
000001c0: 99dc fc3c 3d45 ef3b 251f 8fb9 434f 3d3b
000001d0: 7d3f 8bbc 1bb7 67ba 7538 833b 301d b3bc
000001e0: 913a a13b 09ad 4d3c 3a7b 413c 65b4 8b3d
000001f0: 37ea 92bc c02b a93c 5fc5 d7bc fe7c 383d
00000200: 59ce bcbd 1574 9cbd 6fce 1b3d 5202 b1bd
00000210: 2f43 03bd 6de8 a7bc 501b b5bd b976 babd
00000220: 9e4f 4c3d 9ae9 9cbd 399b 1639 88c9 1c3d
00000230: 86fa 80bd e720 1abe 2ab1 123e ad19 a6bd
00000240: 57c8 163e ca77 6d3c 5de6 a7bd b947 d6bb
00000250: f72d 493d 5920 88bd c3fd 5cbd 9613 fc3c
00000260: 41a6 833c 2b82 a9bd b3eb 0fbe 2953 0dbe
00000270: 0bff dcbd 422c 5e3d 1d72 ac3d f35e 123d
00000280: d6ac b4bd bdb6 ccbd 8965 98bd 958f ccbd
00000290: d37a 9b3d 96fc b3bc a0c0 8b3d 6e1a ae3d
000002a0: 13c9 d83c a6de 663d 0d4c b6ba d83c 02bd
000002b0: 6001 0f3e 5d05 51bd 8bfb 7ebc c2de aa3d
000002c0: 900f a4bc bd17 f7bd a344 af3d 42b6 f6bd
000002d0: 1667 ae3d 07c0 243d 7a84 703d 5019 1e3d
000002e0: 572f 52bd b535 9b3d a306 dabd 5158 463d
000002f0: 4e2b c1bd 63ad 8b3d 1061 f3bd b83c 473d
00000300: 91a9 d6bd 22ac d4bd 29e2 c0bd d533 9dbd
00000310: 7ec3 8d3d 429f ae3c faa0 96bd 3e52 c03c
00000320: 129c adbd 0c6a 18be 34f1 283c 3e33 2c3d
00000330: e935 3e3d 2f9a 863d ff3f 973d ad9a cabd
00000340: a0b3 723d 24fa d63b a1d0 373d 5388 61bd
00000350: 63f4 413e fb26 28bd 52a3 033d 79df 93bd
00000360: 6b0b 783d 5d8d edbd b6d5 8dbd 5d64 363d
00000370: d0af dc3c 752c debd b290 973d bc95 413d
00000380: 8786 f1bd 814c 94bd ee3d 81bd 465f cc3c
00000390: dd9e a4bd c66e 093b fc0a c7bd 9a21 903d
000003a0: b8ef 1a3d 2020 4f3d cf39 993d 3702 b5bd
000003b0: 228e 403d 747d 1c3d e793 183d 6cd2 f13c
000003c0: 276b 6abd ca0c 673b b5a3 95bd ce37 f13b
000003d0: c36d 90bd 95db bc3c 53ee 0b3d 13d6 1e3c
000003e0: c368 4d3d 7498 5d3d 544b 3d3c fb34 d7bc
000003f0: 24dd c7bd e02e 91bd 193d d7bd e220 063e

action_model._continuous_distribution.mu.bias f4 [5]
0.027992401 0.071202084 -0.031912934 -0.08061855 0.05539663
00000000: 5250 e53c 66d2 913d 23b7 02bd 571b a5bd
00000010: 94e7 623d

critic.network_body.linear_encoder.seq_layers.0.weight f4 [128, 19]
-0.4689449 0.009020263 -0.3604941 0.25161743 0.03229971 -0.0731897 -0.2511815 -0.12640679
0.48404473 0.44372967 -0.119599335 0.23157752 0.37873566 0.15806365 0.3058779 -0.11626661
-0.24053474 -0.0358316 0.40625086 -0.21850055 0.16211131 0.21012726 -0.20661487 0.011408197
-0.1996129 0.14100546 0.25871986 -0.04094131 0.3186947 -0.20899042 0.05467155 -0.096615575
0.10380573 0.5342182 -0.26527172 -0.049871247 -0.6885667 -0.3842149 -0.17913377 -0.4002804
0.10023365 0.35613766 -0.13248155 -0.34229624 0.04102022 0.33285564 -0.21107246 -0.48173657
0.4379084 0.3407149 0.392863 0.23468487 -0.27350476 -0.52101284 0.25225872 -0.30127203
-0.46746457 -0.18676202 -0.19433764 -0.023114968 0.31193313 -0.16190772 0.45830396 0.015795255
0.1160108 0.15947676 0.43329355 -0.43856746 0.48297518 -0.041978635 0.10415712 0.117258824
0.042154398 -0.33335835 0.093971364 -0.2783342 -0.09093868 0.048018016 -0.062108655 -0.06589093
-0.18838108 0.4405592 -0.078499675 -0.20824976 0.20957652 0.107863024 -0.13996239 -0.06363364
0.16491964 -0.16690648 -0.2624116 -0.27204475 -0.12173915 -0.15887275 -0.4548333 0.115546554
-0.12260717 0.15778714 0.04757719 -0.3826676 0.2424839 0.21164979 -0.11261841 0.28252193
0.13623922 -0.33523053 0.08513327 0.07902387 -0.05277372 0.19329558 -0.15084256 0.045195572
0.70656246 -0.06548065 -0.37111866 0.3187104 0.02674538 0.040567834 -0.12171721 0.18166724
-0.2003692 0.15383223 0.018297167 0.6564852 -0.31439295 0.24222508 0.19043514 -0.09462954
-0.3769611 -0.029963559 0.25951272 0.0075189616 -0.26398402 -0.05086417 0.40827864 -0.006219172
0.46687052 -0.20307668 0.45441416 -0.07308505 -0.015763313 0.16729704 -0.21609819 -0.18018028
0.3829911 -0.091504544 0.27770925 0.61749476 0.41912362 -0.1315155 0.17416742 -0.0072498326
0.2758787 -0.21572562 0.1124835 -0.0036461235 0.28392673 -0.10246562 0.101049855 0.06572044
0.008622299 -0.1494461 -0.25101835 -0.29429176 0.2291519 0.13454257 0.06689935 0.5065747
-0.45900702 0.41436446 -0.076208785 -0.25704312 -0.34001687 -0.16977347 0.00022401927 -0.020981183
-0.15017198 0.039153375 0.021555783 0.16217852 0.31554645 -0.3121786 -0.06366103 -0.08986303
-0.22638066 0.5503941 0.10138504 -0.33575287 -0.38512826 -0.08210273 0.08627503 -0.2853785
-0.053049896 0.21617843 -0.07495064 0.24675521 0.018076865 0.28385228 -0.053803224 0.14286287
-0.06818268 0.16118264 0.17002375 0.3129408 -0.2748328 -0.2395946 -0.18523706 0.5244742
-0.11234474 -0.400471 0.05514402 0.20049262 0.043909565 0.01003435 -0.00092077925 0.42778882
-0.2990807 0.2761093 0.3851314 0.1976967 0.10293554 -0.27035403 0.056571536 -0.26814324
0.14804897 0.6124721 -0.34003937 -0.0067428974 0.16626959 0.43647546 0.18474193 -0.17775576
-0.52499163 -0.05168169 -0.33127892 0.061663456 -0.5038073 0.17396882 -0.05563104 -0.08106448
0.06746462 -0.05987763 -0.08101312 0.03356766 -0.18991323 0.040558096 0.21481332 -0.36311346
-0.5747328 0.17476298 0.14587033 -0.17970835 0.25993985 0.17286265 0.2783128 -0.031785935
00000000: 8c19 f0be bac9 133c af92 b8be 00d4 803e
00000010: b34c 043d 7be4 95bd dd9a 80be c870 01be
00000020: b6d4 f73e 8930 e33e 7ff0 f4bd a822 6d3e
00000030: a4e9 c13e 70db 213e 079c 9c3e 301d eebd
00000040: bd4e 76be 28c4 12bd 1d00 d03e 9cbe 5fbe
00000050: 8200 263e 9a2b 573e d992 53be 72e9 3a3c
00000060: 5367 4cbe bc63 103e ee76 843e 13b2 27bd
00000070: f42b a33e 9601 56be 46ef 5f3d 63de c5bd
00000080: 1998 d43d 86c2 083f b2d1 87be cb45 4cbd
00000090: e845 30bf d1b7 c4be d86e 37be 8df1 ccbe
000000a0: 4d47 cd3d ad57 b63e 3ea9 07be 7441 afbe
000000b0: d104 283d 0e6c aa3e 6123 58be 2da6 f6be
000000c0: 8835 e03e 2f72 ae3e 5725 c93e 3b51 703e
000000d0: d108 8cbe 1961 05bf 0e28 813e 5440 9abe
000000e0: 8457 efbe 8b3e 3fbe 7200 47be 9a5b bdbc
000000f0: b3b5 9f3e 23cb 25be d1a6 ea3e 0d65 813c
00000100: 1297 ed3d e04d 233e a7d8 dd3e ea8b e0be
00000110: 8648 f73e caf1 2bbd 5450 d53d 6525 f03d
00000120: 17aa 2c3d f2ad aabe 0f74 c03d d281 8ebe
00000130: 0f3e babd 8aae 443d a565 7ebd d3f1 86bd
00000140: f8e6 40be fa90 e13e 70c4 a0bd 6d3f 55be
00000150: 3a9b 563e 4ae7 dc3d 4d52 0fbe 5b52 82bd
00000160: b2e0 283e 88e9 2abe d05a 86be 7349 8bbe
00000170: 6052 f9bd 8aaf 22be e9df e8be aca3 ec3d
00000180: 7819 fbbd f492 213e 4de0 423d 02ed c3be
00000190: b34d 783e b9ba 583e 7ba4 e6bd b7a6 903e
000001a0: 4b82 0b3e 56a3 abbe 5a5a ae3d 44d7 a13d
000001b0: 4229 58bd 47ef 453e 7976 1abe fe1e 393d
000001c0: 47e1 343f b81a 86bd 4403 bebe 022e a33e
000001d0: 2119 db3c 752a 263d df46 f9bd fa06 3a3e
000001e0: 952d 4dbe 3286 1d3e f1e3 953c 6a0f 283f
000001f0: 1df8 a0be da09 783e 6e01 433e 22cd c1bd
00000200: 0c01 c1be 2376 f5bc dade 843e 9f61 f63b
00000210: ea28 87be f356 50bd e609 d13e 32ca cbbb
00000220: a709 ef3e 55f3 4fbe f9a8 e83e 9dad 95bd
00000230: 1022 81bc ea4f 2b3e d848 5dbe 2e81 38be
00000240: 6917 c43e bc66 bbbd e82f 8e3e 2314 1e3f
00000250: 5f97 d63e 00ac 06be f258 323e 0190 edbb
00000260: f93f 8d3e 2de7 5cbe c05d e63d cdf3 6ebb
00000270: d85e 913e 7fd9 d1bd 3af3 ce3d 7098 863d
00000280: 8b44 0d3c 6608 19be 7a85 80be 69ad 96be
00000290: cca6 6a3e 87c5 093e 8702 893d e1ae 013f
000002a0: f802 ebbe 9427 d43e 5a13 9cbd 289b 83be
000002b0: b116 aebe 19d9 2dbe b7e6 6a39 bbe0 abbc
000002c0: afc6 19be 4a5f 203d c195 b03c 2012 263e
000002d0: 4e8f a13e e0d5 9fbe b760 82bd 1c0a b8bd
000002e0: 55d0 67be a1e6 0c3f f6a2 cf3d cde7 abbe
000002f0: 882f c5be 7a25 a8bd f7b0 b03d 211d 92be
00000300: d94a 59bd e15d 5d3e b97f 99bd 66ad 7c3e
00000310: ef15 943c 1655 913e c560 5cbd a54a 123e
00000320: 5ca3 8bbd 100d 253e b51a 2e3e c739 a03e
00000330: e2b6 8cbe 4958 75be c9ae 3dbe f143 063f
00000340: 0015 e6bd 890a cdbe b2de 613d f04d 4d3e
00000350: 84da 333d 1d67 243c 7360 71ba 2307 db3e
00000360: 1b21 99be 335e 8d3e f12f c53e 0171 4a3e
00000370: decf d23d d86b 8abe 8eb7 673d 124a 89be
00000380: 269a 173e f9ca 1c3f a419 aebe 86f3 dcbb
00000390: 9342 2a3e b679 df3e fd2c 3d3e 9b05 36be
000003a0: da65 06bf 2eb0 53bd 649d a9be d292 7c3d
000003b0: 84f9 00bf e224 323e 60dd 63bd 2205 a6bd
000003c0: e42a 8a3d 3f42 75bd 35ea a5bd 3e7e 093d
000003d0: 9d78 42be 3f20 263d 06f8 5b3e 02ea b9be
000003e0: b021 13bf 11f5 323e 085f 153e 7705 38be
000003f0: d616 853e e802 313e 047f 8e3e f831 02bd

critic.network_body.linear_encoder.seq_layers.0.bias f4 [128]
0.087154254 0.06989628 0.11249233 0.09631211 0.080582455 -0.005886093 0.056415487 0.086516224
0.023843337 0.100426 0.05663481 0.08259282 0.028031766 -0.2866396 0.034319315 0.04401943
-0.014487367 -0.040118616 0.056989346 -0.0122727025 0.0037261846 0.05825641 -0.00082073256 0.030002581
0.037559856 0.025710886 0.011559182 0.09143335 0.029410968 -0.021798251 0.0023351454 0.052405067
0.052022863 -0.021312132 0.17435107 0.07031283 0.016312113 0.0836401 -0.02023441 0.06271333
0.03641239 -0.028562032 0.10353693 0.023493448 0.014872648 0.0032062693 0.08516204 0.013740725
-0.005651019 -0.11652797 0.0654674 0.05374744 0.05535247 0.0129015185 -0.025573155 -0.003334621
-0.0031137092 0.06433593 0.051639847 0.014984477 0.0374674 0.011616715 -0.027074121 0.033883166
0.05131921 0.03925221 0.09999741 0.05458633 -0.0056835716 -0.04241541 0.044853583 0.040843483
0.04710719 0.0031666404 0.07877802 0.074072674 0.047858763 0.021705544 0.085882 0.008142098
-0.048671067 0.04978381 -0.0041081496 0.08368691 0.042763967 0.00056064455 0.09929433 0.051147696
0.04709161 0.05737928 0.06499833 0.04670059 -0.040968083 0.027053496 -0.023910698 0.0447018
0.01988277 0.041084748 0.018275147 0.022632336 0.06353417 0.082597256 0.05027459 0.10600101
0.0057500806 0.07062288 -0.05253855 0.04188515 -0.013740376 0.03695172 0.034392215 -0.03857548
0.0007905335 0.022998959 -0.037030444 0.0402587 -0.002717973 0.064550124 0.07723582 -0.0027481883
0.08774905 0.078536734 0.021908045 -0.042960197 0.024926681 -0.027006995 -0.028495686 0.06763163
00000000: ee7d b23d c825 8f3d 6162 e63d 493f c53d
00000010: 6a08 a53d 20e0 c0bb ed13 673d 6b2f b13d
00000020: 1a53 c33c 26ac cd3d e7f9 673d 6d26 a93d
00000030: e0a2 e53c 6dc2 92be 6992 0c3d b84d 343d
00000040: 6c5c 6dbc 6b53 24bd a96d 693d 7213 49bc
00000050: 0133 743b 469e 6e3d 6e26 57ba f9c7 f53c
00000060: 5dd8 193d a39f d23c b962 3d3c 6941 bb3d
00000070: 45ef f03c 3f92 b2bc 3d09 193b b2a6 563d
00000080: ed15 553d c896 aebc 1689 323e 2c00 903d
00000090: fba0 853c 804b ab3d a2c2 a5bc d96f 803d
000000a0: 2925 153d ecfa e9bc 2c0b d43d 5575 c03c
000000b0: 68ac 733c 4620 523b 7069 ae3d c720 613c
000000c0: 2f2c b9bb 37a6 eebd c613 863d 4726 5c3d
000000d0: 46b9 623d e460 533c cb7e d1bc a889 5abb
000000e0: 5f0f 4cbb 8ec2 833d 4e84 533d 7481 753c
000000f0: 6b77 193d 0954 3e3c 8cca ddbc 13c9 0a3d
00000100: 1834 523d edc6 203d 71cb cc3d ea95 5f3d
00000110: 413d babb c8bb 2dbd 64b8 373d 7f4b 273d
00000120: 78f3 403d 6987 4f3b 5f56 a13d 6ab3 973d
00000130: 8d07 443d d3cf b13c e7e2 af3d 6f66 053c
00000140: 505b 47bd 1cea 4b3d a89d 86bb 0b64 ab3d
00000150: 4529 2f3d 38f8 123a d35a cb3d 3f80 513d
00000160: 22e3 403d 8906 6b3d d81d 853d 1e49 3f3d
00000170: 26ce 27bd 4b9f dd3c 5ee0 c3bc 3c19 373d
00000180: 31e1 a23c 7b48 283d c3b5 953c 7367 b93c
00000190: 341e 823d c028 a93d baec 4d3d 0f17 d93d
000001a0: 2c6b bc3b baa2 903d aa32 57bd c38f 2b3d
000001b0: 501f 61bc b05a 173d dade 0c3d 5301 1ebd
000001c0: ce3b 4f3a 5068 bc3c 3cad 17bd 4ee6 243d
000001d0: 0520 32bb db32 843d d02d 9e3d f31a 34bb
000001e0: c6b5 b33d ded7 a03d 8078 b33c 08f7 2fbd
000001f0: 0a33 cc3c c63d ddbc c96f e9bc 7482 8a3d
