results/rdesktop_run_001/Robotarm/Robotarm-2499964.pt (torch, 884223 bytes, 48 tensors)

network_body.linear_encoder.seq_layers.0.weight f4 [128, 19]
00000000: 3c5d 0bbf ca91 86be 2d29 023f 55e9 ac3d
00000010: 0d94 a83e d59c 373c 01ee 9e3c 0032 403e
00000020: 6308 bdbd acf3 f2bd beeb a6be 3afa b2be
00000030: f1d9 96be 7403 db3e a06b 6abe 1ce6 7abe
00000040: 2fb5 3bbd 7cb5 c03e d2b9 c9bd a13e ee3d
00000050: b94b 10bf acdb 16be 743c e13e f3a4 3e3e
00000060: 7488 e1be 05ae 273e 02aa 143d a309 90be
00000070: 853c 093e 1b62 e53c 95d4 8abe 4d1d 833d
00000080: a947 2ebe 4844 9d3e 2466 6a3e ef2c f93d
00000090: e1bc acbe 20cf 203d c207 a0be d663 e4bd
000000a0: a972 96bd 4d72 803e 078f 5abe 43a2 713d
000000b0: bf57 90be 685a f5be b68d 8a3e 6bbc 5d3e
000000c0: 2ddd e6bd cda3 203c 2780 d43d 6e57 0b3f
000000d0: f25e 4dbd 62b1 fb3d 9212 b3bd 6227 96be
000000e0: 1894 0bbe 3f16 c1bd 0b29 7dbe 8f59 0b3e
000000f0: b1dc 313e 672b bb3d 7372 533e 4d23 fabb
00000100: c5e1 b6bd 0494 cb3d 4fcb cabe 3529 443e
00000110: dcaa 07bf db70 623e dec7 19be 7859 e83d
00000120: fb39 e8bd 32be ffbd bf16 ed3e ef7d c83d
00000130: e928 2bbd 3385 443c d4e1 6ebe a5a4 40be
00000140: 96de e33d fcc1 90bd 768a a5be ed8b 68be
00000150: 681a 0e3e 6370 ecbd ee23 dfbc 0830 8fbe
00000160: 7fc0 03be 42e1 b7be 7b73 403e 2cfc 2e3d
00000170: f071 a23e d241 1d3e 3bbc e73d d6b4 d7bd
00000180: 52d1 ccbe 9c1a e13e 9382 e73e 2ce4 8d3d
00000190: 472a 1d3d d725 a03d 5988 003e 02d0 123e
000001a0: 52ce 2c3e 6b97 aabe c4e8 36be 6daf 65bd
000001b0: 8f09 01be ae60 2dbd 69db 04be 1ffe 20bd
000001c0: de40 bbbd 7b4a 803e c165 39be f506 20be
000001d0: de6f babd ec52 0a3e a010 ff3d d433 c93e
000001e0: f5d7 6f3c 645e 8b3e 93e2 c93c 3083 ab3d
000001f0: 1739 40be 8d57 383e 5126 9cbe 4cd2 eb3e
00000200: 2d14 043e 6016 0bbe aa6d c53d aa4a a7bd
00000210: 074f ae3b 4f91 543d b4f7 98bd 200c cfbe
00000220: 9c38 3fbc 2abe 43be d88b af3e 0f8b bdbb
00000230: f8e2 8e3e 1607 b2be 3ab7 c53a e5c9 19be
00000240: ef84 d93d 5d23 18bd 8ccc 86be 58cd bb3e
00000250: ec2f e4be 18b2 a03e b4d8 84bd 97fd 8bbe
00000260: 7cb0 7f3d 7ffa 29bc e4ec 343e a3d1 d03e
00000270: 2d11 5abe 1f76 10bf 6b99 7ebb 84b8 7b3e
00000280: 6872 06be 3b6d 2a3c 9542 9a3d 97cd babe
00000290: 6f45 7cbe 1534 5c3e 385c ae3d ab28 b7be
000002a0: fb9e c13e b7d5 ef3e 8588 1f3f 47d2 a03c
000002b0: 6b81 9c3e 8a5c 2bbe 63e4 9cbc 4155 a0be
000002c0: ade5 8d3e b5c2 d5bd 3093 e2bd d92f 1abe
000002d0: 1d62 193e 4dd4 873e 6535 aa3e b06f 45bc
000002e0: 6f0d d7bd 46bc 863d 1e1a cc3e 88f4 c13d
000002f0: c85d 9e3d d717 9e3e b91e a73e 5036 0ebe
00000300: b1c4 04be e5f3 f6be d1d1 a93d 749f 2b3e
00000310: 5db7 413e 4e75 a53d 8966 393e 65e1 723e
00000320: 224b 40bf 3ff5 06be 35d6 18be c775 14be
00000330: d745 ce3e 3764 d6bd 3259 46be 5787 9fbe
00000340: ec6d 73bd ef7e 7ebe e1c9 60be 9739 4cbb
00000350: 654b bf3e 4aab ba3d 146a 34be b401 573e
00000360: cb43 153e e015 f4bd 821d 113e 9e1e 143e
00000370: 78a9 103e 0aae 9b3d e991 033d fa87 aabc
00000380: 4b08 3abd 31ba 21bf c48f 28be 7dcc 6ebe
00000390: 71c8 87be 1d13 5ebd 7748 b23d 2cae 92bd
000003a0: 05c3 533e 05c5 413d 781e f93e 841b 8e3e
000003b0: ffc6 96bd 7787 51be 95bb bcbe 9cc3 403e
000003c0: af1b 66be 0988 40be 9ab9 82be 6c7d 4c3d
000003d0: 6e32 8ebe ae17 01be 8dfa a0be 38ce b5be
000003e0: c6e1 a4be 42a0 e1be ded9 f33d 6ca9 12bd
000003f0: 1270 d4bc 049b 2ebc 3ed9 d3bd 6dd0 803e
-0.5443914 -0.26283103 0.5084408 0.08442942 0.32925454 0.011206825 0.019400598 0.18769073
-0.09230115 -0.11862883 -0.32601732 -0.34956533 -0.2946315 0.42776072 -0.22892618 -0.24501842
-0.045827087 0.37638462 -0.098498955 0.11633039 -0.56365544 -0.14732236 0.43991435 0.1861761
-0.44049418 0.16374977 0.036294945 -0.28132352 0.13401993 0.028000882 -0.27115312 0.06402073
-0.17019524 0.30716157 0.22890526 0.121667735 -0.33737853 0.03926003 -0.3125592 -0.11151855
-0.073460884 0.25087205 -0.21343623 0.058992635 -0.28191945 -0.47920537 0.27061242 0.21653907
-0.11272655 0.009804678 0.103760056 0.5443028 -0.050139375 0.122896925 -0.087437764 -0.29326922
-0.13630712 -0.09428071 -0.24722688 0.13608383 0.17369343 0.09139138 0.20649128 -0.0076336027
-0.08929781 0.09940341 -0.39608237 0.19156344 -0.52995086 0.22113363 -0.1501765 0.1134519
-0.11339184 -0.12487449 0.46306416 0.09789645 -0.04178706 0.011994648 -0.23328334 -0.18812807
0.11126439 -0.070682496 -0.323322 -0.22709627 0.1387726 -0.115448736 -0.027238812 -0.27966332
-0.128664 -0.35914046 0.18794052 0.04272096 0.31727552 0.1535714 0.11315199 -0.105325386
-0.4000345 0.43965614 0.45216808 0.06928286 0.038370397 0.078197174 0.12552013 0.14337161
0.1687558 -0.33318648 -0.1786223 -0.056075502 -0.12601303 -0.04232853 -0.12974323 -0.03930485
-0.09143232 0.25056824 -0.18105222 -0.15627654 -0.09103368 0.13508195 0.12454343 0.39297354
0.0146388905 0.27220452 0.024644172 0.083746314 -0.18771778 0.18002148 -0.30497983 0.4605888
0.12898321 -0.13582754 0.096400574 -0.08168538 0.0053194794 0.05189639 -0.074691206 -0.40438938
-0.011671212 -0.1911551 0.3428638 -0.0057843993 0.27907538 -0.3477103 0.0015084513 -0.15018423
0.10621058 -0.0371431 -0.26327932 0.36680102 -0.4456781 0.31385875 -0.06486645 -0.2734191
0.062424168 -0.010374664 0.17668492 0.4078494 -0.21295615 -0.5643024 -0.0038848768 0.24582106
-0.1312958 0.010402019 0.07532231 -0.36484978 -0.24635862 0.21504243 0.08513683 -0.35773215
0.37816605 0.4684274 0.6231769 0.019631518 0.30567488 -0.1673452 -0.019151872 -0.31315044
0.2771429 -0.10437528 -0.1106323 -0.15057315 0.14978833 0.2652916 0.33243862 -0.012050554
-0.10500609 0.06578879 0.39863676 0.09470469 0.07732731 0.30877563 0.32640627 -0.13887906
-0.12965657 -0.48232952 0.082919724 0.16760045 0.18917604 0.08079015 0.1810552 0.23718794
-0.75114644 -0.13179491 -0.14925463 -0.14498053 0.4028766 -0.10468333 -0.19369963 -0.31157944
-0.059431 -0.24853109 -0.2195201 -0.0031162256 0.3736221 0.09114702 -0.1761859 0.20996743
0.14576642 -0.11918235 0.14171413 0.14464805 0.14127147 0.07601555 0.032121573 -0.020816792
-0.045418065 -0.6317473 -0.16461092 -0.23320194 -0.26520112 -0.054217447 0.08705228 -0.07162127
0.20679863 0.047307033 0.48656058 0.27755368 -0.07362174 -0.20461832 -0.36861864 0.18824619
-0.22471498 -0.18801893 -0.25532228 0.0499243 -0.2777285 -0.1260669 -0.31441155 -0.35508895
-0.322035 -0.4406758 0.11906789 -0.035806105 -0.025932346 -0.010657076 -0.1034417 0.25159016

network_body.linear_encoder.seq_layers.0.bias f4 [128]
00000000: ed4b 123d 88e4 aa3d d453 1ebd fa32 a8bc
00000010: 5a47 0a3d 5693 f1bc 6c3b 0d3c 40a1 9b3d
00000020: c5eb ad3c 39c1 a23d 16b8 7b3d c24a 5abd
00000030: b5bd 26bd 9c40 103b f36a c83c 840f 4abc
00000040: e97e f33d 0e4a 843d 5496 e1bd eb53 b1bc
00000050: 3e8f 003d d58e c13c b8e7 0a3e c093 cc3d
00000060: 8a08 773d 5110 9fbd 0cd0 343d 8a43 f0bd
00000070: 70ae 403c 058b 953d d560 f7bd 8afe e93d
00000080: c706 09bd 82b3 b93d bab1 c5bc 2543 4c3d
00000090: c5c4 83bc aee8 693d bcbe 563d 4ed1 63bc
000000a0: ec9c bf3d 9322 c83d c30f 213d 91db 473d
000000b0: ba74 90bd d1ec 1dbe 2202 87bc 6f45 513d
000000c0: e419 823d 65f5 913d f937 6c3d 5f73 293e
000000d0: 31aa cf3d ea68 153d 6fdc c53d 9a27 7dbc
000000e0: 2624 20bc 4b22 033d cd89 d23d b7ab 8a3d
000000f0: 7e0c 1f3e 35a2 883d 7114 ae3d d860 783c
00000100: 9eae 5b3c f11a b23d 6a69 593d 442f 2a3d
00000110: 7ed0 ee3b cd9f c13d df62 a93d c488 78bb
00000120: 8993 1b3d 965e 823c 18fb 9d3d cefd 8dbd
00000130: f964 583a dd82 003e 2cac 313d 9ed3 26bd
00000140: e960 df3d 8cd2 96ba 7c7e 603d 47c1 80bc
00000150: 0eb3 06bd 070e 5c3d 4c48 02bd 6499 0abd
00000160: 75e2 403b 2407 483d 9cf6 1bbd 7924 913d
00000170: c77a 223c fca5 aabc 5d49 afbd 36bd b8bb
00000180: 8728 233e 5ed9 8cbd 764c 4d3d b80a 15bc
00000190: f327 853d 1235 cc3d 07c7 223c 5659 4d3b
000001a0: 31c5 3b3d 3028 113d 18d6 943d 3802 7a3d
000001b0: 61ef 44bd b7fb 023d 3f6a 963d dfbc cc3d
000001c0: 99dd 893d e23b 8dbc 461d a73d 28b3 df3d
000001d0: f9b7 65bd 031f 823d 6f15 5abd bbd2 50bd
000001e0: 0648 5f3d e9bf 913d 5ecc 8b3d ca3c 5f3d
000001f0: 116a 9b3d e254 e8bb 79c5 a2bc f6db 7d3d
0.03571694 0.0834437 -0.038654163 -0.02053212 0.033759452 -0.0294892 0.008620124 0.07599115
0.021230588 0.079470105 0.061454855 -0.05329395 -0.040708262 0.0022011166 0.02446506 -0.012332801
0.118894406 0.06459437 -0.11015001 -0.02164646 0.031386606 0.023627678 0.13564956 0.099891186
0.060310878 -0.07766784 0.04414372 -0.11731632 0.011760339 0.073019065 -0.12079016 0.114255026
-0.03345373 0.090674415 -0.024132598 0.04986872 -0.016085038 0.057106666 0.052427992 -0.013904883
0.09356102 0.097722195 0.039321672 0.04879338 -0.07053514 -0.1542237 -0.01648051 0.051091608
0.063525945 0.071268834 0.057670567 0.16547917 0.10139883 0.036477007 0.09661185 -0.015451336
-0.009774243 0.032015126 0.1028019 0.06771033 0.15532109 0.066715635 0.08499993 0.015159808
0.013408331 0.08696545 0.053079046 0.041548982 0.007288038 0.09454308 0.08270811 -0.0037923316
0.037982497 0.015914243 0.07713908 -0.06933175 0.0008254792 0.1254992 0.043377087 -0.040729158
0.10907156 -0.001150684 0.054808125 -0.015717162 -0.032885604 0.053724315 -0.03180723 -0.03383769
0.0029431854 0.048834935 -0.038076982 0.07087035 0.009916968 -0.0208311 -0.08558915 -0.00563779
0.15933429 -0.06877397 0.050121747 -0.009096794 0.0650176 0.0997106 0.009935147 0.0031333766
0.045842353 0.035438716 0.07267398 0.061037272 -0.048079852 0.031978335 0.073444836 0.09996962
0.067317195 -0.017240468 0.0815988 0.10922843 -0.056083653 0.06353571 -0.053243097 -0.05098222
0.054512046 0.07116682 0.06826089 0.054501332 0.0758859 -0.007090197 -0.019869553 0.06197735

network_body.linear_encoder.seq_layers.2.weight f4 [128, 128]
00000000: 3abd 623c ed03 00bd 21ad 5b3d 081d ed3c
00000010: 3b0e 493e 1ab3 8ebd f99d 993d 4fe7 093e
00000020: 7bae 993d c7e9 edbd 8817 973d 4bc6 1cbe
00000030: 08f4 0abe 4bbe 9c3e 8ba5 24be 8dab 453d
00000040: 8d17 1dbe 781d 0c3e b36b 8e3d 15a7 113e
00000050: ade1 203e 54d4 1dbe 25ea 46bd b820 0cbe
00000060: 624e 213e 1feb 8d3d 6052 653c dfb6 4f3d
00000070: cda4 3e3d 23f4 9b3c 4927 923d 32af 0fbe
00000080: 455f 183e 641e 08bc 9186 e0bb 1a25 b23d
00000090: 43c6 393c 53e1 243d 4732 ee3d 5bb4 803c
000000a0: b8e0 943d f8b6 963d 7ca5 73bc a88f 413d
000000b0: 396b 45bd b1c8 993c 577b 793c 0122 58bc
000000c0: 66ce f7bd a548 93bd 5f98 aa3d efe8 ef3d
000000d0: fcd9 793e e2d2 903d a99d 8dbc ff8b 7d3d
000000e0: 80db 193c aed5 a63c 513f 21bd 9cf4 7d3e
000000f0: 604c 123d f4a9 8fbb 9972 353d fb04 0fbe
00000100: 7123 f13d c972 973d 1038 493e 0664 873d
00000110: b48b 05be 0855 71bd 8c55 4a3e d8db 41bd
00000120: 68ae 0fbe b855 26bc fffa 793e 1028 e7bd
00000130: c8e7 4fbe fb38 1e3e 31c6 873d a03d 153c
00000140: ce49 aabd 4c31 0cbc 1d76 30bd a91d a93d
00000150: ec2f f43c a429 71bd ddc1 aebc 304f da3c
00000160: 3c0c 203c 84b1 323c 0db8 f5bd 3bad a43d
00000170: 960a 88bc 398b c33c 78a6 a13b 3a02 9abd
00000180: 8a34 693d 1a28 083e 901f d0bc dfe9 96bd
00000190: 10ec 4cbd e66f 4e3e 02c5 2bbe be8d bebc
000001a0: d8f0 1e3d b795 fbbc 3d09 6e3e e43d 8fbb
000001b0: 3b98 a8be dc82 143e 0537 7cbd 4f89 66bd
000001c0: d768 033d 072b 35be fc26 f8bd debd 52bc
000001d0: 7ba8 ab3c d8dc 093e 0da5 023e 8fd4 c9bb
000001e0: 166a f2bb e6f8 583e abbb e5bd f521 c93c
000001f0: 50b9 1d3c 67d1 84be ae1d 893d b0f8 09be
00000200: 5141 aebd a04b 7cbe 3904 4f3e 7666 61be
00000210: a8dc 8ebc 16b2 903e d934 cd3d 531a 54be
00000220: ce6d 023a 4db3 273d 2e3a d2bc baff d53d
00000230: 5f90 8d3e 7b77 69be cb05 ffbd c5af 153e
00000240: e85a 92bd b652 4abe 15b8 b8bd 4aa5 423e
00000250: 511a f9bd 2700 09bd 2860 3c3e 0ff6 74bd
00000260: 175a 3f3e 5feb 28be 6b93 3fbe 96a6 cc3d
00000270: c90f e9bd 6bbb febd 3990 1cbd 741d 7fbb
00000280: f992 af3d 2101 30bd a23e 86be dbbe 89be
00000290: 943d a43d d0a3 67bd dd9b 29bd 7f4f d5bc
000002a0: 58fa a1bc 7ec9 18be 3e62 fcbc 4be3 bbbe
000002b0: b11e 283e a668 43bc fd0f a7bd 3de4 cbbd
000002c0: 9cf6 b63d 3fd7 05bb 1a41 e2bc 1477 d6bc
000002d0: 7815 583b a792 fbbb ad8a 2c3e f183 2c3d
000002e0: a51b 593e 490a 0cbe 090c 593e d8ee d9bd
000002f0: 000e 403e 2d9d afbd 7d6b 1abe 9af3 4f3e
00000300: 4f27 54bd 1d46 e7bd d553 41be 6a60 3bbe
00000310: 4eb4 09bc d7c0 c7bd 9199 febd 937c f53c
00000320: 57f4 e03d 504d 1ebd 436d 3bbe 713d b33d
00000330: b1e0 3b3e c43d 093e 5376 9dbd 1995 80bd
00000340: 3170 24bc cb94 c53c 0f61 cdbd f0b2 d03d
00000350: ccee 30bd 2879 1abe f19a 8dbd af6a 8dbc
00000360: 39d5 8cbc 82b3 55be ecce 843e 7afd babc
00000370: cf7c bb3e 692d c6bd 8b26 073e 5b9b 7b3d
00000380: 84ba 4bbd 780c eb3d 7a83 0dbd 2a17 2e3e
00000390: a6e5 9abd 8b97 7cbe 5961 f13d da69 893d
000003a0: 02e5 663e fbb8 e5bd 4278 ea3c 9167 58be
000003b0: e626 833e 7785 2e3d 69e6 62be 9318 643d
000003c0: 0a58 22be 7c07 f03d 061c fcbc 6c60 9d3d
000003d0: 3328 573e 40ca 2bbe 21c4 b53d f490 603e
000003e0: bd92 c3bc bec5 ecbd 03ef 15be 62b8 b3bd
000003f0: d31c 99bd 7971 263d f437 3fbe b436 12be
0.01383906 -0.031253744 0.053631905 0.028944507 0.19634335 -0.06967755 0.07500834 0.13467143
0.07503983 -0.11616855 0.07377535 -0.15310018 -0.13569653 0.30613932 -0.16078775 0.048259307
-0.15341015 0.13683116 0.06954136 0.14223893 0.15711088 -0.15413028 -0.04856314 -0.13684356
0.15752557 0.069296114 0.0139966905 0.05071151 0.046543885 0.019037312 0.07136399 -0.14031675
0.14880092 -0.008308027 -0.006851979 0.08698483 0.011338773 0.04025395 0.116306834 0.015711
0.07269424 0.07359117 -0.0148709975 0.047256142 -0.04819796 0.018772455 0.01522716 -0.013191701
-0.12099914 -0.0719159 0.08329844 0.117143504 0.2439956 0.07071473 -0.017287092 0.06190109
0.009390712 0.020365562 -0.039367024 0.24800342 0.035717368 -0.0043842737 0.044298742 -0.13966744
0.11774338 0.073949404 0.19650292 0.06610875 -0.13041574 -0.058918983 0.19759196 -0.0473288
-0.14031374 -0.010152273 0.24412154 -0.11286938 -0.20303261 0.15451424 0.06629599 0.009108931
-0.083148584 -0.008556675 -0.04308139 0.0825761 0.029808007 -0.058877602 -0.021332676 0.026649088
0.009768542 0.010906581 -0.119979955 0.080408536 -0.01660661 0.023870097 0.0049331747 -0.07519956
0.05693487 0.13296548 -0.025405675 -0.07368826 -0.050029814 0.20159873 -0.16774371 -0.023260947
0.038803905 -0.030711038 0.23245712 -0.0043713916 -0.32928643 0.14503044 -0.06157591 -0.05628329
0.032082405 -0.17692195 -0.12116811 -0.012862651 0.020954361 0.13463151 0.12758274 -0.006159372
-0.0073979003 0.21188697 -0.112174354 0.024552325 0.0096267015 -0.2594101 0.06695114 -0.13473773
-0.08508552 -0.24638224 0.20216455 -0.22011742 -0.017439201 0.2826087 0.100198455 -0.20713167
0.00049754686 0.04094248 -0.025662508 0.104491666 0.2764921 -0.22799484 -0.12452277 0.14617832
-0.07146245 -0.19758114 -0.09019486 0.19008365 -0.121632226 -0.03344741 0.18396056 -0.059804972
0.1868671 -0.16496037 -0.18708579 0.09992711 -0.11379964 -0.12438091 -0.03822348 -0.0038927468
0.08572955 -0.042969827 -0.2621966 -0.26903424 0.080195576 -0.05655271 -0.04140841 -0.026038883
-0.019772694 -0.14920613 -0.030808564 -0.36696848 0.16417958 -0.011926806 -0.081573464 -0.09955642
0.08933756 -0.0020422486 -0.027618933 -0.026179828 0.003297178 -0.0076773944 0.16849776 0.042118017
0.21201952 -0.13675798 0.21195997 -0.10641259 0.1875534 -0.08574901 -0.15080066 0.2030777
-0.0517953 -0.1129267 -0.18879636 -0.18298498 -0.008404804 -0.09753578 -0.12431634 0.029966628
0.10984104 -0.03864795 -0.18303399 0.087519534 0.18347432 0.13402468 -0.07688584 -0.06278438
-0.010036514 0.024118802 -0.10028278 0.101903796 -0.043196484 -0.1508528 -0.06914318 -0.017262785
-0.017191516 -0.20869258 0.2593912 -0.022825945 0.3661866 -0.0967663 0.13198297 0.061427455
-0.049738422 0.114769876 -0.034549214 0.17001024 -0.07563333 -0.24667184 0.11786146 0.06709643
0.22548297 -0.11216923 0.028621797 -0.21133257 0.25615615 0.04260775 -0.22158207 0.0556875
-0.15853897 0.117201775 -0.030775081 0.07684407 0.21011429 -0.16776371 0.08875299 0.21930295
-0.023873681 -0.11561154 -0.14641957 -0.087754026 -0.07476201 0.04063556 -0.18673688 -0.1427868

network_body.linear_encoder.seq_layers.2.bias f4 [128]
00000000: 1827 103d 6a1c 12be 17bd 4b3d 383e 703d
00000010: 68c3 86bc 21b0 33bd 87ba 723d 6b04 873d
00000020: b412 8ebd 95c3 113d 48ca 693d b3bc 7abd
00000030: 8137 91bd 9d9e 963d b9a0 0cbe 4353 0d3d
00000040: 63cf 293d 4862 5e3d 5e03 3d3d 244f babd
00000050: ff73 6d3d 00c1 00be 9a5b 09be e1c4 913d
00000060: 57e7 8c3d 287d 343d a7dc a83d 4313 003d
00000070: 60d2 cfbd 04c3 fbbd 8d5c 593d ed51 03be
00000080: bc92 503d 5175 0fbe 1a5b 01be 36f9 8f3d
00000090: 6e0d bdbd 156f 2b3d 0ad3 463d 9a02 38bd
000000a0: 359d 643d 66e0 2a3d e1fc 4b3d a19a 2a3d
000000b0: 7391 753d 9201 843d 8976 04be 972a 953d
000000c0: a41f 0e3d 3e82 9b3d 2943 06be 92aa 06be
000000d0: edb4 efbd f1f2 6d3d d6c8 1ebe 9845 b73b
000000e0: 8d3f 11be 52d6 2d3d e91e c63d 4d15 7f3d
000000f0: bb3e 0abe 8f00 603d 3760 f3bd 2387 853d
00000100: de1f 4cbd 765f 403d f49e 8e3d 8649 d1bd
00000110: 23ce c7bd 0589 863d b461 223d 17da 03be
00000120: 088a b13c 8bdb 29be a50e 053d 52a7 8e3d
00000130: 44fd 96bd 9f4b b4bd 6d4d a23d 6637 eebd
00000140: a66d 01be 7db0 973d 3483 1a3d fec2 553d
00000150: b439 553c 48ec 18be 9ee4 0cbe a90d 143d
00000160: 3c78 6d3d 5543 863d f7ca 73bd 2b0d 903d
00000170: 655f 9cbd 28ee 02be 30fb d6ba 42af 0dbe
00000180: e811 0e3d 0639 4a3d 7a57 debd b759 023d
00000190: 909e 783d 87f6 a93d d514 613c cf27 b03d
000001a0: b5e7 0cbe 7a47 a6bd 539f 5d3d 9080 2bbd
000001b0: 3613 0f3d e7c6 893d 1639 233d 267f dfbd
000001c0: 35e4 833d 390f 4d3d 7c17 0dbe e0f8 a03c
000001d0: 9d96 323d 9acc c83d fd1b c8bd 6098 723c
000001e0: d595 0abe 7092 2fbd 698d adbd 6de9 0cbe
000001f0: 4727 b73c b7b0 393d abc3 d5bd e789 15be
0.035193533 -0.14268652 0.049740877 0.058653086 -0.016450599 -0.04386914 0.059259918 0.065926395
-0.06937161 0.035586912 0.057077676 -0.061215114 -0.07090665 0.07354472 -0.13733186 0.034503233
0.041457545 0.054292947 0.04614579 -0.09097126 0.05797195 -0.12573624 -0.1341385 0.0711763
0.06880062 0.04406467 0.08245211 0.03126837 -0.10147548 -0.12293056 0.05306678 -0.12824221
0.050921187 -0.14009596 -0.12632409 0.07029955 -0.09231077 0.041853983 0.048541106 -0.044924356
0.055813987 0.04171791 0.04980171 0.041651372 0.059953164 0.06445612 -0.12935843 0.07283514
0.034698144 0.07593201 -0.13111557 -0.13151005 -0.11704431 0.058093015 -0.155063 0.005593013
-0.14184399 0.04244072 0.096738644 0.062276173 -0.13500492 0.054688033 -0.11883586 0.06519916
-0.04983508 0.04696604 0.06963912 -0.102191016 -0.09756114 0.06569103 0.03964396 -0.12876163
0.021672264 -0.16587655 0.03248467 0.069655076 -0.07372525 -0.08803486 0.07924924 -0.1163166
-0.12639484 0.07406709 0.03772278 0.052187912 0.013014246 -0.14933884 -0.13759086 0.03614584
0.057975993 0.06555811 -0.059519734 0.070337616 -0.076353826 -0.12786162 -0.0016401764 -0.13836387
0.034685045 0.049370788 -0.108565286 0.03182384 0.060698092 0.082989745 0.013737877 0.08601343
-0.13760264 -0.08119102 0.05410702 -0.041870654 0.03493043 0.06727391 0.039849363 -0.109129235
0.064400114 0.050063346 -0.1377849 0.019649923 0.043600667 0.0980465 -0.09770963 0.014806837
-0.13533719 -0.042864263 -0.084742375 -0.1376092 0.022357596 0.045334544 -0.10437711 -0.14603387

network_body.linear_encoder.seq_layers.4.weight f4 [128, 128]
00000000: c00e d4bd b29b 083d 0a08 0dbe a443 b53c
00000010: f12e 3abe 7e4d 373e 4093 e7bd 523b c1bc
00000020: f3ec 0cbc de2e a7bd 0743 16be 594f 2f3d
00000030: 2fc4 9fbd 6a1f 96be 0082 6fbd 385b 18bd
00000040: 8f4e 1dbe c17f 043e 9173 f3bd 13d2 c0bc
00000050: 7f35 bebc 7be3 663e 3647 d33d 4080 ed3d
00000060: 134f f7bd c6ad 083c 3477 c3bb 6b8f 24be
00000070: 2277 af3d aec7 023e fe8d 65bd 4178 683e
00000080: c864 d4ba b43e 10bb c7b7 b93d 2b85 3d3c
00000090: 2efc ec3d b58c 29bd ab32 febd 05be 0cbe
000000a0: e665 1b3d 2348 013d 129b e2bd b8d9 60be
000000b0: 80c5 0cbe 5891 86bc 7230 a2bd 826f cdbd
000000c0: 4f57 973d ad4d 85be 545e 2f3e b106 193e
000000d0: 09ab c43d d4c5 14bd 8b0b f23d dc42 423d
000000e0: f312 3b3c a711 a4bd 4a81 16be 63de 2b3b
000000f0: 5cc7 743d 491a 49bd 0b55 b7bc 1f47 9dbd
00000100: b951 003d 26ad 3fbd c335 32be 9c5c aabb
00000110: 0d41 183d 500f 22be 9743 f23d f6ad d53d
00000120: e824 4bbb b12f 823d 7d78 adbc 5e31 7abe
00000130: f205 29bd 9d38 233e 10c0 3cbe 1f10 393e
00000140: 058b 213c fa47 273d d392 07be c637 90be
00000150: b7e4 64ba edc3 df3d 06d0 403e 7864 09bd
00000160: a92a 443c a6d6 42be 8cfc 093e 129a afbd
00000170: c925 cb3d 8ad4 b63d 9fcf cb3d 217f 0cbd
00000180: 3f83 c0bd a261 613d 844d 9d3c 49c7 2dbe
00000190: 1cbc 853c d201 223b e381 1f3d a536 e8bd
000001a0: 5b2b ea3d bed0 90bc 6b43 31bd 1228 1c3d
000001b0: 3f22 1fbe 3b09 d4bb 79ba b5bd 7231 423e
000001c0: 8df9 07be 81da 29be 7ff9 0dbc a877 a3bd
000001d0: dbe4 ddbc 7b3c 29be 19c0 093d b63c 99bc
000001e0: e8f1 d03d e020 053e 1916 0f3e 22c3 953d
000001f0: 9f00 873d deed debd 386c 733d 89f9 5c3d
00000200: eb29 34be 0dc4 503d aade 3abe 1443 d13d
00000210: 5534 ea3d 3cfd 473d e373 cbbd 84ce a4be
00000220: 14b4 0ebd 0196 b3bd 4d5a 39be 0d0f e73c
00000230: 1750 6d3d 85ec 9ebe 5e49 b6bd 0862 a73d
00000240: eff7 4dbe 2b53 823b 9d13 e53d da67 803d
00000250: c1ec b4bd 5c02 df3d 3b16 c83d 86c0 eabd
00000260: 4528 65bd 96f0 f9bc 4824 4a3a b9ff 82be
00000270: 21b8 1c3e b45d 263e 6130 04be 7bf4 43bd
00000280: fd21 a7bc a885 d93d 93f9 663c 160d 33be
00000290: 6a7d ea3d 64f6 83be 1553 e53a 80cc a83d
000002a0: 1c5b a53d 7b85 073b e8c7 02be 437a 48bc
000002b0: 8038 053e 8ea5 c13d 0234 b43d d3a9 c3bc
000002c0: 5609 283e 70b9 6abe f8d4 e4bd f8e4 f63b
000002d0: 7ffe 153d 48f3 0a3e 18d7 e7bc ab06 233e
000002e0: 0689 9fbd 3441 e4bd 2049 79bd d2cf 09be
000002f0: c616 09be 6da8 30be b6c6 883b 6cb3 d5bd
00000300: f3d7 1f3c 7ad1 543d ee75 a4bd 9a93 573d
00000310: 19db 77bd 49f0 19be d451 babd b812 1b3d
00000320: 2ea9 a9bd dbd5 093e bd61 42be 6eb9 00bd
00000330: 2227 f8bd 7a8b 8a3d 2f36 c0bb 101f 653e
00000340: e81f 333e 94d0 c2bc af61 02be cdc5 b1bd
00000350: dc92 8cbd 32a4 053e e329 243d fe76 183c
00000360: c081 83bd dd8d cf3d 69f0 c93b 249a 82be
00000370: 443b 123d dfe9 82bd 744f 4f3c f11b f43d
00000380: d546 2b3d b69d 9abd 076d a53d 89d3 23be
00000390: 933c 0abe 01a2 1fbe 4d29 19bd d790 3ebe
000003a0: 1763 3b3c 4112 183e 116c 0e3d 352e 893d
000003b0: bb34 c2bd 39bc a2bd 8085 813d d7d5 603e
000003c0: bc8c 28be c884 49be e2b8 ac3d 00b9 313e
000003d0: f3a4 6fbd f0f3 b0bd 1259 febc 8bb0 6fbc
000003e0: 37ad 85bd d35d 13be 1227 0a3e 6447 c43d
000003f0: e948 21bc 8cc8 40be 7c79 283d e203 483e
-0.10354376 0.033351608 -0.13772598 0.02212698 -0.18181969 0.17900655 -0.113073826 -0.023587856
-0.008601415 -0.08163236 -0.14674006 0.04280028 -0.07801091 -0.29320842 -0.058473587 -0.037196368
-0.15361999 0.12939359 -0.11887277 -0.023537671 -0.023218868 0.22547714 0.10316317 0.11596727
-0.12075629 0.008342212 -0.005965138 -0.16070335 0.08567645 0.12771484 -0.056043617 0.22702123
-0.0016204352 -0.002201003 0.09068256 0.011567394 0.11571537 -0.041393954 -0.12412008 -0.13744362
0.037938975 0.031562936 -0.110647336 -0.21958053 -0.13747215 -0.016426727 -0.079193965 -0.10031034
0.073897 -0.26035824 0.17125827 0.14943959 0.09602935 -0.036321476 0.11818608 0.047427043
0.011418092 -0.080111794 -0.14697757 0.0026225082 0.059760436 -0.049097333 -0.022379419 -0.07679581
0.031327937 -0.046795987 -0.17403321 -0.005199028 0.037171412 -0.15826154 0.11829298 0.10433571
-0.003099734 0.06356753 -0.021175617 -0.24432895 -0.041265436 0.15939565 -0.18432641 0.18072556
0.009859805 0.040840127 -0.13239603 -0.28167552 -0.0008731591 0.10926042 0.18829355 -0.03354308
0.011973062 -0.19027194 0.13475245 -0.085743085 0.09919316 0.08927257 0.0995171 -0.034300927
-0.09400033 0.05502475 0.019202001 -0.16970553 0.01632505 0.0024720323 0.03894223 -0.113385476
0.11434051 -0.017677661 -0.043277185 0.03812415 -0.15540408 -0.006470827 -0.088734575 0.18964174
-0.1327879 -0.16587259 -0.008665442 -0.07981807 -0.027086666 -0.16526978 0.033630464 -0.018705707
0.1020239 0.13000822 0.13973273 0.07312609 0.06591915 -0.10885213 0.059429377 0.053948913
-0.17594115 0.05096822 -0.18249002 0.10217872 0.11435763 0.048825487 -0.09934213 -0.3218881
-0.034839705 -0.08768845 -0.18100853 0.028205419 0.057937708 -0.31039825 -0.089007124 0.08172995
-0.2011411 0.0039771996 0.111853816 0.06269808 -0.0883422 0.10889122 0.09769865 -0.11462502
-0.055946607 -0.030510228 0.0007711095 -0.25585726 0.15304615 0.16246682 -0.1290908 -0.047840577
-0.020401949 0.10621196 0.014097589 -0.1748546 0.11449702 -0.2577392 0.0017496074 0.0824213
0.08074018 0.0020678926 -0.1277157 -0.012236181 0.13009834 0.09455405 0.08798982 -0.02388469
0.16409811 -0.22922301 -0.11173433 0.0075346194 0.03661966 0.13569367 -0.028300807 0.15920512
-0.07789807 -0.11145249 -0.060860753 -0.13458183 -0.13387594 -0.1725175 0.004174079 -0.10434613
0.009756076 0.051957585 -0.08030306 0.052631 -0.060511682 -0.15033068 -0.09097639 0.03785965
-0.082842216 0.13460486 -0.18982597 -0.03142684 -0.12116839 0.06764884 -0.005865834 0.2237513
0.1749264 -0.023781098 -0.12732576 -0.08680306 -0.06863949 0.13050917 0.04007901 0.009305714
-0.06421232 0.1013448 0.0061626923 -0.25508225 0.03570105 -0.063922636 0.01265322 0.11919392
0.041815598 -0.07549612 0.08077436 -0.15998663 -0.1349967 -0.15589143 -0.037392903 -0.1860994
0.011437199 0.14850713 0.03477103 0.066982664 -0.09482714 -0.07946057 0.06324291 0.21956573
-0.16459936 -0.19679558 0.08433701 0.17355728 -0.058506917 -0.086402774 -0.031048331 -0.0146294935
-0.06527179 -0.1439126 0.13491467 0.09583929 -0.009844043 -0.18826503 0.04113148 0.19532731

network_body.linear_encoder.seq_layers.4.bias f4 [128]
00000000: c440 66bd 457b 32bd fac3 693d 6a95 54bd
00000010: 6853 b1bc 6e7f b0bc edce 5fbd eb69 90bd
00000020: e4dc c23c 4ce4 8fbd d9d0 f23c 039f a03c
00000030: 378d 73bd 1940 98bc daf2 2dbb 67ca 4dbd
00000040: fcff 243d 59f4 873d adf0 27bd 1559 363d
00000050: 4189 943d dc67 c6bd f67e 34bd 531c 4f3d
00000060: e400 83bc 22fa 8fbd 06f1 75bd 0be1 6fbd
00000070: 9bcd 30bd 186a 273d 84a3 94bc e80f 883c
00000080: 192d 8dbd 5501 26bd cfa5 25bd d1d4 91bd
00000090: 1f2e 593d fee8 a83b a0f7 823d 110f fe3c
000000a0: 3941 853d 23ff 963d dd29 9cbc 7701 26bd
000000b0: ed5a 743c 39c2 62bd 5b34 8bbd 43ef 6e3d
000000c0: afe0 88bd 2919 d4bc 1a17 a83d 4740 30bd
000000d0: 9f35 483d 02b6 8a3d 4bad b23c 3c3a 773d
000000e0: cf59 27bb 8031 c53d 0483 47bd 5329 953d
000000f0: f2c4 13bd 49c3 d13d 55b0 73bd 4a0b a53d
00000100: 4960 8dbd 5811 52bd e807 48bd 85df 9fbc
00000110: 48a9 963d 2641 783d a270 63bd be78 403d
00000120: eac5 38bd 6c59 0fbc ee6c 2f3d c2b2 713d
00000130: b7d6 813d de1a e93b a659 6e3d b61b 87bd
00000140: 42b1 d13d 5332 cf3c b4d9 763d ab6d 90bd
00000150: 5c93 933d f2c0 06bd 6dfd 563d f40f 52bd
00000160: 0246 853d 7840 a2bb ed3e 77bd c95a b03d
00000170: 1e61 573d 73f7 a93c 1ef5 413d 048e 8f3d
00000180: b1a4 80bd 74bc 00bd 09fc 65bd e245 9a3d
00000190: 8012 b2bd ca7d cf3c a43a 7fbd cd7a 803d
000001a0: 4eb3 073d 2926 6d3d 03b5 c13d 90e8 3fbd
000001b0: c510 5e3d 0477 6e3d 428c 643d 6b80 d83c
000001c0: 3093 61bd 09d8 243d ccfc 91bd 3a14 863d
000001d0: cf39 7bbd e66a d7bc e018 173d 4d01 c33c
000001e0: f150 7b3d 7ff1 623d 4c3b 233d 6092 4f3d
000001f0: 8a98 94bd 3648 35bd a2c3 54bd 6bb4 1b3d
-0.05621411 -0.04357459 0.057071663 -0.051900305 -0.021646217 -0.021545138 -0.0546407 -0.07051452
0.02378697 -0.07025966 0.029640602 0.019607073 -0.059460845 -0.018585252 -0.0026542456 -0.050241854
0.04028319 0.066384025 -0.04100101 0.04451855 0.072527416 -0.09687778 -0.044066392 0.05056412
-0.015991636 -0.07030131 -0.06004431 -0.058564227 -0.04316483 0.040872663 -0.018144377 0.016609147
-0.06893367 -0.040528614 -0.04044133 -0.0712067 0.0530225 0.005154728 0.06394887 0.031013044
0.06506581 0.07372882 -0.01906293 -0.04052874 0.0149142565 -0.055361006 -0.067970954 0.058333647
-0.0668348 -0.025890904 0.08207531 -0.04303005 0.048879262 0.067729965 0.021811148 0.06035827
-0.0025535708 0.09628582 -0.04870893 0.072832726 -0.036076494 0.10242326 -0.059494335 0.08058794
-0.069031306 -0.05128607 -0.048835665 -0.019515762 0.073565066 0.060609005 -0.055527337 0.04699015
-0.04511062 -0.008749347 0.042828493 0.059008367 0.06339782 0.0071137985 0.058190964 -0.06597082
0.10238887 0.025292551 0.06026621 -0.070521675 0.07205841 -0.03289885 0.05248778 -0.051284745
0.065074936 -0.004951533 -0.060362745 0.08611066 0.052582853 0.020747876 0.047352903 0.07009509
-0.062814124 -0.031429723 -0.056148563 0.0753286 -0.08694935 0.025328536 -0.062311783 0.062734224
0.033129983 0.05789772 0.09458353 -0.04685265 0.05421521 0.05821897 0.055797823 0.026428422
-0.05507201 0.04024509 -0.07128295 0.06546827 -0.061334427 -0.02629609 0.036888957 0.023804331
0.06135649 0.05540609 0.03985147 0.050676703 -0.07255657 -0.04425832 -0.051944382 0.038013857

action_model._continuous_distribution.log_sigma f4 [1, 5]
00000000: d344 3ac0 f726 1fc0 e065 20c0 fa33 87bf
00000010: 796d 25bf
-2.9104507 -2.4867532 -2.506218 -1.0562737 -0.64620167

action_model._continuous_distribution.mu.weight f4 [5, 128]
00000000: 5bee 1cbd 356e 783a 0267 233d 88c2 e8bc
00000010: b199 8f3a da7c c03d 1cc6 72bd ca1c 71bd
00000020: fbcc 93bc 8647 e1bc 3a21 f33c d673 4fbd
00000030: 547b 69bd b814 823d 7ec3 0bbe d645 99bc
00000040: f10e 493d 4f3f ed3b 96bb 5fbc 7c17 273c
00000050: 9c1f 0dbc 44a2 15bd b588 f1bc 91f5 8abc
00000060: 04c5 10bd 6f99 00bd 90fd f53a 5d01 d4bc
00000070: 46a2 1cbd 44ac 1bbd 6e81 12bd d9e3 38bd
00000080: e196 d2bc 5386 1bbd 9486 373c fcb2 09bb
00000090: 558f 5cbd b607 f53d 66c2 9bbb 2278 adbd
000000a0: b0a7 173c 4667 303d 724d 9dbd 74de 7dbc
000000b0: 13f0 79bd f9b6 633c 197c 913b 870f 7d3b
000000c0: 90b8 a0bb 7fb4 7ebd d2a3 f5bb 36fc 3fbd
000000d0: 0557 b53c bfa6 323d ebef 00bd e060 5e3d
000000e0: e212 fa3c 82e8 463d 918a 85bc b941 f93c
000000f0: 980a c0bc 2bd3 2c3d 708b 2dbc 147b 423c
00000100: 9f87 97bc c969 0fbd 5892 25bd 4eed 813d
00000110: 6856 c63b 1deb 19bc 7a9b 2cbc fb97 543d
00000120: cd29 2dbd e025 383d 4aba 023b d6ed ce3c
00000130: 01bd 23bb b300 5bbd d126 58bc dc78 3bbd
00000140: b89d 143d 3a6e 16b7 6757 953c d90b 45bd
00000150: 0e38 9d3c a417 37bc a1c0 213d 770f 84bc
00000160: e119 c63a 2da7 893d 0be4 00b9 2c69 733d
00000170: 6fc9 943a f7d8 b33d d815 7abd 7cae 533c
00000180: 6feb 22bd c5a2 1dbd c731 ecbc b471 0f3d
00000190: 4524 dfbc 6344 87bc eef2 2bbd 2729 173d
000001a0: 5eb9 643c 3be3 e43c dbb2 513d c4bc c3bc
000001b0: 3448 55bb b94e 34bb a077 693a cb06 133d
000001c0: a063 573c 035b c73c 1b97 6cbc 6378 013c
000001d0: 11f1 e8bc 244d 39bb 0f0d b73c cda7 94bb
000001e0: 39a7 1f3c e2e6 643b 9b98 b93c bea0 a53d
000001f0: 20cc 01bd 4b23 81b9 855c 1abd 28ef 823d
00000200: 595c c8bd 4786 a7bd 2dfd c53c 72af bbbd
00000210: c3ad e8bb 94c2 f6bc 0316 b7bd 3673 bebd
00000220: b953 f03c 8354 a6bd 968d 90bc 818f 043d
00000230: a0a3 8cbd 58c4 10be b505 2f3e cbb0 b0bd
00000240: 42ec 083e 746e 89bb 7ca1 acbd 9199 93bc
00000250: 405f c93c 5a47 91bd 523e 71bd 09ed fb3b
00000260: de73 1b3b d355 b9bd 2e6a 0fbe 7604 14be
00000270: 2741 ddbd 76e2 f73c f49e b73d 8c37 e63c
00000280: 8a78 bfbd 8b4d d7bd 36e2 a4bd 0ec5 d1bd
00000290: 08ea 943d b596 0abd c691 593d 2f8b a03d
000002a0: 5e8d 813b e236 253d 980e e6bb 7123 ecbc
000002b0: ba26 203e 055f 84bc 948d 0fbc d808 8e3d
000002c0: f935 e7bc f684 febd f948 a43d f002 02be
000002d0: 8dff 883d e852 0e3d f77d 233d 564f ec3c
000002e0: da56 53bd 85a1 8c3d 17ad e1bd 6f5d 133d
000002f0: eaaa cfbd b0ff 853d d0cb f5bd 96d1 243d
00000300: 6f0e e2bd 99cd d8bd b2af c9bd 9a9b 95bd
00000310: 0741 273d 93ca 733c 0957 a3bd d7f2 9f3b
00000320: ca2f babd 4151 1dbe d417 8eba ed27 f33c
00000330: 2cf9 983b 73e9 893d 5004 203d da7c d7bd
00000340: f5b1 653d 4745 febb fb9d 113d ad38 7dbd
00000350: 0ea2 343e b199 9dbc 3b46 893c 5b60 a0bd
00000360: a2fb c43c e770 d4bd d9bf 98bd f2fc 2a3d
00000370: 8a4e c03c e838 d4bd 287a 873d 09be fd3c
00000380: ec42 febd 8fe8 90bd 3b87 8cbd 7a2d 9f3c
00000390: 9899 b0bd 0f07 5c3b 43b2 d6bd a4c3 6e3d
000003a0: c116 f53c 98d8 df3c 7bba 963d c8f0 b2bd
000003b0: 5af9 213c c5af 083c 3fa3 c53c a94a a23c
000003c0: 3851 53bd 9fd4 81bb 3379 9ebd 5033 303c
000003d0: 1ae3 9bbd ddef 4e3c dfd7 543c 779b 033c
000003e0: b38c 033d 000d a63c 4daa eeba 37e9 cbbc
000003f0: 4326 d5bd fe19 86bd ddaf ddbd bb89 ec3d
-0.03831325 0.00094768713 0.039893158 -0.028413072 0.0010955838 0.093988135 -0.059270963 -0.058865346
-0.018042078 -0.027499925 0.02967893 -0.05064758 -0.05700238 0.06351608 -0.13648793 -0.018710058
0.049086515 0.007240213 -0.013655564 0.01019847 -0.008613493 -0.0365317 -0.029484132 -0.016962798
-0.03534414 -0.031396326 0.0018767584 -0.025879556 -0.038240694 -0.038006082 -0.035767965 -0.045139167
-0.02570671 -0.0379699 0.0112015195 -0.0021011224 -0.05384763 0.11964361 -0.0047533987 -0.08470179
0.009256288 0.04306724 -0.07680787 -0.0154949315 -0.06101997 0.013898605 0.0044398424 0.0038613991
-0.004904814 -0.062183853 -0.0074963355 -0.046871386 0.02213622 0.043616053 -0.031478804 0.054291606
0.030526582 0.04856158 -0.016301425 0.030426847 -0.023442551 0.042193573 -0.0105923265 0.011870164
-0.018497286 -0.035012994 -0.040422767 0.063440904 0.006052781 -0.009394434 -0.010535115 0.051902752
-0.042276192 0.044957995 0.0019947463 0.025259893 -0.0024984481 -0.053467464 -0.013192848 -0.045769557
0.036283225 -8.966361e-06 0.018230153 -0.048107002 0.019191768 -0.01117507 0.039490346 -0.016120655
0.0015113914 0.067213394 -0.00012291984 0.05942647 0.0011351536 0.08781617 -0.061055988 0.012920018
-0.03977531 -0.038485307 -0.02883233 0.035020545 -0.027238974 -0.016512102 -0.041979723 0.03690448
0.013960211 0.027940383 0.05119596 -0.023893721 -0.0032544257 -0.0027512743 0.000890607 0.03589515
0.013146311 0.02433539 -0.014440323 0.007902238 -0.028435262 -0.002827474 0.022345094 -0.004536605
0.009744459 0.0034927656 0.022655776 0.080873 -0.03168881 -0.00024631093 -0.03768589 0.06393272
-0.09783239 -0.08179908 0.024168575 -0.09164323 -0.007100792 -0.030122079 -0.08939745 -0.092993185
0.029336797 -0.08121588 -0.017645638 0.03236342 -0.068671465 -0.14137399 0.17092021 -0.086274706
0.13371375 -0.0041940752 -0.08429238 -0.018017562 0.024581552 -0.07093687 -0.058897324 0.007688169
0.0023720185 -0.09049573 -0.14005348 -0.14454827 -0.108034424 0.030259352 0.08965865 0.028102659
-0.09349163 -0.10512837 -0.08050959 -0.10242663 0.072712004 -0.03383513 0.053117536 0.07839047
0.00395362 0.040335543 -0.0070207827 -0.028825494 0.15639773 -0.01615859 -0.008761782 0.069352806
-0.028223978 -0.12427704 0.08021731 -0.12696433 0.066893674 0.034747034 0.03991505 0.028846424
-0.0515965 0.06866745 -0.110193424 0.035977777 -0.10140021 0.06542909 -0.12001765 0.04023894
-0.11037909 -0.1058609 -0.09847964 -0.07305069 0.0408335 0.01487984 -0.07975585 0.0048812437
-0.09091146 -0.15363027 -0.0010840842 0.029682124 0.0046683755 0.0673398 0.039066613 -0.105218604
0.056077916 -0.0077597233 0.035551053 -0.06182163 0.17639944 -0.019238325 0.016757121 -0.07830878
0.02404577 -0.10373097 -0.07458467 0.041745134 0.02347495 -0.103624165 0.06615096 0.030974405
-0.12415108 -0.07075607 -0.06861731 0.019430865 -0.08623046 0.0033573543 -0.104832195 0.058292046
0.029918076 0.02732496 0.07359787 -0.08737332 0.00988611 0.008342688 0.024125693 0.019810991
-0.051591128 -0.003962114 -0.07737961 0.010754421 -0.076116756 0.01263043 0.012990921 0.008032671
0.032116603 0.02026987 -0.0018208713 -0.024891479 -0.104076885 -0.06547926 -0.10824559 0.115497075

action_model._continuous_distribution.mu.bias f4 [5]
00000000: 776a 2b3d c5c7 a13d 2d41 1cbd 8cff e8bd
00000010: 06de a13d
0.04184958 0.07899431 -0.038148094 -0.11376867 0.07903676

critic.network_body.linear_encoder.seq_layers.0.weight f4 [128, 19]
00000000: bcd5 efbe 602e 09bb 30ce d0be b13c 883e
00000010: 6a1d cc3c 9cb7 9a3b dd9a 80be 7882 e3bd
00000020: f726 033f 353e d93e 87df 05be ab1e 9a3e
00000030: ca6a 963e 5d51 2e3e 7978 953e dde8 02be
00000040: bd93 8cbe 8de1 b1bd fc81 cb3e 2ed0 52be
00000050: fe1f 6e3e 1079 3f3e 7b2e 82be 372f 643d
00000060: 4814 4abe bc63 103e 8c32 6b3e be81 fbbc
00000070: 0cfc 903e 5ff7 6ebe ac2f 893d 489b e8bd
00000080: 1738 9f3d a609 193f 38b2 97be 3b14 9a3c
00000090: 97ef 44bf ad50 f8be 00de 1dbe 5a94 d3be
000000a0: 7710 ac3d f010 933e 68e1 5dbd e922 d9be
000000b0: d104 283d 2c85 e13e 6ffc 88be b2db 0bbf
000000c0: 25e7 173f a03a 8f3e 05e5 e83e d9eb c03e
000000d0: 207f 91be 7d74 1ebf 6dbd a73e ba95 81be
000000e0: bf80 d1be 071c 46be 2fe2 73be 674c 04bc
000000f0: 7adc a33e 69ed 33be b6ca d73e 0d65 813c
00000100: 6f22 c63d 4153 103e 00a9 043f cc2b ecbe
00000110: c0e5 ed3e 5a1e a9bc bed2 c53d f7fa af3d
00000120: 0add 233d 8095 bdbe ccfc b13d 2ada d4be
00000130: 7fe2 c8bd 5c15 7b3d 1ab2 dbbd 556d 95bd
00000140: c15f 42be 812a f63e 70c4 a0bd 5e87 55be
00000150: 3f35 603e a387 393d c1ee 0ebe 5743 e9bc
00000160: 6d9f c53d 0db2 29be 3488 97be d6bc a0be
00000170: a25f 15be 0b1b 4cbe 8178 fcbe 6823 f53d
00000180: 5478 e3bd 96b9 603e e996 063d 5af5 bbbe
00000190: 4d7e 443e b9ba 583e e4ea 04be 0b0b 813e
000001a0: c6f9 103e 700f b6be e15e 1d3d afd8 c73d
000001b0: 0741 83bd dcb3 593e a045 1fbe 9550 1a3d
000001c0: ef1d 533f 9cf3 b8bd b512 dbbe d29f bb3e
000001d0: 3b11 6d3d dc6b c63c 660e f7bd f8e6 423e
000001e0: 952d 4dbe 02df f83d 3379 903c b4b1 173f
000001f0: fabb abbe aa1b 833e ecc0 113e 2f9f edbd
00000200: 3b91 f4be 726a 91bc 0e08 843e 3856 b53c
00000210: 98e2 bbbe 3485 95bc 82cb ea3e b6b5 6b3c
00000220: 941a e43e 91ed 46be d38b be3e 9dad 95bd
00000230: 7354 69bd 45bb 0e3e ff5d dbbd 2695 5bbe
00000240: 8818 ae3e 24a4 25bd 0144 823e 20bd 263f
00000250: 72a4 eb3e b203 25be b6f8 593e ff7c 5fbe
00000260: 3488 9f3e 4a7f 07be d45c 0b3e a43f 53bd
00000270: dd4d a43e dd73 b5bd 3af3 ce3d 2b0e 1e3d
00000280: cc7c 583d b519 98bd 5ab1 8cbe a99c 83be
00000290: 1db6 853e 6025 ed3d 339e e83d 73de 153f
000002a0: 1885 fbbe 3202 033f f44b 4ebe cf05 53be
000002b0: bec2 90be 5953 66be ae36 f1bc cdab e4ba
000002c0: 628e f2bd 4a5f 203d d4be 863c b36e 483e
000002d0: af28 e83e 508d a9be 3041 dbbc 24d0 49bd
000002e0: ac20 71be 2c2a 183f 0d8d d23d c75a 9dbe
000002f0: fc87 e8be 9526 4dbe 29a6 b53d dda0 94be
00000300: 0d42 1dbc 662d 3b3e b04c 92bd c755 293e
00000310: ef15 943c 7da1 653e 3b9c d8bd d61f 113e
00000320: f0fe d2bd 87e1 e93d 7c6a 253e d010 9d3e
00000330: 2cea acbe f37d b8be 5dc1 4cbe ebff 1b3f
00000340: 5770 8dbe cbca e9be 9653 da3d e760 753e
00000350: 0b45 833b db7e 413d bf1c 49bc 2307 db3e
00000360: 75fd a5be 2085 8b3e 8c41 c13e 1a67 3d3e
00000370: a850 d23d 677e 87be 49c2 313d 565b 6fbe
00000380: d51d e53d 7f90 273f d023 a5be 4706 07be
00000390: 4fab 2f3e aee8 ed3e ea95 7b3e 3a92 48be
000003a0: 8d8e 08bf a2a7 10bd 649d a9be 65ee 713d
000003b0: 4918 f8be 0d1d 983e e6bb 48bd dda3 6dbd
000003c0: 2d4a b13d 3e1f 58bd 0c96 0ebe 6703 c33d
000003d0: 6b36 69be d17f 923d 83bd 833d 5e20 d0be
000003e0: 2d75 ecbe c8a4 873e 9a76 163e 16cb 5ebe
000003f0: f643 b43e e802 313e aa56 a33e 444d 5b3d
-0.46842754 -0.0020932183 -0.4078231 0.26608804 0.02491637 0.004721595 -0.2511815 -0.11108869
0.5123133 0.42430273 -0.1307355 0.30101523 0.2937835 0.17023225 0.29193476 -0.12784143
-0.27456465 -0.086855985 0.39747608 -0.20587227 0.23254392 0.18698525 -0.25426087 0.05570909
-0.19734299 0.14100546 0.22968501 -0.030701514 0.28317297 -0.23336552 0.06698546 -0.113577425
0.0777437 0.5978035 -0.29628158 0.018808475 -0.76928085 -0.4849905 -0.15416718 -0.4132412
0.08401578 0.2872386 -0.054170042 -0.42409447 0.04102022 0.44046915 -0.26755092 -0.54632103
0.59337074 0.27974415 0.45487228 0.37679937 -0.284173 -0.61896497 0.32761708 -0.25309545
-0.40918538 -0.19346629 -0.23816751 -0.008074856 0.32004148 -0.17571034 0.42146844 0.015795255
0.096745364 0.14094259 0.51820374 -0.46127164 0.46464348 -0.020644356 0.096593365 0.085927896
0.04000572 -0.37028122 0.08690795 -0.41572696 -0.09808826 0.061299667 -0.107273296 -0.07296244
-0.1898184 0.48079303 -0.078499675 -0.2085242 0.21895312 0.04529537 -0.13958265 -0.028474493
0.09649549 -0.16571827 -0.29596102 -0.3139407 -0.14587262 -0.19932191 -0.49310687 0.11969644
-0.11106935 0.21945795 0.032858763 -0.36710626 0.19188805 0.21164979 -0.12980229 0.25203738
0.14157781 -0.35558653 0.03842056 0.09758126 -0.06408887 0.21260017 -0.15553904 0.037674505
0.8246755 -0.0903084 -0.4278771 0.3664537 0.05787776 0.024221353 -0.12063293 0.1903342
-0.2003692 0.1215191 0.017635917 0.5925553 -0.33541852 0.25607044 0.1423375 -0.116026275
-0.47767052 -0.017750952 0.25787395 0.022135839 -0.36696315 -0.018251993 0.4585839 0.014386585
0.44551528 -0.19426562 0.37216052 -0.07308505 -0.056965303 0.13938625 -0.10711288 -0.21443614
0.3400309 -0.04043974 0.25442508 0.6513233 0.460239 -0.16114691 0.21286282 -0.21825026
0.31158602 -0.1323215 0.1360963 -0.051574364 0.32090655 -0.0885999 0.101049855 0.03858773
0.05285339 -0.07426778 -0.27479059 -0.2570546 0.26115504 0.11579394 0.11358299 0.58542556
-0.4912498 0.51175225 -0.20146161 -0.20607685 -0.28273576 -0.22492732 -0.029445019 -0.001744622
-0.118435636 0.039153375 0.016448416 0.19573478 0.4534354 -0.33115625 -0.026764482 -0.049270764
-0.2354762 0.5943935 0.102808096 -0.3073332 -0.45416248 -0.20034249 0.08869583 -0.2902898
-0.009598267 0.18279037 -0.07143533 0.16536628 0.018076865 0.22424884 -0.105766736 0.141723
-0.10302532 0.11419969 0.16153902 0.3067689 -0.3377241 -0.36033592 -0.19995637 0.60937375
-0.2762477 -0.4566253 0.10660474 0.23962747 0.0040060333 0.04724012 -0.01227492 0.42778882
-0.32419935 0.27250004 0.3774532 0.18496361 0.1026929 -0.26463625 0.043398175 -0.23374686
0.11187331 0.6545486 -0.32253885 -0.13185988 0.17155193 0.46466583 0.24568906 -0.19587031
-0.53342515 -0.035316117 -0.33127892 0.05906524 -0.48456028 0.29709664 -0.04900732 -0.0580176
0.08656726 -0.05276417 -0.13924426 0.09522133 -0.22774665 0.07153285 0.06432631 -0.40649694
-0.46183148 0.26492906 0.1469368 -0.21757159 0.352081 0.17286265 0.31902057 0.053540483

critic.network_body.linear_encoder.seq_layers.0.bias f4 [128]
00000000: aae9 d33d 608f 033e 1cb2 603e 695c da3d
00000010: f60b df3d 0efe c2bb b3f8 af3d dbc2 e53d
00000020: 88a5 803d d3d5 103e 0a8d fe3d 3617 143e
00000030: f589 863d 305f bebe 924d 093e b25b 8b3d
00000040: f6bd dbbc 0e84 37bc 6fa7 cc3d 357e d1bc
00000050: 0cfa 453d 7fb9 893d 9bb7 5ab9 eefd d63d
00000060: 9e81 d13c 272a bc3c 7b55 d53a ad5e 043e
00000070: e2e4 723d 7b49 bf3c e101 1c3c fc9b 9b3d
00000080: 3057 163e e6ce cb3b 0856 873e a0fd 0a3e
00000090: 9dee 9a3d 4ea7 e83d f09e c8bc 3426 c63d
000000a0: 3ae5 583d 0d02 a83d 75da 423e 77da 913d
000000b0: f80d e73d c724 40bc ed97 d33d 370f 60bc
000000c0: 7268 3d3d a40d 52bd 82a8 ce3d 7354 fb3d
000000d0: bb70 9f3d b21d 753c 8729 5fbd aa90 b7bb
000000e0: a749 0cbd d7fb c63d 740a 883d c7d3 a83d
000000f0: 73fe 2e3d bb25 483d 70a0 f1bc a664 ec3d
00000100: 3e01 d73d 1f63 383d 6c9c 233e 095a be3d
00000110: df8a 203d f6cd 4ebd daa2 903d 3c75 dc3c
00000120: 2ff0 dc3d 5131 5d3d c272 083e 7ba5 f23d
00000130: 26bb 533d 255c 7a3d 9aeb df3d 7d98 303d
00000140: bcfd b6bc 2de4 aa3d 8280 213d b4fb 1b3e
00000150: ca8f 543d 6630 a23c c451 0c3e 193c 9e3d
00000160: 841f b53d ab6a 043e abbe d23d d93c ca3d
00000170: 1180 3cbc 007c 5c3d 3c68 81bd 6403 263e
00000180: ca2e 5e3d 120a a83d 7dc9 9e3c 58e2 8a3d
00000190: b6b3 b83d 2d73 023e 1460 8f3d 1324 343e
000001a0: 7350 083c 1111 c53d b3e6 c6bc 14db a63d
000001b0: 61a9 233d daa7 553d 0fce 933d 6757 acbc
000001c0: b3d5 83bc 9302 c33c 3342 963c 4cff b93d
000001d0: 5e1a fbbc 9aff df3d 025f e83d 734d 0ebd
000001e0: c03c 0a3e 87be ff3d dd62 963d 8a9d 1bbc
000001f0: 6a20 ba3c 011e bdbc 1034 13bc 7a0e e63d
0.10347302 0.12847662 0.21942943 0.10662157 0.10890953 -0.005950696 0.085923575 0.11218806
0.062815726 0.14144067 0.12429245 0.1446198 0.06569282 -0.37181997 0.13408497 0.06804599
-0.026823979 -0.011200918 0.09992873 -0.025572876 0.048334166 0.06724834 -0.00020858498 0.10497652
0.025574502 0.022969319 0.0016276086 0.12926741 0.05930031 0.023350468 0.009521932 0.07598111
0.14681697 0.0062197326 0.26432824 0.13573313 0.07565043 0.11360036 -0.02448985 0.096752554
0.052952982 0.08203516 0.19028647 0.07121747 0.11281961 -0.011727518 0.10331712 -0.0136755025
0.046242185 -0.05128254 0.10090734 0.12271967 0.077851735 0.014960693 -0.054482963 -0.005601962
-0.034249928 0.097160034 0.06642619 0.08243518 0.04272313 0.048864108 -0.029495448 0.11542635
0.10498284 0.045016404 0.15977639 0.092945166 0.039194938 -0.05048939 0.070623115 0.02691137
0.10787999 0.05400211 0.13325027 0.11847969 0.05169215 0.061123032 0.10933609 0.043114174
-0.022337787 0.08344302 0.039429195 0.15232736 0.05189494 0.019798469 0.13703066 0.077263065
0.08843902 0.12931316 0.10290273 0.09874887 -0.011505143 0.053829193 -0.06318709 0.16212231
0.05424384 0.08205046 0.019383186 0.06781453 0.09018652 0.12739249 0.07000747 0.17591886
0.008319962 0.09622396 -0.024279928 0.081472546 0.039956454 0.05216203 0.07217037 -0.02103777
-0.01609311 0.023804938 0.018342113 0.09081897 -0.030652221 0.10937424 0.11346246 -0.03474183
0.13499737 0.12487512 0.073430754 -0.009498009 0.022720534 -0.023085596 -0.008984581 0.1123323

critic.network_body.linear_encoder.seq_layers.2.weight f4 [128, 128]
00000000: 26b4 83bd 86b7 a3be 004f 4dbb 2f86 45be
00000010: e52c ccbd 930c 5a3e 20c1 b43c 4136 f3bc
00000020: ec54 9b3e 64be 303d 531d 6e3e 781f 15be
00000030: 391e a5bd 144b 6cbd 1c60 203e 155e 573d
00000040: cf66 5ebd e8f9 53be f703 87bd 733a f73d
00000050: 0a56 aebd 23f6 233e 83dc 77bd 02fe 16bc
00000060: ecc6 d63d 697a e93d 269e 8d3d 77a8 bebe
00000070: 87df 2e3d 82ef de3d a4b6 913c 4a68 b23e
00000080: 71dc 493d 5df7 5b3e 4f0b babd a0b0 8cbc
00000090: 86f2 98be ecb5 61bd 78bd 09be b77a a73e
000000a0: 2ebf 5f3e 05e1 d73d 4c9e f13a da5f 463d
000000b0: 4a9e 5bbe cc53 40bc 4999 15be f6f4 c93c
000000c0: b4d2 a53d 09a2 debc 4c08 093e 8f0d 9a3c
000000d0: 9f1f 28be d316 173e 574e e93d d0e7 7f3e
000000e0: f2ca 973d 8423 a5bd d43d f83d 23ec 3abd
000000f0: ec0c 9fbe 5e94 873d 2e00 88bd befb a7bd
00000100: c1c9 0f3e 790a 2e3e 529b b1bd 775c ca3d
00000110: a7aa 38bc f8e3 2d3e f274 89bc f8e0 25bd
00000120: 8ea3 17be e0b4 923d 587c 2e3e 19ac 14be
00000130: 458e a43c 4695 523d fae3 17be c21a b5bd
00000140: 17fe 1ebc d2ff b13e ebe9 c33e b25a 633e
00000150: 2aff 513d 1eeb 893d 590c 3b3d 9047 b63d
00000160: 5f1a 6cbd 4f1f 0dbe 452b c03e 75b1 ce3d
00000170: 867a 4cbe 6a38 c63c 3fa6 dd3d 64d5 903d
00000180: ae99 d33e 3750 1d3e a57c 81bd a42a ab3d
00000190: e043 403d 15f0 22be 815f 10bd 3cc6 ae3d
000001a0: 3469 503d a9a6 513e b427 23bd 8a5c de3b
000001b0: 0e3e cebd ade1 a2bd 773f 70be d54c 343d
000001c0: d63e e4bc 695e 263e 9630 ef3d c93e ddbe
000001d0: f741 f63b b413 adbd ce91 03be 87c4 043e
000001e0: cc81 0dbe babb e53b 6d13 173e 8213 893e
000001f0: c730 3abd 2aac 9b3d 3e42 973e b472 4c3c
00000200: 9897 b13d f92d eb3e b4ad b33d e1e4 1bbe
00000210: 679a e63c ea5d a8bd 2353 993c d107 93bd
00000220: 20ac 133c c263 003f 8848 0abe 512d 7f3d
00000230: 9fcf 93bd d7f8 1cbe 73e7 94bd 6e93 ddbd
00000240: 556d d0bd e9bb 103e 2c44 0a3e 6f9b 2dbe
00000250: 8c8f c2bd 9f16 d83d ba08 0cbe 69c7 7ebe
00000260: a19d efbd cbf9 48bd a61a 3cbe 1c08 c13d
00000270: 50b4 e33d 39fb f0bd 830d c93d 5990 3a3e
00000280: 680d 363e a1d6 62be 8f37 103e f4a9 12bd
00000290: a2b8 e53d 3f20 e93d 2791 b1bd 86bb 75be
000002a0: 0794 9abe 9fb4 f4bd 6d74 a8bd 2173 1f3c
000002b0: 9eb5 363e fa7a b13c 73fa bc3d 34bb 87be
000002c0: 5d34 ac3e 4c61 9dbd 70e8 9f3d 2e18 693d
000002d0: c263 6bbe 46f5 07be 8105 1cbe d66d ffbd
000002e0: 193d 41be fce3 3d38 afa0 aebd 34ac be3d
000002f0: 9332 cabd 43c9 713d 9cc4 34bd d2a6 22bc
00000300: ad48 87bc 6bc2 bf3c 52c4 613d 1b03 523e
00000310: 9d78 633e b6ec 963d b257 bd3d 904b bebd
00000320: 781e 693c d2a7 d5bc 154e a93d c313 c23e
00000330: c4fd cebd 2357 713e 2893 3e3e 3ee0 113e
00000340: 3e35 ebbd dc4a c03c 12eb cd3b 84cc 0abe
00000350: 2ea5 553d 73a9 44be efd2 c13e f7a7 1cbe
00000360: 4b71 1b3e 817d 973e 19c8 3ebe 91d6 ea3d
00000370: 2cc8 5abd 3bfa 7e3d 0c5c c03d b98b 2b3e
00000380: e58c 9b3d 7117 423e e913 d4bd e727 a73c
00000390: 3c4f 7d3e 98d5 af3d 69ef 11bd 5a5b be3e
000003a0: 390c 7fbd d0ba 2cbe 0785 d83d 85a9 183e
000003b0: 491c 123d fc22 2dbc c6b1 2e3e 0571 8abd
000003c0: 094f d5bd 2574 18bc ab7c 44be 7e39 a23e
000003d0: 082d 2b3e 4432 543e 32fe 413e b048 8ebd
000003e0: b562 94bd 331e 9c3e 2096 79bd 3387 2bbe
000003f0: 44a6 9dbd 6cfb 0f3d 984a 00be 354f cdbd
-0.06430845 -0.31975955 -0.0031327605 -0.19289468 -0.099695005 0.21293859 0.022064745 -0.029688956
0.30338228 0.04315032 0.23253374 -0.14562786 -0.08062405 -0.057688788 0.15661663 0.052579958
-0.054297265 -0.207008 -0.06592553 0.12071695 -0.085125044 0.16011862 -0.06051303 -0.009215834
0.1048716 0.11400301 0.0691493 -0.37237903 0.04269364 0.10885526 0.017787285 0.3484519
0.049282495 0.2148108 -0.09084188 -0.017174065 -0.2987253 -0.055105135 -0.13451183 0.32710811
0.21850273 0.10540966 0.0018434017 0.048431255 -0.21447101 -0.011738729 -0.14609255 0.02465294
0.08096829 -0.027176874 0.13382071 0.018805293 -0.16418312 0.147548 0.11391895 0.24990773
0.074117556 -0.08063415 0.12121168 -0.045635354 -0.31064546 0.06620096 -0.06640659 -0.08202313
0.14041807 0.16996183 -0.08672203 0.098809175 -0.011271155 0.16981494 -0.016779397 -0.04049775
-0.14808485 0.071634054 0.17039621 -0.14518775 0.02008737 0.05141189 -0.1483306 -0.08842994
-0.009704134 0.34765488 0.38264403 0.22202566 0.051268734 0.06734298 0.045666073 0.08900368
-0.057642337 -0.13781475 0.37533012 0.10092441 -0.19968614 0.024196822 0.108227246 0.07071951
0.41328186 0.15362631 -0.06322602 0.083577424 0.04693973 -0.15911897 -0.03524733 0.08533904
0.05088158 0.20473732 -0.039832786 0.006785934 -0.1007043 -0.079532005 -0.2346171 0.044018585
-0.027861994 0.16246952 0.11679189 -0.43211964 0.007515188 -0.08451024 -0.12848589 0.12965594
-0.13819045 0.007010904 0.14753504 0.26772696 -0.045456674 0.07601197 0.29542726 0.012478519
0.08671492 0.45933512 0.087733656 -0.15224029 0.028149797 -0.08221038 0.0187164 -0.07179225
0.009013206 0.5015222 -0.13504231 0.062299076 -0.07217335 -0.153293 -0.07270708 -0.108191356
-0.101771034 0.14134182 0.13502568 -0.16953824 -0.09500036 0.1055119 -0.13675204 -0.24880756
-0.11699987 -0.049066346 -0.1836954 0.09425375 0.11118376 -0.11766667 0.0981703 0.18219127
0.17778552 -0.22152187 0.14083694 -0.03580661 0.112168565 0.113831036 -0.08670264 -0.23997316
-0.3019106 -0.11948513 -0.082253315 0.009732039 0.17842719 0.021665085 0.09227457 -0.26510012
0.336337 -0.076845735 0.07808006 0.056907825 -0.22987273 -0.13277158 -0.15236475 -0.124721214
-0.18870963 4.527344e-05 -0.08526742 0.09310189 -0.098729275 0.05902983 -0.044132814 -0.009927468
-0.016514147 0.023408135 0.055118866 0.20508997 0.22213979 0.07369368 0.09245242 -0.09291756
0.014228456 -0.026081 0.08266846 0.37905702 -0.10106996 0.23568396 0.18610823 0.14245698
-0.114847645 0.023473196 0.006284126 -0.13554579 0.05215948 -0.19205265 0.37856242 -0.15298449
0.15179937 0.2958794 -0.18631019 0.114667065 -0.053413555 0.062250357 0.093925565 0.16752519
0.07595233 0.18954255 -0.1035536 0.02040477 0.24737257 0.08585662 -0.03562871 0.3717907
-0.062267516 -0.16868138 0.10572248 0.14908417 0.035671506 -0.010567423 0.17060003 -0.06759838
-0.104154654 -0.009305035 -0.19188182 0.31684488 0.16716397 0.207223 0.18944624 -0.06947458
-0.07245389 0.3049179 -0.060934186 -0.16750793 -0.07697728 0.035151884 -0.12528455 -0.10024873
