results/rdesktop_run_001/Robotarm/Robotarm-4499996.onnx (onnx, 147507 bytes, 9 tensors)

action_model._continuous_distribution.log_sigma f4 [1, 5]
0	0xc056222c	-3.3458357
1	0xc04024ea	-3.002253
2	0xc03a6351	-2.9123118
3	0xbfa90dcc	-1.3207335
4	0xbf688ee2	-0.9084302

action_model._continuous_distribution.mu.bias f4 [5]
0	0x3d30fcce	0.043209843
1	0x3da7729e	0.08176158
2	0xbd1fbaee	-0.03899663
3	0xbdfb7d8a	-0.12279804
4	0x3dad58aa	0.08464177

action_model._continuous_distribution.mu.weight f4 [5, 128]
0	0xbd1f5c1a	-0.038906194
1	0x39969902	0.0002872423
2	0x3d199c08	0.03750232
3	0xbcf2a456	-0.029619377
4	0x3b6dd1d6	0.0036288402
5	0x3dceec42	0.10103656
6	0xbd73c72a	-0.05951611
7	0xbd6f3835	-0.058403213
8	0xbccab51e	-0.024744567
9	0xbce2e872	-0.02769873
10	0x3cf6442a	0.0300618
11	0xbd6192c3	-0.055071604
12	0xbd6bac56	-0.0575374
13	0x3d893e4a	0.06701334
14	0xbe0d731e	-0.13813445
15	0xbca2960d	-0.01984694
16	0x3d1ea494	0.038731173
17	0xb97c5acb	-0.00024066416
18	0xbc60a393	-0.013710874
19	0x3bb99487	0.005663458
20	0xbc6a828a	-0.0143133495
21	0xbd27311e	-0.040818326
22	0xbcf45659	-0.02982633
23	0xbca65d51	-0.020308169
24	0xbd22e32b	-0.039767426
25	0xbd06a618	-0.032873243
26	0x3a246957	0.00062718004
27	0xbcd0e194	-0.025498189
28	0xbd22ee94	-0.039778307
29	0xbd2e9cae	-0.04262989
30	0xbd01e1e4	-0.031709567
31	0xbd5ff076	-0.05467268
32	0xbcd62991	-0.026142867
33	0xbd2324c2	-0.039829977
34	0x3cac5d53	0.021040594
35	0xbb7b8257	-0.003837725
36	0xbd85947f	-0.06522464
37	0x3df94543	0.12171414
38	0xbbb9c54b	-0.005669271
39	0xbdc2324e	-0.09482251
40	0x3c18e0ed	0.00933097
41	0x3d1ff4c4	0.039051786
42	0xbda38448	-0.07984215
43	0xbc9f0f73	-0.019416546
44	0xbd7eb66b	-0.062185686
45	0x3c449e08	0.012000568
46	0x3bcb3f35	0.006202603
47	0xbc2b265c	-0.010446157
48	0xbb5c368e	-0.0033601853
49	0xbd81d6d5	-0.06339804
50	0xbbd47633	-0.006483817
51	0xbd457e8d	-0.04821639
52	0x3cceff7d	0.02526831
53	0x3d273771	0.040824357
54	0xbd268a9a	-0.040659525
55	0x3d643e4e	0.05572348
56	0x3d051d59	0.03249869
57	0x3d4db054	0.050216988
58	0xbc77ca0f	-0.015123858
59	0x3cf5db5e	0.030011829
60	0xbccab86a	-0.024746139
61	0x3d3058b2	0.043053336
62	0xbc3227df	-0.010873764
63	0x3c1176fc	0.008878466
64	0xbc9ba63b	-0.019000163
65	0xbd1645ad	-0.03668754
66	0xbd3110cb	-0.043228906
67	0x3d84f226	0.06491499
68	0x3b46efe5	0.003035539
69	0xbc9f9a7e	-0.019482847
70	0xbc484c5f	-0.01222524
71	0x3d477cf9	0.048703168
72	0xbd36885b	-0.044563632
73	0x3d48418c	0.048890635
74	0xbbbf5898	-0.0058394186
75	0x3cd28220	0.025696814
76	0xbbbc2f76	-0.0057429625
77	0xbd6347ac	-0.055488274
78	0xbc52f27d	-0.0128751965
79	0xbd3d5dc3	-0.046231996
80	0x3d155183	0.03645469
81	0xbc2302d7	-0.009949408
82	0x3c623371	0.01380621
83	0xbd4390b7	-0.047745433
84	0x3c1fde63	0.009757611
85	0xbc6daf39	-0.014507108
86	0x3d0c5d61	0.03426874
87	0xbc8da1a5	-0.017288992
88	0xbae9079f	-0.001777876
89	0x3d94b5e8	0.07261258
90	0xb99d05c5	-0.00029949672
91	0x3d66fce3	0.056393515
92	0xbc6c1607	-0.014409549
93	0x3dbcf56c	0.09226498
94	0xbd8403a1	-0.06446005
95	0x3b9c6ed4	0.004773954
96	0xbd258891	-0.040413443
97	0xbd26aec5	-0.040694017
98	0xbcedf3d7	-0.029046936
99	0x3d10ff2e	0.03539961
100	0xbcf27a58	-0.029599354
101	0xbcb41f84	-0.021987684
102	0xbd32958a	-0.043599643
103	0x3cc48cd0	0.023992926
104	0x3c6c1fe4	0.0144119
105	0x3ce381f4	0.027771927
106	0x3d54d35b	0.051959377
107	0xbcd3660d	-0.025805498
108	0xbc10ec89	-0.008845457
109	0xbc3fe07d	-0.011711237
110	0xbb20cfb9	-0.0024537875
111	0x3d001dee	0.031278543
112	0x3c2cddbb	0.010550912
113	0x3cb1df6a	0.021712977
114	0xbc7572d2	-0.014980989
115	0x3c008abc	0.007845577
116	0xbceaaeef	-0.028647868
117	0xbb04ea7d	-0.0020281367
118	0x3cb0d78e	0.02158716
119	0xbaf76c34	-0.0018876852
120	0x3c006c18	0.007838272
121	0xba96935e	-0.0011488011
122	0x3c9d2556	0.019182842
123	0x3da83e1a	0.0821497
124	0xbd07a782	-0.033118732
125	0xbb372297	-0.00279442
126	0xbd1f1909	-0.038842235
127	0x3d5e4f80	0.054275036
128	0xbdc8e39f	-0.0980904
129	0xbda73795	-0.08164898
130	0x3d08bef6	0.03338524
131	0xbdbb76af	-0.091534965
132	0xbc83f8fc	-0.016109936
133	0xbcb2fe25	-0.021849701
134	0xbdb961d7	-0.090518646
135	0xbdbffc05	-0.09374241
136	0x3cd4aa0d	0.025959993
137	0xbda99b99	-0.08281631
138	0xbc4afec9	-0.012389847
139	0x3cc9c08e	0.02462795
140	0xbd905087	-0.07046609
141	0xbe0ae4bd	-0.13563819
142	0x3e29e9ad	0.16593046
143	0xbdae893f	-0.08522271
144	0x3e071ef7	0.13195406
145	0x3aad0b92	0.0013202301
146	0xbdac6aa1	-0.08418775
147	0xbc30c8bf	-0.010790049
148	0x3c862ea4	0.016379662
149	0xbd91145a	-0.0708396
150	0xbd71ed21	-0.059064034
151	0xbb155a38	-0.002278937
152	0x3bd66967	0.0065433267
153	0xbdbb5dc8	-0.09148747
154	0xbe105316	-0.14094195
155	0xbe1323bf	-0.14369105
156	0xbddc059c	-0.107432574
157	0x3cbc5093	0.02298764
158	0x3db457c6	0.08805804
159	0x3d062929	0.032754097
160	0xbdc13187	-0.09433275
161	0xbdd9471f	-0.106092684
162	0xbdadbe95	-0.08483616
163	0xbdd1d426	-0.10245542
164	0x3d77dff0	0.060516298
165	0xbcce3efc	-0.025176518
166	0x3d54562c	0.051839992
167	0x3d87d3bb	0.06632181
168	0x3bfb7a8e	0.0076745218
169	0x3d33e924	0.043923512
170	0xbc12a6fb	-0.008950944
171	0xbce41145	-0.027840266
172	0x3e1676e3	0.14693789
173	0xbc4aa0e2	-0.012367459
174	0xbb5c4245	-0.0033608836
175	0x3d7adcb1	0.061245624
176	0xbcde5eff	-0.027144907
177	0xbdfea80d	-0.12434397
178	0x3da69d9e	0.08135532
179	0xbe02b18b	-0.1276304
180	0x3d84b3ec	0.0647963
181	0x3d19a5c2	0.037511595
182	0x3d08e5ee	0.033422403
183	0x3d0acac7	0.03388479
184	0xbd330b34	-0.043711856
185	0x3d9497f5	0.07255546
186	0xbde3bde3	-0.111202024
187	0x3d21f5ca	0.039541043
188	0xbdd273be	-0.10275982
189	0x3d8b0687	0.06788354
190	0xbdf6a051	-0.12042297
191	0x3d2403eb	0.0400428
192	0xbde68e15	-0.11257569
193	0xbdd92585	-0.106028594
194	0xbdc88ebd	-0.0979285
195	0xbd854c0d	-0.06508646
196	0x3d36e1c6	0.044648908
197	0x3bc5a325	0.0060314112
198	0xbda5fbc6	-0.081046626
199	0x3c196a25	0.009363686
200	0xbdb8f39a	-0.09030838
201	0xbe1903bc	-0.14942831
202	0x3bb6e8b2	0.0055819387
203	0x3d0936b5	0.03349944
204	0x3bdbf5d2	0.0067126537
205	0x3d8a79fa	0.067615464
206	0x3d1ce51f	0.038304444
207	0xbddb8704	-0.107191116
208	0x3d6ddedb	0.05807386
209	0xbbe32d84	-0.006932916
210	0x3d3187c8	0.04334238
211	0xbd80c8b7	-0.06288283
212	0x3e310204	0.17285925
213	0xbc255c22	-0.010092767
214	0x3cd8da4a	0.026471276
215	0xbda20840	-0.0791173
216	0x3c51a9f0	0.012796864
217	0xbdc420cb	-0.09576567
218	0xbd998034	-0.07495156
219	0x3d42799d	0.04747926
220	0x3c0cdb99	0.008597278
221	0xbdcaa532	-0.0989479
222	0x3d79958f	0.060933646
223	0x3cfabd86	0.03060795
224	0xbe00ba4b	-0.12571065
225	0xbd8f3b6b	-0.06993755
226	0xbd9068d2	-0.07051243
227	0x3cacb7d2	0.021083746
228	0xbdafcb93	-0.085837506
229	0xba057379	-0.0005090754
230	0xbdd99ddb	-0.10625812
231	0x3d76d60d	0.06026273
232	0x3ceb6214	0.02873329
233	0x3cfbcad7	0.03073637
234	0x3d9b581d	0.07585166
235	0xbdaf3a9d	-0.085561015
236	0x3ae642d8	0.0017567528
237	0x3b0f3c00	0.002185583
238	0x3cb8b926	0.022549223
239	0x3c743dad	0.014907283
240	0xbd3303e4	-0.043704882
241	0x3b3a7e31	0.0028456564
242	0xbda0257c	-0.078196496
243	0x3c3c3108	0.011486299
244	0xbda014f8	-0.078164995
245	0x3bb517ad	0.005526504
246	0x3c96fd0a	0.018431205
247	0x3b7bcfeb	0.003842349
248	0x3cf4d545	0.029886851
249	0x3c861038	0.016365156
250	0x3bc515ee	0.006014577
251	0xbc8fb794	-0.017543592
252	0xbdd8bdcf	-0.10583078
253	0xbd811758	-0.063032806
254	0xbddd3786	-0.10801606
255	0x3de3b401	0.111183174

network_body.linear_encoder.seq_layers.0.bias f4 [128]
0	0x3ce19438	0.027536497
1	0x3daa2282	0.08307363
2	0xbd01e4ef	-0.03171247
3	0xbcbcf211	-0.023064645
4	0x3cf1d58e	0.029520776
5	0xbd152cee	-0.0364198
6	0x3baf819c	0.005356027
7	0x3d93497b	0.0719175
8	0x3bf2d2dd	0.007410391
9	0x3da737cb	0.081649385
10	0x3d7444f1	0.05963606
11	0xbd2eba33	-0.042658042
12	0xbd01416c	-0.03155653
13	0x3b51128d	0.0031901926
14	0x3c9994bd	0.018747682
15	0xbc909a05	-0.017651567
16	0x3dfca6cb	0.12336501
17	0x3d7c49ed	0.06159394
18	0xbdc5b8f4	-0.09654418
19	0xbc9fa3e3	-0.019487327
20	0x3d01d2cb	0.03169517
21	0x3ca3b179	0.019982086
22	0x3e0f4a77	0.1399325
23	0x3dc47c92	0.095940724
24	0x3d73c101	0.059510235
25	0xbda3b55c	-0.07993576
26	0x3cfad490	0.030618936
27	0xbddf6a79	-0.1090898
28	0x3a105af9	0.000550672
29	0x3d94aab9	0.07259125
30	0xbe0268f8	-0.12735355
31	0x3dd4e9f0	0.103961825
32	0xbce88a32	-0.02838621
33	0x3dad2492	0.08454241
34	0xbcfa09be	-0.030522224
35	0x3d458308	0.048220664
36	0xbc612613	-0.013741988
37	0x3d7495c5	0.059713144
38	0x3d5adb15	0.05343159
39	0xbc67c04b	-0.014144967
40	0x3dd2ee22	0.102993265
41	0x3dc10ac8	0.094258845
42	0x3d0d7270	0.034532964
43	0x3d38f346	0.04515388
44	0xbd8978c9	-0.06712491
45	0xbe18dff5	-0.14929183
46	0xbc6748f4	-0.0141165145
47	0x3d373e1f	0.044736978
48	0x3d6f61be	0.058442824
49	0x3d8aa068	0.06768876
50	0x3d5a64c0	0.05331874
51	0x3e223497	0.15840374
52	0x3de1c0bc	0.11023089
53	0x3cf10017	0.029418988
54	0x3dc8cd17	0.09804743
55	0xbcce4bfe	-0.02518272
56	0xbc0afee0	-0.0084836185
57	0x3ccfbf6c	0.025359832
58	0x3dd572e2	0.10422303
59	0x3d8d5d80	0.06902599
60	0x3e1fc17c	0.15601152
61	0x3d777033	0.060409736
62	0x3da7271c	0.081617564
63	0x3ca32876	0.019916754
64	0x3c83f27e	0.01610684
65	0x3db1d194	0.08682552
66	0x3d4e0d14	0.05030544
67	0x3d13b4d8	0.036061138
68	0x3bd43b25	0.006476777
69	0x3dbb950d	0.091592886
70	0x3da7b212	0.08188261
71	0x3c0e7eda	0.008697236
72	0x3d166220	0.036714673
73	0x3c75bb80	0.014998317
74	0x3d9b406c	0.07580647
75	0xbd8579ec	-0.065173954
76	0x3b099a1e	0.0020996402
77	0x3e002e2a	0.1251761
78	0x3d390770	0.04517311
79	0xbcf3d67b	-0.029765358
80	0x3ddd474f	0.10804617
81	0x3aa87e73	0.0012855068
82	0x3d497cb4	0.04919119
83	0xbd639d2e	-0.05556982
84	0xbcd61173	-0.026131367
85	0x3d4d6efb	0.050154667
86	0xbd02eb33	-0.031962585
87	0xbd0785d8	-0.033086628
88	0xba535fbb	-0.0008063276
89	0x3d2dc638	0.042425364
90	0xbd13a5c3	-0.036046755
91	0x3d751cc0	0.05984187
92	0x3ca3991a	0.019970465
93	0xbca4f07a	-0.0201342
94	0xbda78fb7	-0.08181708
95	0xbb811f3b	-0.0039404905
96	0x3e23549f	0.15950249
97	0xbd8c8b8b	-0.06862553
98	0x3d5e4099	0.054260824
99	0xbc3c6473	-0.011498558
100	0x3d8465f6	0.0646476
101	0x3dd1bb10	0.102407575
102	0x3c480b6f	0.012209757
103	0x3af34649	0.0018560375
104	0x3d441309	0.047869716
105	0x3d0b2a74	0.033976033
106	0x3d8bda07	0.06828695
107	0x3d6614d4	0.056172207
108	0xbd421491	-0.047382895
109	0x3ce80fbd	0.028327817
110	0x3da0fa29	0.07860214
111	0x3dca609a	0.098817065
112	0x3d84546e	0.06461416
113	0xbc798496	-0.015229365
114	0x3da83019	0.08212299
115	0x3dceff83	0.10107329
116	0xbd617e41	-0.055052046
117	0x3d558d58	0.05213675
118	0xbd64b22a	-0.055833973
119	0xbd0dc093	-0.03460748
120	0x3d4e96f8	0.050436944
121	0x3d848198	0.064700305
122	0x3d8f95e8	0.07011014
123	0x3d4fae0c	0.050703093
124	0x3d92f8d3	0.07176366
125	0xbbddb84c	-0.0067663547
126	0xbca74b2b	-0.020421585
127	0x3d7ac38e	0.06122165

network_body.linear_encoder.seq_layers.0.weight f4 [128, 19]
0	0xbf0e5d35	-0.5561097
1	0xbe7a7927	-0.24460278
2	0x3f028f38	0.50999784
3	0x3d9eebd3	0.07759824
4	0x3ea9e379	0.3318136
5	0x3d0fddf0	0.035123765
6	0x3c9eee01	0.019400598
7	0x3e4b018d	0.1982481
8	0xbd818fbc	-0.06326243
9	0xbde22b29	-0.110433884
10	0xbe9fa6fd	-0.3118209
11	0xbea71e23	-0.3264018
12	0xbe8c7dbd	-0.2743968
13	0x3ee0168a	0.43767196
14	0xbe6d5548	-0.23177063
15	0xbe6af3af	-0.2294452
16	0xbd3b72d4	-0.045763806
17	0x3ebaca21	0.36482337
18	0xbdf37fee	-0.11889635
19	0x3e036818	0.12832677
20	0xbf149be9	-0.580504
21	0xbe1650ba	-0.14679232
22	0x3ee0a9d3	0.43879566
23	0x3e432298	0.19056165
24	0xbede22ac	-0.43385828
25	0x3e27ae05	0.16374977
26	0x3d004055	0.03131135
27	0xbe8cd61a	-0.27507097
28	0x3e07f22c	0.13275975
29	0x3ccb2667	0.024798585
30	0xbe877e10	-0.26463366
31	0x3d893f27	0.067014985
32	0xbe33018c	-0.17481059
33	0x3e9f2bef	0.31088206
34	0x3e5f90e1	0.2183261
35	0x3df4ae8f	0.11947357
36	0xbea8acb6	-0.32944268
37	0x3d9e307d	0.07724092
38	0xbea39ced	-0.31955662
39	0xbdc5f424	-0.09665707
40	0xbda2a576	-0.079417154
41	0x3e792e70	0.24334121
42	0xbe5644f4	-0.20924741
43	0x3d620f46	0.055190347
44	0xbe9057bf	-0.28191945
45	0xbefa4d7e	-0.48887247
46	0x3e893152	0.2679544
47	0x3e4be07f	0.19909857
48	0xbe01a835	-0.12661822
49	0x3ba16314	0.004925141
50	0x3dc3ba0d	0.09556971
51	0x3f07f554	0.53108716
52	0xbd33f838	-0.04393789
53	0x3dfba8a0	0.12288022
54	0xbdb280be	-0.08715962
55	0xbe91c749	-0.28472355
56	0xbdf3611e	-0.11883758
57	0xbdc90d07	-0.09816938
58	0xbe86c208	-0.2631991
59	0x3e08efd0	0.13372731
60	0x3e2f3d14	0.17113143
61	0x3dcb90ea	0.099397495
62	0x3e7303a7	0.23731862
63	0xbbfa234d	-0.0076336027
64	0xbda97401	-0.08274079
65	0x3e07a389	0.13245977
66	0xbec00d0b	-0.3750995
67	0x3e525753	0.20541124
68	0xbf01509f	-0.50513643
69	0x3e746b21	0.23868991
70	0xbe133636	-0.14376149
71	0x3dfbc2c2	0.122930065
72	0xbddf5ccb	-0.10906371
73	0xbdf461e2	-0.11932732
74	0x3eedd1ff	0.46449277
75	0x3df9fd84	0.122065574
76	0xbd210f0b	-0.039320987
77	0xbc09f540	-0.008420289
78	0xbe69ff95	-0.22851403
79	0xbe3bc3d8	-0.18336427
80	0x3de69e53	0.11260667
81	0xbd844a7e	-0.06459521
82	0xbea58a76	-0.323322
83	0xbe645b72	-0.22300509
84	0x3e11266b	0.14174812
85	0xbdcdcfa5	-0.10049371
86	0xbca23728	-0.019801691
87	0xbe8d3cc5	-0.27585426
88	0xbdfb4aaa	-0.122701004
89	0xbeb520c5	-0.35376564
90	0x3e3fc1f0	0.18726325
91	0x3d1eaf3a	0.038741328
92	0x3ea0863e	0.3135242
93	0x3e13b1de	0.1442332
94	0x3dff14ee	0.12455164
95	0xbdec9a11	-0.11552823
96	0xbec782ac	-0.38966882
97	0x3ee5bbba	0.44869787
98	0x3ee25c94	0.44211257
99	0x3d9bb911	0.07603658
100	0x3d686e95	0.056746084
101	0x3da025d7	0.078197174
102	0x3e030dae	0.12798187
103	0x3e2cfc30	0.16893077
104	0x3e2d2104	0.16907126
105	0xbea7048a	-0.3262065
106	0xbe23dcab	-0.16002147
107	0xbd3f0ddc	-0.046644077
108	0xbdfdbbd3	-0.1238934
109	0xbd0d34ea	-0.03447429
110	0xbdeeb7e3	-0.11656167
111	0xbd000ee4	-0.0312642
112	0xbdbd91c9	-0.09256322
113	0x3e7b7ef5	0.24560149
114	0xbe3d7a79	-0.18503751
115	0xbe2bde2f	-0.16783975
116	0xbdb282c4	-0.08716348
117	0x3e0d2dec	0.13787049
118	0x3e006da5	0.12541826
119	0x3ebe70c6	0.37195414
120	0x3c6fd7f5	0.0146388905
121	0x3e82ef1c	0.2557305
122	0x3a701d92	0.000915968
123	0x3d91b740	0.0711503
124	0xbe526b3b	-0.20548718
125	0x3e21fcab	0.15819041
126	0xbea48477	-0.32132313
127	0x3ee4fe03	0.44725046
128	0x3dfdedb4	0.12398854
129	0xbe0796c1	-0.13241102
130	0x3dc5b6df	0.096540205
131	0xbdc6b963	-0.097033285
132	0xbd14de4f	-0.036344822
133	0x3d42b747	0.04753807
134	0xbdbfe0d9	-0.09369058
135	0xbecb817d	-0.3974723
136	0xbc139b06	-0.009009128
137	0xbe3e106c	-0.18560952
138	0x3eb568e3	0.35431585
139	0xbbbd8b0f	-0.0057843993
140	0x3e8fdefa	0.28099805
141	0xbeade3ff	-0.3396301
142	0x3c1b49dd	0.00947806
143	0xbe14e3a9	-0.1453997
144	0x3de729e7	0.11287289
145	0xbd148116	-0.03625592
146	0xbe851219	-0.2599037
147	0x3ebcd349	0.36879948
148	0xbee46ddd	-0.4461507
149	0x3ea08db2	0.31358105
150	0xbd91e54f	-0.07123815
151	0xbe885005	-0.2662355
152	0x3d692363	0.056918513
153	0xbb9d327a	-0.004797277
154	0x3e48d430	0.19612193
155	0x3ed0272c	0.40654886
156	0xbe57e814	-0.21084625
157	0xbf0a9083	-0.5412676
158	0xbb7e996b	-0.0038848768
159	0x3e866a98	0.262532
160	0xbdd4e391	-0.10394967
161	0x3be4f626	0.006987351
162	0x3dc019d7	0.093799286
163	0xbeaf9494	-0.34293044
164	0xbe733fc3	-0.23754792
165	0x3e6d48b8	0.23172271
166	0x3d98b96e	0.07457243
167	0xbeb4ebea	-0.35336238
168	0x3eb7874a	0.35845405
169	0x3ee8ea3c	0.45491207
170	0x3f1887d8	0.5958228
171	0x3cb96b25	0.022634098
172	0x3ea5da3a	0.32393056
173	0xbe2d9fa4	-0.1695543
174	0xbccbdfc3	-0.024886971
175	0xbea1010b	-0.31446108
176	0x3e873018	0.2640388
177	0xbdd5c2b5	-0.10437528
178	0xbddabc50	-0.10680449
179	0xbe21d46f	-0.15803693
180	0x3e0ad693	0.13558416
181	0x3e8821eb	0.26588377
182	0x3ea50ad8	0.32234836
183	0xbc5aad7b	-0.013347025
184	0xbdd5325c	-0.10409996
185	0x3da30aea	0.07961066
186	0x3ecf2c03	0.40463266
187	0x3dc7c2b4	0.097539335
188	0x3dac67c6	0.08418231
189	0x3ea0f951	0.31440213
190	0x3ea935b0	0.33048773
191	0xbe20a727	-0.15688764
192	0xbdfc91bc	-0.12332484
193	0xbef42d85	-0.4769098
194	0x3da92926	0.082598016
195	0x3e289896	0.16464457
196	0x3e41b75d	0.18917604
197	0x3da12dd6	0.07870071
198	0x3e31f6fc	0.17379373
199	0x3e778c38	0.24174583
200	0xbf40e5fa	-0.75350916
201	0xbe0c0e99	-0.13677444
202	0xbe17cc98	-0.1482414
203	0xbe16d8b1	-0.14731099
204	0x3ed07d0c	0.40720403
205	0xbddf2be7	-0.108970456
206	0xbe488462	-0.1958175
207	0xbea2f39d	-0.31826487
208	0xbd8cc85a	-0.068741515
209	0xbe83b033	-0.25720367
210	0xbe4e67ad	-0.20156737
211	0x3cb3dd66	0.021956157
212	0x3ec3b6fd	0.38225546
213	0x3d905570	0.07047546
214	0xbe52acd0	-0.20573735
215	0x3e5701b4	0.20996743
216	0x3e0b3226	0.13593349
217	0xbe1612c3	-0.14655595
218	0x3df3f54a	0.119120196
219	0x3e004f3d	0.12530227
220	0x3df42139	0.11920399
221	0x3d58d741	0.052939657
222	0x3ccca97a	0.024983156
223	0xbca048e1	-0.019566001
224	0xbd64c815	-0.055854876
225	0xbf2c3803	-0.6727297
226	0xbe237ee2	-0.1596637
227	0xbe7d9fc6	-0.2476798
228	0xbe8db345	-0.27675834
229	0xbd69b0c6	-0.05705335
230	0x3d92cdc7	0.07168155
231	0xbd9673f5	-0.07346336
232	0x3e53469d	0.20632406
233	0x3d247598	0.04015121
234	0x3ef91e78	0.48656058
235	0x3e8ad48b	0.27115282
236	0xbda70228	-0.08154708
237	0xbe2a9090	-0.16656709
238	0xbebfa91c	-0.37433708
239	0x3e39708b	0.18109338
240	0xbe4b338e	-0.19843885
241	0xbe473291	-0.19452883
242	0xbe7eb7b6	-0.24874768
243	0x3d6b5150	0.057450593
244	0xbe8d4851	-0.27594236
245	0xbde47574	-0.11155215
246	0xbe9542b9	-0.29152468
247	0xbeb3f9de	-0.3515157
248	0xbeb432aa	-0.35194904
249	0xbee669a6	-0.45002478
250	0x3df5a0c4	0.11993554
251	0xbd1099ae	-0.03530281
252	0xbca06a93	-0.019582069
253	0xbc2e9b04	-0.010657076
254	0xbdc5b946	-0.09654479
255	0x3e854cf0	0.2603526

network_body.linear_encoder.seq_layers.2.bias f4 [128]
0	0x3d080162	0.033204444
1	0xbe1de6f3	-0.15420131
2	0x3d50175e	0.050803535
3	0x3d6d709a	0.057968713
4	0xbc82c9ae	-0.015965309
5	0xbd357a01	-0.044305805
6	0x3d749629	0.059713516
7	0x3d856404	0.06513217
8	0xbd9315c1	-0.071818836
9	0x3d083fc4	0.033263937
10	0x3d53983a	0.051658846
11	0xbd8967a8	-0.06709224
12	0xbd9211eb	-0.07132324
13	0x3d8687aa	0.065688446
14	0xbe11fd56	-0.14256796
15	0x3cf68011	0.030090364
16	0x3d4fecf4	0.050763085
17	0x3d371e0e	0.044706397
18	0x3d459751	0.04824001
19	0xbdbc2910	-0.091875196
20	0x3d2606eb	0.04053394
21	0xbdfffb12	-0.1249906
22	0xbe1194b7	-0.14216886
23	0x3d8e3957	0.069445305
24	0x3d8f8d76	0.070094034
25	0x3d11a39d	0.035556424
26	0x3d924d0e	0.07143603
27	0x3d0888c2	0.033333547
28	0xbdb9c904	-0.09071544
29	0xbe01e3a0	-0.12684488
30	0x3d4f09a6	0.05054631
31	0xbe0858b4	-0.13315088
32	0x3d18b096	0.03727778
33	0xbe1215b2	-0.14266089
34	0xbe059697	-0.13045727
35	0x3d95fc3c	0.073235005
36	0xbdb099ee	-0.0862311
37	0x3d28dcd5	0.041226227
38	0x3d1d556f	0.038411554
39	0xbd510501	-0.051030163
40	0x3d647464	0.05577506
41	0x3d3701c2	0.04467941
42	0x3d4142b3	0.04718275
43	0x3d2dca2a	0.042429127
44	0x3d74311d	0.05961715
45	0x3d76ab30	0.06022185
46	0xbe034e7b	-0.12822907
47	0x3d958edd	0.0730264
48	0x3ce8a62c	0.02839955
49	0x3d99de7d	0.075131394
50	0xbe0f2e18	-0.13982427
51	0xbe032d71	-0.12810303
52	0xbdeee60d	-0.116649725
53	0x3d67d553	0.056599926
54	0xbe298126	-0.16553172
55	0x3b710dde	0.0036781947
56	0xbe185b08	-0.14878476
57	0x3d1b016d	0.037843157
58	0x3daadb2b	0.08342584
59	0x3d6a3209	0.057176623
60	0xbdf01639	-0.11722989
61	0x3d5c4e2c	0.053785488
62	0xbe00e500	-0.12587357
63	0x3d81f7d7	0.063461
64	0xbd4e976a	-0.05043737
65	0x3d453172	0.048142858
66	0x3d8bb798	0.06822127
67	0xbdded80e	-0.10881053
68	0xbdd4e4de	-0.103952155
69	0x3d8ad0cc	0.06778106
70	0x3d16e318	0.036837667
71	0xbe07cbff	-0.13261412
72	0x3cb8d644	0.022563107
73	0xbe159224	-0.1460653
74	0x3ce4ebb5	0.027944425
75	0x3d8de5fc	0.06928632
76	0xbd9ab428	-0.07553893
77	0xbdc36002	-0.095397964
78	0x3da69554	0.08133951
79	0xbdfcd89f	-0.12346005
80	0xbdf67129	-0.12033302
81	0x3d959d78	0.073054254
82	0x3cf38e49	0.029730933
83	0x3d4bdeb0	0.04977292
84	0x3bf78559	0.007553738
85	0xbe201906	-0.15634546
86	0xbe1080f3	-0.1411169
87	0x3d137e0d	0.036008883
88	0x3d5ac37f	0.053409096
89	0x3d6e7422	0.05821622
90	0xbd74ca78	-0.0597634
91	0x3d8073d6	0.06272094
92	0xbd8942ec	-0.067022175
93	0xbe09b180	-0.13446617
94	0xbc312121	-0.010811121
95	0xbe0b10f8	-0.13580692
96	0x3d10f0fb	0.035386067
97	0x3d431fa8	0.04763761
98	0xbde5e607	-0.11225515
99	0x3c96381a	0.018337298
100	0x3d72f796	0.059318148
101	0x3da823eb	0.08209976
102	0x3c5fe1c9	0.013664671
103	0x3daa5656	0.083172485
104	0xbe0921fb	-0.13391869
105	0xbdaf4110	-0.085573316
106	0x3d21d6c8	0.039511472
107	0xbd32f3ff	-0.043689724
108	0x3d05d30a	0.032671966
109	0x3d8a12a2	0.06741835
110	0x3d0cbdec	0.03436081
111	0xbde9dbfe	-0.11418913
112	0x3d82c470	0.06385124
113	0x3d597913	0.05309398
114	0xbe15c77f	-0.14626883
115	0x3c983b79	0.018583046
116	0x3d2e61f0	0.04257387
117	0x3db47f13	0.088133
118	0xbdd12ed2	-0.102140084
119	0x3c553746	0.0130136665
120	0xbe0e052a	-0.13869157
121	0xbd35e717	-0.044409838
122	0xbdc105a0	-0.09424901
123	0xbe093da2	-0.13402417
124	0x3c954a5b	0.018223932
125	0x3d2ab833	0.041679572
126	0xbdd5120e	-0.10403834
127	0xbe0dec52	-0.1385968

network_body.linear_encoder.seq_layers.2.weight f4 [128, 128]
0	0x3c837d9b	0.016051104
1	0xbcbff7a3	-0.023433512
2	0x3d6c3e74	0.057676747
3	0x3d2f6297	0.042818632
4	0x3e47f143	0.19525628
5	0xbd82f526	-0.063944146
6	0x3d903c45	0.070427455
7	0x3e072465	0.13197477
8	0x3d928550	0.071543336
9	0xbe019937	-0.12656103
10	0x3da004b2	0.078133956
11	0xbe1c09ab	-0.15238063
12	0xbe050419	-0.12989844
13	0x3e9c0150	0.3046975
14	0xbe27ef2e	-0.16399834
15	0x3d53cd01	0.05170918
16	0xbe23db77	-0.16001688
17	0x3e05434f	0.13013957
18	0x3d901f10	0.07037175
19	0x3e0a36c3	0.13497452
20	0x3e212db8	0.15740097
21	0xbe176218	-0.14783514
22	0xbd73c493	-0.05951364
23	0xbe09b377	-0.13447367
24	0x3e241fbb	0.16027729
25	0x3d9852b4	0.07437649
26	0x3c4b3c43	0.012404504
27	0x3d4070ea	0.046982683
28	0x3d3510b5	0.044205386
29	0x3cbfe59d	0.023424918
30	0x3d98574f	0.07438528
31	0xbe118592	-0.1421111
32	0x3e164118	0.14673269
33	0xbc122e20	-0.00892213
34	0xbb58b13e	-0.003306463
35	0x3daf9776	0.08573811
36	0x3abd6879	0.0014450691
37	0x3d0d521d	0.034502137
38	0x3df6cb58	0.120505035
39	0x3c98c047	0.018646372
40	0x3d698554	0.057011917
41	0x3d99cadb	0.07509395
42	0xbc82b2c5	-0.015954385
43	0x3d6240d1	0.055237595
44	0xbd840c2e	-0.064476356
45	0x3c7abffd	0.015304563
46	0x3cc20e42	0.02368844
47	0xbc9bc5b6	-0.019015174
48	0xbdef45c7	-0.11683231
49	0xbda038d7	-0.07823341
50	0x3dad789c	0.0847027
51	0x3df7a26b	0.12091526
52	0x3e78aef6	0.24285492
53	0x3d7c9988	0.061669856
54	0xbc9bed58	-0.019034073
55	0x3d7ade12	0.06124694
56	0xbc5ea151	-0.0135882655
57	0x3c9badb6	0.01900373
58	0xbd2b0a91	-0.041758124
59	0x3e7354a5	0.23762758
60	0x3d1405b6	0.03613826
61	0xbc1f3531	-0.009717272
62	0x3d31211e	0.043244474
63	0xbe13fc2e	-0.14451668
64	0x3dece0b4	0.11566296
65	0x3da6a520	0.08136964
66	0x3e55956f	0.20857786
67	0x3d8174aa	0.0632108
68	0xbe1055ff	-0.14095305
69	0xbd497140	-0.04918027
70	0x3e4f5c06	0.20249948
71	0xbd012ec5	-0.031538744
72	0xbe16933e	-0.14704606
73	0xbc88188f	-0.016613273
74	0x3e7a4d74	0.24443609
75	0xbddfb094	-0.109223515
76	0xbe55ce61	-0.20879509
77	0x3e1b1b63	0.15147166
78	0x3d937bb3	0.07201328
79	0x3c672cea	0.014109829
80	0xbd9901a8	-0.07471019
81	0xbc848c2b	-0.016180119
82	0xbd582c1a	-0.052776434
83	0x3db8785a	0.0900733
84	0x3ce79348	0.028268471
85	0xbd6e0749	-0.058112416
86	0xbca5c43c	-0.020235173
87	0x3cbf3b77	0.023343785
88	0x3c3e34ae	0.0116092395
89	0x3c604003	0.013687137
90	0xbdec498e	-0.11537467
91	0x3da0a666	0.07844238
92	0xbcb110ae	-0.021614399
93	0x3cd18e27	0.025580479
94	0x3ad75851	0.0016429519
95	0xbda252cd	-0.07925949
96	0x3d51466d	0.051092554
97	0x3e0cf5c6	0.1376563
98	0xbceb94ca	-0.028757472
99	0xbdab5825	-0.083664216
100	0xbd2982ed	-0.041384626
101	0x3e4eb5b6	0.20186505
102	0xbe2b96ba	-0.16756716
103	0xbc8fbeb8	-0.017546996
104	0x3d296611	0.041357104
105	0xbd1c3994	-0.03814085
106	0x3e692cf3	0.22771053
107	0xbc74cb63	-0.014941069
108	0xbeabcf27	-0.33556482
109	0x3e0b9829	0.13632263
110	0xbd9718e2	-0.07377793
111	0xbd8583e1	-0.065192945
112	0x3d135fb3	0.035979938
113	0xbe32e92b	-0.17471759
114	0xbe00317e	-0.1251888
115	0xbc89ee67	-0.016837312
116	0x3cb02bc5	0.021505246
117	0x3e07bc24	0.13255364
118	0x3dfc4945	0.123186626
119	0x363e9312	2.8397812e-06
120	0xbbf9cdd7	-0.007623415
121	0x3e5fd618	0.21859014
122	0xbde9e463	-0.114205144
123	0x3ca436bc	0.02004563
124	0x3caa8988	0.020817533
125	0xbe88931d	-0.2667474
126	0x3d92deee	0.07171427
127	0xbe0be306	-0.13660821
128	0xbd6d3c17	-0.057918634
129	0xbe4d7c8f	-0.20067047
130	0x3e577704	0.21041495
131	0xbe4c589c	-0.19955677
132	0xbc544845	-0.0129566835
133	0x3e999922	0.29999644
134	0x3d847a1d	0.06468604
135	0xbe640792	-0.22268513
136	0x3d15e4b8	0.036595076
137	0x3ccdde4a	0.02513041
138	0xbcf0144c	-0.029306553
139	0x3df19c15	0.117973484
140	0x3e9524bb	0.29129586
141	0xbe893706	-0.26799792
142	0xbdb2cabc	-0.08730075
143	0x3e3f763d	0.18697448
144	0xbd62aaea	-0.055338778
145	0xbe396007	-0.18103038
146	0xbd8b4b3a	-0.06801458
147	0x3e2610ec	0.16217393
148	0xbdf57607	-0.119854026
149	0xbc78bb3c	-0.015181359
150	0x3e51a114	0.20471603
151	0xbc147107	-0.009060151
152	0x3e805d66	0.25071257
153	0xbe4793d0	-0.1948998
154	0xbe39cf44	-0.18145472
155	0x3dd29dd5	0.1028401
156	0xbd4e6dc9	-0.050397668
157	0xbe1eadff	-0.15496062
158	0xbd2d320e	-0.042284064
159	0x3d0def98	0.034652323
160	0x3da945d8	0.08265275
161	0xbd5c5b4a	-0.053797998
162	0xbea91495	-0.33023515
163	0xbe9475c7	-0.28996107
164	0x3da34b9a	0.07973404
165	0xbd828b76	-0.06374256
166	0xbc829285	-0.015939007
167	0xbc1c15f3	-0.0095267175
168	0x3a0af40f	0.000530065
169	0xbe0af4e2	-0.13569978
170	0xbd41d967	-0.04732647
171	0xbeb11150	-0.3458352
172	0x3e0ce885	0.13760574
173	0xbd3021db	-0.043001037
174	0xbde6fb0b	-0.112783514
175	0xbd2bade6	-0.04191389
176	0x3da02b16	0.07820718
177	0xbd331fb5	-0.04373141
178	0xbd85e468	-0.06537706
179	0xbc2a9e95	-0.010413785
180	0x3c3bb6c8	0.011457153
181	0xbb227376	-0.0024788058
182	0x3e4ad82a	0.19809023
183	0x3d3dee0e	0.046369605
184	0x3e6cfa59	0.23142375
185	0xbdf0791f	-0.11741852
186	0x3e59be81	0.21264078
187	0xbddd6537	-0.10810321
188	0x3e47aebb	0.19500248
189	0xbde1bf1c	-0.11022779
190	0xbddabd9a	-0.10680695
191	0x3e79d331	0.2439697
192	0xbd55bf48	-0.052184373
193	0xbdc11b98	-0.09429091
194	0xbe271017	-0.16314732
195	0xbe5a2d9c	-0.21306461
196	0xbd627d36	-0.05529519
197	0xbdb48208	-0.08813864
198	0xbdf64a9a	-0.12025948
199	0x3cf84f4a	0.030311245
200	0x3e06bdbc	0.13158315
201	0xbccccc74	-0.024999835
202	0xbe579d15	-0.21056016
203	0x3da4cad6	0.080465004
204	0x3e6d132f	0.23151849
205	0x3d9c04ce	0.07618104
206	0xbd6419e7	-0.055688765
207	0xbd2375d4	-0.03990729
208	0xbc9b6693	-0.01896981
209	0x3be894ec	0.007097831
210	0xbd8b69f0	-0.06807315
211	0x3ddfb11d	0.109224536
212	0xbd9b2634	-0.07575646
213	0xbe103c9a	-0.14085618
214	0xbdb477be	-0.088119015
215	0xbcbd91d0	-0.023140818
216	0xbd807676	-0.06272595
217	0xbe3866f0	-0.18008018
218	0x3e966465	0.2937347
219	0xbd931dec	-0.071834415
220	0x3ece55d5	0.4029986
221	0xbdf3dc24	-0.11907223
222	0x3dfb552b	0.12272104
223	0x3dadb18f	0.08481132
224	0xbd9e5c82	-0.07732488
225	0x3da49967	0.08037072
226	0xbd84374c	-0.064558595
227	0x3e2a936f	0.16657804
228	0xbdb5497d	-0.088519074
229	0xbe6b4136	-0.22974095
230	0x3de4da4a	0.11174448
231	0x3dbb30d2	0.09140171
232	0x3e732b16	0.23746905
233	0xbe02af4d	-0.12762184
234	0x3c5f8bfc	0.013644215
235	0xbe804f3f	-0.2506046
236	0x3e8a51b6	0.27015465
237	0xbc27370a	-0.010205993
238	0xbe339126	-0.17535838
239	0x3dbf66b5	0.09345762
240	0xbe50c44c	-0.20387381
241	0x3e128ac6	0.1431075
242	0xbc17f967	-0.009275771
243	0x3d61cff5	0.055129964
244	0x3e429f53	0.1900609
245	0xbe0de57d	-0.13857074
246	0x3d98af14	0.074552685
247	0x3e7531b6	0.23944744
248	0xbd7c4ab9	-0.0615947
249	0xbe0e9069	-0.13922276
250	0xbdbcdd37	-0.09221881
251	0xbddfe8ce	-0.10933076
252	0xbdb1606d	-0.0866097
253	0x3cf93db5	0.030424932
254	0xbe352d2b	-0.17693011
255	0xbe52ba7a	-0.20578948

network_body.linear_encoder.seq_layers.4.bias f4 [128]
0	0xbd728ecd	-0.059218217
1	0xbd533f0d	-0.0515738
2	0x3d67256c	0.056432173
3	0xbd5ecb0a	-0.054392852
4	0xbcb9a9a0	-0.022663891
5	0xbd090bde	-0.033458583
6	0xbd567d67	-0.052365687
7	0xbda87481	-0.08225346
8	0x3c784e57	0.015155396
9	0xbd9d98a5	-0.0769513
10	0x3cd5ab16	0.026082557
11	0x3cbab1e3	0.022789901
12	0xbd716b5c	-0.058940277
13	0xbc91fe47	-0.017821444
14	0xbb9b5edd	-0.004741533
15	0xbd6589b8	-0.056039542
16	0x3d0b2b6d	0.03397696
17	0x3d83e6d0	0.06440508
18	0xbd2e9722	-0.0426246
19	0x3d340c57	0.04395708
20	0x3d8c201e	0.06842063
21	0xbdc41b90	-0.0957557
22	0xbd3f640a	-0.046726264
23	0x3d536170	0.051606596
24	0xbc656049	-0.014000007
25	0xbd9cb0c5	-0.076509036
26	0xbd889265	-0.066685475
27	0xbd8bc495	-0.068246044
28	0xbd40c00d	-0.047058154
29	0x3d2af83b	0.041740637
30	0xbbe77584	-0.0070635695
31	0x3ca09b98	0.019605443
32	0xbdabe32e	-0.083929405
33	0xbd506681	-0.050879005
34	0xbd1eb46d	-0.038746286
35	0xbda0ce0a	-0.07851799
36	0x3d5d67a1	0.054053906
37	0x3b222c70	0.0024745725
38	0x3d803545	0.0626016
39	0x3d0736bb	0.03301118
40	0x3d833d5b	0.06408187
41	0x3d925935	0.07145921
42	0xbc9d0551	-0.019167574
43	0xbd4fadaa	-0.05070273
44	0x3c2a5138	0.010395341
45	0xbd7e418b	-0.062074225
46	0xbd8c8eff	-0.06863212
47	0x3d5cf258	0.053942055
48	0xbdb0e3ea	-0.08637221
49	0xbcdd231f	-0.026994286
50	0x3daac934	0.08339158
51	0xbd376d13	-0.044781756
52	0x3d3c96c9	0.046042237
53	0x3d85b6f8	0.06529039
54	0x3ccd2fec	0.025047265
55	0x3d7467b7	0.059669223
56	0xbbbc73a9	-0.0057510925
57	0x3dc72bad	0.09725127
58	0xbd443770	-0.04790443
59	0x3d90b480	0.07065678
60	0xbd3f3070	-0.046677053
61	0x3dd32958	0.1031062
62	0xbd820847	-0.06349235
63	0x3da1f135	0.07907335
64	0xbd9d2fd8	-0.07675141
65	0xbd5fe97b	-0.054666024
66	0xbd4f1162	-0.050553687
67	0xbcbb6481	-0.022875072
68	0x3d95511f	0.07290863
69	0x3d7ab15f	0.06120431
70	0xbd60e1be	-0.054902785
71	0x3d31f9c1	0.043451075
72	0xbd310e58	-0.04322657
73	0xbc37a9cc	-0.011209916
74	0x3d295582	0.041341312
75	0x3d6ce2ed	0.0578336
76	0x3d817bd2	0.06322445
77	0x3b822048	0.0039711334
78	0x3d6845c7	0.05670717
79	0xbd8a4a4c	-0.06752452
80	0x3dd293f4	0.10282126
81	0x3d17c6e2	0.037054904
82	0x3d84fc71	0.06493462
83	0xbd908527	-0.07056647
84	0x3d8bed93	0.06832423
85	0xbcecd419	-0.02890973
86	0x3d47d8e9	0.048790846
87	0xbd54d1db	-0.051957946
88	0x3d632b96	0.05546149
89	0xbbf20dea	-0.0073869126
90	0xbd890a49	-0.06691415
91	0x3daebc62	0.08532025
92	0x3d529475	0.05141111
93	0x3cac4c4e	0.021032479
94	0x3d2bb74c	0.041922852
95	0x3d8e6dcb	0.06954535
96	0xbd8cdb7f	-0.06877803
97	0xbd0f294e	-0.0349515
98	0xbd693e4f	-0.056944188
99	0x3d9773c0	0.073951244
100	0xbdb2b915	-0.08726708
101	0x3cf230fa	0.02956437
102	0xbd765a37	-0.06014463
103	0x3d6bf765	0.05760898
104	0x3cfe0763	0.031009382
105	0x3d6833df	0.056690093
106	0x3dc0e90f	0.094194524
107	0xbd563e6d	-0.052305628
108	0x3d6d8a18	0.057993025
109	0x3d61acb3	0.05509634
110	0x3d58b029	0.052902374
111	0x3cc07a26	0.023495745
112	0xbd9a53bd	-0.07535503
113	0x3d2ee778	0.042701215
114	0xbd9174ff	-0.07102393
115	0x3d7c4d03	0.06159688
116	0xbd9017fd	-0.070358254
117	0xbd12ca1b	-0.035837274
118	0x3d11d135	0.035599906
119	0x3b7236b4	0.0036958875
120	0x3d707af9	0.058711026
121	0x3d53327f	0.05156183
122	0x3d19367c	0.037405476
123	0x3d4d38f3	0.05010314
124	0xbd96cd64	-0.07363394
125	0xbd5c1e02	-0.053739555
126	0xbd60ef80	-0.054915905
127	0x3cfab1b6	0.030602317

network_body.linear_encoder.seq_layers.4.weight f4 [128, 128]
0	0xbdd48205	-0.10376362
1	0x3d136b5a	0.03599105
2	0xbe066743	-0.13125329
3	0x3cddd68f	0.027079849
4	0xbe3d0d66	-0.18462142
5	0x3e343707	0.17599116
6	0xbdd9e20a	-0.10638817
7	0x3b8708f0	0.0041209385
8	0xbc0947fa	-0.008378977
9	0xbdbdda05	-0.092700996
10	0xbe168850	-0.14700437
11	0x3d611f03	0.054961216
12	0xbdbee4de	-0.09320997
13	0xbe9879e1	-0.29780486
14	0xbd6317aa	-0.05544249
15	0xbd7b8869	-0.061409388
16	0xbe13c81a	-0.14431801
17	0x3e04e7bd	0.12979026
18	0xbdda1eac	-0.106503814
19	0xbd084cd4	-0.033276394
20	0xbc6784c8	-0.014130779
21	0x3e6b93be	0.23005578
22	0x3dde8242	0.108646885
23	0x3e00e149	0.1258594
24	0xbdd9719d	-0.10617373
25	0x3c8fae2d	0.017539108
26	0xbb5ac82c	-0.0033383472
27	0xbe36c76c	-0.17849511
28	0x3dbd7e0e	0.09252559
29	0x3e08e810	0.13369775
30	0xbd47e8b0	-0.048805892
31	0x3e6ddc1c	0.23228496
32	0x3b6d8c66	0.0036247014
33	0xba3c514b	-0.00071837445
34	0x3dc2c637	0.09510463
35	0x3cb89f7d	0.022536987
36	0x3df0ed9f	0.117640726
37	0xbd399640	-0.045309305
38	0xbdeba619	-0.1150629
39	0xbe0a1b30	-0.13486934
40	0x3d499c15	0.049221117
41	0x3d2c3387	0.042041328
42	0xbde00b94	-0.10939708
43	0xbe64ebd9	-0.22355594
44	0xbe03f740	-0.12887287
45	0xbc9464e8	-0.018114522
46	0xbda064eb	-0.078317486
47	0xbdcc6f87	-0.0998221
48	0x3da3f267	0.08005219
49	0xbe881e28	-0.26585507
50	0x3e329516	0.17439684
51	0x3e213238	0.15741813
52	0x3dcb7607	0.09934621
53	0xbcedffc0	-0.029052615
54	0x3df17952	0.11790718
55	0x3d5ae919	0.053444955
56	0x3c5eb24a	0.013592312
57	0xbd947fd8	-0.07250947
58	0xbe0b8a42	-0.1362696
59	0xbab61526	-0.0013891801
60	0x3d7d0885	0.061775703
61	0xbd2c2442	-0.042026766
62	0xbcace5de	-0.021105703
63	0xbda36087	-0.079773955
64	0x3c769643	0.015050474
65	0xbd22ff64	-0.03979434
66	0xbe355a30	-0.17710185
67	0xba77a73f	-0.0009447224
68	0x3d25644b	0.04037885
69	0xbe265a35	-0.16245349
70	0x3de38e2e	0.11111103
71	0x3dda4913	0.10658469
72	0x3b34feb0	0.0027617626
73	0x3d8a6784	0.06758025
74	0xbceb570f	-0.028728036
75	0xbe734340	-0.23756123
76	0xbd3a65ea	-0.04550735
77	0x3e219b58	0.15781915
78	0xbe352c66	-0.17692718
79	0x3e42abf2	0.19010904
80	0x3c5d2570	0.013497695
81	0x3cdad969	0.026714997
82	0xbe020a7e	-0.12699315
83	0xbe8f087d	-0.27936164
84	0x3b6f695a	0.00365313
85	0x3de5a556	0.11213176
86	0x3e435352	0.19074753
87	0xbd115de5	-0.035489935
88	0x3cb46669	0.02202149
89	0xbe3c4c25	-0.18388422
90	0x3e0ba36f	0.13636564
91	0xbd8e1454	-0.06937471
92	0x3dc863e5	0.09784678
93	0x3dc0ba32	0.09410514
94	0x3de76dc5	0.11300234
95	0xbd02bb16	-0.0319167
96	0xbdca7cbd	-0.09887073
97	0x3d876369	0.06610758
98	0x3cb33f6e	0.021880832
99	0xbe2d0da3	-0.16899733
100	0x3c98ae4d	0.0186378
101	0x3c6efa07	0.014585978
102	0x3d50755b	0.05089317
103	0xbdd95505	-0.10611919
104	0x3def8b1c	0.11696455
105	0xbbb4e303	-0.005520226
106	0xbd25c73c	-0.040473208
107	0x3cd95c40	0.026533246
108	0xbe272e8b	-0.16326348
109	0xbb463186	-0.003024192
110	0xbdb52a3c	-0.08845946
111	0x3e4609ab	0.19339626
112	0xbe0bae7e	-0.13640782
113	0xbe27b720	-0.1637845
114	0xbb4bac30	-0.0031077974
115	0xbda92069	-0.08258135
116	0xbd1274a3	-0.035755765
117	0xbe29ecd7	-0.16594253
118	0x3d16c381	0.03680754
119	0xbc76fce3	-0.015074941
120	0x3dd6a715	0.10481087
121	0x3e15e911	0.14639689
122	0x3e0fe082	0.14050487
123	0x3da1d7d2	0.079024926
124	0x3d84e877	0.06489652
125	0xbdf3b39e	-0.11899494
126	0x3d7aecc5	0.061260957
127	0x3d8ea9ad	0.06965957
128	0xbe397e0b	-0.18114488
129	0x3d81a76e	0.06330763
130	0xbe2c0ec0	-0.16802502
131	0x3df6deee	0.12054239
132	0x3dd7d085	0.10537819
133	0x3d521e9d	0.051298726
134	0xbdbb12e8	-0.091344655
135	0xbe9d8a43	-0.30769548
136	0xbd3d63ae	-0.04623764
137	0xbdac9380	-0.08426571
138	0xbe4057b9	-0.18783464
139	0x3d065ed4	0.03280528
140	0x3d344e13	0.04401977
141	0xbea3266e	-0.31865257
142	0xbda91f60	-0.082579374
143	0x3d8b0354	0.06787744
144	0xbe3d3c6f	-0.18480085
145	0x3c075031	0.008258865
146	0x3ddeba32	0.10875358
147	0x3d30cfbf	0.043166872
148	0xbd99d31e	-0.075109705
149	0x3df2cbf8	0.1185531
150	0x3dda1c98	0.10649985
151	0xbdd0adf3	-0.10189428
152	0xbd49222c	-0.049104854
153	0xbcb7ac48	-0.022421017
154	0x3bf6fd2b	0.007537504
155	0xbe84f2d9	-0.25966528
156	0x3e245582	0.16048244
157	0x3e2ed8d8	0.17074907
158	0xbde4728d	-0.11154661
159	0xbd238e5b	-0.039930683
160	0xbc75bc16	-0.014998456
161	0x3de93c3f	0.11388444
162	0x3ca37b00	0.019956112
163	0xbe29ae8e	-0.16570494
164	0x3dfb35b9	0.12266106
165	0xbe88cf73	-0.2672077
166	0x3ba11d4a	0.0049168216
167	0x3dc10267	0.09424286
168	0x3db106f4	0.08643904
169	0x3c74f590	0.014951125
170	0xbe013083	-0.12616162
171	0xbc8ea8e7	-0.017414523
172	0x3e03f4fd	0.12886424
173	0x3dd41f52	0.103575364
174	0x3dc1c83b	0.09462019
175	0xbcf77c49	-0.030210631
176	0x3e336b54	0.17521411
177	0xbe7432a5	-0.23847444
178	0xbdd98cd2	-0.106225625
179	0x3c89f81b	0.016841939
180	0x3d365bd5	0.04452117
181	0x3e12a1c8	0.14319527
182	0xbcb22fe9	-0.021751361
183	0x3e32b8bc	0.17453283
184	0xbd927bcc	-0.07152519
185	0xbdd8060a	-0.10548027
186	0xbd437486	-0.047718547
187	0xbe0ba534	-0.13637239
188	0xbe009130	-0.12555385
189	0xbe356d1a	-0.177174
190	0x3c3ff094	0.011715073
191	0xbdeec236	-0.116581365
192	0x3b9f75a7	0.00486632
193	0x3d80b9fc	0.06285474
194	0xbdad7766	-0.08470039
195	0x3d752282	0.059847362
196	0xbd47bc8a	-0.04876379
197	0xbe25fb08	-0.16209042
198	0xbdb40f83	-0.08792021
199	0x3d3c40f3	0.045960378
200	0xbd99a148	-0.07501465
201	0x3e1239ff	0.14279936
202	0xbe4e3383	-0.20136838
203	0xbcc75a23	-0.024334973
204	0xbdf5b045	-0.11996511
205	0x3d92131a	0.071325496
206	0xba86f5ac	-0.0010296605
207	0x3e71db8e	0.2361891
208	0x3e3a893c	0.18216413
209	0xbd0585ad	-0.032598186
210	0xbdf8f615	-0.121563114
211	0xbdafcab9	-0.08583588
212	0xbd74bfa1	-0.059753064
213	0x3e0c94a7	0.13728581
214	0x3d4316ef	0.047629293
215	0x3ca2a92d	0.01985606
216	0xbd8bdc3e	-0.06829117
217	0x3de8b683	0.11362936
218	0x3c425f66	0.011863565
219	0xbe6bfd64	-0.2304588
220	0x3d47f45e	0.04881703
221	0xbd6c5efe	-0.05770778
222	0x3c6cf0b0	0.014461681
223	0x3e00a8fe	0.12564465
224	0x3d060175	0.032716233
225	0xbd8172d3	-0.06320729
226	0x3db0894f	0.086199395
227	0xbe1b516b	-0.15167777
228	0xbe01ec34	-0.1268776
229	0xbe0e0bc7	-0.1387168
230	0xbcb13105	-0.02162982
231	0xbe413e1c	-0.18871349
232	0x3ca29bc2	0.019849662
233	0x3e20b03f	0.15692233
234	0x3d259c22	0.040432103
235	0x3d69ebe3	0.057109725
236	0xbdd5027d	-0.10400865
237	0xbd7be510	-0.061497748
238	0x3d59c2e9	0.053164396
239	0x3e6a4acb	0.22880094
240	0xbe320c67	-0.17387544
241	0xbe53ba8a	-0.20676628
242	0x3dbaedf5	0.09127418
243	0x3e274e79	0.16338529
244	0xbd992d79	-0.07479376
245	0xbd994d50	-0.07485449
246	0xbca195aa	-0.019724686
247	0xbcd297ba	-0.025707114
248	0xbd75f5a3	-0.06004871
249	0xbe0af6d7	-0.13570724
250	0x3e1c8926	0.15286693
251	0x3dd5ce2c	0.10439715
252	0xb6eec142	-7.115451e-06
253	0xbe4e6e6d	-0.20159312
254	0x3d472cb5	0.04862662
255	0x3e552df8	0.20818317
