results/rdesktop_run_001/Robotarm/Robotarm-3499984.onnx (onnx, 147507 bytes, 9 tensors)

action_model._continuous_distribution.log_sigma f4 [1, 5]
-3.203337 -2.8399236 -2.754227 -1.2381879 -0.85181993
00000000: 7903 4dc0 4fc1 35c0 4145 30c0 f17c 9ebf
00000010: df10 5abf

action_model._continuous_distribution.mu.bias f4 [5]
0.043112077 0.0807554 -0.03738417 -0.11840912 0.08080974
00000000: 4a96 303d 1663 a53d 2520 19bd 7b80 f2bd
00000010: 947f a53d

action_model._continuous_distribution.mu.weight f4 [5, 128]
-0.03873311 0.0001729858 0.0318438 -0.02922079 -0.00043746107 0.090202145 -0.059796095 -0.05882913
-0.021327175 -0.028014189 0.021078434 -0.051603466 -0.05773722 0.06633914 -0.13935995 -0.01954106
0.044556726 -0.0036368943 -0.013771052 0.0012504889 -0.014390754 -0.038421184 -0.029566245 -0.022462048
-0.03728602 -0.03293161 0.0025035385 -0.025917694 -0.038245194 -0.039069086 -0.030734425 -0.047869656
-0.026395911 -0.039460827 0.014887656 -0.0029005143 -0.056757614 0.11773943 -0.0050847623 -0.082819335
0.00055769045 0.036488913 -0.0791094 -0.017191017 -0.062411055 0.013989172 0.007429551 -0.0024496946
-0.003510351 -0.062458027 -0.006103612 -0.04772842 0.019559853 0.039320204 -0.036897127 0.052282903
0.030507727 0.04828989 -0.015168556 0.028211834 -0.02485004 0.042888068 -0.010439924 0.009016481
-0.019284233 -0.036089763 -0.04150434 0.060394857 -0.004837017 -0.01619169 -0.012062824 0.043303736
-0.043371953 0.04289625 -0.005466004 0.018652923 -0.0068266457 -0.05493643 -0.010302228 -0.046346653
0.036219507 -0.006932066 0.008842759 -0.04830944 0.01430781 -0.011917048 0.030572841 -0.01730016
-0.004657598 0.06873394 -0.00041190177 0.056674294 -0.008931133 0.0903361 -0.06420661 0.0037497748
-0.040395543 -0.039042864 -0.02947078 0.034633186 -0.028391888 -0.018666191 -0.043549325 0.02733389
0.015235717 0.02115924 0.052061558 -0.02288381 -0.008447535 -0.005159504 -0.0011969823 0.030806696
0.011494597 0.015193351 -0.014975621 0.008335357 -0.029192902 -0.0010563129 0.014777271 -0.0043022255
0.0074319043 -0.0013118029 0.012595886 0.08053681 -0.033033393 -0.00013641543 -0.038850307 0.05701916
-0.097006395 -0.08050123 0.028446319 -0.09073742 -0.010662391 -0.026734307 -0.089494586 -0.09299709
0.028055562 -0.08189626 -0.015365501 0.026997356 -0.06951834 -0.13615404 0.17097275 -0.0845798
0.13026927 -0.0017302183 -0.0829429 -0.015780505 0.018764354 -0.070299335 -0.057883002 -0.0049620154
0.005444503 -0.090750776 -0.13987471 -0.14283413 -0.10626738 0.023967797 0.09172364 0.032485012
-0.09346733 -0.10511579 -0.07943687 -0.10163542 0.0663654 -0.025869453 0.052382488 0.0756067
0.003626753 0.04249547 -0.007975511 -0.02809035 0.15045002 -0.012407303 -0.0010243785 0.063026264
-0.026006004 -0.123193994 0.081879474 -0.12671389 0.06470798 0.037206545 0.034230243 0.032492325
-0.04311564 0.07172189 -0.10955503 0.036653135 -0.101779275 0.06835275 -0.11915916 0.040322337
-0.11162712 -0.10451394 -0.09689969 -0.064098716 0.044542067 0.0064681615 -0.08031368 0.005262759
-0.08948509 -0.15386833 -0.0019841846 0.031804185 -8.258945e-06 0.07045688 0.03822952 -0.10618936
0.058198914 -0.008305146 0.041360162 -0.061650414 0.17462799 -0.009657918 0.02334062 -0.078180395
0.0137432655 -0.09578687 -0.07355455 0.047112785 0.0100393025 -0.09982376 0.062619604 0.02958127
-0.12477126 -0.06850244 -0.06955051 0.021049367 -0.08474299 -0.0019673267 -0.10527085 0.06094909
0.030301189 0.027918858 0.07657616 -0.08487223 0.00090913253 0.0071437727 0.024540551 0.0151789235
-0.04503032 -0.0015794208 -0.077090986 0.0116194 -0.07727049 0.00906093 0.015893044 0.002827639
0.03237537 0.014962482 0.00019396769 -0.017874101 -0.104872726 -0.062147215 -0.10714195 0.107248224
00000000: 9ca6 1ebd 8663 3539 a56e 023d 7060 efbc
00000010: 085b e5b9 e7bb b83d c0ec 74bd d0f6 70bd
00000020: 54b6 aebc 037e e5bc aeac ac3c 285e 53bd
00000030: dd7d 6cbd d1dc 873d 60b4 0ebe 9314 a0bc
00000040: 1d81 363d f658 6ebb fa9f 61bc 72e7 a33a
00000050: 32c7 6bbc 885f 1dbd e934 f2bc 5402 b8bc
00000060: 3ab9 18bd 4ce3 06bd 6812 243b 5851 d4bc
00000070: fea6 1cbd e806 20bd c3c6 fbbc f912 44bd
00000080: 3d3c d8bc ada1 21bd 5beb 733c 8e16 3ebb
00000090: ac7a 68bd 5f21 f13d 149e a6bb 2f9d a9bd
000000a0: f931 123a 6675 153d 1c04 a2bd 2dd4 8cbc
000000b0: bca2 7fbd d732 653c 9773 f33b 0e8b 20bb
000000c0: eb0d 66bb fdd3 7fbd cf00 c8bb e07e 43bd
000000d0: fc3b a03c 390e 213d 7121 17bd 9926 563d
000000e0: 57eb f93c 9fcb 453d 8985 78bc 811c e73c
000000f0: 5092 cbbc 66ab 2f3d 370c 2bbc ddb9 133c
00000100: f8f9 9dbc dcd2 13bd 7400 2abd 9960 773d
00000110: d77f 9ebb 6fa4 84bc 27a3 45bc 425f 313d
00000120: caa6 31bd fab3 2f3d 2a1c b3bb 04ce 983c
00000130: 0eb2 dfbb 0605 61bd adca 28bc fdd5 3dbd
00000140: e85a 143d 6226 e3bb 38e1 103c 1fe0 45bd
00000150: 4e6b 6a3c b93f 43bc e573 fa3c 11b9 8dbc
00000160: c49e 98bb 61c4 8c3d 85f4 d7b9 4e23 683d
00000170: e353 12bc 2202 b93d c17e 83bd c8be 753b
00000180: cc75 25bd 69eb 1fbd b56c f1bc 87db 0d3d
00000190: 1b96 e8bc d7e9 98bc c760 32bd 52eb df3c
000001a0: 3b9f 793c 2456 ad3c 803e 553d d476 bbbc
000001b0: 8867 0abc 0e11 a9bb 10e4 9cba 535e fc3c
000001c0: d653 3c3c 88ed 783c 4f5c 75bc 0591 083c
000001d0: f425 efbc fb73 8aba 5e1c 723c aff9 8cbb
000001e0: 5587 f33b cdf0 abba fa5e 4e3c 7cf0 a43d
000001f0: 064e 07bd bd0a 0fb9 8021 1fbd ec8c 693d
00000200: 4aab c6bd d4dd a4bd 4108 e93c 8ad4 b9bd
00000210: 4fb1 2ebc e801 dbbc f048 b7bd 4275 bebd
00000220: c7d4 e53c 3ab9 a7bd 95bf 7bbc 8f29 dd3c
00000230: a25f 8ebd f76b 0bbe 7b13 2f3e 2d38 adbd
00000240: 4f65 053e 7ec8 e2ba f8dd a9bd 1e46 81bc
00000250: b4b7 993c 19f9 8fbd ba16 6dbd 6798 a2bb
00000260: cd67 b23b 8bdb b9bd 513b 0fbe 1c43 12be
00000270: b6a2 d9bd 1d58 c43c 9bd9 bb3d 010f 053d
00000280: cd6b bfbd f346 d7bd ccaf a2bd 3b26 d0bd
00000290: 95ea 873d 2dec d3bc 058f 563d afd7 9a3d
000002a0: d2ae 6d3b bb0f 2e3d b8ab 02bc bc1d e6bc
000002b0: 920f 1a3e 0048 4bbc 7044 86ba ea13 813d
000002c0: 8b0a d5bc 224d fcbd 6db0 a73d 49c1 01be
000002d0: 9e85 843d e465 183d 0335 0c3d ac16 053d
000002e0: 069a 30bd ede2 923d 635e e0bd 9921 163d
000002f0: a771 d0bd 87fc 8b3d b809 f4bd 0929 253d
00000300: c29c e4bd 680b d6bd 5873 c6bd 3046 83bd
00000310: be71 363d dff2 d33b 807b a4bd 3973 ac3b
00000320: f543 b7bd a98f 1dbe 1809 02bb 1b45 023d
00000330: e68f 0ab7 b24b 903d 8f96 1c3d cf79 d9bd
00000340: fc61 6e3d 4f12 08bc 4669 293d 2585 7cbd
00000350: aed1 323e 3e3c 1ebc d434 bf3c 0b1d a0bd
00000360: 6f2b 613c e82b c4bd c5a3 96bd 56f9 403d
00000370: e37b 243c 6670 ccbd b53e 803d 6b54 f23c
00000380: 1388 ffbd 024b 8cbd 7f70 8ebd b96f ac3c
00000390: bc8d adbd 44ee 00bb 3e98 d7bd c1a5 793d
000003a0: 333a f83c 17b6 e43c f6d3 9c3d 7ed1 adbd
000003b0: da52 6e3a 4f16 ea3b 4409 c93c 05b1 783c
000003c0: b671 38bd 9104 cfba e1e1 9dbd 4c5f 3e3c
000003d0: fe3f 9ebd 4c74 143c 2132 823c e94f 393b
000003e0: 099c 043d 3325 753c ce63 4b39 b56c 92bc
000003f0: 83c7 d6bd 148e 7ebd 3d6d dbbd f5a4 db3d

network_body.linear_encoder.seq_layers.0.bias f4 [128]
0.029661031 0.082426384 -0.033640075 -0.02374316 0.03158032 -0.043525267 0.0025018712 0.07090276
0.0075470833 0.08090327 0.061306033 -0.054091323 -0.028600764 0.003532699 0.017373001 -0.020786086
0.12447442 0.06811102 -0.09959606 -0.018986197 0.033822928 0.021688951 0.1381153 0.10182291
0.055581465 -0.08065424 0.033674173 -0.11031272 -0.0005332149 0.073478505 -0.12622015 0.10515738
-0.030017234 0.08996673 -0.029928181 0.05011663 -0.014741975 0.06160497 0.04206016 -0.013265514
0.10048798 0.09139969 0.03437881 0.045601107 -0.068890005 -0.1549827 -0.014701678 0.043018803
0.06110532 0.06769284 0.0507785 0.15318224 0.1076133 0.029571861 0.09518122 -0.02430043
-0.007989686 0.024456998 0.10127731 0.07018014 0.15360245 0.059822652 0.07994127 0.017689614
0.018904462 0.08458941 0.050165657 0.035482567 0.0049217916 0.08936064 0.08289409 0.010339747
0.03517535 0.019170716 0.07618875 -0.06443594 -0.0015262214 0.12647884 0.04537798 -0.027523544
0.109006345 0.0034950874 0.04573652 -0.046219464 -0.029521178 0.050908387 -0.031077646 -0.030785456
-0.004497552 0.041985206 -0.03556775 0.06184362 0.017026443 -0.016742304 -0.084080145 -0.005673486
0.16060136 -0.06855935 0.05430075 -0.009368759 0.06432482 0.10341138 0.0107088005 0.0075402237
0.046527226 0.037089113 0.07055293 0.05647011 -0.04857104 0.028275436 0.080289 0.097140804
0.06573499 -0.01921795 0.08237257 0.10728974 -0.05407523 0.052066464 -0.056280732 -0.033122502
0.0529565 0.06333414 0.070907466 0.05248871 0.0681444 -0.008553319 -0.019702308 0.0618444
00000000: b1fb f23c 2acf a83d 2dca 09bd 0481 c2bc
00000010: 5e5a 013d 8d47 32bd 6ff6 233b 7735 913d
00000020: 864d f73b 9db0 a53d 091c 7b3d dd8e 5dbd
00000030: 264c eabc db84 673b d351 8e3c 9547 aabc
00000040: 72ec fe3d ca7d 8b3d 05f9 cbbd f188 9bbc
00000050: e989 0a3d 07ad b13c 196e 0d3e 8888 d03d
00000060: 64a9 633d 0d2e a5bd eeed 093d a3eb e1bd
00000070: 72c7 0bba e67b 963d db3f 01be c15c d73d
00000080: b4e6 f5bc 7a40 b83d f22b f5bc 1847 4d3d
00000090: 5388 71bc 7e55 7c3d 4647 2c3d 9957 59bc
000000a0: a4cc cd3d c32f bb3d ccd0 0c3d 3ac8 3a3d
000000b0: 3416 8dbd c9b3 1ebe 4fdf 70bc 7c34 303d
000000c0: 9249 7a3d 8ba2 8a3d 1efd 4f3d cedb 1c3e
000000d0: 5d64 dc3d b040 f23c 5fee c23d b211 c7bc
000000e0: 2ce7 02bc 0b5a c83c 7a6a cf3d 9bba 8f3d
000000f0: f649 1d3e 9908 753d 40b8 a33d cfe9 903c
00000100: 88dd 9a3c 363d ad3d 817a 4d3d 2b56 113d
00000110: fb46 a13b b602 b73d 60c4 a93d 0b68 293c
00000120: 0714 103d e80b 9d3c d908 9c3d fdf6 83bd
00000130: 7e0b c8ba ab83 013e 43de 393d 0e79 e1bc
00000140: b83e df3d d60d 653b 3856 3b3d 9f50 3dbd
00000150: 66d6 f1bc 5085 503d 8c96 febc c831 fcbc
00000160: 3360 93bb aef8 2b3d 7daf 11bd bc4f 7d3d
00000170: 0a7b 8b3c 2827 89bc 3632 acbd a6e8 b9bb
00000180: af74 243e d868 8cbd 776a 5e3d 6c7f 19bc
00000190: bbbc 833d 58c9 d33d f773 2f3c fb13 f73b
000001a0: 5593 3e3d c1ea 173d 0e7e 903d 344d 673d
000001b0: 6df2 46bd e3a1 e73c 8f6e a43d c2f1 c63d
000001c0: 11a0 863d f66e 9dbc f3b2 a83d b9ba db3d
000001d0: fd7d 5dbd a543 553d a086 66bd 76ab 07bd
000001e0: eae8 583d 54b5 813d ef37 913d 67fe 563d
000001f0: 4b8f 8b3d 3823 0cbc bc66 a1bc 8e50 7d3d

network_body.linear_encoder.seq_layers.0.weight f4 [128, 19]
-0.54869276 -0.24980848 0.5033976 0.07720205 0.3331437 0.025154402 0.019400598 0.20285732
-0.07584673 -0.11766793 -0.30964062 -0.3360921 -0.290218 0.4431965 -0.22974244 -0.23195496
-0.047182564 0.3692725 -0.12624262 0.12275532 -0.576097 -0.14355515 0.43989268 0.19001849
-0.4349299 0.16374977 0.03126471 -0.27547485 0.13497703 0.024806364 -0.26483953 0.072231606
-0.17474678 0.30974486 0.22168212 0.119363844 -0.33503962 0.07828788 -0.3180709 -0.095351815
-0.07415685 0.24311323 -0.20847245 0.056210667 -0.28191945 -0.49106774 0.2699401 0.2058623
-0.12483024 0.005961482 0.09103432 0.5352635 -0.043210592 0.13262902 -0.087258056 -0.29176342
-0.11334603 -0.09870177 -0.26072195 0.13464484 0.17231917 0.09897792 0.22450146 -0.0076336027
-0.077356 0.11463461 -0.39240763 0.20340289 -0.514938 0.22143352 -0.13717316 0.12091221
-0.1087308 -0.12833707 0.4624349 0.11216637 -0.040829837 -0.0035586485 -0.2282353 -0.18381831
0.11236762 -0.06795261 -0.323322 -0.2231262 0.13885029 -0.105787136 -0.020871492 -0.2768658
-0.123271815 -0.35377595 0.18833841 0.035076115 0.31408927 0.1476857 0.1282089 -0.11768231
-0.39395502 0.4480968 0.4458466 0.075150274 0.054510787 0.078197174 0.137535 0.1649735
0.1641758 -0.31924438 -0.16183543 -0.053187404 -0.11428526 -0.05084612 -0.11236777 -0.04494356
-0.09966724 0.24399284 -0.18642795 -0.16712184 -0.08421834 0.14033581 0.12374114 0.3743195
0.0146388905 0.26282883 0.00434672 0.07527224 -0.19799034 0.16172045 -0.32063073 0.45707664
0.117552936 -0.1352012 0.09252825 -0.09917477 -0.03609865 0.046889067 -0.09117861 -0.39645535
-0.006964988 -0.18865585 0.34743047 -0.0057843993 0.28535545 -0.34656176 0.0029793803 -0.1435724
0.10940126 -0.041246507 -0.25464353 0.36662295 -0.44745147 0.30794933 -0.0710415 -0.27256534
0.0627718 -0.005287957 0.18819211 0.40357214 -0.20907773 -0.5464055 -0.0038848768 0.26602536
-0.111898236 -0.0012602266 0.093826085 -0.3476146 -0.25082695 0.23564906 0.07554071 -0.3490358
0.36282462 0.45531526 0.59228784 0.023487445 0.31829378 -0.16994633 -0.024234941 -0.31424287
0.2669118 -0.10437528 -0.10715416 -0.15743752 0.13731761 0.26678017 0.3219711 -0.015331312
-0.10399677 0.07935016 0.4047108 0.09855358 0.08306546 0.31528565 0.32783112 -0.1522795
-0.12507427 -0.4771274 0.081679575 0.16516452 0.18917604 0.07937143 0.1770783 0.2458072
-0.7518082 -0.13407022 -0.13521764 -0.146709 0.40624094 -0.11260808 -0.19422375 -0.31325072
-0.054334607 -0.25524753 -0.20943384 0.009018774 0.38343748 0.07229449 -0.19439358 0.20996743
0.14599243 -0.13323806 0.13312596 0.14307216 0.125539 0.06770244 0.030960226 -0.03197769
-0.049186017 -0.66029966 -0.1657574 -0.26767936 -0.2711861 -0.0520267 0.07613114 -0.07696126
0.21018833 0.045173448 0.48656058 0.26595834 -0.07634425 -0.17711557 -0.37948903 0.18568198
-0.20797357 -0.19934173 -0.2511224 0.054146897 -0.27236253 -0.11264552 -0.2975666 -0.35451
-0.34602854 -0.4444513 0.119026504 -0.031310163 -0.02235013 -0.010657076 -0.09867597 0.25692594
00000000: 2177 0cbf cbcd 7fbe aade 003f 1c1c 9e3d
00000010: d091 aa3e 9b10 ce3c 01ee 9e3c d4b9 4f3e
00000020: 8855 9bbd e2fb f0bd 3789 9ebe 4414 acbe
00000030: 7497 94be a7ea e23e 9a41 6bbe 9a85 6dbe
00000040: 8142 41bd 4911 bd3e bf45 01be 2467 fb3d
00000050: 187b 13bf 1f00 13be 9d39 e13e 3594 423e
00000060: 22af debe 05ae 273e 6d0f 003d 0a0b 8dbe
00000070: 6b37 0a3e b736 cb3c 0c99 87be 2aee 933d
00000080: d2f0 32be e196 9e3e a300 633e 0875 f43d
00000090: 508a abbe 6555 a03d 30da a2be d047 c3bd
000000a0: 8cdf 97bd adf2 783e cd79 55be 283d 663d
000000b0: bf57 90be 3b6d fbbe 9735 8a3e 91cd 523e
000000c0: ffa6 ffbd 8958 c33b 3470 ba3d 0707 093f
000000d0: 97fd 30bd e7cf 073e 5ab4 b2bd 0462 95be
000000e0: f721 e8bd 2724 cabd 597d 85be 56e0 093e
000000f0: 7074 303e f0b4 ca3d b6e3 653e 4d23 fabb
00000100: d36c 9ebd 8dc5 ea3d a7e9 c8be d948 503e
00000110: fad2 03bf 78bf 623e 1f77 0cbe d2a0 f73d
00000120: 41ae debd cb6a 03be 44c4 ec3e 7bb7 e53d
00000130: 303d 27bd 3738 69bb 84b6 69be de3a 3cbe
00000140: ff20 e63d bd2a 8bbd 768a a5be 327b 64be
00000150: c52e 0e3e eda6 d8bd b1fa aabc 5bc1 8dbe
00000160: ef75 fcbd 1f22 b5be c9db 403e f9ab 0f3d
00000170: 4fd0 a03e ec3a 173e 3249 033e 6c03 f1bd
00000180: 79b4 c9be f26c e53e 0146 e43e 63e8 993d
00000190: b446 5f3d d725 a03d fad5 0c3e d0ee 283e
000001a0: b31d 283e 0074 a3be 30b8 25be 09db 59bd
000001b0: 640e eabd 0544 50bd 1321 e6bd bd16 38bd
000001c0: 571e ccbd 42d9 793e f8e6 3ebe fd21 2bbe
000001d0: aa7a acbd 31b4 0f3e ff6b fd3d cea6 bf3e
000001e0: f5d7 6f3c 8091 863e ee6e 8e3b 5528 9a3d
000001f0: fbbd 4abe 0c9a 253e b629 a4be f305 ea3e
00000200: 98bf f03d 2f72 0abe 737f bd3d 241c cbbd
00000210: 2edc 13bd c00e 403d dabb babd 32fc cabe
00000220: 8e3a e4bb 002f 41be 68e2 b13e 0f8b bdbb
00000230: 1c1a 923e 8b70 b1be b541 433b a504 13be
00000240: c50d e03d 19f2 28bd a360 82be 01b6 bb3e
00000250: 5c18 e5be 89ab 9d3e 357e 91bd af8d 8bbe
00000260: 808e 803d 9946 adbb 6fb5 403e 02a1 ce3e
00000270: 7918 56be 3be1 0bbf 6b99 7ebb 7a34 883e
00000280: e72a e5bd 302e a5ba e427 c03d 8afa b1be
00000290: 646c 80be fd4d 713e 16b5 9a3d d2b4 b2be
000002a0: 26c4 b93e 151f e93e 2da0 173f be68 c03c
000002b0: 67f7 a23e 6906 2ebe 5b88 c6bc 71e4 a0be
000002c0: aaa8 883e b5c2 d5bd a473 dbbd 4d37 21be
000002d0: fd9c 0c3e 6997 883e 65d9 a43e 2f30 7bbc
000002e0: 42fc d4bd 5682 a23d 4136 cf3e 76d6 c93d
000002f0: 391e aa3d 1f6d a13e 7bd9 a73e 28ef 1bbe
00000300: 7813 00be 0b4a f4be 9f47 a73d e320 293e
00000310: 5db7 413e 7d8d a23d 0454 353e e2b4 7b3e
00000320: 8176 40bf b449 09be 7e76 0abe e23a 16be
00000330: d0fe cf3e 119f e6bd 97e2 46be 6662 a0be
00000340: f78d 5ebd ceaf 82be d375 56be 7bc3 133c
00000350: eb51 c43e 220f 943d 1c0f 47be b401 573e
00000360: 0a7f 153e 8f6f 08be 2c52 083e 8281 123e
00000370: 4c8d 003e 94a7 8a3d 4da0 fd3c 0afb 02bd
00000380: 4777 49bd 6609 29bf 4fbc 29be 450d 89be
00000390: e8d8 8abe f319 55bd a5ea 9b3d dd9d 9dbd
000003a0: 9c3b 573e cb07 393d 781e f93e b12b 883e
000003b0: 605a 9cbd c95d 35be 634c c2be 6b23 3e3e
000003c0: 06f7 54be 3d20 4cbe 1d93 80be 23c9 5d3d
000003d0: 1a73 8bbe b2b2 e6bd a65a 98be 5682 b5be
000003e0: a72a b1be 1f8f e3be 2bc4 f33d 163f 00bd
000003f0: 9f17 b7bc 049b 2ebc a116 cabd cc8b 833e

network_body.linear_encoder.seq_layers.2.bias f4 [128]
0.034070667 -0.15056735 0.05135413 0.056516167 -0.0155729875 -0.04502704 0.06378538 0.06264428
-0.070134155 0.034134608 0.053109027 -0.06609714 -0.067690894 0.06611147 -0.14432721 0.033033554
0.046736356 0.04379814 0.044878762 -0.09022926 0.042401534 -0.124869674 -0.14256537 0.07131627
0.07163561 0.037806965 0.06905489 0.029594239 -0.09134535 -0.12534246 0.045936037 -0.13525178
0.034850895 -0.14522243 -0.13006343 0.072420314 -0.082483865 0.040906392 0.03741533 -0.05032432
0.057898596 0.04241678 0.048882026 0.041313343 0.06013204 0.05862673 -0.12982847 0.07268466
0.033125058 0.07714208 -0.13785674 -0.13116619 -0.11894305 0.053989936 -0.16372184 0.00096888514
-0.14851506 0.033202376 0.07789268 0.05549873 -0.115276806 0.049745288 -0.12484464 0.06429732
-0.051669188 0.047781922 0.06746653 -0.10954622 -0.10243541 0.06766365 0.036477428 -0.13551766
0.022512224 -0.1530037 0.03004973 0.0692928 -0.07402284 -0.09289616 0.08147901 -0.12379365
-0.12537387 0.072279274 0.025041344 0.050618786 0.00246529 -0.15855162 -0.1415271 0.03237328
0.054078165 0.053487048 -0.058353376 0.057175912 -0.0667375 -0.13439493 -0.010026434 -0.13987301
0.034267545 0.046911992 -0.114644006 0.013587627 0.05810185 0.08139318 0.0136651695 0.08406937
-0.14077336 -0.08494549 0.03963859 -0.043047883 0.032561287 0.06624624 0.032439165 -0.114343174
0.067046575 0.05141876 -0.14604358 0.018735364 0.042433817 0.084906906 -0.09481224 0.015932139
-0.14194639 -0.044581514 -0.095704354 -0.1378253 0.015161612 0.042337637 -0.10942178 -0.14232355
00000000: af8d 0b3d 542e 1abe b558 523d 7f7d 673d
00000010: d825 7fbc 466e 38bd e9a1 823d a54b 803d
00000020: 7fa2 8fbd bbd0 0b3d da88 593d f05d 87bd
00000030: 86a1 8abd 7365 873d 83ca 13be 314e 073d
00000040: 9f6e 3f3d ae65 333d cbd2 373d 1eca b8bd
00000050: 3bad 2d3d acbb ffbd a8fc 11be 440e 923d
00000060: b1b5 923d 7adb 1a3d a66c 8d3d 9e6f f23c
00000070: 4513 bbbd c659 00be 6d27 3c3d 717f 0abe
00000080: d0bf 0e3d 30b5 14be 592f 05be 1a51 943d
00000090: 4ded a8bd 768d 273d d140 193d e020 4ebd
000000a0: 1427 6d3d 38bd 2d3d 8538 483d 2e38 293d
000000b0: 044d 763d 9522 703d c1f1 04be b2db 943d
000000c0: 24ae 073d abfc 9d3d 512a 0dbe 6e50 06be
000000d0: 6a98 f3bd 8d24 5d3d b3a6 27be c8fc 7d3a
000000e0: 5514 18be 37ff 073d 3386 9f3d a352 633d
000000f0: 3f16 ecbd b7c1 4b3d 8cae ffbd 50ae 833d
00000100: 12a3 53bd fab6 433d e42b 8a3d c559 e0bd
00000110: a8c9 d1bd 3d93 8a3d 5b69 153d 24c5 0abe
00000120: 8e6b b83c 00ad 1cbe da2a f63c 62e9 8d3d
00000130: 4999 97bd 5840 bebd 78de a63d 8687 fdbd
00000140: 0262 00be 2807 943d 8123 cd3c a555 4f3d
00000150: b490 213b 5b5b 22be 7bec 10be d899 043d
00000160: 1181 5d3d 3c15 5b3d f303 6fbd 4a31 6a3d
00000170: acad 88bd d39e 09be ea45 24bc df3a 0fbe
00000180: 205c 0c3d ca26 403d 7aca eabd a39e 5e3c
00000190: 35fc 6d3d 78b1 a63d e0e3 5f3c 902c ac3d
000001a0: e426 10be e7f7 adbd 135c 223d fa52 30bd
000001b0: fc5e 053d 1cac 873d eede 043d c12c eabd
000001c0: b74f 893d 7a9c 523d 738c 15be e87a 993c
000001d0: 15cf 2d3d ace3 ad3d eb2c c2bd 1e84 823c
000001e0: 655a 11be 1b9b 36bd a500 c4bd 1322 0dbe
000001f0: 6968 783c 3b6a 2d3d 8718 e0bd 44bd 11be

network_body.linear_encoder.seq_layers.2.weight f4 [128, 128]
0.015944436 -0.0264083 0.056533597 0.036415778 0.1949846 -0.06524831 0.07259489 0.13213599
0.06765234 -0.12556493 0.07702479 -0.15185523 -0.13003059 0.30362254 -0.16451795 0.050889116
-0.1595431 0.12827471 0.06799016 0.13395736 0.15472242 -0.14890853 -0.05758946 -0.14405765
0.15843907 0.07053391 0.012036603 0.046881024 0.041925117 0.02329645 0.07295349 -0.14154184
0.14443614 -0.010726727 -0.00051984546 0.087074414 0.003011954 0.035542686 0.11677439 0.015814038
0.0638257 0.07525305 -0.015225181 0.054946244 -0.058105428 0.01860546 0.022335317 -0.012985535
-0.11743884 -0.0744614 0.0880127 0.12020328 0.23861268 0.063743435 -0.01579058 0.06314069
-0.016759476 0.014703628 -0.040940084 0.23466654 0.033616092 -0.005939478 0.040890858 -0.14196414
0.1166346 0.07907795 0.20552202 0.065260135 -0.13315426 -0.048881985 0.20175937 -0.027491007
-0.14385219 -0.017875543 0.24423161 -0.11176466 -0.20708503 0.1529552 0.0673849 0.01417423
-0.06977765 -0.0152547425 -0.054629993 0.08794751 0.033562675 -0.05814391 -0.018983252 0.023139125
0.011884589 0.011824317 -0.11980402 0.08181109 -0.020871842 0.027899794 0.0025622677 -0.07862899
0.051898737 0.13550255 -0.027304774 -0.08357228 -0.042000704 0.19862625 -0.16739716 -0.02067087
0.041147437 -0.036725186 0.2273904 -0.012996445 -0.33483776 0.13851897 -0.07204064 -0.062523365
0.036389764 -0.17548098 -0.1251898 -0.017582543 0.017945722 0.13383979 0.12367346 -0.001680173
-0.0071042324 0.21728808 -0.11431479 0.019774305 0.01885939 -0.26337177 0.066535644 -0.13353527
-0.0820395 -0.2398436 0.21571174 -0.21883191 -0.011394275 0.29638734 0.074266836 -0.22852655
-0.0025664787 0.045868788 -0.01849603 0.11214047 0.30929914 -0.24731188 -0.1239955 0.16498728
-0.059510928 -0.19412301 -0.08186669 0.16171022 -0.105264395 -0.0128754545 0.1999437 -0.030237189
0.25240475 -0.2046113 -0.1986338 0.091738515 -0.08610633 -0.13586374 -0.039780565 0.023846714
0.077271394 -0.031221004 -0.32288092 -0.27914667 0.07512055 -0.053869568 -0.008565343 -0.010967613
0.00917959 -0.13888635 -0.04956869 -0.34366757 0.14921673 -0.023340978 -0.103404894 -0.073877625
0.10310573 -0.017035495 -0.039603386 -0.01540692 0.005717194 -0.00807002 0.18031786 0.049322013
0.22813997 -0.13006943 0.22463988 -0.10110939 0.2012578 -0.10632986 -0.14581816 0.23361444
-0.06140327 -0.104667135 -0.18246335 -0.20885241 -0.0241964 -0.091723226 -0.13966505 0.03399128
0.1046313 -0.013328376 -0.2016649 0.08678462 0.20514655 0.10150863 -0.08114049 -0.05625719
-0.012139404 0.017013514 -0.10070067 0.10055185 -0.04679009 -0.15701425 -0.08324184 -0.010915906
-0.04345932 -0.21295717 0.29481325 -0.04003695 0.39626968 -0.10282331 0.11975483 0.05988952
-0.066706195 0.08637292 -0.050432105 0.1751141 -0.09546143 -0.25350535 0.103335135 0.092276335
0.23311302 -0.12124062 -0.0032042474 -0.2335926 0.27016455 0.0018459546 -0.20382561 0.06874949
-0.17636268 0.13823812 -0.017382372 0.07242344 0.18029267 -0.16348504 0.067611486 0.23830737
-0.03869972 -0.13948067 -0.116718225 -0.08611991 -0.06572659 0.04272313 -0.19369452 -0.18426014
00000000: e89d 823c 3856 d8bc c68f 673d b628 153d
00000010: 0baa 473e e8a0 85bd a1ac 943d a84e 073e
00000020: 4f8d 8a3d 1894 00be 2cbf 9d3d f07f 1bbe
00000030: bd26 05be 6a74 9b3e 6577 28be 1b71 503d
00000040: 445f 23be 725a 033e 6d3e 8b3d 1e2c 093e
00000050: 8e6f 1e3e 7a7b 18be ede2 6bbd d983 13be
00000060: da3d 223e 1574 903d 2c35 453c 5106 403d
00000070: acb9 2b3d 32d8 be3c a468 953d 58f0 10be
00000080: 11e7 133e 27bf 2fbc 3d46 08ba 1254 b23d
00000090: 3464 453b 3595 113d 6927 ef3d 718c 813c
000000a0: 0cb7 823d 451e 9a3d 0a73 79bc 500f 613d
000000b0: f5ff 6dbd 7a6a 983c 8ef8 b63c 48c1 54bc
000000c0: c683 f0bd 387f 98bd 0140 b43d 232d f63d
000000d0: e256 743e eb8b 823d 3f5b 81bc e84f 813d
000000e0: 2b4b 89bc 7ce7 703c cab0 27bd 6d4c 703e
000000f0: 07b1 093d f49f c2bb 2c7d 273d 0c5f 11be
00000100: 1fde ee3d 9ff3 a13d 5d74 523e 1ba7 853d
00000110: 9759 08be 7a38 48bd 029a 4e3e d234 e1bc
00000120: fd4d 13be bb6f 92bc da17 7a3e dfe4 e4bd
00000130: 190e 54be 4aa0 1c3e 1801 8a3d 083b 683c
00000140: 96e7 8ebd 07ef 79bc b3c3 5fbd d31d b43d
00000150: 0479 093d 4f28 6ebd c482 9bbc 438e bd3c
00000160: 94b7 423c c8ba 413c cf5b f5bd 938c a73d
00000170: 6dfb aabc 1c8e e43c b8eb 273b 3c08 a1bd
00000180: c593 543d 2ec1 0a3e 43ae dfbc f227 abbd
00000190: ee08 2cbd ae64 4b3e 296a 2bbe f555 a9bc
000001a0: 378a 283d 266d 16bd 07d9 683e 0bef 54bc
000001b0: db6f abbe ebd7 0d3e 0b8a 93bd 400c 80bd
000001c0: 6f0d 153d 49b1 33be c131 00be 4409 90bc
000001d0: e802 933c 4c0d 093e 8348 fd3d 4039 dcba
000001e0: 9fca e8bb c480 5e3e df1d eabd b9fd a13c
000001f0: 027f 9a3c aad8 86be d743 883d 78bd 08be
00000200: 5304 a8bd 9099 75be 8ae3 5c3e 7915 60be
00000210: 0eaf 3abc 15c0 973e 3619 983d dd02 6abe
00000220: 5e32 28bb e9e0 3b3d fc84 97bc e7a9 e53d
00000230: 755c 9e3e 533f 7dbe 5af1 fdbd 6df2 283e
00000240: bbc1 73bd 2fc8 46be b9a9 a7bd 5d97 253e
00000250: dc94 d7bd 92f3 52bc 0bbe 4c3e fbb3 f7bc
00000260: 323b 813e a085 51be a966 4bbe 67e1 bb3d
00000270: 8458 b0bd dd1f 0bbe f2f0 22bd 2f5a c33c
00000280: 7740 9e3d 31c3 ffbc a650 a5be 50ec 8ebe
00000290: ced8 993d 56a6 5cbd a755 0cbc 81b1 33bc
000002a0: fe65 163c 3938 0ebe 8a08 4bbd 32f5 afbe
000002b0: 45cc 183e 9435 bfbc f2c5 d3bd 274d 97bd
000002c0: 1929 d33d 068e 8bbc 2937 22bd 4e6d 7cbc
000002d0: 4d57 bb3b 1e38 04bc 3fa5 383e e105 4a3d
000002e0: 869d 693e ec30 05be ff07 663e 7112 cfbd
000002f0: 8616 4e3e 78c3 d9bd 5b51 15be a038 6f3e
00000300: ff81 7bbd b95b d6bd acd7 3abe 68dd 55be
00000310: 8737 c6bc 63d9 bbbd 5b04 0fbe 713a 0b3d
00000320: ef48 d63d 435f 5abc 3e81 4ebe 23bc b13d
00000330: f011 523e c2e3 cf3d fc2c a6bd f06d 66bd
00000340: 5ae4 46bc ed5f 8b3c 273c cebd 21ee cd3d
00000350: f7a6 3fbd 58c8 20be b37a aabd a1d8 32bc
00000360: 6602 32bd 7211 5abe c3f1 963e c9fd 23bd
00000370: dce3 ca3e 0795 d2bd 0542 f53d b74e 753d
00000380: 429d 88bd 49e4 b03d e591 4ebd 1c51 333e
00000390: 4881 c3bd 74cb 81be 5fa1 d33d 60fb bc3d
000003a0: 2eb5 6e3e 014d f8bd 5afe 51bb e632 6fbe
000003b0: 0253 8a3e f5f3 f13a a9b7 50be 88cc 8c3d
000003c0: 6b98 34be 4b8e 0d3e 7a65 8ebc be52 943d
000003d0: a49e 383e 9f68 27be e477 8a3d d906 743e
000003e0: 9983 1ebd 05d4 0ebe f709 efbd a35f b0bd
000003f0: aa9b 86bd 73fe 2e3d db57 46be b1ae 3cbe

network_body.linear_encoder.seq_layers.4.bias f4 [128]
-0.0627081 -0.051608182 0.054870285 -0.055661794 -0.022054184 -0.031892832 -0.049034934 -0.07811061
0.018746564 -0.07566084 0.025833678 0.020489223 -0.05710213 -0.01870535 0.0019027236 -0.055399533
0.03170555 0.061871264 -0.045817655 0.043192893 0.0681815 -0.094672546 -0.05093261 0.051455446
-0.01636275 -0.0750764 -0.06731352 -0.06864506 -0.051026024 0.04107389 -0.015255318 0.017532174
-0.078206666 -0.046058454 -0.037092216 -0.07815337 0.05158474 0.002720815 0.061843507 0.030403348
0.06263841 0.07119781 -0.019835839 -0.049249116 0.010173757 -0.056593582 -0.0630047 0.05326646
-0.08677431 -0.032433555 0.08201729 -0.0461089 0.040885504 0.064852506 0.024201302 0.058618225
-0.0053380188 0.09602265 -0.050904617 0.07019186 -0.041497618 0.101723574 -0.06698805 0.07760529
-0.069900595 -0.056304727 -0.052692726 -0.022911368 0.072723255 0.05817327 -0.04581794 0.04256989
-0.04408715 -0.010371686 0.039781284 0.05140957 0.061336122 0.0045250165 0.05624703 -0.06989922
0.10162727 0.02774333 0.062737435 -0.07196561 0.07064334 -0.033501953 0.04850481 -0.052721873
0.057009455 -0.0073731244 -0.06797921 0.0848714 0.046995226 0.019849438 0.042479094 0.06783644
-0.06704464 -0.040340345 -0.057433225 0.072834305 -0.08954525 0.024150888 -0.063758396 0.057767745
0.029582266 0.052882876 0.09415569 -0.055490516 0.05505197 0.052693687 0.052055977 0.021936513
-0.07036335 0.040060487 -0.071640424 0.06015788 -0.061923254 -0.033576638 0.033228092 0.010883465
0.057856362 0.050701667 0.036994267 0.049436662 -0.07308619 -0.055929795 -0.057086613 0.024176767
00000000: 1b6d 80bd 1a63 53bd aabf 603d 9ffd 63bd
00000010: faaa b4bc 0fa2 02bd dbd8 48bd 75f8 9fbd
00000020: 6592 993c 12f4 9abd 26a1 d33c 04d9 a73c
00000030: ece3 69bd f63b 99bc cf64 f93a 9fea 62bd
00000040: aedd 013d b96c 7d3d 4bab 3bbd 08eb 303d
00000050: bea2 8b3d aee3 c1bd b69e 50bd f2c2 523d
00000060: 2d0b 86bc a8c1 99bd acdb 89bd c895 8cbd
00000070: aa00 51bd 183d 283d 71f1 79bc a29f 8f3c
00000080: d12a a0bd caa7 3cbd 02ee 17bd e00e a0bd
00000090: 854a 533d b34f 323b 9e4f 7d3d 7110 f93c
000000a0: 9148 803d 28d0 913d c57e a2bc 71b9 49bd
000000b0: d4af 263c acce 67bd 9c08 81bd ee2d 5a3d
000000c0: bbb6 b1bd 0cd9 04bd aef8 a73d b0dc 3cbd
000000d0: 8f77 273d 64d1 843d cf41 c63c aa19 703d
000000e0: 8cea aebb 86a7 c43d 5c81 50bd c0c0 8f3d
000000f0: 68f9 29bd 7354 d03d 0831 89bd 86ef 9e3d
00000100: 0b28 8fbd c99f 66bd 54d4 57bd 9fb0 bbbc
00000110: eeef 943d 1847 6e3d 98ab 3bbd c45d 2e3d
00000120: ba94 34bd 01ee 29bc b3f1 223d d792 523d
00000130: 963b 7b3d 9746 943b 4963 663d 5227 8fbd
00000140: f521 d03d fb45 e33c 7c7c 803d b562 93bd
00000150: 75ad 903d 5839 09bd fbac 463d e4f2 57bd
00000160: bf82 693d 409a f1bb af38 8bbd 0ed1 ad3d
00000170: 117e 403d 4a9b a23c 8ffe 2d3d d5ed 8a3d
00000180: b34e 89bd eb3b 25bd 1a3f 6bbd 272a 953d
00000190: 8063 b7bd 15d8 c53c c393 82bd df9d 6c3d
000001a0: 8256 f23c b79b 583d b3d4 c03d 064a 63bd
000001b0: 2d7e 613d 56d5 573d a638 553d 34b4 b33c
000001c0: a91a 90bd 7716 243d 37b8 92bd 1c68 763d
000001d0: 3da3 7dbd a887 09bd 2e1a 083d 9050 323c
000001e0: cbfa 6c3d 8dac 4f3d 4d87 173d 197e 4a3d
000001f0: 36ae 95bd a416 65bd a7d3 69bd 5b0e c63c

network_body.linear_encoder.seq_layers.4.weight f4 [128, 128]
-0.1020971 0.040181093 -0.13238664 0.023780836 -0.18390118 0.17357764 -0.10535068 -0.0010827996
-0.015589315 -0.08882494 -0.14872593 0.05267677 -0.08955806 -0.30125532 -0.048695985 -0.053864695
-0.13860203 0.130831 -0.115649395 -0.037451535 -0.011905134 0.2329284 0.116731845 0.124468036
-0.10389001 0.019068945 -0.0031974562 -0.16888964 0.09438204 0.1391397 -0.05089753 0.23750356
0.0041800058 0.0035409508 0.10084397 0.018206505 0.12068678 -0.044877786 -0.118105456 -0.13220242
0.06506684 0.03829101 -0.11250073 -0.2207872 -0.12976632 -0.015259167 -0.07123486 -0.0989547
0.08722877 -0.2639737 0.18078025 0.16148984 0.10447893 -0.0296502 0.12531249 0.055708703
0.019986946 -0.07462282 -0.13877769 -0.005573534 0.06498985 -0.042281535 -0.016557561 -0.08058147
0.021401335 -0.040215537 -0.17859164 0.0035305591 0.045626886 -0.15607831 0.11590408 0.11167268
0.012077517 0.07120029 -0.030008724 -0.2394916 -0.035267465 0.16268355 -0.17939395 0.1948813
0.017218238 0.029019898 -0.1261015 -0.28155938 0.008446471 0.117218785 0.19801502 -0.03088227
0.015733296 -0.18809403 0.14269628 -0.07367233 0.10396383 0.10111155 0.110138595 -0.027006166
-0.09686885 0.060725115 0.02758657 -0.1646468 0.014790102 0.009276994 0.059554208 -0.108281285
0.12273375 -0.0018776425 -0.03780116 0.021939276 -0.16194487 -0.0024746927 -0.09435491 0.19931002
-0.1347466 -0.16315077 0.0032090899 -0.0808737 -0.037788685 -0.16255985 0.0417309 -0.016354345
0.11040126 0.13097015 0.1465004 0.083972745 0.07010092 -0.12063409 0.06543055 0.07151365
-0.18128875 0.0599331 -0.1679133 0.12039215 0.10429925 0.055008862 -0.09593446 -0.30188683
-0.050650403 -0.08273492 -0.18873185 0.035501458 0.039936095 -0.32102725 -0.08277791 0.074788116
-0.18356109 0.01193442 0.10657623 0.039958913 -0.076118544 0.117998585 0.106229246 -0.104114465
-0.04752947 -0.01947003 0.009142968 -0.25484926 0.16132614 0.16905636 -0.11103217 -0.04115286
-0.012315346 0.11324478 0.020013696 -0.1649465 0.12239589 -0.26739964 0.008687479 0.09305476
0.09588325 0.014889495 -0.13195834 -0.007682126 0.12912922 0.10257555 0.0936152 -0.030180238
0.17937341 -0.23863187 -0.10667197 0.014771611 0.043607473 0.1512751 -0.023579197 0.17555164
-0.07230916 -0.10103233 -0.04858079 -0.13929175 -0.12586959 -0.17085895 0.011436659 -0.11562025
0.002940055 0.062517546 -0.08215874 0.05954706 -0.049571883 -0.15781435 -0.091351956 0.04549214
-0.073067576 0.14163888 -0.20168698 -0.023481973 -0.121508785 0.07190094 0.0027890783 0.23301998
0.18264937 -0.02938189 -0.1204888 -0.08086638 -0.05975723 0.13681309 0.04664063 0.0184243
-0.06534393 0.11529847 0.012030033 -0.2313322 0.047220226 -0.058369767 0.020081252 0.12582031
0.032878637 -0.056935497 0.08638517 -0.15106815 -0.12142304 -0.13893557 -0.020813594 -0.18862228
0.020701233 0.1596648 0.04183978 0.05143868 -0.104833946 -0.06022463 0.053338833 0.22626524
-0.17692545 -0.20494539 0.08920567 0.1639078 -0.071230285 -0.07475821 -0.019530872 -0.02587555
-0.05911702 -0.14519587 0.1537032 0.10474644 -0.0008018283 -0.20072515 0.048712663 0.20316692
00000000: 4918 d1bd ee94 243d 5d90 07be 07d0 c23c
00000010: 9750 3cbe 56be 313e 19c2 d7bd baec 8dba
00000020: 546a 7fbc dae9 b5bd 9c4b 18be 99c3 573d
00000030: 376a b7bd 233e 9abe 7175 47bd 3aa1 5cbd
00000040: b1ed 0dbe 90f8 053e 97d9 ecbd c866 19bd
00000050: c00d 43bc c884 6e3e 1b11 ef3d 19e9 fe3d
00000060: 49c4 d4bd 7a36 9c3c 6a8c 51bb 68f1 2cbe
00000070: 5f4b c13d a37a 0e3e ee79 50bd 2234 733e
00000080: 6ef8 883b 4c0f 683b 4987 ce3d cf25 953c
00000090: a12a f73d c5d1 37bd 46e1 f1bd 1260 07be
000000a0: c341 853d 09d7 1c3d c866 e6bd 0a16 62be
000000b0: 76e1 04be 9601 7abc 95e3 91bd c3a8 cabd
000000c0: ffa4 b23d 9027 87be 751e 393e 985d 253e
000000d0: 0df9 d53d fae4 f2bc eb51 003e cf2e 643d
000000e0: aabb a33c d9d3 98bd bd1b 0ebe 31a2 b6bb
000000f0: 6619 853d 672f 2dbd b9a3 87bc e607 a5bd
00000100: da51 af3c 0cb9 24bd bae0 36be f460 673b
00000110: 42e3 3a3d fed2 1fbe 1e5f ed3d a5b4 e43d
00000120: c7e0 453c 75d1 913d dbd4 f5bc 493d 75be
00000130: 9e74 10bd 8496 263e 0cb3 37be f78e 473e
00000140: 430d 8d3c 23bb ed3c c020 01be 8d28 90be
00000150: 1163 0a3c 6710 f03d 73c4 4a3e d0fc fcbc
00000160: 1de3 803c b99b 40be f91e 123e 85e1 96bd
00000170: fdea d43d 9313 cf3d 5890 e13d 093c ddbc
00000180: 2d63 c6bd e6ba 783d 3bfd e13c 2c99 28be
00000190: 2f52 723c 88fe 173c 1def 733d 94c2 ddbd
000001a0: d55b fb3d 3a1b f6ba 64d5 1abd ffb9 b33c
000001b0: e0d4 25be 742e 22bb 263d c1bd ed17 4c3e
000001c0: 03fb 09be ff10 27be 984f 523b 1ca1 a5bd
000001d0: 4fc8 1abd 1776 26be 05ee 2a3d 8cf9 85bc
000001e0: 0e1a e23d 0a1d 063e 3304 163e e7f9 ab3d
000001f0: 1291 8f3d 010f f7bd 7400 863d c075 923d
00000200: c2a3 39be 697c 753d 77f1 2bbe 2990 f63d
00000210: d89a d53d f950 613d 4979 c4bd e990 9abe
00000220: cc76 4fbd ed70 a9bd ec42 41be fa69 113d
00000230: 0894 233d af5d a4be 7787 a9bd 832a 993d
00000240: 70f7 3bbe 9688 433c a344 da3d f5ab 233d
00000250: 0ae4 9bbd 3ea9 f13d b88e d93d f739 d5bd
00000260: 43ae 42bd 9d7f 9fbc 63cc 153c 9a7b 82be
00000270: ae32 253e 1c1d 2d3e d664 e3bd e78f 28bd
00000280: 4ec6 49bc e1ec e73d c3f3 a33c bce7 28be
00000290: b2aa fa3d 9be8 88be ee55 0e3c 7e93 be3d
000002a0: 705e c43d 12f3 733c 1620 07be 58ba fbbb
000002b0: 733a 043e 2113 d23d 53b9 bf3d 8c3c f7bc
000002c0: aaad 373e ea5b 74be d576 dabd a104 723c
000002d0: c09d 323d dce7 1a3e 2929 c1bc cfc3 333e
000002e0: d316 94bd 0aea cebd a7fc 46bd 7fa2 0ebe
000002f0: f5e3 00be a6f5 2ebe d360 3b3c 4fca ecbd
00000300: f0ad 403b 3309 803d d742 a8bd 9ee7 733d
00000310: e30b 4bbd 169a 21be bc16 bbbd f755 3a3d
00000320: 74a4 95bd c809 113e 0887 4ebe 445d c0bc
00000330: 99d9 f8bd cd40 933d f8c8 363b ca9c 6e3e
00000340: 7008 3b3e 4ab2 f0bc d5c2 f6bd 469d a5bd
00000350: ffc3 74bd bb18 0c3e 3f0a 3f3d 8fee 963c
00000360: 0ad3 85bd 9b21 ec3d 9e19 453c 59e2 6cbe
00000370: ff69 413d 2315 6fbd 7081 a43c 0ad7 003e
00000380: c0ab 063d 3235 69bd b5ea b03d 9cb1 1abe
00000390: a5ac f8bd 2045 0ebe 4581 aabc 3326 41be
000003a0: a295 a93c 2b7f 233e 3060 2b3d 5eb1 523d
000003b0: 2eb3 d6bd 1aae 76bd d279 5a3d 13b2 673e
000003c0: f22b 35be 34dd 51be 76b1 b63d 72d7 273e
000003d0: 2fe1 91bd d51a 99bd 35ff 9fbc f6f8 d3bc
000003e0: b024 72bd 3aae 14be 5f64 1d3e 4d85 d63d
000003f0: c931 52ba e58a 4dbe ee86 473d fd0a 503e
