results/rdesktop_run_001/Robotarm/Robotarm-3999936.onnx (onnx, 147507 bytes, 9 tensors)

action_model._continuous_distribution.log_sigma f4 [1, 5]
0	0xc0529943	-3.2906044
1	0xc03b9ad2	-2.9313245
2	0xc0375130	-2.8643303
3	0xbfa4fec7	-1.2890252
4	0xbf657bcc	-0.89642024

action_model._continuous_distribution.mu.bias f4 [5]
0	0x3d31b935	0.043389518
1	0x3da6c75c	0.081434935
2	0xbd1b29b9	-0.037881587
3	0xbdfa4291	-0.12219728
4	0x3da78b02	0.081808105

action_model._continuous_distribution.mu.weight f4 [5, 128]
0	0xbd1f8d70	-0.038953245
1	0x39017ae9	0.00012348186
2	0x3d0a5a13	0.033777308
3	0xbcf22462	-0.029558364
4	0x3b09b3f3	0.00210118
5	0x3dc14aa7	0.09438067
6	0xbd7441d8	-0.059633106
7	0xbd700a70	-0.058603704
8	0xbcbeacbb	-0.023275724
9	0xbce4f110	-0.027946979
10	0x3cc17fde	0.023620542
11	0xbd522547	-0.05130508
12	0xbd6c6576	-0.05771395
13	0x3d876ef3	0.06612959
14	0xbe0bd238	-0.13654411
15	0xbca1b06f	-0.01973745
16	0x3d2c7d81	0.042111877
17	0xbb1c87ed	-0.002388473
18	0xbc65286e	-0.01398669
19	0x3b3672e8	0.0027839486
20	0xbc61b6ef	-0.013776525
21	0xbd24fdbd	-0.040281046
22	0xbcf5f1c1	-0.030022504
23	0xbc888594	-0.016665258
24	0xbd1cf8dd	-0.038323272
25	0xbd072636	-0.032995425
26	0x3aa9c23f	0.0012951567
27	0xbcd3dc73	-0.025861954
28	0xbd214e5e	-0.039381377
29	0xbd262334	-0.040560916
30	0xbd037357	-0.03209242
31	0xbd5128f8	-0.05106446
32	0xbcd7d38a	-0.026345987
33	0xbd239405	-0.039936084
34	0x3c9b4efe	0.018958565
35	0xbb6c6d40	-0.003607586
36	0xbd724265	-0.05914535
37	0x3df208ac	0.1181806
38	0xbb9ed4b2	-0.0048471326
39	0xbdb3cdf3	-0.08779516
40	0x3b8172a8	0.0039504357
41	0x3d19a023	0.037506234
42	0xbda255e6	-0.0792654
43	0xbc98a784	-0.018634565
44	0xbd7d7591	-0.0618797
45	0x3c56c546	0.013108557
46	0x3be7fc0b	0.0070796064
47	0xbbd575a8	-0.00651427
48	0xbb812c61	-0.003942058
49	0xbd813c2c	-0.06310305
50	0xbbbba298	-0.00572617
51	0xbd4575f7	-0.048208203
52	0x3caad305	0.020852575
53	0x3d1fee45	0.03904559
54	0xbd22d6ed	-0.03975575
55	0x3d5a66ec	0.05332081
56	0x3cf8893e	0.03033888
57	0x3d49b591	0.04924542
58	0xbc7a8c07	-0.015292174
59	0x3cf11e59	0.029433416
60	0xbccc3a00	-0.02493
61	0x3d3077e2	0.04308308
62	0xbc33f14b	-0.010982822
63	0x3c0fa4ec	0.008767348
64	0xbc9d388c	-0.019192003
65	0xbd1607b8	-0.036628455
66	0xbd2e4ea7	-0.042555477
67	0x3d7b48d9	0.06134877
68	0xbae1cc9f	-0.001722712
69	0xbc8b6fd7	-0.017021103
70	0xbc4ad854	-0.012380678
71	0x3d37ae4f	0.044843968
72	0xbd34cf41	-0.044142965
73	0x3d3c5770	0.045981824
74	0xbbe09546	-0.0068537323
75	0x3ca7c4da	0.020479608
76	0xbb6259ee	-0.0034538466
77	0xbd62f9e7	-0.055414107
78	0xbc5394aa	-0.012913862
79	0xbd3dc642	-0.04633165
80	0x3d148036	0.036255084
81	0xbc26e9d1	-0.010187582
82	0x3c32839d	0.010895637
83	0xbd4456bc	-0.04793428
84	0x3c39da5b	0.011343564
85	0xbc3ef9e4	-0.011656258
86	0x3cf91778	0.030406699
87	0xbc8edde6	-0.017439794
88	0xbb993f63	-0.0046767457
89	0x3d90caf0	0.07069957
90	0xba095b5e	-0.000523975
91	0x3d64aeba	0.055830695
92	0xbc38d7a1	-0.011281879
93	0x3dba942b	0.09110292
94	0xbd837570	-0.06418884
95	0x3b5cfd07	0.0033720152
96	0xbd2647f1	-0.040595952
97	0xbd241abe	-0.040064566
98	0xbcefaf04	-0.029258259
99	0x3d0e892d	0.03479879
100	0xbcef2555	-0.029192606
101	0xbca74f44	-0.020423539
102	0xbd32bf48	-0.04363945
103	0x3cc3f9ab	0.023922762
104	0x3c74cb62	0.014941068
105	0x3cb9c147	0.02267517
106	0x3d575307	0.052569415
107	0xbccb30b9	-0.024803506
108	0xbc23c6db	-0.009996141
109	0xbc15d7e9	-0.009145715
110	0xbae4424d	-0.0017414779
111	0x3cfbb58f	0.030726222
112	0x3c30398d	0.010755909
113	0x3c943824	0.018093176
114	0xbc762bf4	-0.015025128
115	0x3c0c15dd	0.0085501345
116	0xbcec481c	-0.028842978
117	0xba60410b	-0.0008554614
118	0x3c8a1847	0.01685728
119	0xbb16bfff	-0.0023002622
120	0x3bf931e0	0.0076048225
121	0xba91c363	-0.0011120852
122	0x3c6f0726	0.014589107
123	0x3da4e076	0.08050625
124	0xbd07979f	-0.03310358
125	0xbaf0420b	-0.0018330229
126	0xbd206451	-0.03915817
127	0x3d6553bf	0.05598807
128	0xbdc784ec	-0.0974215
129	0xbda58291	-0.08081544
130	0x3cf401db	0.029786041
131	0xbdba4504	-0.09095195
132	0xbc5e954a	-0.013585398
133	0xbcd3b272	-0.025841925
134	0xbdb85fd6	-0.09002654
135	0xbdbef3a3	-0.09323814
136	0x3ccb7841	0.024837615
137	0xbda8cc53	-0.08242097
138	0xbc7e8cb2	-0.015536474
139	0x3cc00d9f	0.023443995
140	0xbd8f9ac8	-0.07011944
141	0xbe0a9b74	-0.13535863
142	0x3e2cd663	0.16878657
143	0xbdadab8a	-0.08479984
144	0x3e06453e	0.13112351
145	0xbb8ecefc	-0.0043581706
146	0xbdab0bc2	-0.08351852
147	0xbc83a287	-0.01606871
148	0x3c335a9d	0.010946897
149	0xbd90ca62	-0.070698515
150	0xbd6fdf3d	-0.058562506
151	0xbbfaf1e1	-0.0076582287
152	0x3bd61a24	0.006533878
153	0xbdbab4af	-0.09116494
154	0xbe0fb047	-0.14032088
155	0xbe127085	-0.14300735
156	0xbddae4d4	-0.10688177
157	0x3cb6ee94	0.02233056
158	0x3db5cb7e	0.08876704
159	0x3d07b6f8	0.033133477
160	0xbdc0878e	-0.09400855
161	0xbdd8a446	-0.10578208
162	0xbda7dc00	-0.081962585
163	0xbdd0e2e7	-0.10199528
164	0x3d7247cc	0.059150502
165	0xbcd4a2ba	-0.0259565
166	0x3d54f91f	0.051995393
167	0x3d876241	0.06610537
168	0x3b18412e	0.002323221
169	0x3d2cfb6a	0.042231955
170	0xbc126b2a	-0.008936683
171	0xbce297ef	-0.027660338
172	0x3e18c406	0.14918527
173	0xbc356115	-0.011070509
174	0xbab54679	-0.0013830207
175	0x3d7baa1b	0.061441522
176	0xbcdb1c03	-0.026746755
177	0xbdfdbabc	-0.123891324
178	0x3da6f33e	0.081518635
179	0xbe026c1d	-0.12736554
180	0x3d80eb5e	0.06294893
181	0x3d161745	0.036643285
182	0x3d0629a5	0.03275456
183	0x3d0930fa	0.033493973
184	0xbd371a93	-0.044703078
185	0x3d94637d	0.072455384
186	0xbde1b515	-0.11020867
187	0x3d1c9a8b	0.03823332
188	0xbdd1814a	-0.10229738
189	0x3d8b805b	0.06811591
190	0xbdf51a1b	-0.1196787
191	0x3d1f3824	0.0388719
192	0xbde61517	-0.11234491
193	0xbdd7ede8	-0.10543424
194	0xbdc82c6c	-0.09774098
195	0xbd85cc7b	-0.06533142
196	0x3d27910e	0.04090982
197	0x3b6fdaf5	0.0036599014
198	0xbda58f56	-0.0808398
199	0x3c0185da	0.007905448
200	0xbdb8336f	-0.08994185
201	0xbe1b0e02	-0.15142062
202	0xb7fd8ade	-3.0224615e-05
203	0x3d014e96	0.031569086
204	0x3ad5c369	0.0016308847
205	0x3d8bf0cd	0.068330385
206	0x3d146a5d	0.03623425
207	0xbddad671	-0.10685433
208	0x3d6eba5c	0.058283195
209	0xbc095c02	-0.008383753
210	0x3d1ec94f	0.0387662
211	0xbd7f62b4	-0.06234999
212	0x3e30d0a5	0.17267092
213	0xbc2a84a9	-0.010407605
214	0x3cc9dab5	0.02464042
215	0xbda14aa0	-0.07875562
216	0x3c441606	0.011968141
217	0xbdc29bc5	-0.09502367
218	0xbd97c0a8	-0.07409793
219	0x3d415d58	0.04720816
220	0x3bcbd3f2	0.006220334
221	0xbdca90e3	-0.09890916
222	0x3d77b40e	0.060474448
223	0x3cdcc219	0.026948022
224	0xbe006beb	-0.12541167
225	0xbd8e1cfb	-0.06939121
226	0xbd8fc51b	-0.07020017
227	0x3cb1589d	0.0216487
228	0xbdaef5bc	-0.08542964
229	0xbaecc4d0	-0.0018064026
230	0xbdd8c9eb	-0.10585388
231	0x3d7a40a4	0.061096802
232	0x3cf566ac	0.029956184
233	0x3ce45925	0.027874539
234	0x3d9d7083	0.076874755
235	0xbdae0b98	-0.08498305
236	0xbb5d2f51	-0.0033750127
237	0x3b90ba07	0.0044167074
238	0x3cb90f95	0.022590438
239	0x3c7eff50	0.015563801
240	0xbd34c472	-0.044132657
241	0xba65344d	-0.000874345
242	0xbd9eaa25	-0.07747296
243	0x3c38c347	0.0112770265
244	0xbd9fbd7e	-0.07799815
245	0x3bdf454e	0.0068136817
246	0x3c831d98	0.016005322
247	0x3b3c2789	0.0028710088
248	0x3cee8a10	0.029118568
249	0x3c734f1c	0.014850404
250	0x3b105916	0.0022025756
251	0xbc8bc343	-0.017060881
252	0xbdd83a9c	-0.10558054
253	0xbd801bf5	-0.062553324
254	0xbddc5973	-0.107592486
255	0x3de0fe60	0.10986018

network_body.linear_encoder.seq_layers.0.bias f4 [128]
0	0x3cc15b7a	0.02360319
1	0x3daaffc9	0.083495684
2	0xbd0ba85e	-0.034096114
3	0xbcdadf65	-0.026717851
4	0x3cfc9524	0.030832835
5	0xbd30c7b3	-0.043159198
6	0x3b1dbd15	0.0024069
7	0x3d8e6290	0.06952393
8	0x3b081248	0.002076285
9	0x3da4ca13	0.08046355
10	0x3d789e6b	0.060697954
11	0xbd205ed3	-0.03915293
12	0xbcf1872d	-0.029483402
13	0x3abf1b6a	0.0014580314
14	0x3c71f31b	0.0147674335
15	0xbcb8902f	-0.02252969
16	0x3e00a484	0.12562758
17	0x3d85d34e	0.06534444
18	0xbdc35a10	-0.095386624
19	0xbc8ce364	-0.017198272
20	0x3d07650d	0.033055354
21	0x3cb30364	0.021852203
22	0x3e0f4c7b	0.13994019
23	0x3dc6d587	0.09708696
24	0x3d647fc8	0.055785924
25	0xbda68782	-0.08131315
26	0x3ce509c1	0.027958753
27	0xbde57014	-0.11203018
28	0xbb96c470	-0.004601054
29	0x3d958e39	0.073025174
30	0xbe00b08b	-0.12567346
31	0x3dc6d8a6	0.09709291
32	0xbce860d1	-0.028366478
33	0x3db14440	0.08655596
34	0xbd03ae94	-0.032148913
35	0x3d49ea3b	0.049295645
36	0xbc653090	-0.013988629
37	0x3d7d7d82	0.06188727
38	0x3d424eca	0.04743842
39	0xbc511cf5	-0.012763252
40	0x3dd0f6b6	0.102033064
41	0x3db39cc6	0.087701365
42	0x3d0aad64	0.033856764
43	0x3d33cc5e	0.04389607
44	0xbd897a33	-0.06712761
45	0xbe1d4b7a	-0.15360823
46	0xbc714b2b	-0.014727394
47	0x3d350fa5	0.044204373
48	0x3d749db1	0.0597207
49	0x3d8cef0f	0.06881534
50	0x3d4bddf1	0.049772207
51	0x3e1bc97d	0.1521358
52	0x3ddedeae	0.108823165
53	0x3ce7469e	0.028231915
54	0x3dc0e92c	0.09419474
55	0xbcc7b00d	-0.02437594
56	0xbbfff9f3	-0.0078117787
57	0x3cb06644	0.021533139
58	0x3dce910e	0.10086261
59	0x3d8f3e55	0.06994311
60	0x3e1e0a99	0.1543373
61	0x3d6af003	0.0573578
62	0x3da82072	0.082093135
63	0x3ca41414	0.020029105
64	0x3c962d67	0.018332196
65	0x3db10809	0.08644111
66	0x3d463dd8	0.048398823
67	0x3d0ecccc	0.03486328
68	0x3bc4c968	0.006005455
69	0x3db11595	0.086466946
70	0x3da6909d	0.081330515
71	0x3c1fbbc6	0.0097493585
72	0x3d17086a	0.03687326
73	0x3c8dd3dc	0.017312936
74	0x3d9a961e	0.07548164
75	0xbd84549e	-0.06461452
76	0xba70f753	-0.00091921276
77	0x3e0111c8	0.1260444
78	0x3d3bcd00	0.0458498
79	0xbcdb28c1	-0.026752831
80	0x3dd98cef	0.10622584
81	0x3b63779a	0.003470874
82	0x3d3a4737	0.045478072
83	0xbd62f237	-0.055406775
84	0xbcde5e4f	-0.02714458
85	0x3d509db1	0.050931636
86	0xbd0056cb	-0.031332772
87	0xbce4723e	-0.027886506
88	0xbb88bb8b	-0.0041727475
89	0x3d299073	0.041397523
90	0xbd0f2115	-0.03494366
91	0x3d76869b	0.060186964
92	0x3c980a32	0.018559549
93	0xbc8543bb	-0.016267648
94	0xbdabb9c5	-0.08385042
95	0xbb876faa	-0.0041331844
96	0x3e252c9d	0.161303
97	0xbd8b64cb	-0.06806334
98	0x3d62931f	0.055316087
99	0xbc27eb54	-0.010248978
100	0x3d814dcd	0.063136674
101	0x3dd2efb1	0.10299624
102	0x3c5af370	0.013363704
103	0x3a539cf8	0.00080724014
104	0x3d42ca0b	0.047555964
105	0x3d157aef	0.03649419
106	0x3d8a5ec1	0.06756354
107	0x3d6155a4	0.055013314
108	0xbd441451	-0.047870938
109	0x3cd6cf3a	0.02622186
110	0x3da4545c	0.08023903
111	0x3dc85a6f	0.09782874
112	0x3d82f8d7	0.06395119
113	0xbc83258b	-0.016009113
114	0x3da82432	0.08210029
115	0x3dd3b578	0.10337347
116	0xbd59bf69	-0.05316106
117	0x3d44be57	0.048033085
118	0xbd715a1d	-0.05892383
119	0xbd1ab440	-0.037769556
120	0x3d5042b7	0.050844874
121	0x3d78400e	0.060607962
122	0x3d91335b	0.070898734
123	0x3d4fe24b	0.05075292
124	0x3d90817c	0.07055947
125	0xbc007f3e	-0.007842837
126	0xbc9e80bc	-0.019348495
127	0x3d768edc	0.060194835

network_body.linear_encoder.seq_layers.0.weight f4 [128, 19]
0	0xbf0dbfc6	-0.5537075
1	0xbe7d3833	-0.2472847
2	0x3f022ca3	0.5084936
3	0x3da1a4ea	0.07892783
4	0x3ea97af7	0.33101627
5	0x3d1bb521	0.038014535
6	0x3c9eee01	0.019400598
7	0x3e4c6444	0.19960123
8	0xbd7a8370	-0.061160505
9	0xbde5d9db	-0.11223193
10	0xbe9f4b87	-0.3111231
11	0xbea56802	-0.32305914
12	0xbe8f9fe4	-0.28051674
13	0x3ee0f9f5	0.43940702
14	0xbe71bc27	-0.2360693
15	0xbe68bc9f	-0.22728203
16	0xbd4ed5f4	-0.05049701
17	0x3eb89683	0.3605233
18	0xbdfeb7f8	-0.12437433
19	0x3e00d959	0.12582912
20	0xbf142292	-0.5786525
21	0xbe14df2e	-0.14538261
22	0x3ee05969	0.43818215
23	0x3e440608	0.19142926
24	0xbedf8aa1	-0.43660453
25	0x3e27ae05	0.16374977
26	0x3d08e76a	0.03342382
27	0xbe8e59b5	-0.27802816
28	0x3e081a82	0.13291362
29	0x3cda85be	0.026675101
30	0xbe88ee26	-0.26744193
31	0x3d8a9842	0.06767322
32	0xbe313c90	-0.17308259
33	0x3e9e2ef3	0.30895194
34	0x3e61ebfb	0.22062676
35	0x3df87bd2	0.12132992
36	0xbeaa4975	-0.33259168
37	0x3da89a3e	0.08232544
38	0xbea3a7a1	-0.31963828
39	0xbdc6b395	-0.09702221
40	0xbd9d1306	-0.07669644
41	0x3e79df58	0.24401605
42	0xbe55d4aa	-0.20881906
43	0x3d557b8e	0.052119784
44	0xbe9057bf	-0.28191945
45	0xbef9a9e0	-0.48762417
46	0x3e882733	0.26592407
47	0x3e4f5623	0.20247702
48	0xbdff8114	-0.124757916
49	0x3b2e7046	0.0026617213
50	0x3dbcb9ee	0.09215151
51	0x3f08e6f7	0.53477424
52	0xbd3385e8	-0.043828875
53	0x3e046d35	0.12932284
54	0xbdb66eb5	-0.089078344
55	0xbe950bc4	-0.2911054
56	0xbdf37195	-0.118868984
57	0xbdccb67e	-0.09995745
58	0xbe85a850	-0.26104975
59	0x3e0a7c41	0.13523962
60	0x3e30270e	0.17202398
61	0x3dca4d50	0.098780274
62	0x3e73a6eb	0.23794143
63	0xbbfa234d	-0.0076336027
64	0xbda5381d	-0.080673434
65	0x3e06950c	0.13142794
66	0xbec2c8a0	-0.3804369
67	0x3e52ae71	0.20574357
68	0xbf00b5ed	-0.50277597
69	0x3e700ca7	0.23442326
70	0xbe111944	-0.14169794
71	0x3decb0e4	0.11557177
72	0xbdda4a75	-0.10658733
73	0xbdfc8efe	-0.12331961
74	0x3eeba12a	0.46021396
75	0x3df8eb56	0.12154262
76	0xbd23c10a	-0.03997902
77	0xbbc5f3c0	-0.00604102
78	0xbe6a4b05	-0.2288018
79	0xbe3c71e3	-0.1840282
80	0x3de6fde0	0.112788916
81	0xbd832bd6	-0.064048454
82	0xbea58a76	-0.323322
83	0xbe64458c	-0.22292155
84	0x3e11df1f	0.1424527
85	0xbdd1f63e	-0.10252045
86	0xbca1bcb7	-0.019743307
87	0xbe8ca7fb	-0.2747191
88	0xbdf6d379	-0.12052054
89	0xbeb5713c	-0.35437953
90	0x3e3e6968	0.18594897
91	0x3d1b7ac4	0.037958875
92	0x3ea167d6	0.31524533
93	0x3e15c468	0.14625704
94	0x3e079799	0.13241424
95	0xbdef265e	-0.1167724
96	0xbec71e1f	-0.38890168
97	0x3ee757f7	0.451843
98	0x3ee2b8e7	0.44281694
99	0x3d9af33c	0.075659245
100	0x3d72f271	0.05931324
101	0x3da025d7	0.078197174
102	0x3e0932c4	0.13398272
103	0x3e2dd2a5	0.16974886
104	0x3e2be4a3	0.16786437
105	0xbea48a26	-0.3213665
106	0xbe20f9cc	-0.1572029
107	0xbd53233f	-0.051547285
108	0xbdf0eef8	-0.1176433
109	0xbd38a3af	-0.045077976
110	0xbde27d4a	-0.11059053
111	0xbd220915	-0.039559443
112	0xbdcdbafd	-0.10045431
113	0x3e7152b6	0.23566708
114	0xbe3f207c	-0.18664736
115	0xbe2c864f	-0.1684811
116	0xbdaf7f7f	-0.0856924
117	0x3e0f5109	0.13995756
118	0x3dfeeefb	0.12447926
119	0x3ebd5051	0.3697534
120	0x3c6fd7f5	0.0146388905
121	0x3e82c1e5	0.25538555
122	0xbb1d8323	-0.0024034462
123	0x3d8a3754	0.06748834
124	0xbe557fd0	-0.20849538
125	0x3e1e621a	0.1546711
126	0xbea60d17	-0.32431862
127	0x3ee3b51d	0.44474116
128	0x3df4e347	0.11957412
129	0xbe0226b1	-0.12710072
130	0x3dc095f4	0.09403601
131	0xbdcd7f5f	-0.1003406
132	0xbd069fd7	-0.03286728
133	0x3d3eb79d	0.046561826
134	0xbdbbf48c	-0.09177503
135	0xbecb2fe9	-0.3968499
136	0xbc0614d2	-0.008183675
137	0xbe3f8f75	-0.18707068
138	0x3eb57f59	0.3544872
139	0xbbbd8b0f	-0.0057843993
140	0x3e90abcd	0.28256074
141	0xbeadfa28	-0.33979917
142	0x3bd8f959	0.0066215214
143	0xbe13d51b	-0.14436762
144	0x3de92e28	0.11385757
145	0xbd148805	-0.03626253
146	0xbe84af7c	-0.25915134
147	0x3eba20ed	0.36353245
148	0xbee2b1e4	-0.44276345
149	0x3e9fa1c0	0.31178093
150	0xbd978476	-0.07398312
151	0xbe872ab5	-0.2639977
152	0x3d69b817	0.057060327
153	0xbbc23583	-0.0059267893
154	0x3e49c38b	0.197035
155	0x3ed0f8fe	0.40814966
156	0xbe5aa558	-0.21352136
157	0xbf095750	-0.53648853
158	0xbb7e996b	-0.0038848768
159	0x3e873029	0.2640393
160	0xbdcd3516	-0.10019891
161	0x3ba9918b	0.005174821
162	0x3dc14f3d	0.09438942
163	0xbeacf14d	-0.33777848
164	0xbe78249f	-0.2423272
165	0x3e6ec63f	0.23317812
166	0x3d94ac97	0.072594814
167	0xbeb1dbd7	-0.34738037
168	0x3eb56dac	0.35435236
169	0x3ee5cf11	0.44884542
170	0x3f17dea5	0.59324104
171	0x3cb0bd4b	0.021574637
172	0x3ea3dae8	0.3200295
173	0xbe2ce02f	-0.16882394
174	0xbcbfbebd	-0.02340638
175	0xbea10f30	-0.314569
176	0x3e86d9eb	0.26338133
177	0xbdd5c2b5	-0.10437528
178	0xbdda6563	-0.10663869
179	0xbe22fd73	-0.15916996
180	0x3e0c48f1	0.136997
181	0x3e881cbc	0.26584423
182	0x3ea46f82	0.32116324
183	0xbc7ea5b9	-0.015542441
184	0xbdd23941	-0.102648266
185	0x3da68c8a	0.081322744
186	0x3ecea909	0.4036334
187	0x3dc54717	0.096327
188	0x3daa0d30	0.083032966
189	0x3ea05375	0.31313673
190	0x3ea87fd3	0.32910022
191	0xbe1fc0c4	-0.15600878
192	0xbdfe09db	-0.124042235
193	0xbef3e124	-0.47632706
194	0x3da5de7b	0.080990754
195	0x3e2ace8e	0.16680357
196	0x3e41b75d	0.18917604
197	0x3da24792	0.07923807
198	0x3e33c0b7	0.17553984
199	0x3e73147e	0.23738286
200	0xbf40ce92	-0.753152
201	0xbe0a25b1	-0.1349094
202	0xbe176ec4	-0.14788347
203	0xbe16c8cd	-0.14725037
204	0x3ed025e8	0.4065392
205	0xbde390a4	-0.111115724
206	0xbe4772de	-0.19477412
207	0xbea06668	-0.3132813
208	0xbd6e8718	-0.058234304
209	0xbe81aeca	-0.25328666
210	0xbe4baa12	-0.19889095
211	0x3c9a49d4	0.018834032
212	0x3ec2ba93	0.3803297
213	0x3d98e22e	0.07465015
214	0xbe54ae17	-0.20769535
215	0x3e5701b4	0.20996743
216	0x3e0842dc	0.13306755
217	0xbe154068	-0.1457535
218	0x3e054be4	0.13017231
219	0x3e022057	0.12707649
220	0x3defcbaa	0.11708768
221	0x3d7f88aa	0.062386192
222	0x3cbe7f01	0.02325392
223	0xbc411aa0	-0.011786133
224	0xbd732fdd	-0.059371818
225	0xbf2bb71f	-0.67076296
226	0xbe1fa07f	-0.15588568
227	0xbe7e5611	-0.24837519
228	0xbe8c90cf	-0.2745423
229	0xbd60471c	-0.054755315
230	0x3d98f0bf	0.07467794
231	0xbd9a294d	-0.07527409
232	0x3e555aa0	0.20835352
233	0x3d300a82	0.04297877
234	0x3ef91e78	0.48656058
235	0x3e8a45b8	0.27006316
236	0xbda08e89	-0.078396864
237	0xbe322343	-0.17396264
238	0xbec02fd8	-0.37536502
239	0x3e3c6ad6	0.1840013
240	0xbe539cef	-0.20665334
241	0xbe47eb1e	-0.19523284
242	0xbe7d3ce8	-0.24730265
243	0x3d5fcaa8	0.054636627
244	0xbe8c55c2	-0.27409178
245	0xbde1d943	-0.110277675
246	0xbe98bf77	-0.29833576
247	0xbeb52bbd	-0.35384932
248	0xbeb359a9	-0.35029343
249	0xbee4a020	-0.44653416
250	0x3df66a80	0.12032032
251	0xbd10245e	-0.035190932
252	0xbc9a0a07	-0.01880361
253	0xbc2e9b04	-0.010657076
254	0xbdc60c4f	-0.096703164
255	0x3e843b75	0.25826612

network_body.linear_encoder.seq_layers.2.bias f4 [128]
0	0x3d0afaf0	0.03393072
1	0xbe17f717	-0.14840351
2	0x3d4f01af	0.050538715
3	0x3d6a602b	0.05722062
4	0xbc83e131	-0.01609859
5	0xbd34e359	-0.044162128
6	0x3d6fdb1b	0.058558565
7	0x3d84a0e7	0.06476002
8	0xbd90a7b7	-0.07063239
9	0x3d011629	0.031515274
10	0x3d589ebc	0.052885756
11	0xbd8f992b	-0.07011636
12	0xbd8ff67e	-0.070294365
13	0x3d86996c	0.06572232
14	0xbe129e75	-0.14318259
15	0x3d0ab949	0.033868108
16	0x3d46f47a	0.048572995
17	0x3d296594	0.041356638
18	0x3d3b23c9	0.045688424
19	0xbdbc8738	-0.092054784
20	0x3d2a5323	0.04158319
21	0xbdfeb422	-0.12436701
22	0xbe1212e6	-0.14265022
23	0x3d8d1133	0.06888046
24	0x3d8ee64d	0.0697752
25	0x3d01527c	0.031572804
26	0x3d852c10	0.06502545
27	0x3ceb3784	0.028712995
28	0xbdb99b54	-0.090628296
29	0xbe00a7b6	-0.12563977
30	0x3d492551	0.049107853
31	0xbe07f598	-0.1327728
32	0x3d01f82b	0.031730812
33	0xbe0f5c4c	-0.14000052
34	0xbe049766	-0.12948379
35	0x3d95c24f	0.07312452
36	0xbdaec484	-0.08533576
37	0x3d29bb6a	0.041438498
38	0x3d05edfe	0.03269767
39	0xbd606f76	-0.054793797
40	0x3d5ea54c	0.054356858
41	0x3d34f241	0.044176344
42	0x3d4353e8	0.04768744
43	0x3d2d4aa9	0.04230753
44	0x3d71c544	0.059026018
45	0x3d66b3c5	0.056323785
46	0xbe03c91c	-0.12869686
47	0x3d95c4f7	0.07312959
48	0x3ce5e134	0.028061487
49	0x3d9be193	0.07611384
50	0xbe0da51c	-0.13832515
51	0xbe0353b5	-0.128249
52	0xbdef5926	-0.116869256
53	0x3d591f0f	0.053008135
54	0xbe28e680	-0.16494179
55	0x3bbcba3a	0.0057595046
56	0xbe17c93f	-0.14822863
57	0x3d0b8210	0.034059584
58	0x3d9eb9d8	0.07750291
59	0x3d6f8ef6	0.058485948
60	0xbdefa4c4	-0.117013484
61	0x3d54c890	0.051949084
62	0xbe0048c6	-0.12527761
63	0x3d832305	0.06403164
64	0xbd57c701	-0.05268002
65	0x3d3fd0ad	0.046829868
66	0x3d8c25a7	0.06843119
67	0xbdddec7b	-0.10836121
68	0xbdd28cd4	-0.10280767
69	0x3d8cdc3f	0.06877946
70	0x3d1353da	0.03596864
71	0xbe08172d	-0.13290091
72	0x3cb47395	0.02202777
73	0xbe147db1	-0.14501072
74	0x3ceafc66	0.028684806
75	0x3d885b2e	0.06658016
76	0xbd994b8d	-0.07485113
77	0xbdc6181c	-0.09672567
78	0x3da6c046	0.08142142
79	0xbdfe34c0	-0.12412405
80	0xbdefdc98	-0.11711997
81	0x3d97f566	0.07419853
82	0x3cce0e0d	0.025153184
83	0x3d511e68	0.05105439
84	0x3c0f28bd	0.00873774
85	0xbe1fbfdc	-0.15600532
86	0xbe11151e	-0.14168212
87	0x3d0e8456	0.034794174
88	0x3d5e3ccd	0.054257203
89	0x3d60bd78	0.05486819
90	0xbd7b770b	-0.061392825
91	0x3d76c56b	0.060246866
92	0xbd87d060	-0.06631541
93	0xbe091395	-0.13386376
94	0xbc757863	-0.014982316
95	0xbe0b0974	-0.13577825
96	0x3d0ec5d3	0.03485663
97	0x3d4249a5	0.047433514
98	0xbde4b993	-0.11168208
99	0x3c4d024a	0.012512753
100	0x3d710e19	0.058851335
101	0x3da617d1	0.08110011
102	0x3c39f0bc	0.011348899
103	0x3dab44e3	0.083627485
104	0xbe07b0de	-0.13251063
105	0xbdb089ad	-0.086200096
106	0x3d144ef6	0.036208116
107	0xbd3087cb	-0.043098252
108	0x3d03f8cf	0.032219704
109	0x3d8a9ece	0.06768571
110	0x3d0bc0be	0.03411936
111	0xbdeb7fea	-0.11499007
112	0x3d84f0ea	0.06491263
113	0x3d555809	0.05208591
114	0xbe1633a4	-0.14668137
115	0x3c973ac2	0.018460635
116	0x3d2cb961	0.04216898
117	0x3da9986d	0.08281026
118	0xbdc5ffde	-0.096679434
119	0x3c706d89	0.014674553
120	0xbe0c0496	-0.13673624
121	0xbd33b5c7	-0.04387453
122	0xbdb8f35b	-0.09030791
123	0xbe08cb8a	-0.13358894
124	0x3c84fbe4	0.016233392
125	0x3d2e8159	0.042603824
126	0xbdd337d7	-0.10313385
127	0xbe101d19	-0.140736

network_body.linear_encoder.seq_layers.2.weight f4 [128, 128]
0	0x3c84c57f	0.016207455
1	0xbccc5588	-0.024943128
2	0x3d674b96	0.05646857
3	0x3d1d0034	0.03833027
4	0x3e48477d	0.1955852
5	0xbd85524b	-0.06509837
6	0x3d8f04b7	0.06983321
7	0x3e0723ad	0.13197203
8	0x3d8e13ce	0.06937371
9	0xbdfc762c	-0.12327227
10	0x3d9fa425	0.0779498
11	0xbe1cc968	-0.15311205
12	0xbe050c48	-0.12992966
13	0x3e9bd260	0.3043394
14	0xbe2a031d	-0.1660275
15	0x3d4a4d26	0.04938998
16	0xbe22704a	-0.15863147
17	0x3e061ff2	0.13098124
18	0x3d8ee343	0.069769405
19	0x3e093458	0.13398874
20	0x3e24198e	0.16025373
21	0xbe1871df	-0.14887188
22	0xbd74cc04	-0.059764877
23	0xbe0cb49e	-0.13740775
24	0x3e227960	0.15866613
25	0x3d9484d2	0.07251896
26	0x3c44363e	0.011975823
27	0x3d3c4501	0.045964245
28	0x3d2c4df8	0.042066544
29	0x3cc0d9c6	0.023541342
30	0x3d9878d2	0.0744492
31	0xbe122f12	-0.14275768
32	0x3e14dae9	0.14536633
33	0xbc034f55	-0.00801452
34	0xbafbfd3c	-0.001922525
35	0x3db177e2	0.08665444
36	0x3ba64595	0.005074213
37	0x3d11fe5a	0.03564296
38	0x3df4364b	0.11924418
39	0x3c9b6faf	0.018974153
40	0x3d720992	0.05909116
41	0x3d9adc89	0.07561595
42	0xbc81cd02	-0.015844826
43	0x3d63450d	0.055485774
44	0xbd7a20cf	-0.061066445
45	0x3c74c161	0.014938683
46	0x3cbb394d	0.022854472
47	0xbca9480f	-0.020664243
48	0xbdeedd51	-0.116633065
49	0xbda046e7	-0.078260235
50	0x3dad9d4e	0.08477269
51	0x3df5196f	0.11967742
52	0x3e75abc1	0.239913
53	0x3d800f82	0.06252958
54	0xbc9c9106	-0.019112121
55	0x3d7bb9df	0.061456557
56	0xbc6730a1	-0.014110715
57	0x3c99af3f	0.018760322
58	0xbd27ee7c	-0.04099892
59	0x3e720246	0.2363368
60	0x3d122fd7	0.035690155
61	0xbc199094	-0.009372849
62	0x3d2c2148	0.042023927
63	0xbe14f57c	-0.1454677
64	0x3defd979	0.117114015
65	0x3d9ee8a2	0.07759215
66	0x3e53ab3b	0.20670788
67	0x3d82b140	0.06381464
68	0xbe0c5aea	-0.13706556
69	0xbd4d54e4	-0.050129786
70	0x3e4dcbd5	0.20097287
71	0xbceaa61a	-0.028643657
72	0xbe187eeb	-0.14892165
73	0xbc70604c	-0.014671396
74	0x3e7a4c91	0.2444327
75	0xbde0691c	-0.10957548
76	0xbe555670	-0.20833755
77	0x3e1b630b	0.151745
78	0x3d913b1c	0.07091352
79	0x3c5fdffe	0.013664244
80	0xbd9297da	-0.0715787
81	0xbc5e808e	-0.0135804545
82	0xbd63d22c	-0.055620357
83	0x3db584f1	0.08863247
84	0x3ceb4e54	0.028723873
85	0xbd733ffc	-0.059387192
86	0xbc9fe04c	-0.019516133
87	0x3cbfb8ee	0.023403611
88	0x3c2a1bd9	0.010382616
89	0x3c4fbea9	0.012679734
90	0xbdf03e26	-0.11730604
91	0x3da4551e	0.08024047
92	0xbcb11692	-0.021617208
93	0x3ce0f3a9	0.027459936
94	0x3afee36c	0.0019446439
95	0xbda12f09	-0.07870299
96	0x3d5461a8	0.051850945
97	0x3e0da08b	0.13830774
98	0xbce693d3	-0.02814666
99	0xbda5deca	-0.08099134
100	0xbd2af577	-0.041738
101	0x3e4e0b17	0.20121418
102	0xbe2b623d	-0.16736694
103	0xbc9246b7	-0.017855985
104	0x3d28c2c6	0.041201375
105	0xbd1773ac	-0.036975548
106	0x3e690ed7	0.22759567
107	0xbc5f3655	-0.013623794
108	0xbeaae1ed	-0.33375493
109	0x3e0b4e75	0.13604148
110	0xbd977dff	-0.07397079
111	0xbd816ea9	-0.06319935
112	0x3d16ee1c	0.036848173
113	0xbe33dec2	-0.17565444
114	0xbe0300b6	-0.1279324
115	0xbc798237	-0.0152288
116	0x3cb51091	0.022102626
117	0x3e058f54	0.13042957
118	0x3dfbcfb9	0.12295479
119	0xba8918f9	-0.0010459713
120	0xbbee234f	-0.0072673927
121	0x3e5e2899	0.21695174
122	0xbde81c9a	-0.1133358
123	0x3ca5302c	0.020164572
124	0x3c9f9dbf	0.019484399
125	0xbe885cd3	-0.2663332
126	0x3d90ae6e	0.0706452
127	0xbe0a62eb	-0.13514297
128	0xbd8f34e8	-0.06992513
129	0xbe5b57b8	-0.21420181
130	0x3e5534e6	0.2082096
131	0xbe51f196	-0.20502314
132	0xbc13d5ba	-0.009023124
133	0x3e96c9f4	0.29450953
134	0x3d87a308	0.066228926
135	0xbe6236fd	-0.22091289
136	0x3cc03000	0.023460388
137	0x3d1a31fe	0.037645333
138	0xbcacb1cf	-0.02108088
139	0x3de66002	0.11248781
140	0x3e9600f3	0.292976
141	0xbe87db6f	-0.26534602
142	0xbdc0eba6	-0.09419946
143	0x3e37b393	0.17939596
144	0xbd5c2ac3	-0.05375172
145	0xbe3ad748	-0.18246186
146	0xbd9f882c	-0.077896446
147	0x3e2ac957	0.16678368
148	0xbdf4386a	-0.11924823
149	0xbc2dba23	-0.0106034605
150	0x3e55b150	0.2086842
151	0xbc486190	-0.012230292
152	0x3e820dad	0.2540106
153	0xbe49184a	-0.19638172
154	0xbe3cf0dd	-0.18451257
155	0x3dc90328	0.09815055
156	0xbd749d14	-0.059720114
157	0xbe14a874	-0.14517385
158	0xbd3d1219	-0.046159837
159	0x3cf7650f	0.030199556
160	0x3d9ad353	0.07559838
161	0xbd2b9678	-0.041891545
162	0xbeaa2f70	-0.33239317
163	0xbe919b59	-0.28438833
164	0x3d9f4400	0.07776642
165	0xbd629577	-0.055318322
166	0xbc0ae672	-0.008477794
167	0xbc04382a	-0.008070031
168	0x3bc01eea	0.0058630602
169	0xbe0f1e50	-0.13976407
170	0xbd34c459	-0.044132564
171	0xbeb08f23	-0.34484205
172	0x3e16d8c6	0.1473113
173	0xbd182917	-0.03714856
174	0xbdea81c8	-0.11450535
175	0xbd4227c5	-0.04740121
176	0x3dbb6efd	0.09152029
177	0xbcdf1f18	-0.027236506
178	0xbd59f0e3	-0.053208243
179	0xbc78319c	-0.015148547
180	0x3bbd567f	0.0057781334
181	0xbacbbac0	-0.0015543327
182	0x3e4cb136	0.19989476
183	0x3d5778b7	0.052605357
184	0x3e717579	0.23579969
185	0xbde9225c	-0.11383507
186	0x3e604fe8	0.21905482
187	0xbdd11729	-0.102094956
188	0x3e4f688a	0.20254722
189	0xbde3cde3	-0.11123254
190	0xbdfe0885	-0.12403969
191	0x3e7e244a	0.2481853
192	0xbd5c4378	-0.05377528
193	0xbdb8b1a5	-0.09018258
194	0xbe28ab7f	-0.1647167
195	0xbe581a08	-0.2110368
196	0xbd23ee78	-0.040022343
197	0xbdbbebc1	-0.09175826
198	0xbe02d967	-0.12778245
199	0x3cbb3b48	0.022855416
200	0x3e02549c	0.12727588
201	0xbca81d67	-0.020521833
202	0xbe527721	-0.20553257
203	0x3d9c211a	0.07623501
204	0x3e624794	0.22097617
205	0x3daa00fd	0.0830097
206	0xbd86a782	-0.06574918
207	0xbd538d8c	-0.05164866
208	0xbcb3e65f	-0.021960435
209	0x3c1c5d4c	0.009543728
210	0xbda22b74	-0.07918444
211	0x3dd34193	0.10315242
212	0xbd84e6da	-0.06489344
213	0xbe10c1aa	-0.14136377
214	0xbdb12b77	-0.086508684
215	0xbc635d4f	-0.013877227
216	0xbd62aee2	-0.055342562
217	0xbe41909f	-0.18902825
218	0x3e9a1c4a	0.30099708
219	0xbd661021	-0.056167725
220	0x3ecf4e20	0.40489292
221	0xbdebfb5d	-0.11522553
222	0x3df9c584	0.12195876
223	0x3d9c00d8	0.076173484
224	0xbd9109c0	-0.07081938
225	0x3da7a6e4	0.08186129
226	0xbd60b302	-0.054858215
227	0x3e3114b3	0.17293052
228	0xbdba08aa	-0.09083684
229	0xbe75141d	-0.23933454
230	0x3de603ff	0.11231231
231	0x3dc38b3a	0.0954804
232	0x3e6ffbfc	0.23435968
233	0xbdf79d17	-0.120905094
234	0x3c25da59	0.010122859
235	0xbe754aa4	-0.23954254
236	0x3e8c3839	0.27386644
237	0xbbfec0c4	-0.0077744443
238	0xbe40c809	-0.18826307
239	0x3dae24d6	0.0850312
240	0xbe4bb3fb	-0.19892876
241	0x3e0cad6e	0.13738033
242	0xbc670e87	-0.014102585
243	0x3d858281	0.06519032
244	0x3e3c1650	0.18367887
245	0xbe172f1a	-0.14764062
246	0x3d9a5382	0.07535459
247	0x3e715b31	0.23569943
248	0xbd5022a3	-0.050814282
249	0xbe0e7819	-0.13913001
250	0xbdcff60c	-0.101543516
251	0xbdc29331	-0.09500731
252	0xbd9322bd	-0.0718436
253	0x3d0d71ba	0.034532286
254	0xbe396d44	-0.18108088
255	0xbe502001	-0.20324709

network_body.linear_encoder.seq_layers.4.bias f4 [128]
0	0xbd7c1f96	-0.06155356
1	0xbd53cfa6	-0.0517117
2	0x3d6173c1	0.055042032
3	0xbd63f305	-0.055651683
4	0xbcc23e3c	-0.023711316
5	0xbd18c096	-0.03729304
6	0xbd589cc9	-0.052883897
7	0xbda759fa	-0.081714585
8	0x3c84a1f5	0.016190508
9	0xbda141d8	-0.07873887
10	0x3cd299fa	0.025708187
11	0x3caad462	0.020853225
12	0xbd71a449	-0.058994565
13	0xbc9809e1	-0.018559398
14	0xbbc68f44	-0.006059559
15	0xbd66e2a7	-0.056368496
16	0x3d037f52	0.032103844
17	0x3d843456	0.06455295
18	0xbd34bc8c	-0.044125125
19	0x3d30f0f5	0.043198545
20	0x3d8b40e4	0.06799486
21	0xbdc60c3a	-0.09670301
22	0xbd452bfe	-0.048137657
23	0x3d529568	0.051412016
24	0xbc689940	-0.014196694
25	0xbd99ea28	-0.07515365
26	0xbd8ab14b	-0.06772097
27	0xbd8b9966	-0.06816368
28	0xbd4c9259	-0.049944256
29	0x3d2989ef	0.04139131
30	0xbc1a9397	-0.009434602
31	0x3c9c3d10	0.019072086
32	0xbda590aa	-0.08084233
33	0xbd4f7f67	-0.05065861
34	0xbd238928	-0.039925724
35	0xbda07d3c	-0.078363866
36	0x3d538f2a	0.051650204
37	0x3b39aeed	0.0028333024
38	0x3d7dba5b	0.0619453
39	0x3cfbca70	0.030736178
40	0x3d818d40	0.063257694
41	0x3d9198b5	0.07109205
42	0xbca7b53f	-0.020472167
43	0xbd4b8f69	-0.049697313
44	0x3c015d59	0.007895791
45	0xbd776e47	-0.060407903
46	0xbd88caaf	-0.06679284
47	0x3d56bd05	0.052426357
48	0xbdb21adf	-0.086965315
49	0xbcede442	-0.029039506
50	0x3da97501	0.0827427
51	0xbd331c98	-0.04372844
52	0x3d202e24	0.039106503
53	0x3d84d083	0.06485083
54	0x3cc887df	0.02447885
55	0x3d720a75	0.059092004
56	0xbba17507	-0.004927281
57	0x3dc5fbee	0.096671924
58	0xbd4d6986	-0.050149463
59	0x3d9050f1	0.07046688
60	0xbd3950b3	-0.045242976
61	0x3dd200b6	0.10254042
62	0xbd858d7a	-0.06521125
63	0x3d9f8907	0.07789808
64	0xbd9e30ae	-0.07724129
65	0xbd638661	-0.055548076
66	0xbd56acde	-0.052410953
67	0xbcbbc960	-0.022923172
68	0x3d93ac56	0.07210605
69	0x3d73d44a	0.059528627
70	0xbd57a07d	-0.052643288
71	0x3d2f1287	0.04274228
72	0xbd36caf2	-0.044627137
73	0xbc2ec650	-0.010667399
74	0x3d299c1c	0.041408643
75	0x3d5d7393	0.0540653
76	0x3d808fbf	0.062774174
77	0x3b45d1c1	0.0030184838
78	0x3d6899b8	0.056787223
79	0xbd9314dd	-0.07181714
80	0x3dd1aff9	0.10238642
81	0x3d099d08	0.033597022
82	0x3d800f2b	0.06252893
83	0xbd956431	-0.072945006
84	0x3d8c9f69	0.068663426
85	0xbd06b9a2	-0.032891877
86	0x3d45a2a6	0.048250817
87	0xbd5782ee	-0.0526151
88	0x3d6893a1	0.056781415
89	0xbbfc1d92	-0.0076939547
90	0xbd8b09fe	-0.06789015
91	0x3dae5698	0.0851261
92	0x3d474000	0.04864502
93	0x3ca53da5	0.020170996
94	0x3d29c816	0.041450582
95	0x3d8a3517	0.06748407
96	0xbd8e4296	-0.06946294
97	0xbd2061ef	-0.039155897
98	0xbd725a7b	-0.05916832
99	0x3d963bd2	0.073356286
100	0xbdb8817b	-0.090090714
101	0x3ce00654	0.027346767
102	0xbd80f38e	-0.06296454
103	0x3d6fcec1	0.058546785
104	0x3cf1c317	0.029511971
105	0x3d5a72b7	0.053332057
106	0x3dc13f4c	0.09435901
107	0xbd5d2282	-0.053987987
108	0x3d6a8d00	0.057263374
109	0x3d5d82bf	0.054079767
110	0x3d53f6e6	0.051749133
111	0x3cb72ed6	0.0223612
112	0xbd96a79d	-0.073561884
113	0x3d263ea9	0.0405871
114	0xbd939e79	-0.07207961
115	0x3d79864b	0.060919087
116	0xbd8ebbc9	-0.06969411
117	0xbd1254cc	-0.0357254
118	0x3d094050	0.0335086
119	0x3b489026	0.0030603497
120	0x3d6b1ed9	0.057402465
121	0x3d4df211	0.05027968
122	0x3d12f492	0.03587777
123	0x3d4b4535	0.049626548
124	0xbd9d5a86	-0.076832816
125	0xbd5f42db	-0.054507118
126	0xbd67e8c1	-0.056618456
127	0x3cdbdf3c	0.026839845

network_body.linear_encoder.seq_layers.4.weight f4 [128, 128]
0	0xbdd22c23	-0.10262325
1	0x3d2490be	0.0401771
2	0xbe082a06	-0.1329728
3	0x3cb80db9	0.022467481
4	0xbe3b0441	-0.18263341
5	0x3e2f3af3	0.17112331
6	0xbdcd5a9d	-0.10027049
7	0xb999b6a0	-0.000293185
8	0xbc2f3aff	-0.010695218
9	0xbdbbb406	-0.09165196
10	0xbe175be3	-0.14781146
11	0x3d529979	0.051415894
12	0xbdb5a290	-0.08868897
13	0xbe98a8a2	-0.29816157
14	0xbd4c1e39	-0.04983351
15	0xbd5dc43e	-0.05414223
16	0xbe12c14f	-0.14331554
17	0x3e0289fc	0.1274795
18	0xbdd30195	-0.10303036
19	0xbd078fa2	-0.033095963
20	0xbc4b0e55	-0.012393554
21	0x3e6d22ff	0.23157881
22	0x3dece71b	0.11567517
23	0x3dfea7f4	0.12434378
24	0xbddb9a9f	-0.10722851
25	0x3c7b3c4d	0.015334201
26	0xbba409e2	-0.005006061
27	0xbe2eb93d	-0.1706285
28	0x3dc130da	0.09433146
29	0x3e0e5e5d	0.13903184
30	0xbd567509	-0.052357707
31	0x3e730252	0.23731354
32	0x3aad8887	0.0013239541
33	0x3b4b44e3	0.0031016401
34	0x3dcc6a2e	0.0998119
35	0x3c809778	0.015697226
36	0x3df5de0d	0.120052435
37	0xbd33e261	-0.043917064
38	0xbdf47c00	-0.119377136
39	0xbe080ae6	-0.13285407
40	0x3d6deddf	0.05808818
41	0x3d1f5480	0.038898945
42	0xbde0ab7e	-0.109702095
43	0xbe6610d9	-0.22467364
44	0xbe02f957	-0.12790428
45	0xbc8ad1b1	-0.016945692
46	0xbd93fa9c	-0.07225534
47	0xbdca117d	-0.09866617
48	0x3da6358b	0.08115681
49	0xbe866146	-0.2624609
50	0x3e383c6a	0.17991796
51	0x3e25821c	0.16162914
52	0x3dd530a1	0.10409666
53	0xbd0698a4	-0.032860413
54	0x3dff0c86	0.124535605
55	0x3d5cbbc8	0.05389002
56	0x3c9d840e	0.019228008
57	0xbd9c6366	-0.07636146
58	0xbe0e9038	-0.13922203
59	0xba65b934	-0.0008763254
60	0x3d82ff8d	0.06396399
61	0xbd20aa62	-0.03922499
62	0xbc8f2cf9	-0.0174775
63	0xbda1df20	-0.07903886
64	0x3c9f6c93	0.019460952
65	0xbd28e5b2	-0.04123468
66	0xbe373247	-0.17890273
67	0x3b4f087e	0.0031590755
68	0x3d3417d1	0.043968026
69	0xbe208128	-0.15674269
70	0x3de59101	0.11209298
71	0x3de34b45	0.11098341
72	0x3bcfddc9	0.0063435775
73	0x3d90bcc9	0.07067258
74	0xbceae3a0	-0.028672993
75	0xbe75b109	-0.23993315
76	0xbd0feb45	-0.03513648
77	0x3e241725	0.16024454
78	0xbe3a53cb	-0.18196027
79	0x3e47ccf2	0.19511774
80	0x3c835e1b	0.016036084
81	0x3cdde925	0.027088711
82	0xbe04b79f	-0.12960671
83	0xbe91bbeb	-0.28463683
84	0x3bebe535	0.0071989545
85	0x3def316a	0.11679347
86	0x3e49e55d	0.19716401
87	0xbd043f0d	-0.032286692
88	0x3c8bfb66	0.01708765
89	0xbe40a711	-0.18813731
90	0x3e0dcce6	0.13847694
91	0xbd973dc7	-0.0738483
92	0x3dd16c4f	0.10225736
93	0x3dccecb0	0.10006082
94	0x3ddeb16f	0.108736865
95	0xbce553d4	-0.027994074
96	0xbdc5b0a3	-0.096528314
97	0x3d7c087b	0.061531525
98	0x3cda40d8	0.026642248
99	0xbe2a919c	-0.16657108
100	0x3c47d3e0	0.012196511
101	0x3c2373fb	0.009976382
102	0x3d54632b	0.051852386
103	0xbddbfe3f	-0.10741853
104	0x3df79f87	0.12090974
105	0xbb96ef54	-0.004606167
106	0xbd270d5e	-0.040784232
107	0x3ccca05a	0.024978805
108	0xbe26197a	-0.16220656
109	0xbb7ea6b0	-0.0038856678
110	0xbdbab647	-0.09116798
111	0x3e4ba95f	0.19888829
112	0xbe08a510	-0.13344216
113	0xbe248f0c	-0.16070193
114	0x3b594fc6	0.003315912
115	0xbda756e4	-0.0817087
116	0xbd1205ad	-0.035649944
117	0xbe288b8d	-0.16459484
118	0x3d209e50	0.03921348
119	0xbc497c34	-0.012297679
120	0x3dded967	0.1088131
121	0x3e10063f	0.14064883
122	0x3e138a6f	0.14408277
123	0x3da8ef8d	0.08248816
124	0x3d8d266e	0.068920955
125	0xbdf375f9	-0.11887736
126	0x3d83d731	0.06437529
127	0x3d96dd9c	0.073664874
128	0xbe390773	-0.18069248
129	0x3d7e0af7	0.062022176
130	0xbe2e4757	-0.17019401
131	0x3df13286	0.11777215
132	0x3dd9e15b	0.10638686
133	0x3d556fb9	0.0521085
134	0xbdb895f6	-0.09012978
135	0xbe9e71fc	-0.30946338
136	0xbd387fd4	-0.04504378
137	0xbdaee567	-0.08539849
138	0xbe406527	-0.18788587
139	0x3d05f27e	0.03270196
140	0x3d388650	0.045049965
141	0xbea291b5	-0.3175179
142	0xbda76435	-0.0817341
143	0x3d9650a3	0.07339599
144	0xbe3ed8d9	-0.18637408
145	0x3be664b9	0.00703105
146	0x3def4f1f	0.11685013
147	0x3d3cd207	0.046098735
148	0xbd9acf04	-0.07559016
149	0x3df1e402	0.11811067
150	0x3ddcf91c	0.10789701
151	0xbdd55b1e	-0.1041777
152	0xbd484883	-0.048897278
153	0xbcbb9342	-0.022897366
154	0x3bece7de	0.007229789
155	0xbe8448da	-0.2583683
156	0x3e257548	0.1615802
157	0x3e2ead2e	0.1705825
158	0xbdeaf567	-0.11472588
159	0xbd230ef2	-0.039809175
160	0xbc747924	-0.01492146
161	0x3dea00d7	0.114259414
162	0x3ca79db1	0.020460935
163	0xbe2f2772	-0.17104891
164	0x3dfc7071	0.12326134
165	0xbe885bfe	-0.26632684
166	0x3ba000c5	0.0048829042
167	0x3dc090b3	0.09402599
168	0x3dba9b6c	0.091116756
169	0x3c60e569	0.013726571
170	0xbe03cad4	-0.12870342
171	0xbc82e6bd	-0.015979165
172	0x3e052ef0	0.13006186
173	0x3dd393b3	0.10330906
174	0x3dc4e88f	0.096146695
175	0xbcf2cc44	-0.029638417
176	0x3e34a22a	0.17639986
177	0xbe72a59d	-0.23695989
178	0xbdd84e87	-0.10561853
179	0x3c85a30f	0.016313104
180	0x3d382b39	0.044963095
181	0x3e11254d	0.14174385
182	0xbcae8956	-0.021305721
183	0x3e318548	0.17335999
184	0xbd90eedd	-0.070768096
185	0xbddbbcb1	-0.107293494
186	0xbd4eb13a	-0.050461985
187	0xbe0aa147	-0.13538085
188	0xbe0062ac	-0.1253764
189	0xbe32991d	-0.1744122
190	0x3c42c8a8	0.0118886605
191	0xbdebc2fa	-0.11511798
192	0x3b64248e	0.0034811827
193	0x3d7ac539	0.061223242
194	0xbdad7745	-0.084700145
195	0x3d77579d	0.06038629
196	0xbd471785	-0.048606414
197	0xbe223125	-0.1583906
198	0xbdb96562	-0.0905254
199	0x3d3e3936	0.04644128
200	0xbd9bd2c4	-0.0760856
201	0x3e125cbe	0.14293191
202	0xbe4daba0	-0.20085001
203	0xbccf3804	-0.025295265
204	0xbdeffb92	-0.11717905
205	0x3d925eb3	0.07146969
206	0xbb2281b6	-0.0024796552
207	0x3e70c553	0.23512773
208	0x3e3a89f6	0.1821669
209	0xbd03828a	-0.032106914
210	0xbdfb6c0f	-0.1227647
211	0xbdb4ce93	-0.088284634
212	0xbd6f0f3b	-0.058364134
213	0x3e0d1dfe	0.13780972
214	0x3d47107f	0.048599716
215	0x3ca49220	0.02008921
216	0xbd8979a8	-0.06712657
217	0x3de25d21	0.11052919
218	0x3c3afbb7	0.011412553
219	0xbe7073dd	-0.23481698
220	0x3d4d6057	0.050140705
221	0xbd69b21b	-0.05705462
222	0x3c7a6616	0.015283128
223	0x3e012d60	0.12614965
224	0x3d096361	0.03354204
225	0xbd858665	-0.06519774
226	0x3db282b9	0.087163396
227	0xbe1a7c73	-0.15086536
228	0xbe03fc7d	-0.12889285
229	0xbe118ba1	-0.1421342
230	0xbcbbadca	-0.022910018
231	0xbe4099f8	-0.18808734
232	0x3ca68044	0.020324834
233	0x3e216624	0.1576162
234	0x3d26e812	0.040748663
235	0x3d699550	0.05702716
236	0xbdd59299	-0.10428352
237	0xbd80fae0	-0.062978506
238	0x3d578d6b	0.0526251
239	0x3e69d131	0.22833706
240	0xbe3072c6	-0.17231283
241	0xbe50d6ee	-0.20394489
242	0x3dbb2853	0.091385506
243	0x3e27c17b	0.163824
244	0xbd95064e	-0.07276593
245	0xbd991745	-0.074751414
246	0xbca1b4a2	-0.019739453
247	0xbcb20ed0	-0.021735579
248	0xbd73ab25	-0.059489388
249	0xbe09b010	-0.13446069
250	0x3e1d45ce	0.1535866
251	0x3dd66571	0.10468567
252	0x3a121f44	0.0005574117
253	0xbe4d2e54	-0.20037204
254	0x3d4865ba	0.04892514
255	0x3e52b2b4	0.20575982
