results/rdesktop_run_001/Robotarm/Robotarm-1999988.pt (torch, 884223 bytes, 48 tensors)

network_body.linear_encoder.seq_layers.0.weight f4 [128, 19]
000000 2d 3c 08 bf 77 b4 88 be c7 ed 00 3f b1 0c a0 3d
       -0.5321682 -0.26700184 0.5036282 0.07814921
000010 44 56 ae 3e 8f 6c 63 3a 01 ee 9e 3c 4c 92 4a 3e
       0.3405019 0.0008675539 0.019400598 0.1978237
000020 cd 47 dc bd 18 8f e0 bd c2 63 a3 be 55 9f b8 be
       -0.107558824 -0.10964793 -0.31912047 -0.3605906
000030 b0 90 9c be 16 bb df 3e 09 b8 70 be de 8f 7a be
       -0.30579138 0.43697423 -0.23507704 -0.24468943
000040 b4 1f 2a bd 2d ae bc 3e 29 79 9c bd d2 0e e2 3d
       -0.04153414 0.36851636 -0.07640297 0.11037983
000050 18 d3 0d bf ab 73 16 be 29 48 e2 3e c8 cc 3a 3e
       -0.5540023 -0.14692561 0.4419568 0.1824218
000060 70 5e e3 be 05 ae 27 3e e9 9c 1d 3d 2f 91 92 be
       -0.44407988 0.16374977 0.03847972 -0.2862639
000070 cb b5 10 3e ad fd eb 3c 4f a6 8c be fb fc 6f 3d
       0.14131849 0.028807485 -0.27470633 0.05859087
000080 da 09 2c be 79 df 9e 3e c9 2c 67 3e 4e d2 f6 3d
       -0.16800633 0.3102987 0.22575678 0.12051831
000090 ed 21 a9 be c2 46 cb 3b f2 9a 9d be 3c 90 f7 bd
       -0.33033696 0.0062035033 -0.30782276 -0.120880574
0000a0 d7 3f 9b bd 35 ff 81 3e b3 28 58 be a5 79 58 3d
       -0.07580536 0.2539002 -0.21109276 0.052850384
0000b0 bf 57 90 be 16 a9 f6 be a5 cc 8a 3e 19 c0 63 3e
       -0.28191945 -0.48175877 0.27109256 0.22241248
0000c0 84 d8 e4 bd da ef a3 3b 95 fe e8 3d 6e 97 0a 3f
       -0.111741096 0.005002958 0.11376683 0.54137313
0000d0 5a e8 68 bd 7e 79 05 3e 99 89 ab bd 4f 2a 96 be
       -0.056862213 0.13034627 -0.08375854 -0.29329154
0000e0 de 63 a4 bd da ac ae bd 1e a3 71 be 04 b7 0d 3e
       -0.08026861 -0.085290626 -0.2359738 0.13839346
0000f0 71 8c 2b 3e 6e 7e c1 3d 42 e4 4f 3e 4d 23 fa bb
       0.16752793 0.09447943 0.20301917 -0.0076336027
000100 ab a3 9d bd 72 7c b0 3d 6a 92 ce be 0a 25 4a 3e
       -0.07697233 0.08617486 -0.4034608 0.19740692
000110 31 8d 08 bf cd bf 49 3e 38 a3 0c be 70 61 cd 3d
       -0.5334044 0.19702072 -0.13734138 0.1002835
000120 22 70 da bd d8 6c fd bd 8e 5d e6 3e 76 dc c3 3d
       -0.10665919 -0.12374276 0.44993252 0.09563534
000130 a5 47 19 bd f5 43 ee 3c b2 08 74 be bc 82 45 be
       -0.03742184 0.029085139 -0.23831442 -0.19288152
000140 ba e9 e5 3d 60 89 98 bd 76 8a a5 be b8 ca 6a be
       0.112262204 -0.07448077 -0.323322 -0.22928894
000150 86 b3 07 3e fb fc e3 bd cc 36 02 bd 8f 88 90 be
       0.13252077 -0.111322366 -0.03179054 -0.28229186
000160 70 3e 0d be 17 a9 b9 be 5c db 3e 3e 74 4d 22 3d
       -0.1379335 -0.36261818 0.18638366 0.039624646
000170 ea f8 a3 3e 87 5f 1e 3e 86 1d 96 3d a0 85 d6 bd
       0.32025844 0.15466128 0.0732985 -0.10474706
000180 aa 2b d0 be f2 79 db 3e c5 8a e5 3e 3b 31 9b 3d
       -0.40658313 0.42866474 0.44832435 0.07577749
000190 53 af fa 3c d7 25 a0 3d 77 a3 09 3e 70 5b 06 3e
       0.03060118 0.078197174 0.13441263 0.13120818
0001a0 b8 d4 34 3e 83 8c a7 be 6e 81 3f be d1 56 7d bd
       0.17659271 -0.3272439 -0.18701717 -0.061850373
0001b0 60 e0 ef bd e8 78 1c bd 08 a1 01 be ef a8 1b bd
       -0.11712718 -0.038201243 -0.12659085 -0.038002905
0001c0 1e ea c2 bd ca e4 8a 3e 82 a2 32 be bc 5b 1e be
       -0.095173106 0.27127677 -0.17444804 -0.15464681
0001d0 8d f7 c5 bd 4a f6 08 3e be 81 00 3e 9d f8 cf 3e
       -0.09666357 0.13375202 0.12549493 0.40619364
0001e0 f5 d7 6f 3c 71 2d 8d 3e e0 b1 0e 3d ea c2 af 3d
       0.0146388905 0.27573732 0.034837604 0.08582099
0001f0 da e9 42 be 19 4c 42 3e 94 20 9e be a5 77 ec 3e
       -0.1903452 0.18974341 -0.3088423 0.46185032
000200 5e 4e 03 3e 49 97 06 be eb 2c c3 3d 07 fa 9d bd
       0.12822863 -0.13143648 0.09530052 -0.077137046
000210 e3 a6 47 ba b6 38 7b 3d e6 bd 5a bd c0 79 d3 be
       -0.00076161156 0.06133338 -0.053403758 -0.41303825
000220 cb 37 9e bc ef ef 3f be 1b aa ae 3e 0f 8b bd bb
       -0.019313714 -0.18743871 0.34114155 -0.0057843993
000230 05 7b 8f 3e 56 a5 b5 be c5 9e 46 3c 63 6c 1c be
       0.28023544 -0.35477704 0.012122815 -0.15275721
000240 76 bf d5 3d 43 dc 4b bd 8b d1 86 be 69 c6 ba 3e
       0.10436909 -0.049770605 -0.26331744 0.364795
000250 37 0d e5 be 41 b5 a6 3e 9e 02 8a bd 0f 8b 9f be
       -0.44736645 0.3256016 -0.067387804 -0.3116078
000260 97 ea 8b 3d a9 14 45 bb f0 d3 28 3e b1 95 cb 3e
       0.06831854 -0.003007213 0.16487098 0.39762643
000270 76 4a 4d be b1 a8 14 bf 6b 99 7e bb 4c bc 7e 3e
       -0.20047936 -0.580699 -0.0038848768 0.24876517
000280 10 ed 1c be 3c c4 79 3c 1f b2 96 3d 97 89 c3 be
       -0.15324807 0.01524454 0.07358193 -0.3819091
000290 91 5d 84 be b3 51 5e 3e 02 f4 9e 3d ec f8 b8 be
       -0.25852636 0.21710853 0.077613845 -0.36127412
0002a0 66 b6 c6 3e be ed ed 3e 59 30 1b 3f d1 92 8e 3c
       0.38811034 0.46470445 0.6062065 0.017403992
0002b0 2d 57 95 3e 63 ae 2b be 62 b1 8e bc 6b a5 9f be
       0.29168072 -0.16765742 -0.017418567 -0.3118089
0002c0 33 e9 8f 3e b5 c2 d5 bd f4 0f e3 bd f7 54 13 be
       0.28107604 -0.10437528 -0.11087027 -0.1438788
0002d0 13 4b 17 3e 17 d5 89 3e d4 af ab 3e 53 f0 e5 3b
       0.14774732 0.26920387 0.33532584 0.0070171743
0002e0 37 dd d7 bd 09 d8 8e 3d 4f 80 ca 3e ad c1 b0 3d
       -0.1054024 0.06974799 0.39551017 0.08630691
0002f0 05 ae 9c 3d 24 ec aa 3e 47 53 a6 3e b6 aa 05 be
       0.07650379 0.33383286 0.3248541 -0.13053402
000300 5e 34 08 be 30 44 f8 be 91 df a6 3d 6c a9 29 3e
       -0.13301226 -0.48489523 0.08148111 0.16568536
000310 5d b7 41 3e 83 01 93 3d a4 2f 3d 3e 77 5c 80 3e
       0.18917604 0.07178023 0.18475205 0.25070545
000320 b8 5f 42 bf 26 9d 03 be 8a 97 0e be 92 1a 1d be
       -0.75927305 -0.12852916 -0.13924995 -0.15342167
000330 f3 b4 ce 3e d7 4a e9 bd f5 bc 44 be 21 b9 96 be
       0.40372428 -0.11391228 -0.19212706 -0.29438117
000340 60 65 b0 bd 4c f1 7f be 18 04 62 be 71 39 51 b8
       -0.08613086 -0.24994391 -0.22071874 -4.988298e-05
000350 ee e2 be 3e 8e 7b bf 3d 17 01 3c be b4 01 57 3e
       0.3728251 0.09349738 -0.1835979 0.20996743
000360 7e 65 0a 3e 8c 29 fa bd eb 71 12 3e 1a 6a 13 3e
       0.13515279 -0.12214956 0.14301269 0.14395943
000370 20 8e 04 3e 81 e4 b3 3d ed f9 a7 3c 80 d4 95 bb
       0.12944841 0.08783818 0.020504916 -0.004572451
000380 38 18 81 bd e1 28 1f bf ee 0e 18 be 5f 2e 53 be
       -0.063034475 -0.6217175 -0.14849445 -0.20623158
000390 d4 bd 8a be 5a 2f 6a bd 62 cc d3 3d 15 f2 81 bd
       -0.27097952 -0.057174064 0.10341717 -0.063450016
0003a0 d6 f5 49 3e cf 7f 44 3d 78 1e f9 3e 11 ea 8c 3e
       0.19722685 0.04797345 0.48656058 0.27522328
0003b0 51 e0 8b bd 86 30 66 be 58 7f bd be 4a 68 43 3e
       -0.06829894 -0.22479448 -0.37011218 0.19082752
0003c0 da 8f 69 be a1 69 42 be 35 0f 83 be 64 44 7b 3d
       -0.22808781 -0.18985607 -0.2559754 0.06134452
0003d0 7b 02 8f be e3 5a 01 be c3 53 9b be 3b 6c b6 be
       -0.2793158 -0.12632327 -0.30337343 -0.35629448
0003e0 4f 98 99 be 04 99 dd be 75 9a f7 3d e6 bb 14 bd
       -0.29999015 -0.43280804 0.12090007 -0.036312006
0003f0 be 0a f1 bc 04 9b 2e bc d8 8e c1 bd 48 98 80 3e
       -0.029424068 -0.010657076 -0.094510734 0.2511618

network_body.linear_encoder.seq_layers.0.bias f4 [128]
000000 d3 c5 1c 3d d3 53 ac 3d b3 3a 30 bd 2c 16 c8 bc
       0.038274597 0.08414426 -0.04302473 -0.024424635
000010 9d 51 12 3d ea 41 e5 bc 73 02 ec 3b 0b 4a a5 3d
       0.035722364 -0.027985532 0.0072024404 0.08070763
000020 74 5c db 3c ab 71 9d 3d 7c a0 85 3d 2a 96 42 bd
       0.026777484 0.07687696 0.065247506 -0.04750649
000030 ce 2f 48 bd cf e4 26 bb b3 f4 dd 3c e9 41 32 bc
       -0.048873715 -0.002546597 0.02709422 -0.010879972
000040 72 87 f4 3d bd 80 89 3d ce 44 03 be 8e 27 be bc
       0.11939897 0.06714008 -0.12819216 -0.02321222
000050 d2 7a c4 3c b4 e6 d1 3c 18 00 09 3e 49 dc b9 3d
       0.023984347 0.025622703 0.13378942 0.09075219
000060 84 87 67 3d 65 5e 94 bd c2 34 49 3d 79 91 ee bd
       0.056525722 -0.07244567 0.04912258 -0.116488405
000070 d1 27 58 3c 54 65 96 3d 11 d0 01 be 13 c1 df 3d
       0.013193087 0.073435456 -0.12677027 0.10925498
000080 2c 79 1b bd 4c 90 ba 3d 21 29 ae bc 36 d8 59 3d
       -0.037957355 0.09109554 -0.021259846 0.05318471
000090 a1 00 89 bc fd 66 63 3d b7 96 62 3d 5d 49 90 bc
       -0.016723933 0.05551814 0.055319514 -0.017613107
0000a0 0e e7 b0 3d 04 85 ba 3d 68 58 35 3d 59 56 51 3d
       0.0863782 0.09107402 0.044273764 0.05110774
0000b0 9e 2f 91 bd c5 32 1a be d2 ab b7 bc 1a e5 5f 3d
       -0.070891604 -0.1505843 -0.022420797 0.054661848
0000c0 b4 cc 8b 3d 03 55 98 3d 57 af 65 3d cd 55 28 3e
       0.068261534 0.0743809 0.05607542 0.1643898
0000d0 a3 d8 bc 3d ef 70 2b 3d e2 30 c1 3d fb d2 1c bb
       0.09221008 0.04185575 0.09433152 -0.0023929465
0000e0 74 c7 8e bc a3 7b 0d 3d 09 5b cf 3d fb f8 81 3d
       -0.017429091 0.034541737 0.101247855 0.063463174
0000f0 ba b7 1e 3e ee f6 88 3d 43 49 b3 3d e6 d9 67 3c
       0.15499774 0.06687723 0.08754208 0.014151072
000100 72 f4 b1 3c 76 73 bc 3d 11 e1 55 3d 87 f4 54 3d
       0.021723006 0.0920171 0.052216593 0.051991012
000110 05 ae 10 3c fc d3 b8 3d d7 72 a9 3d 01 26 57 bc
       0.008830552 0.09024808 0.08273857 -0.013131619
000120 f0 73 2b 3d 48 15 fd 3b 51 b0 9e 3d 5f 71 9f bd
       0.041858613 0.007723484 0.077484734 -0.07785296
000130 7e 6c b9 ba c4 a7 fe 3d 4e 6f 25 3d ab a8 5d bd
       -0.0014146713 0.124343425 0.04038935 -0.054115932
000140 7a 6a d8 3d 2d 5a c7 bb 31 2c 7b 3d 17 de 74 bc
       0.10567184 -0.006083748 0.06132144 -0.0149455285
000150 af 43 0a bd 4e 38 6e 3d bf 5d fd bc d1 96 0a bd
       -0.033755954 0.058159165 -0.03092849 -0.033835236
000160 94 13 ec 3b d2 fa 64 3d da b4 1d bd 2e a9 99 3d
       0.0072044823 0.055903263 -0.03850255 0.075029716
000170 e1 4b 4b 3c 30 75 da bc 7e 19 b3 bd 16 48 bb bb
       0.012408228 -0.026667207 -0.087450966 -0.0057153804
000180 28 c3 20 3e 77 2c 90 bd fc c3 5a 3d 8e 0b 63 bc
       0.15699446 -0.07039731 0.05340956 -0.013857735
000190 a5 73 83 3d 56 67 c6 3d 83 6c 24 3c 2b 29 83 3b
       0.06418542 0.096876785 0.010035637 0.0040027103
0001a0 ee 52 33 3d 6b d6 12 3d a4 7b 9a 3d 7b c4 82 3d
       0.04378026 0.035849016 0.07543114 0.06385132
0001b0 ab 3c 40 bd 50 2b 0b 3d 4c ad 8d 3d 52 19 d3 3d
       -0.046932857 0.033976853 0.069178194 0.10307564
0001c0 5b a2 88 3d bb ed 51 bc b9 ef a4 3d ee 24 db 3d
       0.06671592 -0.012813027 0.08053536 0.10700403
0001d0 c6 77 6c bd 29 c2 82 3d 59 0b 61 bd 11 3d 8a bd
       -0.057731412 0.06384689 -0.054942463 -0.06749929
0001e0 90 82 65 3d b7 2e 8f 3d 5a ba 8a 3d e8 ce 70 3d
       0.056032717 0.06991332 0.06773825 0.05879107
0001f0 d2 ea a9 3d 69 5a e3 bb d1 73 ac bc 33 a9 74 3d
       0.082967415 -0.006938268 -0.02105132 0.059731673

network_body.linear_encoder.seq_layers.2.weight f4 [128, 128]
000000 f2 b8 51 3c 63 1b 07 bd ae ec 57 3d 3c 88 56 3c
       0.012800442 -0.032985102 0.05271595 0.013094004
000010 64 02 4b 3e 8e e6 96 bd de cd 99 3d 42 c9 0e 3e
       0.1982513 -0.073681936 0.07509969 0.13943961
000020 01 58 9e 3d e1 23 e4 bd 57 2e 99 3d b9 37 1d be
       0.07731629 -0.11139656 0.07479542 -0.15353288
000030 83 f2 0c be 53 1e 94 3e ce 36 22 be 63 35 3f 3d
       -0.13764386 0.28929386 -0.15841219 0.046681773
000040 31 a4 16 be ec 77 11 3e be 63 89 3d 4c 84 12 3e
       -0.14711072 0.14205903 0.067084774 0.1430828
000050 71 d6 19 3e 90 17 1f be 8c f2 10 bd 5f 29 0c be
       0.15023209 -0.15536332 -0.03538756 -0.13687657
000060 e6 ae 1f 3e e1 94 8e 3d 0e 89 96 3c e8 f4 4d 3d
       0.15594062 0.0696199 0.0183759 0.05028239
000070 48 4e 45 3d 67 e2 90 3c 9a 54 90 3d 07 d0 12 be
       0.048170358 0.017686082 0.070473865 -0.14337169
000080 b4 cb 16 3e 86 f5 2d bc e2 fa e7 bb e7 2c b7 3d
       0.14726144 -0.010617619 -0.007079468 0.08944111
000090 ef 5b a2 3c 9b 79 37 3d 87 01 ef 3d 49 29 7e 3c
       0.019819228 0.044793706 0.11670213 0.015512773
0000a0 d1 29 af 3d f0 d2 8f 3d 38 8f 4d bc 71 b2 48 3d
       0.08552898 0.07022655 -0.012546353 0.0489983
0000b0 58 8e 25 bd 37 40 8f 3c cc e7 37 3b 67 66 be bb
       -0.040418953 0.017486675 0.0028061746 -0.005810547
0000c0 7b 4f fa bd c9 4d 93 bd f8 22 94 3d 4f 64 e3 3d
       -0.12222191 -0.07192571 0.07233232 0.11103117
0000d0 46 c6 78 3e 40 2e a0 3d 1b 16 82 bc eb b0 83 3d
       0.24294385 0.078213215 -0.015879681 0.06430229
0000e0 ee 9a bc 3c c4 97 c0 3c ea 31 27 bd c5 ec 72 3e
       0.023023095 0.023509867 -0.040819086 0.23723133
0000f0 19 39 1c 3d 47 cb 37 bb 93 8e 3f 3d 47 8a 0c be
       0.03814039 -0.0028044747 0.04676683 -0.13724624
000100 37 28 fc 3d 50 33 94 3d 5d 6a 45 3e 4a 0a 8e 3d
       0.12312358 0.072363496 0.19278856 0.06935556
000110 17 ef fd bd 51 88 87 bd c3 c7 4b 3e 47 8b 60 bd
       -0.123991184 -0.06617797 0.19900422 -0.054820325
000120 1e 1d 0d be 51 5e 10 bc 82 ab 7a 3e 59 df 08 be
       -0.13780639 -0.008811549 0.24479488 -0.1336645
000130 fe 37 50 be 85 dc 20 3e 20 5b 89 3d d3 52 e8 3b
       -0.2033386 0.15709122 0.06706834 0.0070899515
000140 26 c6 a3 bd 2a a6 3f bb c9 f8 34 bd 70 be a8 3d
       -0.07996778 -0.0029243329 -0.044182573 0.08239448
000150 6d 84 b3 3c 0d 6e 5e bd 8b b3 a8 bc 96 fc e2 3c
       0.021913731 -0.05430417 -0.020593425 0.027708333
000160 35 4f e1 3b ea 19 68 3c 56 20 fb bd f4 a7 a4 3d
       0.0068758973 0.014166335 -0.12262027 0.08039847
000170 68 1c 74 bc c1 8a a6 3c 11 28 f8 3b 31 27 8d bd
       -0.014899351 0.020329835 0.0075731357 -0.06892241
000180 ae bd 79 3d 9c 71 04 3e a3 da ca bc 97 62 90 bd
       0.06097191 0.12933964 -0.024762457 -0.070500545
000190 7d f2 57 bd c9 fc 53 3e 39 b1 24 be c3 0f bf bc
       -0.05272149 0.20701899 -0.1608323 -0.023322945
0001a0 77 e6 23 3d 91 40 d6 bc f7 2c 72 3e 9a dc 5c ba
       0.04001471 -0.026153835 0.23649965 -0.0008425206
0001b0 0a 6e a5 be d7 3e 11 3e 4b 24 4c bd 0c ff 42 bd
       -0.32310516 0.14184128 -0.0498393 -0.047606513
0001c0 17 15 e9 3c 3e 62 36 be a7 62 e2 bd 9d 58 8e bc
       0.02845244 -0.17810914 -0.11053973 -0.017376238
0001d0 6e db d0 3c 02 2f 03 3e c3 92 ef 3d a8 72 e2 bb
       0.025495257 0.12810901 0.116979145 -0.0069106407
0001e0 1e b4 03 bc f3 97 4e 3e ed e9 ec bd 0b a9 c2 3c
       -0.008038549 0.20175152 -0.11568055 0.023762247
0001f0 9e ca d3 3a 31 b2 82 be c0 80 85 3d d5 7e 08 be
       0.0016158407 -0.25526574 0.06518698 -0.13329633
000200 ec db a5 bd 3d c3 71 be 8e a2 44 3e d8 ad 66 be
       -0.080985874 -0.23609634 0.19202635 -0.22527254
000210 12 46 c5 bb 05 44 8b 3e de 9c e2 3d 0b 07 4b be
       -0.006020316 0.27200332 0.11065076 -0.19826905
000220 01 d0 17 3c 15 c7 22 3d 1a 67 d0 bc 4b 90 c0 3d
       0.009265901 0.03974064 -0.025439788 0.09402522
000230 e9 36 88 3e d4 7f 58 be 52 76 e2 bd 3d 9e 07 3e
       0.26604393 -0.21142513 -0.11057724 0.13243957
000240 09 eb 83 bd 02 a9 39 be 89 3c c0 bd 6d bc 4f 3e
       -0.06441314 -0.18130878 -0.09386546 0.20286722
000250 27 b6 b4 bd 4d 7c 03 bd d0 4d 39 3e 7a ff 70 bd
       -0.08823805 -0.032100964 0.1809609 -0.05883739
000260 89 97 36 3e 67 4f 17 be 63 9c 36 be 56 41 ba 3d
       0.17831244 -0.14776383 -0.17833094 0.09094493
000270 1c d7 d9 bd 59 fb fb bd ea d7 3a bd 74 68 31 bc
       -0.10636732 -0.123038 -0.045616068 -0.010828126
000280 79 92 a9 3d 1a fe 1d bd bd 90 82 be 86 23 85 be
       0.082798906 -0.03857241 -0.25501052 -0.26003665
000290 4e bf d6 3d ba 46 54 bd b1 56 76 bd 92 e2 89 bc
       0.10485707 -0.051825263 -0.06014127 -0.01683167
0002a0 cd c3 21 bd d8 7f 1d be 19 5f ce bc d5 77 bc be
       -0.03949337 -0.153808 -0.02519183 -0.36810175
0002b0 9c e2 26 3e a7 59 7e ba 69 b6 ab bd 7e e8 ef bd
       0.16297382 -0.00097026903 -0.08384401 -0.11714266
0002c0 78 5e b0 3d 5c 79 9f bb e2 40 0a bd 1d 5a f4 bc
       0.086117685 -0.004866762 -0.033753283 -0.029828126
0002d0 cb bd 77 bb 5f a8 87 3b d9 ca 1f 3e ef 8e 11 3d
       -0.0037802334 0.0041399444 0.15604724 0.035536703
0002e0 c7 3f 53 3e cf 61 17 be 6a 46 53 3e ed af d3 bd
       0.20629798 -0.14783405 0.2063233 -0.103362896
0002f0 10 c2 34 3e d2 28 ca bd 24 40 20 be 54 00 34 3e
       0.17652154 -0.09871067 -0.15649468 0.1757825
000300 ec 22 28 bd ba be ff bd c5 bf 3d be f3 87 2c be
       -0.04104893 -0.1248755 -0.18530186 -0.16848736
000310 07 61 99 bc f1 fe cf bd 95 5e f3 bd d6 cd d3 3c
       -0.018723024 -0.10156048 -0.118832745 0.025854986
000320 0c 11 e3 3d 12 46 7d bc 4d 67 30 be e1 38 c7 3d
       0.11087236 -0.015458601 -0.17226906 0.09727646
000330 54 76 3c 3e 33 e2 10 3e 0f a0 89 bd c3 83 93 bd
       0.18404514 0.14148788 -0.06719982 -0.07202866
000340 bf d9 75 bc 87 ff 2a 3d 00 29 d9 bd 2f 30 b7 3d
       -0.015005528 0.041747596 -0.10603523 0.08944737
000350 c8 46 02 bd 58 ad 1d be e6 3a 57 bd b8 0e 26 bc
       -0.031805784 -0.15398157 -0.052546404 -0.010135345
000360 8e 42 87 bc 78 23 4a be ed 34 7c 3e 1c b2 cd bc
       -0.016511228 -0.19740093 0.24629565 -0.025109343
000370 d4 e8 b4 3e f1 4f 99 bd 62 6c 00 3e bc bf 7f 3d
       0.35333884 -0.07485951 0.12541345 0.06243871
000380 d6 3d 11 bd b6 b8 07 3e 10 8d d8 bc 4b 8b 3e 3e
       -0.035459362 0.13254055 -0.026434451 0.18607824
000390 a1 eb 85 bd a1 16 76 be e4 32 f8 3d 10 d5 80 3d
       -0.06539083 -0.2403207 0.121190816 0.062906384
0003a0 43 f7 5c 3e 71 a7 d0 bd 6b f6 3a 3d 40 a1 60 be
       0.21578698 -0.10188187 0.04564516 -0.21936512
0003b0 6f 93 89 3e 53 6b 58 3d dc 94 66 be b4 11 83 3d
       0.26870295 0.052836727 -0.22517723 0.06399861
0003c0 e0 76 21 be ca f0 d4 3d f5 e9 44 bd b9 7a b2 3d
       -0.15768003 0.10397489 -0.04807468 0.08714814
0003d0 3a b0 64 3e f4 10 2e be 03 8b 8f 3d 89 13 55 3e
       0.2233285 -0.16998655 0.07008936 0.20808233
0003e0 3d ed a3 bc 97 7e 03 be 1c a4 0c be f9 ef c4 bd
       -0.020010585 -0.12841259 -0.13734478 -0.09616084
0003f0 5f fe b9 bd 2d 0d 72 3d 7d bc 28 be eb ed 13 be
       -0.090817206 0.059094597 -0.16478153 -0.14446227

network_body.linear_encoder.seq_layers.2.bias f4 [128]
000000 55 0d 12 3d c7 db 06 be 9f 90 33 3d 2a 60 74 3d
       0.035657246 -0.13169776 0.043839093 0.05966202
000010 3c a5 76 bc c8 5a 28 bd 20 89 64 3d 8c d7 8c 3d
       -0.015054043 -0.0411022 0.055794835 0.0687705
000020 71 a1 91 bd 3e 85 1a 3d 0c ff 79 3d 38 09 6c bd
       -0.07110871 0.037724726 0.061034247 -0.05762598
000030 5d 88 92 bd 06 df 9a 3d ca fb 08 be 01 3f 2a 3d
       -0.071549155 0.075620696 -0.133773 0.04156399
000040 e7 d8 15 3d 57 34 7b 3d 17 8a 35 3d d8 a2 c2 bd
       0.036583807 0.061329212 0.044321146 -0.09503716
000050 d9 56 58 3d cc 18 f7 bd 0e 3a fa bd e2 d0 8c 3d
       0.0528172 -0.120652765 -0.12218104 0.06875779
000060 b9 6a 80 3d 9f d3 32 3d c9 36 b0 3d 27 f5 02 3d
       0.06270356 0.04365885 0.086041994 0.031972077
000070 3c cb d6 bd fa d8 f0 bd 0b 96 7a 3d ca 2e fc bd
       -0.10487983 -0.11760135 0.06117825 -0.12313612
000080 42 0c 5e 3d f8 b7 10 be 36 6e f7 bd 7a 52 9d 3d
       0.05421091 -0.14132679 -0.12081568 0.07681747
000090 28 87 ac bd 5c b1 2d 3d 3e bd 3c 3d 1f 4b 3c bd
       -0.084242165 0.04240547 0.046078913 -0.04597008
0000a0 cb 25 68 3d 3e a4 26 3d 4f f8 57 3d d5 59 34 3d
       0.056676667 0.040683977 0.05272704 0.044030983
0000b0 8f 56 70 3d 93 93 66 3d 94 a9 02 be af e9 93 3d
       0.0586763 0.05629308 -0.12760001 0.07222306
0000c0 3a bb fa 3c 42 8b 98 3d da 13 02 be c5 78 00 be
       0.030606855 0.07448436 -0.12702885 -0.1254607
0000d0 09 1f ec bd 06 8a 81 3d 4d 4e 17 be f0 47 b8 3b
       -0.11529357 0.06325154 -0.14775963 0.00562381
0000e0 70 99 09 be e5 8f 3f 3d d1 bb cb 3d 74 f6 80 3d
       -0.13437438 0.046768088 0.099479325 0.06297007
0000f0 24 e2 06 be 0f 0d 69 3d 5c 8a f2 bd e7 33 8a 3d
       -0.13172203 0.05689722 -0.11842796 0.06748181
000100 8d db 43 bd a8 6d 53 3d fd 03 95 3d ea a8 c6 bd
       -0.0478168 0.05161825 0.07276151 -0.097001866
000110 e9 d1 b3 bd e2 a4 87 3d ce 05 2b 3d d0 a3 04 be
       -0.087802716 0.06623246 0.041753583 -0.12953115
000120 62 45 a7 3c 66 6f 26 be a6 c3 1b 3d 75 1e 92 3d
       0.020418826 -0.16253433 0.03802838 0.071347155
000130 a9 9e 99 bd 04 75 bb bd a3 ea a1 3d e1 8c e6 bd
       -0.07500965 -0.09153178 0.079060815 -0.11257339
000140 4f 13 e8 bd 2a 89 9e 3d 52 47 21 3d 34 34 69 3d
       -0.11331808 0.07741006 0.039374657 0.05693455
000150 3d fb a9 3c 07 40 18 be 0b 61 06 be b8 e1 0d 3d
       0.020749683 -0.14868174 -0.13122956 0.03463909
000160 1e a0 75 3d 37 d8 8c 3d 8e 42 84 bd e6 61 96 3d
       0.059967153 0.06877177 -0.06458007 0.073428914
000170 37 44 98 bd b9 be f7 bd 81 cd 70 bb 27 fc 08 be
       -0.07434886 -0.12096924 -0.0036743584 -0.13377438
000180 e5 3a 10 3d 03 6c 69 3d 58 8e d7 bd 89 2c 2b 3d
       0.035212416 0.056987774 -0.10525197 0.04179052
000190 b7 12 81 3d 07 ec ab 3d 57 f5 14 3c 5a 30 b1 3d
       0.06302398 0.08394628 0.009091697 0.086518005
0001a0 80 82 08 be 83 21 b2 bd 5c 21 6a 3d ab 17 38 bd
       -0.13331032 -0.08697798 0.05716072 -0.044944447
0001b0 22 ef 17 3d 45 65 88 3d 1a fd 2a 3d 02 3e d7 bd
       0.03709329 0.06659941 0.041745283 -0.10509874
0001c0 e1 25 7a 3d 42 1c 47 3d 33 07 07 be e4 e8 a3 3c
       0.06107128 0.048610933 -0.1318634 0.020008512
0001d0 cf 64 31 3d c8 93 d7 3d b9 91 b7 bd 21 0d 34 3c
       0.04330903 0.10526234 -0.08963341 0.010989458
0001e0 78 84 06 be 77 4b 3a bd cf 14 a2 bd a6 ba 04 be
       -0.1313647 -0.045482125 -0.07914125 -0.12961826
0001f0 42 84 82 3c 8c 01 49 3d 68 02 d2 bd 2e f8 0f be
       0.015932206 0.04907374 -0.10254365 -0.14059517

network_body.linear_encoder.seq_layers.4.weight f4 [128, 128]
000000 58 6a c8 bd d2 61 c0 3c e9 21 19 be 18 6d f2 3c
       -0.097859085 0.023484144 -0.14954342 0.029593036
000010 96 c2 33 be a6 0a 42 3e f8 1c fd bd 23 98 f3 bc
       -0.17554697 0.18949375 -0.12359041 -0.02973563
000020 83 4a a7 3b ed 75 a9 bd d9 17 08 be f5 1f 41 3d
       0.005105318 -0.08274446 -0.13290347 0.047149617
000030 25 07 c5 bd a1 db 96 be 35 9a 8f bd f5 bd 34 bd
       -0.09620503 -0.2946444 -0.070118345 -0.04412647
000040 39 d4 2b be f0 b7 0b 3e 8d 8b 01 be ec 12 86 bb
       -0.16780175 0.13644385 -0.1265089 -0.004091611
000050 6f 67 0b bd f3 5d 5a 3e bc a5 b6 3d 9f c2 eb 3d
       -0.03403419 0.21324901 0.0891833 0.115117304
000060 6f 98 f8 bd fc 40 7c 3c ea 1f aa b9 d3 eb 26 be
       -0.121384494 0.015396353 -0.00032448705 -0.16300897
000070 5a 48 99 3d 90 58 e9 3d 7b 03 81 bd 3f 29 5a 3e
       0.07484503 0.11393845 -0.06299492 0.21304797
000080 d6 46 33 3b e1 a1 8a bc 1a de a4 3d 2e 3f 99 3c
       0.0027355454 -0.016922893 0.08050175 0.018706884
000090 c8 f7 d2 3d 4c b4 17 bd 8b 25 f2 bd 5a e5 16 be
       0.10301167 -0.03703718 -0.11823567 -0.14735928
0000a0 26 0b 15 3d 2a ad e8 3c 6f e7 cc bd 30 74 62 be
       0.036387585 0.028402884 -0.1000508 -0.22114635
0000b0 22 b0 f7 bd 05 f6 c7 bc c1 a6 b3 bd fc d8 c3 bd
       -0.120941415 -0.024409303 -0.0877204 -0.09562871
0000c0 ea 53 94 3d 21 0b 84 be 5a 48 25 3e 30 af 0a 3e
       0.07242568 -0.2578974 0.16140881 0.13543391
0000d0 e9 f8 a5 3d 34 38 0e bd 67 97 da 3d ed be 19 3d
       0.081041165 -0.03472157 0.10673409 0.037535597
0000e0 33 94 c4 ba e7 cc 91 bd 99 3f 10 be c6 19 12 bc
       -0.001499778 -0.0711916 -0.1408676 -0.008917278
0000f0 3b 61 42 3d 84 dd 23 bd 50 f3 10 bd f8 0d 8b bd
       0.047456007 -0.040006176 -0.03538829 -0.06789774
000100 2f ae db 3c 09 91 7a bd 08 d4 2a be 3d e6 a7 bc
       0.026816456 -0.061173473 -0.16682446 -0.020495528
000110 75 66 e4 3c 36 37 22 be 66 38 f6 3d 36 a6 b8 3d
       0.027880887 -0.15841374 0.12022476 0.09016077
000120 bf a9 af bb 6d b3 4f 3d 03 60 7f bc 18 9b 78 be
       -0.0053608115 0.050708223 -0.015586856 -0.24277914
000130 67 f1 8e bd 47 6b 1a 3e ee 0b 47 be 89 ce 29 3e
       -0.069796376 0.15079986 -0.19438145 0.16582693
000140 55 68 02 b9 a3 14 20 3d 7e cf 03 be 5b 95 8d be
       -0.00012436633 0.03908218 -0.1287212 -0.27653012
000150 7a 3b b7 bb e1 25 c7 3d 6e 20 35 3e a7 3f 3e bd
       -0.005591807 0.09724022 0.17688152 -0.046447422
000160 70 6b 1e 3c 90 09 3b be 3c 51 0a 3e b4 87 af bd
       0.00966917 -0.18265367 0.13507551 -0.08570805
000170 3b 38 b2 3d 77 b6 9f 3d 11 5e d9 3d 28 a8 40 bd
       0.08702131 0.07798474 0.10613645 -0.047035366
000180 58 39 bb bd 82 86 16 3d 97 5a 25 3c 9c 5f 2c be
       -0.09141797 0.03674937 0.010092399 -0.16833347
000190 99 19 8a 3c 3a a5 0a bb b8 40 3b 3d 01 d3 df bd
       0.016857909 -0.0021155612 0.045716017 -0.10928918
0001a0 18 38 ce 3d ae 8f fc bc 5e e3 24 bd aa 3a 99 3d
       0.10069293 -0.03083023 -0.040255897 0.074818924
0001b0 43 f8 1b be 08 b1 6d bc b7 c6 96 bd 8d 49 35 3e
       -0.15231423 -0.01450754 -0.073621206 0.17703839
0001c0 d9 23 08 be 3b 68 22 be 38 e3 bb bc 26 de 92 bd
       -0.13294925 -0.15860073 -0.022935495 -0.07171278
0001d0 21 e8 3e bc bc ca 2a be 63 6a d6 3c 19 48 08 bc
       -0.0116520235 -0.166789 0.026173776 -0.008317971
0001e0 9b 45 b9 3d c4 58 14 3e c1 f7 10 3e c9 22 80 3d
       0.09046479 0.14486986 0.1415701 0.06256635
0001f0 c4 1f 5a 3d 75 28 d5 bd 6a 89 42 3d ef 7f 07 3d
       0.05325295 -0.10408107 0.04749433 0.03308099
000200 5b a1 2b be 81 44 f8 3c eb 5a 4c be 5b 48 c4 3d
       -0.16760771 0.030306103 -0.19956557 0.09584113
000210 72 7a fb 3d e5 0f 68 3d 8b 83 f6 bd be f8 aa be
       0.12279214 0.056655783 -0.120368086 -0.333929
000220 05 2d 97 bc 81 2e c3 bd c8 a5 2b be 2a dd df 3c
       -0.018454084 -0.09530354 -0.1676246 0.027327139
000230 7e 10 5b 3d 89 5f 9e be e3 e4 cc bd e4 03 89 3d
       0.053482525 -0.30932263 -0.10004594 0.06690195
000240 0a 58 5b be 57 25 ca 3b bc 3c be 3d 28 0d af 3d
       -0.21420303 0.006169002 0.09288928 0.08547431
000250 86 8e d0 bd ec 76 c7 3d f4 7e b0 3d 33 76 00 be
       -0.10183434 0.097394794 0.086179644 -0.1254509
000260 33 cc 82 bd 5d 95 d6 bc 19 f0 2d ba 7c 62 89 be
       -0.06386604 -0.026194269 -0.00066352036 -0.2683295
000270 86 59 12 3e 48 4b 18 3e b9 a3 16 be 1d 16 80 bd
       0.14291963 0.14872468 -0.14710893 -0.06254218
000280 2d e1 a1 bc f4 32 bc 3d 15 18 30 3b c2 10 33 be
       -0.019760692 0.09189406 0.0026869823 -0.17486861
000290 1d 53 d0 3d 8d 42 81 be 5e c5 14 3b 55 21 8e 3d
       0.101721026 -0.25246087 0.0022700648 0.06939951
0002a0 0d b2 8f 3d 4a f0 c2 bb 59 50 03 be a4 7b 23 bc
       0.07016382 -0.005949055 -0.12823619 -0.009978209
0002b0 9a d6 0b 3e e6 1d a8 3d f8 ed a4 3d 24 3c 93 bc
       0.13656083 0.08208828 0.080532014 -0.017973013
0002c0 99 56 21 3e ff 26 6b be cb 31 fa bd 3e 2d e4 bb
       0.1575569 -0.22964095 -0.122165285 -0.006963401
0002d0 0e e3 b4 3c 95 c3 04 3e 17 ba 1f bd 0e b8 15 3e
       0.022080924 0.12965234 -0.03899583 0.14620993
0002e0 26 76 b8 bd 4a a3 df bd 57 98 7e bd f5 dd 0e be
       -0.0900691 -0.10919817 -0.062157 -0.13951857
0002f0 45 b8 16 be 15 1e 32 be 1b ac 1e bc cb cd c0 bd
       -0.14718731 -0.17394288 -0.009684588 -0.09414252
000300 8c 71 b2 3b c6 48 30 3d cd b8 9a bd 21 07 09 3d
       0.0054456647 0.043038152 -0.07554779 0.033454064
000310 9b 23 97 bd cc e4 17 be 9e f6 ae bd e6 4d c2 3c
       -0.07379838 -0.14833373 -0.08543132 0.023718785
000320 72 df a9 bd 22 6a fa 3d 1c ec 39 be 27 0d 17 bd
       -0.08294572 0.122272745 -0.18156475 -0.036877777
000330 88 06 0a be 75 19 7d 3d 83 81 35 bc 80 35 54 3e
       -0.13479054 0.061791856 -0.011078241 0.20723534
000340 fb e0 25 3e 45 cd b9 bc 43 a6 fc bd ad 41 b8 bd
       0.16199104 -0.022680888 -0.123363994 -0.08996902
000350 af 99 90 bd f7 a1 f0 3d aa ab f6 3c 00 ea 1f bb
       -0.07060563 0.11749642 0.030111153 -0.002440095
000360 cb 5c 6a bd 3c f8 cd 3d 77 b5 de 3b 38 14 86 be
       -0.0572174 0.100571126 0.0067965346 -0.261873
000370 e4 fd de 3c 6a 52 98 bd 83 9a 74 3c 74 a8 d8 3d
       0.027220674 -0.07437594 0.014929417 0.10579005
000380 ff 4e 3a 3d 22 19 c6 bd 7f 5f 90 3d 6d 10 28 be
       0.045485493 -0.096727625 0.070494644 -0.16412516
000390 aa c2 12 be bd a8 2d be bc 09 14 bd bd 0a 37 be
       -0.14332071 -0.169589 -0.036142096 -0.1787519
0003a0 54 d3 93 bb 9b 3e 16 3e 17 f1 1f 3d e3 42 cc 3d
       -0.0045112763 0.1467232 0.03904828 0.09973695
0003b0 ed 8b b7 bd 5c bb c3 bd 38 66 90 3d 0f 44 54 3e
       -0.089622356 -0.0955722 0.07050747 0.20729087
0003c0 58 23 29 be 9c 98 47 be c1 a5 93 3d 8c 57 3b 3e
       -0.16517389 -0.1949181 0.072093494 0.18295115
0003d0 bd 95 6c bd cb ef bc bd 05 90 29 bd ce 11 44 bc
       -0.05775999 -0.092254244 -0.041397113 -0.011967136
0003e0 39 27 a5 bd f0 c1 0a be 15 80 f2 3d db 60 aa 3d
       -0.08064122 -0.13550544 0.11840836 0.08319255
0003f0 a7 b5 b0 bc c7 72 39 be 26 e2 dd 3c 0d 0b 35 3e
       -0.021570994 -0.1811019 0.027085375 0.17679997

network_body.linear_encoder.seq_layers.4.bias f4 [128]
000000 69 53 3d bd be 05 06 bd 1d ac 70 3d 84 ad 4f bd
       -0.046222124 -0.03272032 0.05875789 -0.050702587
000010 57 64 c9 bc 25 ce a4 bc c1 be 4b bd 69 f4 92 bd
       -0.024583979 -0.020117829 -0.049742464 -0.07175524
000020 d2 c3 d9 3c 14 ef 97 bd a3 45 df 3c c6 e3 bb 3c
       0.026582632 -0.074186474 0.027254885 0.02293576
000030 7c d9 5a bd f8 4c a1 bc 60 3c 2d bc 6c cc 42 bd
       -0.053430066 -0.019690022 -0.010573477 -0.047558233
000040 ae 69 1c 3d da 21 8c 3d 97 92 13 bd fb 06 38 3d
       0.03818672 0.06842394 -0.03602847 0.044928532
000050 5d a4 8e 3d d5 06 b6 bd 76 7d 26 bd bd 30 5e 3d
       0.069649436 -0.08888022 -0.040646993 0.0542457
000060 bd e3 70 bc 59 78 7b bd 1f 8e 6a bd da 89 44 bd
       -0.014702735 -0.06139407 -0.057264443 -0.047983028
000070 a2 16 3b bd 10 23 2a 3d 78 c8 35 bc 7c 97 7a 3c
       -0.04567588 0.041537344 -0.011095159 0.015294906
000080 35 64 7f bd da 4b 06 bd 87 1b 39 bd d1 b3 77 bd
       -0.062351424 -0.03278718 -0.045192268 -0.06047422
000090 b6 76 5d 3d d5 14 63 3b ea 75 8b 3d fd ab 00 3d
       0.05406829 0.0034649868 0.068096 0.03141402
0000a0 0c 03 89 3d 02 d1 96 3d 4d bb b1 bc 2d a7 00 bd
       0.06690034 0.07364084 -0.021695757 -0.03140943
0000b0 78 3e f4 3b 77 d0 4b bd 02 9c 7f bd 96 84 70 3d
       0.007453736 -0.049759354 -0.06240464 0.058720194
0000c0 e2 eb 96 bd 58 97 a4 bc 58 9b aa 3d 77 d4 f3 bc
       -0.0736921 -0.020091698 0.08330411 -0.029764397
0000d0 0c f0 4c 3d 5f 89 8b 3d 63 40 af 3c bf cd 79 3d
       0.050033614 0.06813311 0.021393007 0.06098723
0000e0 67 c5 8a bb a3 7c c3 3d b4 eb 5c bd e6 f7 96 3d
       -0.004234958 0.09545257 -0.05393572 0.073715016
0000f0 e9 e3 0c bd 94 c1 d0 3d 8c 55 5d bd 87 d4 ab 3d
       -0.03439704 0.10193172 -0.054036662 0.08390146
000100 08 38 9b bd 79 95 40 bd 0f 7e 4b bd 7d 16 a9 bc
       -0.075790465 -0.04701755 -0.049680766 -0.020640606
000110 de 20 96 3d ce 92 8b 3d c9 40 6f bd c3 54 47 3d
       0.07330488 0.0681511 -0.058411393 0.04866482
000120 b0 1c 4b bd d4 3a ef bb 03 72 3a 3d 8b b4 70 3d
       -0.049587905 -0.007300714 0.045518886 0.05876593
000130 eb 52 81 3d a7 ef 8a bb e0 e9 72 3d 41 c0 80 bd
       0.063146435 -0.0042399946 0.05930507 -0.062866695
000140 50 0e d2 3d b7 2c 14 3d 48 33 79 3d 7f 8c 88 bd
       0.10256636 0.036175456 0.06083992 -0.066674225
000150 c4 f1 93 3d d4 2f bd bc 8e 2b 5a 3d f3 5f 40 bd
       0.072238475 -0.023094095 0.053264193 -0.046966504
000160 5e a7 83 3d fd 23 8f bb 8e 14 54 bd 7d 51 af 3d
       0.06428407 -0.004368304 -0.051777415 0.085604645
000170 2f de 7a 3d 74 00 a0 3c 58 93 29 3d 15 ce 95 3d
       0.061247047 0.019531466 0.041400284 0.07314698
000180 3e 0c 8e bd c7 b3 84 bc 8d a0 67 bd a2 23 a0 3d
       -0.06935929 -0.016199006 -0.056549598 0.078192964
000190 31 0f af bd 6f 09 ff 3c d9 1b 73 bd 01 67 85 3d
       -0.085478194 0.031132428 -0.05935273 0.06513787
0001a0 72 8e 1c 3d 17 49 78 3d 4a 8a c1 3d 4c 20 3e bd
       0.038221784 0.06061658 0.09450205 -0.04641752
0001b0 7f 15 79 3d a2 bf 55 3d 45 3d 79 3d a9 4f fe 3c
       0.060811516 0.05218471 0.060849447 0.031043844
0001c0 ca 5b 0d bd 28 8d 26 3d 8b fe 96 bd 13 6f 94 3d
       -0.034511365 0.04066196 -0.07372769 0.07247748
0001d0 3d fa 7b bd ec 19 36 bd e4 43 1a 3d bf ec 96 3c
       -0.061517943 -0.044458315 0.0376624 0.018423436
0001e0 22 ae 85 3d de 66 6c 3d c2 20 1b 3d 74 2b 49 3d
       0.06527354 0.05771529 0.037873037 0.049113706
0001f0 aa e6 90 bd e0 bf 34 bd 46 64 3a bd 8a e6 21 3d
       -0.07075246 -0.0441283 -0.045505784 0.0395265

action_model._continuous_distribution.log_sigma f4 [1, 5]
000000 16 19 2d c0 dd 21 10 c0 6f 40 12 c0 76 53 71 bf
       -2.7046561 -2.2520669 -2.2851827 -0.94267976
000010 6e 43 01 bf
       -0.50493515

action_model._continuous_distribution.mu.weight f4 [5, 128]
000000 94 84 0e bd 43 99 84 3b 11 47 1f 3d 45 1a cc bc
       -0.034794405 0.0040465905 0.038886134 -0.02491487
000010 4c f7 85 ba e3 6f b3 3d ca 85 6e bd dd ce 71 bd
       -0.0010220795 0.08761575 -0.05823306 -0.05903517
000020 c8 16 70 bc 0b 51 cf bc ab fc c3 3c 46 08 3a bd
       -0.014653869 -0.025307199 0.023924192 -0.045418046
000030 d2 1b 61 bd 48 37 67 3d b9 be 0a be c5 a4 81 bc
       -0.054958172 0.056449205 -0.13549317 -0.015825639
000040 00 18 67 3d 33 47 6b 3c b3 b2 2f bc d4 57 be 3b
       0.056419373 0.014360237 -0.010723758 0.00580881
000050 b5 e2 15 bb 08 a2 0a bd f1 b6 d3 bc fe 97 01 bc
       -0.0022870724 -0.03384593 -0.02584407 -0.007909773
000060 86 80 ef bc 2c 09 e9 bc 33 6b 52 3b 49 fb ad bc
       -0.02923609 -0.028446756 0.0032107353 -0.021237986
000070 76 85 11 bd 01 b0 05 bd f0 c6 ce bc 67 3d 32 bd
       -0.03552767 -0.032638554 -0.025241345 -0.04351559
000080 31 6d b0 bc 0e 52 10 bd 7f f8 43 3c de 34 a0 3a
       -0.021536442 -0.035234503 0.011961102 0.0012222787
000090 c1 6d 48 bd 61 9c e6 3d 6b cb ab ba 1f d8 95 bd
       -0.048932794 0.11260296 -0.0013106888 -0.073166125
0000a0 28 8d 21 3c f6 b1 2c 3d 8e 7c 94 bd 26 18 65 bc
       0.009860314 0.042161904 -0.072503194 -0.013982808
0000b0 26 c6 80 bd 64 ec 3f 3c 07 9b 67 3b 61 5b e2 3b
       -0.06287794 0.011714075 0.0035340206 0.006907866
0000c0 c0 84 80 ba 67 ae 6e bd 79 9d 15 bc 76 fb 30 bd
       -0.0009805188 -0.05827179 -0.009131783 -0.04320856
0000d0 b4 75 e5 3c 7c f6 32 3d cb 7b d9 bc f1 91 55 3d
       0.028010227 0.043692097 -0.026548287 0.052141134
0000e0 6a 63 bb 3c 25 85 3f 3d 4f 4f 60 bc f9 75 f9 3c
       0.022874553 0.046757836 -0.013690784 0.030451762
0000f0 57 34 b2 bc 2f 5b 23 3d 6f 45 04 bc 72 8a 32 3c
       -0.021753473 0.03988188 -0.008073195 0.010897266
000100 04 0f 81 bc 33 75 02 bd 71 c7 16 bd 21 75 60 3d
       -0.01575423 -0.03185005 -0.036811296 0.054799203
000110 63 ab 39 3c 8f 54 45 bc e5 df f7 bb 86 16 4c 3d
       0.011332366 -0.012044086 -0.007564532 0.049826168
000120 7f ab 1f bd de 77 34 3d 33 50 85 bb 12 ae e2 3c
       -0.03898191 0.044059627 -0.0040683984 0.027670894
000130 d5 a2 96 ba 38 be 41 bd 51 27 8c bb 63 db 2f bd
       -0.001149262 -0.047300547 -0.004277148 -0.042933833
000140 82 cd 0e 3d dc 2c 4e bb a6 29 80 3c 52 9e 3e bd
       0.034863956 -0.0031459844 0.01564486 -0.046537705
000150 5b 6b 77 3c 6e 08 05 bc dd a2 16 3d 56 0c 58 bc
       0.015101279 -0.008119686 0.036776412 -0.013186535
000160 82 17 25 3c e8 fc 82 3d 85 14 5c 3b 6d e1 68 3d
       0.0100764055 0.06395894 0.0033581567 0.056855608
000170 a3 78 c8 ba e5 1c a9 3d b8 16 5a bd 95 7e 50 3c
       -0.0015294742 0.08257464 -0.053244323 0.012725492
000180 e6 e6 17 bd f6 4d 12 bd 28 2f d8 bc 9a 61 05 3d
       -0.037085436 -0.03571888 -0.026389673 0.032563783
000190 97 cf c3 bc 3c 89 b7 bc 56 f9 22 bd 1b 70 11 3d
       -0.023902697 -0.022404306 -0.039788567 0.035507303
0001a0 14 95 72 3c 35 ae e8 3c c2 dc 4c 3d 75 99 b2 bc
       0.014806051 0.02840338 0.05001522 -0.02180169
0001b0 ed fe bb 3b 6a 6b c7 3b 4e 33 40 3a a0 60 14 3d
       0.0057371766 0.006085803 0.0007331864 0.03622496
0001c0 36 ce 5a 3c 45 68 a6 3c c9 49 4a bc 8a c3 e5 3b
       0.013354829 0.020313391 -0.012346693 0.0070118355
0001d0 b1 ab d5 bc 37 3c 0f bc f9 f6 bf 3c ce 84 2e bb
       -0.026082845 -0.008742384 0.023433195 -0.002662945
0001e0 f5 d1 45 3c 3e 30 20 3c 82 4f 9c 3c 0e 89 9b 3d
       0.012073983 0.009777127 0.019080881 0.075945005
0001f0 dc dd ea bc a4 29 21 3b 20 44 0e bd d7 f2 8d 3d
       -0.028670244 0.002459147 -0.034732938 0.06931084
000200 ce bf c8 bd 4a fd a8 bd 18 2f 08 3d 93 76 bb bd
       -0.09802209 -0.08251436 0.033248037 -0.091534756
000210 7c 3c 26 bc 64 e8 7e bc bf f9 b3 bd 60 45 ba bd
       -0.010146257 -0.015558336 -0.0878787 -0.090952635
000220 11 48 da 3c 92 1f a3 bd e0 55 5f bb 86 bd a8 3c
       0.026645692 -0.07965006 -0.0034078285 0.020598184
000230 15 50 89 bd eb d4 12 be 30 de 2f 3e 0a 13 b2 bd
       -0.067047276 -0.14339034 0.17174602 -0.08695038
000240 bc 01 0a 3e 0b 50 a3 3b 66 5e ab bd 37 d1 28 bc
       0.13477224 0.004983907 -0.083676144 -0.010303787
000250 5e 92 02 3d 36 91 90 bd 23 b4 6d bd 45 1e a6 3b
       0.031877868 -0.07058947 -0.05803312 0.0050695264
000260 4c 4d d1 3a d2 1a b7 bd 97 03 0f be 5c dd 14 be
       0.0015968471 -0.089406624 -0.13966213 -0.14537567
000270 24 a8 dd bd 06 e0 fa 3c 53 16 b4 3d fa 74 ef 3c
       -0.10823086 0.0306244 0.087933205 0.029230583
000280 9a e6 be bd 8f 74 d5 bd f4 7d a2 bd 35 72 d2 bd
       -0.093213275 -0.104226224 -0.0793418 -0.102756895
000290 75 18 5d 3d a8 73 d3 bc 16 58 5d 3d 50 6c 7f 3d
       0.053978402 -0.025811985 0.054039083 0.062359154
0002a0 bb dd 80 3c b8 98 3d 3d 2a 6f fc bb 2f 6c f5 bc
       0.01573073 0.046288222 -0.0077036815 -0.029958813
0002b0 e4 7b 21 3e 07 f2 de bc 9d fd 5b bc f0 0f 98 3d
       0.15769917 -0.027215017 -0.013427165 0.07424915
0002c0 d4 97 e6 bc b6 12 ff bd de bf a2 3d 96 d8 01 be
       -0.02814857 -0.12454741 0.07946752 -0.12680277
0002d0 08 be 9f 3d 95 9e 17 3d fb 66 38 3d 4b 26 11 3d
       0.077999175 0.03701647 0.045020085 0.03543691
0002e0 38 7f 49 bd 35 e4 92 3d 7f d6 df bd 46 a6 22 3d
       -0.04919359 0.07172433 -0.10929584 0.039709352
0002f0 a0 4b cd bd 7b 41 84 3d 96 cd f4 bd f1 07 23 3d
       -0.1002419 0.06457802 -0.11953275 0.039802495
000300 da 7a df bd e7 dd d8 bd 31 dd c9 bd e9 1e 90 bd
       -0.10912104 -0.105891995 -0.09856642 -0.07037146
000310 12 93 59 3d 1c 8e 19 3c 7d 43 a0 bd e7 8e 74 3c
       0.053118773 0.00937226 -0.07825372 0.014926649
000320 7c ce ba bd e5 a2 16 be d4 12 f9 3b 67 6f 23 3d
       -0.09121415 -0.14710577 0.0076011214 0.039901163
000330 e4 86 cd 3b 01 5e 8d 3d 83 8a 3a 3d 8c 5c d4 bd
       0.0062721837 0.069026954 0.04554225 -0.103692144
000340 19 31 63 3d b7 a9 c5 b9 75 20 22 3d 58 b0 76 bd
       0.055466745 -0.00037701215 0.039581735 -0.06022677
000350 32 d4 3b 3e bc 21 cb bc 6f 9a bf 3c 22 fc 9d bd
       0.18342665 -0.02479636 0.02338907 -0.07714106
000360 dc 16 20 3d 79 d5 da bd e1 92 97 bd 23 47 29 3d
       0.0390843 -0.10685248 -0.07401062 0.041327607
000370 56 0b 8f 3c e3 08 d4 bd d2 5e 83 3d aa eb 10 3d
       0.01746146 -0.103532575 0.0641457 0.035380997
000380 af c8 fc bd 03 75 93 bd 4a 53 89 bd 09 96 bf 3c
       -0.12342965 -0.072000526 -0.06705339 0.023386972
000390 c2 6b af bd f4 52 87 ba 0d 7a d2 bd b1 f5 8c 3d
       -0.08565475 -0.0010324405 -0.102771856 0.068827994
0003a0 f1 20 09 3d 7e 3a 1e 3d 0c f3 91 3d 51 c8 b3 bd
       0.03347868 0.03863 0.07126436 -0.08778442
0003b0 48 77 b3 3c 14 5f 50 3c 91 33 db 3c 58 45 da 3c
       0.021907464 0.012717981 0.026757987 0.026644394
0003c0 40 56 72 bd ee c2 a0 3b 44 f1 9e bd 5a 3f 11 3c
       -0.059164286 0.00490605 -0.077608615 0.008865202
0003d0 5b 35 99 bd bb d0 87 3c c5 01 cb 3c 67 34 2c 3c
       -0.0748088 0.016579023 0.024781117 0.010510541
0003e0 0f 8d 19 3d f6 91 d7 3c 94 8f 26 3c 8a 92 c1 bc
       0.03748804 0.026314717 0.010166068 -0.023629446
0003f0 78 12 d2 bd 50 1c 88 bd 49 07 dd bd 51 dc fd 3d
       -0.10257429 -0.06646025 -0.10792405 0.12395538

action_model._continuous_distribution.mu.bias f4 [5]
000000 92 00 1f 3d e5 d5 9c 3d da b2 13 bd d1 60 df bd
       0.038818903 0.07657985 -0.036059238 -0.10907138
000010 02 3f ad 3d
       0.084592834

critic.network_body.linear_encoder.seq_layers.0.weight f4 [128, 19]
000000 c0 18 e8 be c3 0a 56 3c 99 35 dd be 03 b3 7e 3e
       -0.45331383 0.013064089 -0.43204954 0.24872975
000010 3f 75 48 3d 73 c2 13 bd dd 9a 80 be b1 fb 07 be
       0.04893994 -0.036074113 -0.2511815 -0.13279606
000020 62 7b 01 3f b5 ac eb 3e 84 d3 12 be 97 9d 8d 3e
       0.5057889 0.46030203 -0.143385 0.27659294
000030 f3 30 b1 3e ed ce 1e 3e c3 4f 9b 3e 15 d1 0d be
       0.34607658 0.15508623 0.3033429 -0.1384929
000040 c3 5b 8b be 6e 67 80 bd 5d 84 ab 3e f2 ae 45 be
       -0.27218446 -0.06269728 0.33499423 -0.19305018
000050 89 65 69 3e e1 e6 33 3e fc f1 73 be e0 65 2b 3d
       0.22792639 0.17568542 -0.23822778 0.041845202
000060 79 21 57 be bc 63 10 3e 03 42 6b 3e 93 07 ee bc
       -0.21008863 0.14100546 0.229744 -0.029056346
000070 3f 7e 9e 3e df e0 64 be e7 2d 83 3d e9 81 92 bd
       0.30955693 -0.22351407 0.064052396 -0.07153685
000080 c9 6f a8 3d 20 65 15 3f c9 9a 98 be 53 f4 f3 bb
       0.08224446 0.5835743 -0.29805592 -0.007444897
000090 0a 45 38 bf 0e 12 00 bf 8a b4 2e be da 54 d5 be
       -0.71980345 -0.5002755 -0.17061058 -0.416663
0000a0 dd f7 d8 3d fe 22 a2 3e 2f c6 b3 bd 3f 69 d7 be
       0.10594151 0.31667322 -0.08778035 -0.42072484
0000b0 d1 04 28 3d 0a a5 cc 3e 8b 49 8a be 74 56 0d bf
       0.04102022 0.39969665 -0.27009234 -0.5521004
0000c0 d3 0e 08 3f 1e 1d 91 3e a2 5c d0 3e 75 22 ab 3e
       0.5314762 0.28342527 0.40695673 0.33424726
0000d0 3e 47 94 be 42 62 1a bf 97 50 9d 3e 8f 31 8a be
       -0.28960603 -0.6030618 0.30725548 -0.26990935
0000e0 d7 44 cc be e6 67 33 be 60 1f 65 be e1 b8 bf bc
       -0.3989627 -0.17520103 -0.2237525 -0.023403587
0000f0 ed bc 9d 3e 57 57 26 be cc 2c e0 3e 0d 65 81 3c
       0.308082 -0.16244255 0.43784177 0.015795255
000100 11 c3 d7 3d d4 ac 1b 3e 09 f5 fe 3e f7 22 e7 be
       0.10535253 0.15202647 0.49796322 -0.45143864
000110 d3 1f f4 3e 59 51 40 bd 20 6a d5 3d ed bf c0 3d
       0.4768053 -0.04695258 0.10420632 0.09411607
000120 92 5a 0f 3d 55 70 b8 be 15 ad b1 3d 5f 75 cf be
       0.034998484 -0.36023203 0.08675591 -0.40519235
000130 2a 35 c5 bd aa d7 97 3d b8 6d c5 bd 3a 24 8c bd
       -0.09629281 0.074141815 -0.09640068 -0.06842847
000140 24 6f 3f be 8c 8a ea 3e 70 c4 a0 bd d3 c0 5f be
       -0.1869474 0.45808828 -0.078499675 -0.218509
000150 d4 0a 5a 3e 1b b3 d6 3c dc 9a 19 be ee e6 32 bd
       0.21293193 0.026208451 -0.1500048 -0.043677263
000160 05 cb b6 3d 29 91 31 be 71 c0 96 be d7 58 9a be
       0.08925442 -0.1734053 -0.29443696 -0.30145904
000170 c7 6f 19 be c4 e0 3b be c8 af 03 bf ea 77 ee 3d
       -0.14984046 -0.1834746 -0.51440096 0.116439655
000180 71 a0 15 be 28 3c 61 3e 03 31 20 3d 3f 64 c1 be
       -0.14611985 0.21995604 0.03910924 -0.37771794
000190 72 5b 71 3e b9 ba 58 3e d4 29 dd bd ea 2f 84 3e
       0.2357004 0.21164979 -0.10798994 0.25817806
0001a0 84 92 e5 3d f7 94 ad be 78 de 7b 3d d3 96 32 3d
       0.11209586 -0.33902714 0.06149146 0.04360087
0001b0 e0 2a 3d bd 0e 6d 51 3e 2f cf 10 be 5d 75 42 3d
       -0.046183467 0.20451757 -0.14141534 0.047475208
0001c0 90 4e 46 3f 0d d1 30 bd 93 e1 d6 be d7 45 ae 3e
       0.77463627 -0.043168116 -0.41968974 0.3403766
0001d0 d7 9c 91 3d b4 1a ee 3c 41 f2 f1 bd e9 15 4f 3e
       0.07109993 0.029065467 -0.118137844 0.20223202
0001e0 95 2d 4d be 43 3d 05 3e 08 78 d4 3c b2 2f 12 3f
       -0.2003692 0.1301165 0.025936142 0.5710403
0001f0 87 40 aa be 14 1d 87 3e da cb d3 3d 26 fc de bd
       -0.33252355 0.26389372 0.10341616 -0.10887937
000200 38 77 e8 be e6 dd 1f bc 68 b0 84 3e 32 d4 20 3c
       -0.45403457 -0.009757495 0.25915837 0.009816216
000210 a9 3b ab be 6b 99 c2 bc 07 89 dd 3e 7a ff c5 3c
       -0.33443955 -0.023754796 0.43268606 0.024169672
000220 25 dd e3 3e a3 fd 43 be 9e bf d1 3e 9d ad 95 bd
       0.44504657 -0.19139723 0.40966505 -0.07308505
000230 31 df 31 bd f4 b4 1b 3e 4f d2 2b be d4 de 51 be
       -0.043425743 0.15205747 -0.16779445 -0.20495158
000240 5e 10 ba 3e a5 fa d0 bd 4e de 87 3e d5 82 24 3f
       0.36340612 -0.10204057 0.26536793 0.64262134
000250 ae c6 e6 3e c1 dc 1a be 52 1f 46 3e 79 01 23 be
       0.45073456 -0.15123273 0.19347885 -0.1591853
000260 6f b8 95 3e c5 ec 34 be 95 cd 1d 3e fd 78 29 bd
       0.29242274 -0.17668445 0.15410455 -0.04137515
000270 54 06 a3 3e 8c 85 c6 bd 3a f3 ce 3d 27 e7 33 3d
       0.31840765 -0.09693441 0.101049855 0.043921616
000280 c5 90 92 3c 7c e0 fd bd 05 60 8e be b5 59 8e be
       0.017891297 -0.123963326 -0.27807632 -0.27802816
000290 cf 66 39 3e 73 90 f6 3d b7 cc cf 3d f8 6d 18 3f
       0.18105625 0.1203927 0.10146468 0.595428
0002a0 3b a3 f3 be fe 06 f4 3e 96 4b 1c be 46 d2 56 be
       -0.47585472 0.47661585 -0.15263209 -0.2097865
0002b0 7f 98 91 be 02 9d 65 be 6a 64 60 bc d9 37 1b bc
       -0.28436658 -0.22423175 -0.013695816 -0.009473764
0002c0 0e b9 0a be 4a 5f 20 3d 1e 47 93 3c 44 29 4b 3e
       -0.13547155 0.039153375 0.017978247 0.1983996
0002d0 8e 00 f6 3e 65 77 a4 be 11 b7 03 bd cd e5 45 bb
       0.48047298 -0.3212234 -0.032157008 -0.0030196786
0002e0 f2 8d 6a be 78 f3 14 3f fd 84 cd 3d 16 55 ac be
       -0.2290571 0.58184004 0.10035131 -0.33658665
0002f0 24 54 d6 be 3b 0a 67 be c1 e0 db 3d 0d 2d 9e be
       -0.4186107 -0.22562496 0.10736228 -0.30893746
000300 7e fe 02 bd 07 aa 30 3e f0 dd 53 bd 5f 9f 68 3e
       -0.031980984 0.1725236 -0.051725328 0.22717045
000310 ef 15 94 3c 90 fa 85 3e 81 2e ad bd f8 1b 07 3e
       0.018076865 0.26167727 -0.084561355 0.13194263
000320 39 f0 cb bd 86 f6 1c 3e 99 95 d2 3d f8 0e aa 3e
       -0.09957928 0.15328416 0.1028244 0.33214545
000330 12 58 a9 be dd 96 ab be 0e 86 3c be d0 6e 13 3f
       -0.33075005 -0.33513537 -0.18410513 0.5759096
000340 b6 24 94 be ab d2 e0 be b8 ad ba 3d 23 b3 73 3e
       -0.28934258 -0.43910727 0.091151655 0.23798804
000350 e5 70 7c 3c 15 89 17 3d 37 8d de 3a 23 07 db 3e
       0.0154077755 0.036995966 0.0016979341 0.42778882
000360 8d 3e a6 be 2d a3 95 3e a9 b4 bc 3e 30 ac 3c 3e
       -0.32469597 0.29226056 0.36856583 0.1842506
000370 b3 22 f4 3d 35 f4 89 be 9e df 2d 3d 95 a6 78 be
       0.11920681 -0.26944128 0.042449586 -0.24282296
000380 cf e1 01 3e 2e 6f 24 3f 11 c3 a3 be a4 ab aa bd
       0.12683795 0.64232147 -0.3198476 -0.08333519
000390 55 fa 1b 3e 8a 08 e7 3e 81 aa 8c 3e 30 45 46 be
       0.15232213 0.45123702 0.27473834 -0.1936233
0003a0 98 48 06 bf a1 ec 3b bd 64 9d a9 be b2 e4 40 3d
       -0.5245452 -0.045879964 -0.33127892 0.0470931
0003b0 f4 37 00 bf 0f 44 6c 3e b4 c4 83 bd 33 e1 94 bd
       -0.5008538 0.23072837 -0.064340025 -0.07269516
0003c0 64 0d a2 3c 2f 9a 85 bd 07 e9 fc bd 55 c2 a7 3d
       0.019781776 -0.06523549 -0.12349134 0.08191363
0003d0 91 df 60 be 68 6b 5e 3d 8d db 14 3e c5 6a d1 be
       -0.21960284 0.05430165 0.14536877 -0.4090177
0003e0 9b 30 f4 be 72 5f 87 3e 06 de 10 3e c0 e1 4c be
       -0.47693333 0.26440006 0.14147195 -0.20007992
0003f0 83 28 c7 3e e8 02 31 3e ed 32 9a 3e 8b 46 b9 3d
       0.38898095 0.17286265 0.30116978 0.09046658

critic.network_body.linear_encoder.seq_layers.0.bias f4 [128]
000000 0d c4 d9 3d 30 cf e6 3d f5 31 44 3e a3 92 d6 3d
       0.10633097 0.11269987 0.19159682 0.104771875
000010 97 41 c4 3d 5b 2e f4 bb 61 82 a0 3d e6 7e d9 3d
       0.09582823 -0.007451815 0.07837368 0.10619907
000020 90 62 63 3d e2 f4 fa 3d 5f 1f ee 3d 71 f2 04 3e
       0.05551392 0.12253739 0.11627077 0.12983109
000030 99 db 77 3d ec 99 ad be 7e b3 fa 3d e8 e4 67 3d
       0.06051216 -0.33906496 0.12241267 0.056614786
000040 3b ee a4 bc 21 e5 68 bc 01 0f b0 3d fe 1c b6 bc
       -0.020133128 -0.014214785 0.08596612 -0.022230621
000050 61 4d 61 3d 5e 38 8a 3d 4e e4 39 3b 58 f9 c7 3d
       0.055005435 0.067490324 0.002836484 0.097643554
000060 16 6d fe 3c 21 0b a8 3c ee c9 55 3c 83 9a f7 3d
       0.031057876 0.02051312 0.013048632 0.12090018
000070 53 d9 5f 3d ce da 8c 3c 3e 7d a0 3b 2e e4 8d 3d
       0.054650616 0.017194178 0.0048977425 0.069282874
000080 b4 25 07 3e bf 6a d2 bb 6f 1f 74 3e 23 e2 06 3e
       0.13197976 -0.0064214165 0.23840116 0.13172202
000090 96 72 84 3d 6d 52 e7 3d 00 32 0f bd e6 8f b7 3d
       0.06467168 0.11295018 -0.034959793 0.08962993
0000a0 85 25 6a 3d e1 2f aa 3d 22 47 41 3e 08 13 97 3d
       0.057164688 0.083099134 0.18874791 0.07376677
0000b0 ea 32 c7 3d c1 50 9e bb 42 70 cc 3d 7a 57 cb bb
       0.09726508 -0.004831404 0.09982349 -0.0062054964
0000c0 1b 35 ee 3c 2a fe a7 bd f5 a6 b6 3d 2f c7 f9 3d
       0.029078057 -0.08202775 0.08918563 0.121961944
0000d0 08 01 b9 3d de fb 9c 3c f3 6b 5d bd 7a fb 07 bc
       0.090334 0.019163068 -0.054058027 -0.008299703
0000e0 d1 a7 02 bd 07 a5 b1 3d 04 bd 75 3d 19 fc a4 3d
       -0.031898323 0.086740546 0.059994712 0.08055896
0000f0 7a ef 62 3d 43 7d 60 3d a4 98 b0 bc 13 a0 ee 3d
       0.055404164 0.05480696 -0.02155716 0.116516255
000100 dc 97 d3 3d e7 53 2b 3d 19 0d 12 3e 84 4e ae 3d
       0.10331699 0.041828062 0.14262809 0.085110694
000110 65 4f 6f 3c 84 19 51 bd 67 62 96 3d 36 0e 03 3d
       0.0146063315 -0.051049724 0.073429875 0.031995974
000120 5a de cd 3d 80 29 24 3d 3d 59 fe 3d 82 f8 c5 3d
       0.10052176 0.04007864 0.124193646 0.0966654
000130 e9 93 5f 3d 73 b8 5f 3d 8d 2d c2 3d 4a 29 1f 3d
       0.054584417 0.054619264 0.09481344 0.038857736
000140 ca 00 ac bc fa 8e 9c 3d 52 10 fd 3c 71 b8 0e 3e
       -0.02099647 0.07644458 0.030891571 0.13937546
000150 b1 ce 44 3d d8 0e 95 3c e8 a0 f0 3d 4b 60 97 3d
       0.04804868 0.018195555 0.117494404 0.07391413
000160 0e 03 ae 3d f2 53 f0 3d df ca b1 3d 9d ab b6 3d
       0.084966764 0.11734761 0.08681273 0.089194514
000170 50 d3 2a bc 01 f6 34 3d c6 34 38 bd cf d7 16 3e
       -0.010426357 0.04417992 -0.044972204 0.14730762
000180 ee bf 09 3d fc 9a 8d 3d c0 b6 ad 3c 5b 31 5d 3d
       0.033630304 0.069143265 0.021205306 0.054002147
000190 7b bb ac 3d 80 b3 e1 3d 0f 2b 98 3d c1 ce 20 3e
       0.084341966 0.11020565 0.07430088 0.1570387
0001a0 81 80 bc 3b 5d 06 ab 3d f5 08 27 bd 7b 53 89 3d
       0.0057526235 0.08350823 -0.040780026 0.06705376
0001b0 68 22 fd 3c 6a e5 56 3d 1d 15 8d 3d e5 ae 7b bc
       0.030900195 0.05246488 0.06888793 -0.015361522
0001c0 2f c1 39 bc 8a 63 a4 3c 1f e2 b9 3b 35 f1 aa 3d
       -0.011337562 0.020066995 0.0056727077 0.08346788
0001d0 e2 df e0 bc e0 49 d2 3d d2 a0 e1 3d 7f 9e af bc
       -0.027450506 0.10267997 0.11017002 -0.021437882
0001e0 71 d3 e9 3d b9 cd e8 3d 1c 8a 9b 3d a0 d4 8e bc
       0.114172824 0.113673635 0.07594702 -0.017435372
0001f0 b9 ef c9 3c 47 85 92 bc 8c a3 d5 bb c7 28 de 3d
       0.024650441 -0.017885817 -0.0065197404 0.108476214
