results/rdesktop_run_002/Robotarm/Robotarm-9999933.onnx (onnx, 554549 bytes, 9 tensors)

action_model._continuous_distribution.log_sigma f4 [1, 5]
-3.7714553 -3.116245 -3.1165633 -1.1523553 -0.94627
00000000: 865f 71c0 8f70 47c0 c675 47c0 6180 93bf
00000010: c03e 72bf

action_model._continuous_distribution.mu.bias f4 [5]
0.048965715 0.019791253 -0.03462708 -0.054976 0.024367582
00000000: 4690 483d 4421 a23c 20d5 0dbd 842e 61bd
00000010: 869e c73c

action_model._continuous_distribution.mu.weight f4 [5, 256]
-0.013734166 -0.032632846 -0.01602188 -0.00072130363 0.017820839 0.05496475 -0.0038836508 -0.015207023
-0.011063551 -0.00051329576 -0.023585027 0.00034210822 -0.018574538 0.01904984 0.002599051 -0.02196775
-0.009669558 -0.014286522 -0.0058678943 0.020212637 -0.010863166 -0.031398308 -0.02626766 0.005835388
-0.027235461 0.015185813 -0.025488095 0.0064595966 0.038159095 -0.009617242 -0.00094774406 0.017825715
-0.006514619 0.0011891202 -0.023464974 -0.040309805 -0.038000394 0.017626753 0.042989384 -0.0020417743
-0.017923772 -0.026582895 -0.027035175 -0.026626814 0.01624576 0.004867896 -0.0088131875 -0.018752938
0.017820548 0.008950454 -0.030826483 -0.025979448 -0.015811684 8.457376e-05 -0.010960029 0.020448614
-0.011610308 0.014366942 -0.007821801 0.01569081 -0.015701115 -0.004206082 -0.025245504 -0.007482144
-0.021888161 0.0107276505 0.01161461 0.018396912 0.019228475 -0.0107648475 0.00046082062 0.0043440065
-0.034925852 -0.025266966 0.00069052796 -0.057203148 -0.014579182 0.026021125 -0.038107675 -0.034849845
-0.004211004 -0.0018807914 0.005295628 0.0042793187 -0.020016335 -0.0062134746 0.0055199857 -0.019622924
-0.037209 -0.017918617 -0.011292211 -0.0031023372 0.0025834546 -0.03291292 0.025073385 -0.019058546
-0.00016565424 -0.028167855 -0.055334542 -0.023530927 -0.003807249 -0.0069169654 -0.014896602 -0.009273519
0.010226383 0.025957001 0.020205704 -0.0014249892 0.0466368 0.021810884 0.053871993 0.0034459096
-0.009565511 -0.010816785 -0.024425862 -0.047127545 -0.024550328 -0.001513634 0.027206548 0.011365394
-0.010572746 -0.024949372 0.020919178 0.02943936 0.011063371 -0.019877724 0.03970865 0.0182508
0.06064264 -0.013177342 -0.0065669133 0.00782537 0.003938095 0.020568239 -0.0024283095 -0.0022255513
-0.0057962216 -0.023410806 -0.025696795 -0.044658083 -0.014088157 -0.007883462 -0.008308378 -0.0063452343
-0.0059935376 -0.0007166555 -0.019581236 -0.008428519 -0.0018233794 0.008915372 -0.018339152 -0.028035495
-0.0064637423 -0.0026238814 -0.018734558 -0.0088166855 -0.009946335 0.03209683 -0.004044722 0.01392857
-0.029138692 -0.019466693 0.005340159 -0.03073954 -0.021360714 -0.024639113 -0.0060312566 0.002622834
0.007114012 -0.018926801 -0.016526332 0.01810123 0.004240875 0.017515056 0.008930151 -0.023538634
-0.017232591 -0.0029853755 -0.03372282 0.031490203 0.019617824 -0.032783993 -0.0020696942 0.020144513
-0.0027099561 -0.00082575047 -0.014930203 0.0022230404 -0.020410968 -0.002588858 -0.012264465 0.0054720314
-0.014251414 0.0016819943 -0.020159218 -0.024227303 -0.021093847 -0.015177032 0.021090474 -0.008903593
-0.01567862 -0.0028288984 -0.0069975904 0.014302237 0.020300794 -0.023871453 -0.013012645 -0.015459212
-0.0031864436 0.020262707 -0.0082285125 0.0076487693 0.0024592848 -0.010497265 -0.01056376 -0.023367783
-0.010100869 -0.0005626855 -0.0010099149 -0.022524484 0.027815714 0.015612404 -0.0004472912 0.0053940327
-0.021228835 -0.008085962 0.0050778473 0.040834263 0.024763001 -0.0068671377 -0.017326413 -0.013536991
0.039999336 -0.007957294 -0.011968466 0.015075468 0.016405577 -0.020591864 0.018025294 -0.02001113
-0.0011390327 0.00088168966 -0.025480747 0.0010131547 -0.0020087503 -0.0055654366 0.00065905164 -0.0073486962
-0.0074657486 -0.009801194 -0.00013350967 -0.032368913 0.005770223 -0.015576896 -0.0055395537 -0.023373619
00000000: 4405 61bc 05aa 05bd 5140 83bc de15 3dba
00000010: 02fd 913c b822 613d d984 7ebb e126 79bc
00000020: e543 35bc b28e 06ba 6335 c1bc fd5c b339
00000030: a129 98bc 690e 9c3c d754 2a3b b6f5 b3bc
00000040: 116d 1ebc 0412 6abc 7747 c0bb f994 a53c
00000050: 6cfb 31bc 839b 00bd 472f d7bc c836 bf3b
00000060: e71c dfbc ebcd 783c 69cc d0bc 06ab d33b
00000070: b64c 1c3d a391 1dbc 0772 78ba 3c07 923c
00000080: 9678 d5bb 41dc 9b3a 9e39 c0bc e51b 25bd
00000090: 4da6 1bbd fb65 903c a315 303d 4acf 05bb
000000a0: e0d4 92bc 5fc4 d9bc df78 ddbc 7a20 dabc
000000b0: d415 853c df82 9f3b 3065 10bc c39f 99bc
000000c0: 66fc 913c eda4 123c d287 fcbc dad2 d4bc
000000d0: 8187 81bc 315d b138 b291 33bc da83 a73c
000000e0: 2939 3ebc 5363 6b3c 0327 00bc 038a 803c
000000f0: a09f 80bc 2cd3 89bb a9cf cebc c62c f5bb
00000100: cd4e b3bc 07c3 2f3c 354b 3e3c 1fb5 963c
00000110: 0985 9d3c 0b5f 30bc 4c9a f139 2b58 8e3b
00000120: 690e 0fbd abfc cebc 8c04 353a d94d 6abd
00000130: 85dd 6ebc 412a d53c cb16 1cbd b6be 0ebd
00000140: 76fc 89bb e384 f6ba f386 ad3b 8739 8c3b
00000150: 4cf9 a3bc 679a cbbb ffe0 b43b 41c0 a0bc
00000160: 7768 18bd 10ca 92bc f702 39bc 9550 4bbb
00000170: 2d4f 293b b3cf 06bd b366 cd3c ab20 9cbc
00000180: 79b3 2db9 46c0 e6bc 79a6 62bd eec3 c0bc
00000190: 0a83 79bb b6a7 e2bb e110 74bc f5ef 17bc
000001a0: 8f8c 273c c7a3 d43c 6f86 a53c b4c6 baba
000001b0: 3b06 3f3d bdac b23c e1a8 5c3d c5d4 613b
000001c0: a9b8 1cbc e238 31bc bf18 c8bc d008 41bd
000001d0: c51d c9bc 2165 c6ba 44e0 de3c eb35 3a3c
000001e0: 5039 2dbc a062 ccbc b25e ab3c d02a f13c
000001f0: 2443 353c 9cd6 a2bc 8aa5 223d b482 953c
00000200: 6b64 783d c7e5 57bc 432f d7bb fb35 003c
00000210: 230b 813b b97e a83c 4624 1fbb 8eda 11bb
00000220: 3bee bdbb 05c8 bfbc 1682 d2bc 65eb 36bd
00000230: 03d2 66bc a329 01bc dd1f 08bc afeb cfbb
00000240: 7065 c4bb f0dd 3bba d468 a0bc c517 0abc
00000250: 76fe eeba c811 123c fd3b 96bc b2aa e5bc
00000260: cdcd d3bb 6df5 2bbb 3779 99bc dc73 10bc
00000270: f4f5 22bc f777 033d 9689 84bb a834 643c
00000280: 44b4 eebc 9d78 9fbc 80fc ae3b 7dd1 fbbc
00000290: aafc aebc f7d7 c9bc d9a1 c5bb dae3 2b3b
000002a0: a81c e93b 610c 9bbc 3b62 87bc 0849 943c
000002b0: 0af7 8a3b bc7b 8f3c c54f 123c 18d4 c0bc
000002c0: 5d2b 8dbc 4aa6 43bb f120 0abd dffb 003d
000002d0: 8fb5 a03c 8248 06bd b5a3 07bb 1b06 a53c
000002e0: 8599 31bb 2d77 58ba cf9d 74bc 6eb0 113b
000002f0: e734 a7bc d4a9 29bb e5f0 48bc ba4e b33b
00000300: c37e 69bc 5d76 dc3a f224 a5bc 5678 c6bc
00000310: 01cd acbc 16a9 78bc eec5 ac3c 60e0 11bc
00000320: 7370 80bc 0a65 39bb 0b4c e5bb ee53 6a3c
00000330: da4d a63c 118e c3bc fd32 55bc a248 7dbc
00000340: a7d3 50bb fafd a53c e2d0 06bc 87a2 fa3b
00000350: f42b 213b b8fc 2bbc 9f13 2dbc cb6d bfbc
00000360: 1e7e 25bc 2f81 13ba 1f5f 84ba 4485 b8bc
00000370: c8dd e33c 2bcb 7f3c 6982 eab9 6dc0 b03b
00000380: 18e8 adbc fc7a 04bc 1264 a63b d441 273d
00000390: c7db ca3c ba05 e1bb 1ff0 8dbc 41ca 5dbc
000003a0: 58d6 233d 4f5f 02bc 6317 44bc 19ff 763c
000003b0: fd64 863c 45b0 a8bc c8a9 933c 62ee a3bc
000003c0: 984b 95ba 3121 673a 00bd d0bc d5cb 843a
000003d0: 3da5 03bb 445e b6bb 35c4 2c3a 55cd f0bb
000003e0: 3da3 f4bb 3095 20bc bbfe 0bb9 4495 04bd
000003f0: 2414 bd3b 3d36 7fbc 2585 b5bb 087a bfbc

network_body.linear_encoder.seq_layers.0.bias f4 [256]
-0.050203525 -0.006325537 0.0038342627 0.11278767 0.012863938 -0.018477185 -0.010833243 -0.050753422
-0.021175977 -0.06037715 0.017586587 -0.05395396 0.0005953649 -0.025914168 -0.027570132 -0.020345809
0.015215251 0.006570585 0.01850526 0.0019620503 -0.027184457 -0.023528934 -0.00653508 -0.04440697
0.029708298 0.013090708 -0.023885714 0.02308474 0.08003827 -0.013774747 -0.017643208 0.008279823
-0.01066708 0.033221643 -0.037427623 -0.02130157 -0.01457585 0.0069621643 0.06048064 0.0570874
-0.026365109 -0.044378556 0.032974098 0.0047800136 -0.028104473 0.022076137 0.06762691 -0.051346004
0.021143777 -0.0030570826 0.022055907 0.04982013 0.039285183 -0.0030432285 0.0079248 0.005877822
0.06592137 -0.014619021 0.020617865 0.0786372 0.010390644 0.018317064 -0.05758984 0.10000255
-0.00790716 1.5753854e-05 0.005611678 -0.01778259 -0.034099102 0.06745057 -0.0017937132 0.04679562
-0.045468 0.0054838522 -0.01911211 0.08074822 0.019115735 -0.012623565 -0.015715802 0.05649024
0.0020486258 0.010781936 -0.015318427 0.0019155712 -0.0038418572 0.015149391 -0.009994121 -0.048253033
0.02285618 -0.02196493 -0.030488795 -0.027613886 0.00012314318 0.015202192 -0.0060581914 -0.06789352
-0.0009335812 0.044774137 0.032993633 -0.009336298 -0.023980753 0.04142512 -0.002726524 0.0015510772
0.026614867 0.042640615 0.008130008 0.00051717815 -0.0039005917 0.0026314605 -0.054287307 0.000996414
0.0884763 -0.0015855305 0.0042640176 -0.032418303 -0.061213214 0.017296392 0.011129672 -0.03559813
0.026072085 -0.00201502 -0.011271012 -0.059085626 -0.0067015477 -0.008012515 0.011875301 -0.02148825
-0.00600253 -0.05127318 -0.040885597 0.040899754 -0.0054319687 -0.013990147 0.0015022393 -0.025920872
-0.029486114 -0.024981458 -0.012227603 -0.0023144567 -0.013336788 0.0058594136 -0.0030055486 -0.06656543
0.04933714 0.007570703 -0.020944374 -0.031589847 -0.02491908 -0.0038541032 4.0552666e-05 0.0008245556
0.0331234 -0.026926259 -0.0210485 -0.0028405988 0.06415648 -0.003478594 -0.07685919 -0.0600917
0.028338047 0.0034024878 0.07458299 0.0067321775 0.015935164 -0.00785337 0.059227712 0.027919905
0.006740539 0.06260802 -0.04699857 0.052705735 -0.029648563 0.010371551 -0.0019261187 0.00051955413
-0.04511159 0.021126838 0.034516826 0.02342776 0.056290317 -0.008261633 -0.018710256 0.0030026052
0.012058825 0.052868 -0.04395292 0.017527798 0.007095706 0.035697058 -0.014587855 0.0420089
0.0030928191 0.047251806 0.03207081 0.044076186 -0.02190678 -0.031269036 0.017107096 0.014520149
0.032476325 -0.012903481 0.055669192 -0.00898765 -0.025977086 0.04537619 -0.008839238 -0.057303667
-0.0076719276 0.015726404 -0.009629035 0.056038134 -0.010016993 0.019045418 0.041494165 -0.032257643
0.01290105 -0.010132839 0.042895436 -0.0395737 0.008585284 0.0043327515 -0.0009922418 -0.031501293
0.009419994 -0.043659415 -0.06462585 0.053626873 0.060816213 -0.01913093 -0.04602122 -0.0044689057
-0.021238633 0.00055426406 0.029329797 -0.011448858 0.0015851745 -0.061630644 0.04806714 -0.03507386
0.0040313434 0.031141805 0.0060411156 0.081123374 0.007447797 0.105062075 0.023672974 -0.01165289
-0.036226075 0.00647343 0.046832047 0.012969324 -0.011708203 0.06359452 0.018548828 -0.0004964515
00000000: 36a2 4dbd 7346 cfbb 4148 7b3b 39fd e63d
00000010: 44c3 523c 775d 97bc ea7d 31bc d2e2 4fbd
00000020: 3e79 adbc 084e 77bd bf11 903c d4fe 5cbd
00000030: 4312 1c3a f349 d4bc c2da e1bc 41ac a6bc
00000040: 6349 793c 104e d73b 5898 973c be95 003b
00000050: f0b1 debc c0bf c0bc 3924 d6bb 15e4 35bd
00000060: d15e f33c 697a 563c f9ab c3bc 351c bd3c
00000070: 1beb a33d 7aaf 61bc 7d88 90bc 18a8 073c
00000080: fac4 2ebc 6b13 083d b54d 19bd a180 aebc
00000090: 8ccf 6ebc de22 e43b 8cba 773d 7ad4 693d
000000a0: a4fb d7bc 4ac6 35bd d90f 073d a9a1 9c3b
000000b0: 5a3b e6bc 04d9 b43c fa7f 8a3d 3050 52bd
000000c0: b735 ad3c 5659 48bb 97ae b43c 3110 4c3d
000000d0: 80e9 203d e770 47bb 05d7 013c bf9a c03b
000000e0: c901 873d 9e84 6fbc cce6 a83c 8a0c a13d
000000f0: 853d 2a3c ab0d 963c 53e3 6bbd 23ce cc3d
00000100: 088d 01bc 2527 8437 2be2 b73b cbac 91bc
00000110: 80ab 0bbd 8623 8a3d 071b ebba c4ac 3f3d
00000120: a73c 3abd e3b1 b33b 0091 9cbc 535f a53d
00000130: 9a98 9c3c 12d3 4ebc 6dbe 80bc 4f62 673d
00000140: 3d42 063b b8a6 303c 24fa 7abc e713 fb3a
00000150: abc7 7bbb 2735 783c 62be 23bc f9a4 45bd
00000160: e23c bb3c ccef b3bc a3c3 f9bc 8436 e2bc
00000170: ff1f 0139 9d12 793c cb83 c6bb c20b 8bbd
00000180: 93bb 74ba 1665 373d 5524 073d 46f7 18bc
00000190: 4973 c4bc 63ad 293d 7baf 32bb 844d cb3a
000001a0: 6c07 da3c eda7 2e3d ba33 053c 3d93 073a
000001b0: 12a1 7fbb 9574 2c3b 5e5c 5ebd 1b9a 823a
000001c0: 1033 b53d 93d1 cfba 2cb9 8b3b 0ec9 04bd
000001d0: b5ba 7abd 2ab1 8d3c 3a59 363c 58cf 11bd
000001e0: 2095 d53c 6d0e 04bb 0daa 38bc c503 72bd
000001f0: a898 dbbb ec46 03bc 9f90 423c 2008 b0bc
00000200: dfb0 c4bb d303 52bd a877 27bd 8086 273d
00000210: a8fe b1bb ee36 65bc c9e6 c43a 0258 d4bc
00000220: dd8c f1bc eaa5 ccbc 4956 48bc 24ae 17bb
00000230: 8b82 5abc 5300 c03b bdf8 44bb 7553 88bd
00000240: be15 4a3d a913 f83b 8993 abbc 5b64 01bd
00000250: 1923 ccbc 1f95 7cbb 1817 2a38 fd26 583a
00000260: 67ac 073d 7594 dcbc e76d acbc 5729 3abb
00000270: 7964 833d 1ff9 63bb 5a68 9dbd b722 76bd
00000280: 3125 e83c 46fc 5e3b f7be 983d 9999 dc3b
00000290: 768a 823c 6cab 00bc c298 723d 49b8 e43c
000002a0: bddf dc3b a238 803d 9381 40bd f8e1 573d
000002b0: 8be1 f2bc 70ed 293c d275 fcba b032 083a
000002c0: eec6 38bd 3112 ad3c 8461 0d3d 93eb bf3c
000002d0: ad90 663d cd5b 07bc 4046 99bc 5bc7 443b
000002e0: 6192 453c 1e8c 583d fa07 34bd 7596 8f3c
000002f0: 1983 e83b 1437 123d e601 6fbc 8611 2c3d
00000300: e5b0 4a3b 1c8b 413d af5c 033d 3b89 343d
00000310: d975 b3bc f613 00bd 2e24 8c3c ebe5 6d3c
00000320: e505 053d 1f69 53bc 6105 643d f040 13bc
00000330: e6cd d4bc 62dc 393d 74d2 10bc 40b7 6abd
00000340: cb64 fbbb a9d4 803c 1ac3 1dbc 3e88 653d
00000350: 501e 24bc 2305 9c3c c9f5 293d 9720 04bd
00000360: ed5e 533c 3504 26bc 20b3 2f3d 0818 22bd
00000370: 4ba9 0c3c c1f9 8d3b 1c0e 82ba 8007 01bd
00000380: 5256 1a3c 37d4 32bd 8f5a 84bd daa7 5b3d
00000390: 6c1a 793d 78b8 9cbc bf80 3cbd e66f 92bb
000003a0: a4fc adbc 084c 113a 0b45 f03c fe93 3bbc
000003b0: a1c5 cf3a 6a70 7cbd 0de2 443d 9ca9 0fbd
000003c0: 5c19 843b 191d ff3c 8df4 c53b 0324 a63d
000003d0: a60c f43b c92a d73d d3ed c13c c3eb 3ebc
000003e0: cb61 14bd 111f d43b f6d2 3f3d 4a7d 543c
000003f0: c3d3 3fbc d83d 823d b6f3 973c 4c24 02ba

network_body.linear_encoder.seq_layers.0.weight f4 [256, 19]
-0.048320133 -0.27334288 0.08035523 0.20146482 0.3126405 -0.018141115 0.07970958 -0.17421572
0.21647581 0.090593 0.06583371 0.08222869 0.08874938 -0.010005034 -0.08327906 -0.17462334
0.0725742 -0.13276234 0.1381012 -0.12742321 -0.054272007 -0.026156187 0.21044789 -0.22132477
0.18513927 0.30496827 -0.041607786 0.16016956 -0.1073383 -0.055088665 0.1081336 0.34174213
0.43688336 -0.18740228 -0.20076081 0.3117067 0.048507556 0.23395269 0.2029372 -0.14233567
-0.24071147 0.119460076 0.29186395 -0.38558725 -0.3254442 -0.026887745 -0.1303632 0.30340636
-0.09326355 -0.0831801 0.17595656 -0.4389309 -0.24343744 -0.027311256 -0.48972112 0.37059435
0.39929438 0.30954686 -0.38735196 0.14626694 -0.3509631 -0.27417746 -0.22822253 0.5534013
-0.3226675 -0.21280895 0.008560646 0.03309415 0.049908165 0.30852473 0.019197656 -0.40224388
0.14975385 -0.35559863 -0.12968507 0.43086946 -0.52608424 0.09300418 0.42096892 -0.40932363
-0.14386556 -0.24426973 -0.009249773 -0.29146406 0.03884024 -0.33006743 -0.26146552 0.17897826
-0.28946987 -0.2836175 0.041823484 0.066285856 0.3170209 0.048090834 -0.045815386 -0.19218239
0.08580135 0.076681666 -0.26880077 -0.23995681 0.4329241 -0.658317 0.2541412 0.024101205
0.30498934 0.123142734 -0.20746823 -0.12972035 0.7176236 0.21005669 0.26536724 -0.17586352
0.20658311 0.23053902 0.21655728 -0.018114973 -0.19621287 0.12178055 0.11985567 0.07988251
-0.009417876 0.4379821 0.01862971 0.23153673 0.046856903 0.13180114 -0.23428176 -0.16066405
-0.038264003 0.06673171 0.10769816 0.04300446 -0.16121648 -0.35400587 -0.12822627 0.4663717
-0.40118906 0.12629768 0.12250351 0.22970882 -0.064791776 0.30825484 -0.25083506 0.29065752
0.063997015 -0.19201528 -0.0791716 0.13813023 -0.050407793 -0.10284356 0.58044344 -0.3521309
0.014742357 -0.09808239 0.08918584 0.056759994 -0.1952724 -0.44189417 0.2393478 0.11085826
-0.22426908 -0.3278881 -0.20613144 -0.49194393 0.19993122 0.3072254 0.34065977 -0.082599014
-0.16303481 -0.28957802 0.04761542 -0.18460552 0.39822823 -0.20302771 -0.091922775 -0.26961443
-0.11144828 0.035838213 -0.2519977 -0.024468824 0.21316832 0.09306724 -0.0794425 -0.08302985
0.052206066 -0.3724235 0.43176866 0.2779143 0.51214695 0.21965675 -0.102166854 -0.26335186
-0.16457348 -0.16609877 0.10374031 -0.24186374 -0.046403613 -0.16361363 -0.056825846 0.14937109
0.33438337 -0.2494023 0.28386748 -0.16478579 -0.14629251 -0.15282464 -0.32815376 -0.060231537
0.07228916 -0.15500565 0.3396758 -0.07562238 -0.059180576 -0.14712703 0.0529704 0.032803137
0.1981406 -0.3884103 0.42272428 -0.15648854 0.16555259 0.1522644 0.14979662 0.1984677
-0.02863983 -0.097391486 0.3576675 -0.03194606 0.0864778 -0.26378608 -0.24151157 -0.20566972
0.5331107 0.018302428 -0.0028526608 -0.16786495 -0.07482115 0.23659082 0.09400361 0.0018017445
0.23645665 -0.34474897 0.096810855 -0.24437736 0.55429125 0.4725232 0.3498414 0.30100432
0.1453431 -0.18805985 0.08001098 -0.41702253 0.08213036 0.5289616 0.23334041 0.19739144
00000000: 55eb 45bd 99f3 8bbe 4891 a43d cb4c 4e3e
00000010: 6a12 a03e ad9c 94bc c73e a33d 9b65 32be
00000020: d6ab 5d3e d388 b93d d3d3 863d 8467 a83d
00000030: 3cc2 b53d 27ec 23bc 368e aabd 76d0 32be
00000040: c8a1 943d daf2 07be 676a 0d3e 3b7b 02be
00000050: 534c 5ebd 8045 d6bc a77f 573e f6a2 62be
00000060: 2695 3d3e cd24 9c3e ed6c 2abd 7d03 243e
00000070: 2fd4 dbbd a7a4 61bd 2675 dd3d d3f8 ae3e
00000080: 2daf df3e 62e6 3fbe 3e94 4dbe 0598 9f3e
00000090: dcaf 463d 4b91 6f3e c5ce 4f3e 71c0 11be
000000a0: 117d 76be 7ca7 f43d 316f 953e b16b c5be
000000b0: 9fa0 a6be b043 dcbc ee7d 05be 1458 9b3e
000000c0: f600 bfbd 545a aabd f52d 343e 8dbb e0be
000000d0: aa47 79be dbbb dfbc babc fabe 8bbe bd3e
000000e0: 5070 cc3e ed7c 9e3e ff52 c6be 00c7 153e
000000f0: 6fb1 b3be fd60 8cbe 2bb3 69be b5ab 0d3f
00000100: ad34 a5be 97ea 59be f441 0c3c bb8d 073d
00000110: 816c 4c3d f4f6 9d3e 6744 9d3c e9f2 cdbe
00000120: 1359 193e 0611 b6be 2acc 04be ec9a dc3e
00000130: 75ad 06bf fa78 be3d 3d89 d73e de92 d1be
00000140: 7e51 13be d821 7abe 5c8c 17bc c73a 95be
00000150: f216 1f3d 99fe a8be cfde 85be 1446 373e
00000160: 6535 94be 5036 91be 1a4f 2b3d e1c0 873d
00000170: 9050 a23e e5fa 443d eaa8 3bbd 76cb 44be
00000180: 9eb8 af3d 470b 9d3d 41a0 89be 3db7 75be
00000190: 3aa8 dd3e 7787 28bf cc1e 823e e46f c53c
000001a0: 9027 9c3e 4232 fc3d 8d72 54be 69d5 04be
000001b0: 2eb6 373f 1a19 573e 37de 873e 9115 34be
000001c0: 868a 533e 6c12 6c3e 31c1 5d3e da65 94bc
000001d0: 07ec 48be 1568 f93d e476 f53d 7199 a33d
000001e0: 6f4d 1abc 313f e03e 559d 983c f717 6d3e
000001f0: 06ed 3f3d e1f6 063e 8fe7 6fbe 1e85 24be
00000200: b7ba 1cbd a3aa 883d da90 dc3d 7225 303d
00000210: ef15 25be 4240 b5be bf4d 03be 45c8 ee3e
00000220: a768 cdbe 2e54 013e 1fe3 fa3d ca38 6b3e
00000230: 8db1 84bd 94d3 9d3e 746d 80be 10d1 943e
00000240: de10 833d a79f 44be b824 a2bd 0372 0d3e
00000250: 6778 4ebd a59f d2bd f197 143f 804a b4be
00000260: ed89 713c 6cdf c8bd 11a7 b63d 2b7d 683d
00000270: 7df5 47be f43f e2be 9717 753e a809 e33d
00000280: cba6 65be f3e0 a7be 1f14 53be 13e0 fbbe
00000290: c5ba 4c3e a64c 9d3e f56a ae3e ac29 a9bd
000002a0: 99f2 26be 9243 94be 6308 433d 3b09 3dbe
000002b0: 92e4 cb3e 7fe6 4fbe 0242 bcbd e70a 8abe
000002c0: ff3e e4bd 17cb 123d d805 81be d872 c8bc
000002d0: cc48 5a3e 0a9a be3d c0b2 a2bd 8e0b aabd
000002e0: 07d6 553d 4bae bebe c810 dd3e c84a 8e3e
000002f0: 101c 033f b3ed 603e db3c d1bd 0ed6 86be
00000300: f385 28be cc15 2abe cd75 d43d 21ab 77be
00000310: b711 3ebd 558a 27be 38c2 68bd bcf4 183e
00000320: 4c34 ab3e 5163 7fbe 1457 913e 9bbd 28be
00000330: b4cd 15be 107e 1cbe c503 a8be 58b5 76bd
00000340: 570c 943d cdb9 1ebe fde9 ad3e e8df 9abd
00000350: 5567 72bd 78a8 16be 7df7 583d 955c 063d
00000360: 5fe5 4a3e b7dd c6be 516f d83e 883e 20be
00000370: 9e86 293e 33eb 1b3e 4964 193e 1e3b 4b3e
00000380: 149e eabc 3075 c7bd 3220 b73e dfd9 02bd
00000390: 461b b13d f80e 87be cf4e 77be 159b 52be
000003a0: f179 083f f9ee 953c b5f3 3abb cae4 2bbe
000003b0: d53b 99bd dd44 723e f784 c03d 8328 ec3a
000003c0: b121 723e f082 b0be c544 c63d 0f3e 7abe
000003d0: 08e6 0d3f 90ee f13e 691e b33e 3d1d 9a3e
000003e0: d2d4 143e c392 40be ccdc a33d fa83 d5be
000003f0: f633 a83d 076a 073f caf0 6e3e fb20 4a3e

network_body.linear_encoder.seq_layers.2.bias f4 [256]
0.013368683 -0.009677151 -0.026364133 0.00027906132 -0.06150743 0.004753748 0.039670616 -0.026568469
0.030957483 -0.041026417 -0.026088398 -0.008011395 -0.07764109 0.031143676 0.010458842 -0.082967155
0.01458242 0.019038321 -0.015329629 0.0030170414 0.00694196 -0.018171936 -0.07340405 -0.05996679
-0.07798972 0.030355874 -0.004974755 -0.02335809 -0.0499948 0.0026216132 0.019640692 -0.0060361857
-0.034721654 -0.022488149 0.04719724 -0.018304793 -0.025920743 -0.038012676 0.0030665763 -0.07779078
-0.11876805 -0.06388733 -0.008423119 -0.018547589 -0.038949724 -0.065400526 0.018295938 -0.00068445195
0.019708056 0.02696083 0.00712194 0.005953816 0.002661601 -0.07779542 -0.075867236 -0.105918236
0.014571558 0.004692359 -0.02875969 -0.007436865 -0.0047275512 0.0052501312 -0.017279154 -0.06849078
-0.021506356 -0.0817409 0.028729372 0.03265032 -0.024330597 -0.05679404 0.019943822 -0.04180292
-0.021761099 0.008682488 0.020043222 -0.011549401 0.018705795 -0.03679174 -0.026564263 -0.051595327
-0.10653729 -0.015717084 -0.015178332 -0.035581782 -7.333205e-05 0.021090997 -0.003342042 0.018064981
-0.06785473 -0.016293937 -0.10397431 -0.027614884 -0.05943724 -0.0046990537 -0.017840333 -0.05827594
0.0075728553 0.0012607995 0.0108159175 0.008049585 0.0034863807 0.0009849123 0.033347003 -0.0005250413
-0.029261613 0.018924754 -0.05602551 -0.026585316 -0.026147231 -0.07317688 0.00040201584 -0.044562772
0.011317656 -0.03126312 0.0043601966 -0.047144707 -0.06521452 -0.08362237 -0.040173452 -0.07109811
-0.028764568 0.019852426 0.024413228 -0.08151905 0.0040904223 -0.010241118 0.03518524 -0.0008194654
-0.006577289 -0.012173333 -0.015195846 -0.02570519 -0.060637224 0.026645629 -0.0003269288 -0.02773522
-0.012609233 0.022489425 -0.022984488 0.010565667 -0.0666935 0.026986701 -0.0351279 0.022595903
-0.014626108 -0.04590357 -0.09849222 -0.022655979 -0.009462789 0.01916192 -0.017444573 -0.029609099
0.0069753327 0.0004822162 -0.06438502 0.02505245 0.025465496 -0.018636975 -0.024375843 -0.005033725
-0.07240054 -0.11578065 0.005694796 -0.00075098395 -0.0563089 0.02699357 0.021188974 0.036063008
0.039179653 -0.12446601 -0.0072885393 -0.07606143 -0.063618265 -0.11515523 -0.015286877 -0.017181797
-0.00078845076 -0.005227522 -0.029790008 -0.036579523 -0.04554997 -0.025625259 -0.04352482 -0.0059663258
-0.0065993425 0.0075582555 0.046436124 0.020770093 -0.003025519 -0.003233554 -0.02454466 -0.10936137
-0.018644424 0.01370184 -0.034897715 -0.04772691 -0.038680624 -0.11283621 0.023999635 0.004721696
0.025770143 -0.01889226 -0.010823184 -0.0077929744 0.027605915 -0.05802321 -0.014916592 -0.013056964
0.033593904 0.02466808 -0.060778253 -0.061935734 -0.006799371 -0.05459872 -0.062011793 -0.00034626859
-0.020395556 0.03214089 -0.017375316 -0.06314812 -0.021185376 -0.0140968645 0.011133613 -0.017588062
-0.022432515 4.0677598e-05 -0.070334956 0.039363105 0.00041948378 -0.059976812 -0.03427473 -0.024608241
-0.0010744149 0.018830493 0.037277754 0.003019031 -0.005780919 -0.093786284 0.012989517 -0.047990266
0.010546399 0.042681225 -0.012021825 -0.018652907 -0.044429276 -0.003445846 -0.017404702 0.02817462
-0.11184594 0.03100846 -0.08622954 0.0366258 -0.051022556 0.03633811 0.018147768 -0.004087022
00000000: 5208 5b3c ea8c 1ebc 98f9 d7bc fa4e 9239
00000010: 37ef 7bbd 54c5 9b3b a87d 223d 1ea6 d9bc
00000020: 8c9a fd3c 510b 28bd 56b7 d5bc 3a42 03bc
00000030: 4b02 9fbd 0621 ff3c 905b 2b3c afea a9bd
00000040: 1aeb 6e3c 41f6 9b3c 2029 7bbc 8eb9 453b
00000050: 6279 e33b 50dd 94bc dd54 96bd bd9f 75bd
00000060: 13b9 9fbd e2ac f83c 4503 a3bb 7759 bfbc
00000070: 59c7 4cbd 5fcf 2b3b 84e5 a03c 32cb c5bb
00000080: 4b38 0ebd 1139 b8bc e551 413d eff3 95bc
00000090: bd57 d4bc 2eb3 1bbd 9df8 483b c650 9fbd
000000a0: aa3c f3bd 5cd7 82bd 1f01 0abc 1df1 97bc
000000b0: bf89 1fbd b6f0 85bd 5de1 953c cb6c 33ba
000000c0: ca72 a13c f5dc dc3c 2a5f e93b 3b18 c33b
000000d0: 416e 2e3b 3553 9fbd 4860 9bbd a9eb d8bd
000000e0: 8bbd 6e3c 5cc2 993b 7199 ebbc f2b0 f3bb
000000f0: 93e9 9abb 4b09 ac3b 038d 8dbc e544 8cbd
00000100: 192e b0bc c667 a7bd dc59 eb3c 58bc 053d
00000110: f650 c7bc dea0 68bd 3a61 a33c 8a39 2bbd
00000120: 5544 b2bc ff40 0e3c af31 a43c b339 3dbc
00000130: e53c 993c f0b2 16bd 4c9d d9bc 9f55 53bd
00000140: 3930 dabd 1dc1 80bc 8aae 78bc 34be 11bd
00000150: d8c9 99b8 07c7 ac3c 2906 5bbb 03fd 933c
00000160: 6cf7 8abd dd7a 85bc 7cf0 d4bd 9c38 e2bc
00000170: 7774 73bd 85fa 99bb e425 92bc c1b2 6ebd
00000180: b725 f83b 6941 a53a 3f35 313c 68e2 033c
00000190: c37b 643b 2c18 813a de96 083d eda2 09ba
000001a0: 0db6 efbc 1608 9b3c 017b 65bd 73c9 d9bc
000001b0: b832 d6bc c3dd 95bd a7c5 d239 7487 36bd
000001c0: b16d 393c c20d 00bd fbdf 8e3b cf1a 41bd
000001d0: 318f 85bd 3542 abbd eb8c 24bd e39b 91bd
000001e0: aca3 ebbc 8ea1 a23c 40fe c73c 76f3 a6bd
000001f0: f308 863b 5dca 27bc 661e 103d 64d1 56ba
00000200: 4d86 d7bb a972 47bc fff7 78bc b193 d2bc
00000210: bd5e 78bd ef47 da3c a467 abb9 f934 e3bc
00000220: f596 4ebc be3b b83c f749 bcbc 9f1b 2d3c
00000230: 9a96 88bd 3713 dd3c 46e2 0fbd 0b1b b93c
00000240: 58a2 6fbc 6205 3cbd 4ab6 c9bd 0899 b9bc
00000250: d009 1bbc 75f9 9c3c ece7 8ebc c88e f2bc
00000260: 5591 e43b f6d1 fc39 4bdc 83bd cc3a cd3c
00000270: 049d d03c 92ac 98bc d9af c7bc f2f1 a4bb
00000280: bc46 94bd 681e edbd 699b ba3b aedd 44ba
00000290: 29a4 66bd 9f21 dd3c 8094 ad3c ceb6 133d
000002a0: d87a 203d 09e8 febd b3d4 eebb 18c6 9bbd
000002b0: 4b4a 82bd 81d6 ebbd cf75 7abc d7c0 8cbc
000002c0: 09b0 4eba a24b abbb 2d0a f4bc 69d4 15bd
000002d0: 9b92 3abd 10ec d1bc 1547 32bd 2b81 c3bb
000002e0: 4c3f d8bb 3eab f73b ce33 3e3d 0b26 aa3c
000002f0: c947 46bb 09ea 53bb e211 c9bc dbf8 dfbd
00000300: 31bc 98bc af7d 603c e8f0 0ebd 4b7d 43bd
00000310: 936f 1ebd ac16 e7bd e29a c43c 75b8 9a3b
00000320: e81b d33c f1c3 9abc b953 31bc 355c ffbb
00000330: cd25 e23c bfa9 6dbd b964 74bc e0ec 55bc
00000340: c399 093d b714 ca3c 9ef2 78bd 53b0 7dbd
00000350: 42cd debb e8a2 5fbd 1400 7ebd 628b b5b9
00000360: 9514 a7bc 2aa6 033d ae56 8ebc cd53 81bd
00000370: f48c adbc 89f6 66bc c269 363c d714 90bc
00000380: 65c4 b7bc 3d9d 2a38 c60b 90bd 353b 213d
00000390: 29ee db39 3faa 75bd a963 0cbd 3997 c9bc
000003a0: 62d3 8cba 6842 9a3c 8fb0 183d efda 453b
000003b0: dd6d bdbb 0613 c0bd fcd1 543c 7191 44bd
000003c0: ceca 2c3c 82d2 2e3d 30f7 44bc fbcd 98bc
000003d0: 79fb 35bd b4d3 61bb 4e94 8ebc 76ce e63c
000003e0: 7c0f e5bd 7405 fe3c 1d99 b0bd ef04 163d
000003f0: 07fd 50bd 45d7 143d a1aa 943c 6dec 85bb

network_body.linear_encoder.seq_layers.2.weight f4 [256, 256]
-0.05542907 -0.11299906 -0.04115584 -0.0578567 0.03674008 -0.043108366 0.025184425 0.01056866
0.12822635 -0.050359603 -0.087720506 -0.036656234 0.014721268 -0.05950988 0.024211222 -0.05454677
0.022071827 -0.081691585 0.07065117 -0.07938095 0.083442174 -0.10353566 0.022880023 -0.05012426
-0.036527555 0.029743839 -0.05688418 -0.046842642 0.038068272 -0.056599304 -0.19992901 0.00734674
0.008014664 0.07754796 -0.0678761 -0.0038238994 0.05545797 -0.08736671 0.0986798 0.005060319
0.044983078 -0.08130082 0.083346866 0.017273072 0.12668817 -0.042584572 0.10082202 -0.11172932
0.10701131 0.049990233 -0.0028732896 0.07844324 -0.031984415 -0.0449874 0.02301248 -0.103603736
-0.042213146 0.018236242 -0.10824027 0.043313637 0.014761817 -0.08784565 0.061748926 -0.16054945
0.051847797 -0.053035118 -0.010196109 -0.19217479 0.11165255 -0.014383045 -0.03301472 -0.05419321
0.2033456 0.017406797 -0.06931236 -0.094233006 0.07499257 -0.11442344 -0.032815073 0.10396952
0.013551253 0.04785533 0.043561645 0.04970212 0.060730938 0.107403606 0.17036559 -0.039074484
-0.014264043 0.0951085 -0.02374181 -0.04068563 0.096917085 0.048114534 0.021462869 -0.037300456
-0.1352805 -0.10141555 0.02106014 0.004484876 0.07104137 -0.05174611 -0.10913731 -0.04230472
0.22226234 0.018873155 0.012229368 -0.006653568 0.024003312 0.12839511 0.085350424 -0.059049822
0.010003412 0.04496768 0.0975117 0.06205704 0.06576337 -0.08734967 0.0013211234 0.10837816
-0.009659189 0.14672132 0.049290944 0.088384315 -0.03718479 -0.06974457 0.24634442 0.078353986
-0.0052875173 -0.034103062 0.054105878 -0.12609455 -0.011136874 -0.011438181 -0.13567653 0.12219568
-0.032407675 -0.0452359 0.16043626 -0.09210573 -0.15466246 -0.100355074 0.053152356 0.055267494
-0.07822167 0.01549454 0.024708685 0.0071740695 -0.016215246 0.0032089045 -0.06271704 -0.0955489
0.15151927 0.10776447 0.07332781 0.048690073 0.030571062 -0.107947186 -0.06477897 -0.034391597
-0.03960264 -0.038400497 -0.13024572 -0.060433675 0.04551556 -0.12571694 0.0642432 0.117809296
0.06403051 -0.10844286 0.058034215 -0.111670434 -0.11481686 -0.08155767 -0.15901814 0.040555157
0.061864488 -0.037335962 -0.009171523 0.27313355 -0.14070198 -0.02681151 -0.017468128 0.053570148
-0.12837408 0.10282436 0.0036435584 0.15914586 0.02691772 0.101421915 -0.01950784 -0.012835845
-0.09040766 -0.03934314 0.012806573 -0.0080959415 -0.061371002 -0.08076328 0.038944874 -0.1255504
0.10141945 -0.084969506 -0.0335288 -0.10486211 -0.024881782 -0.10239639 0.110222444 -0.010409566
0.038976226 0.09175696 -0.12764372 0.0046441676 -0.05743591 -0.114220254 0.06447554 0.075226255
0.1772125 0.0255736 -0.01566572 -0.09780493 -0.09012092 0.011411293 0.040381763 -0.039928272
-0.048235565 -0.16452552 -0.10308905 -0.06972929 -0.1157851 0.0017937666 0.11802867 -0.10904662
0.24116129 0.044853494 0.0787631 0.022276498 -0.054466583 -0.049517825 0.23274833 0.082563125
0.035765573 0.11878076 0.13258405 -0.05062761 0.071732305 -0.003706135 -0.018913321 0.082186915
0.08377735 -0.13366155 0.029199358 0.048562486 -0.05839719 -0.08201281 -0.033900373 -0.034759283
00000000: 9809 63bd 0d6c e7bd 0793 28bd 26fb 6cbd
00000010: c47c 163d 6692 30bd 914f ce3c 2c28 2d3c
00000020: c54d 033e df45 4ebd cfa6 b3bd d924 16bd
00000030: 7931 713c a2c0 73bd 9d56 c63c 6f6c 5fbd
00000040: facf b43c eb4d a7bd 90b1 903d 7b92 a2bd
00000050: bbe3 aa3d 810a d4bd e36e bb3c 194f 4dbd
00000060: eb9d 15bd 5aa9 f33c 63ff 68bd 12de 3fbd
00000070: 7aed 1b3d acd4 67bd 31ba 4cbe ecbc f03b
00000080: f04f 033c 77d1 9e3d a002 8bbd 639a 7abb
00000090: e527 633d 51ed b2bd a318 ca3d 08d1 a53b
000000a0: 2d40 383d 0b81 a6bd c3b1 aa3d 4280 8d3c
000000b0: 8bba 013e 296d 2ebd c67b ce3d 57d2 e4bd
000000c0: bf28 db3d 8fc2 4c3d cd4d 3cbb d9a6 a03d
000000d0: 1702 03bd b544 38bd ab84 bc3c 322e d4bd
000000e0: b1e7 2cbd 2c64 953c 13ad ddbd a469 313d
000000f0: 8cdb 713c 6ce8 b3bd 71ec 7c3d 1367 24be
00000100: 5b5e 543d 5a3b 59bd 950d 27bc 78c9 44be
00000110: 18aa e43d dda6 6bbc 713a 07bd b3f9 5dbd
00000120: d439 503e b398 8e3c a3f3 8dbd 3cfd c0bd
00000130: b495 993d d656 eabd 1969 06bd f9ed d43d
00000140: 1306 5e3c f303 443d b26d 323d 7394 4b3d
00000150: 01c1 783d 6cf6 db3d 5174 2e3e 910c 20bd
00000160: bcb3 69bc 3fc8 c23d 2f7e c2bc faa5 26bd
00000170: 777c c63d bf13 453d e6d2 af3c 5dc8 18bd
00000180: f986 0abe f5b2 cfbd 5186 ac3c def5 923b
00000190: 237e 913d bbf3 53bd 6283 dfbd b747 2dbd
000001a0: bd98 633e e09b 9a3c b05d 483c 2c06 dabb
000001b0: 98a2 c43c 027a 033e 34cc ae3d 3ade 71bd
000001c0: 5ae5 233c 0830 383d 37b4 c73d 862f 7e3d
000001d0: f2ae 863d 62e4 b2bd 8c29 ad3a 5ef5 dd3d
000001e0: 9341 1ebc 1d3e 163e 4de5 493d d602 b53d
000001f0: 144f 18bd 3ed6 8ebd b641 7c3e 0e78 a03d
00000200: e942 adbb a7af 0bbd 209e 5d3d ee1e 01be
00000210: 6f77 36bc 3567 3bbc caee 0abe bb41 fa3d
00000220: e9bd 04bd 4749 39bd 6749 243e eea1 bcbd
00000230: d65f 1ebe f686 cdbd 49b6 593d 2b60 623d
00000240: af32 a0bd d0dc 7d3c de69 ca3c 7514 eb3b
00000250: d6d5 84bc 7c4c 523b cb71 80bd 24af c3bd
00000260: de27 1b3e 9eb3 dc3d e42c 963d 3e6f 473d
00000270: 2a70 fa3c 6a13 ddbd d6aa 84bd 34de 0cbd
00000280: 6136 22bd d749 1dbd 225f 05be 4d89 77bd
00000290: 866e 3a3d f1bb 00be f091 833d 0046 f13d
000002a0: 6e22 833d 4a17 debd 49b5 6d3d 78b3 e4bd
000002b0: 1a25 ebbd b507 a7bd a7d5 22be 2a1d 263d
000002c0: 9e65 7d3d 98ed 18bd 2844 16bc 29d8 8b3e
000002d0: 2e14 10be d0a3 dbbc 5219 8fbc 5f6c 5b3d
000002e0: 7f74 03be 9495 d23d c4c8 6e3b 22f7 223e
000002f0: 8d82 dc3c 4bb6 cf3d e8ce 9fbc 704d 52bc
00000300: a727 b9bd 4626 21bd a9d2 513c d7a4 04bc
00000310: 2960 7bbd 3867 a5bd a984 1f3d 4990 00be
00000320: 00b5 cf3d 7e04 aebd 7f55 09bd f2c1 d6bd
00000330: e1d4 cbbc 33b5 d1bd 4ebc e13d e28c 2abc
00000340: 89a5 1f3d 13eb bb3d 09b5 02be 1a2e 983b
00000350: eb41 6bbd 4fec e9bd c00b 843d 3910 9a3d
00000360: 3277 353e ba7f d13c 6555 80bc f34d c8bd
00000370: 5191 b8bd 6ff6 3a3c 5967 253d d48b 23bd
00000380: a892 45bd 6179 28be 5a20 d3bd 3bce 8ebd
00000390: bd20 edbd d21c eb3a 04b9 f13d d653 dfbd
000003a0: fcf2 763e 4cb8 373d 8c4e a13d 347d b63c
000003b0: 5a18 5fbd 34d3 4abd 9455 6e3e db16 a93d
000003c0: ec7e 123d 5443 f33d 1dc4 073e e65e 4fbd
000003d0: 63e8 923d a1e2 72bb 1cf0 9abc 9d51 a83d
000003e0: 7693 ab3d 93de 08be 7e33 ef3c 75e9 463d
000003f0: e431 6fbd 55f6 a7bd 1edb 0abd c05f 0ebd

network_body.linear_encoder.seq_layers.4.bias f4 [256]
-0.059400264 -0.022677485 -0.02144914 -0.06162943 0.006402638 0.05554213 -0.025093932 -0.031508304
0.055978067 -0.008360334 -0.0210573 0.012143447 -0.029048432 -0.013470759 0.018031513 -0.04420076
-0.020734262 -0.0430337 -0.035628833 0.05970175 -0.023726238 -0.046627328 -0.009886088 0.014212107
-0.0035349575 0.0543283 -0.037693888 0.03964873 -0.0014648483 -0.009887023 -0.017610515 0.0125214495
-0.010305017 0.01370756 -0.042864982 -0.03423345 -0.055540267 -0.060593512 0.064666934 0.021167226
-0.021507785 -0.05261338 -0.024693795 -0.018791264 0.061544973 0.008226114 0.014041501 -0.0667478
0.038516603 0.0013731254 -0.031075723 -0.07640869 -0.002805264 0.019823942 -0.0029899487 0.014094621
-0.020216836 0.009209083 -0.019041056 0.04112329 -0.024885206 0.013105646 -0.08516717 -0.015284511
-0.07668216 -0.015893811 0.04993773 -0.019986423 0.057956822 -0.06703992 0.00022806827 0.010840046
0.007325967 -0.07832095 0.0056332336 -0.072723985 -0.01286374 0.03722699 0.0041647116 -0.02303961
-0.024766974 -0.061508212 0.021686843 0.039681878 0.0051647252 -0.03345777 0.02292051 -0.06869203
-0.07095168 0.018898446 -0.004656336 0.032535132 0.015972445 -0.019142263 0.05933035 -0.016937723
-0.040780663 -0.022635097 -0.08454921 -0.05036751 -0.011794707 0.01015877 -0.059319492 -0.02983153
0.0032091194 0.04390156 0.04122064 -0.04117444 0.03251015 0.070733875 0.020781236 0.009271222
-0.01606038 -0.0067474595 -0.00070045254 -0.048155982 -0.028802244 -0.00070333167 -0.025539527 0.0685398
-0.03786918 -0.030700963 0.024155688 0.05502241 0.06152743 0.009030303 0.0065123066 -0.008968401
-0.03619754 0.018449979 0.005818618 -0.012659172 0.014608613 0.0006188604 0.025461223 -0.07681581
-0.017714495 -0.035012797 -0.03078984 -0.016336815 -0.025807653 0.028320683 -0.0039695944 0.0003975309
-0.016272003 -0.007843002 -0.019334037 0.0073664137 0.0038258752 -0.0103672575 -0.007894982 -0.052689433
-0.00030439862 -0.025160803 -0.025409698 -0.035416994 -0.0013473985 -0.021768976 0.024572989 0.018806882
-0.059524808 -0.032373402 0.0011265166 -0.032264676 -0.00036934635 -0.031037163 -0.04258144 -0.03072185
0.042505994 -0.08746671 -0.003958608 0.029056909 -0.0022252405 -0.00030170326 -0.017662285 -0.023899585
0.0013594757 0.013443671 -0.015296429 0.026370611 0.025173943 -0.030327735 7.2998206e-05 -0.03572251
-0.027945006 0.028349351 -0.013221475 0.050527357 -0.04727672 -0.02573478 -0.075074114 0.011027148
-0.024998644 0.015578235 -0.022316452 -0.07490818 -0.059324905 -0.021232255 0.021051958 0.027454905
0.03904952 -0.03131473 -0.0457132 0.035859454 0.07545915 -0.0627086 -0.027084142 -0.03754005
-0.02352466 -0.03758053 0.0054637534 -0.009179801 0.014430405 -0.034186363 -0.052762248 -0.025746202
-0.016059797 0.024335345 0.016998604 -0.04426962 0.043869887 0.0053606424 -0.062665075 -0.029470831
-0.0746628 0.016573224 -0.02183957 -0.018532433 0.05568632 -0.0015332528 -0.048801422 -0.012389078
0.035281476 -0.0032599415 -0.0022991982 -0.010881217 0.008202794 -0.021310372 0.03075138 -0.06021871
0.024107303 -0.028107414 0.015920993 0.006432686 0.02721474 0.022099402 -0.038535684 0.014925836
-0.017228585 -0.07631298 -0.018898485 -0.022558874 0.03262954 -0.021336641 0.028206486 -0.049258403
00000000: b14d 73bd 22c6 b9bc 1bb6 afbc 246f 7cbd
00000010: 38cd d13b 2580 633d ca91 cdbc da0e 01bd
00000020: 4249 653d c8f9 08bc 5c80 acbc 4ff5 463c
00000030: faf6 edbc 75b4 5cbc d3b6 933c db0b 35bd
00000040: e6da a9bc 1b44 30bd 8aef 11bd d289 743d
00000050: 875d c2bc 4cfc 3ebd 42f9 21bc e6d9 683c
00000060: bfaa 67bb 5a87 5e3d e864 1abd b566 223d
00000070: 2700 c0ba 2efd 21bc ed43 90bc c426 4d3c
00000080: 60d6 28bc ac95 603c 3193 2fbd 6038 0cbd
00000090: 317e 63bd e730 78bd 1970 843d e466 ad3c
000000a0: 1831 b0bc 2181 57bd a44a cabc 23f0 99bc
000000b0: 9516 7c3d d3c6 063c 530e 663c 12b3 88bd
000000c0: 96c3 1d3d 71fa b33a 8492 febc 297c 9cbd
000000d0: 85d8 37bb d265 a23c 04f3 43bb 20ed 663c
000000e0: c79d a5bc b2e1 163c fdfb 9bbc e570 283d
000000f0: 0fdc cbbc 10b9 563c 206c aebd e36b 7abc
00000100: 890b 9dbd bd33 82bc 818b 4c3d 91ba a3bc
00000110: 2264 6d3d 3a4c 89bd 9c25 6f39 739a 313c
00000120: aa0e f03b bc66 a0bd fd96 b83b 50f0 94bd
00000130: 70c2 52bc 547b 183d 2278 883b 90bd bcbc
00000140: 1ce4 cabc 09f0 7bbd 9ba8 b13c 7789 223d
00000150: db3c a93b 040b 09bd cbc3 bb3c 68ae 8cbd
00000160: 1d4f 91bd ead0 9a3c 2d94 98bb 8f43 053d
00000170: a5d8 823c 3cd0 9cbc 6204 733d fbc0 8abc
00000180: a009 27bd 3d6d b9bc 2328 adbd 2a4e 4ebd
00000190: 963e 41bc f870 263c fff8 72bd 4161 f4bc
000001a0: 1750 523b 1fd2 333d f9d6 283d 88a6 28bd
000001b0: 5d29 053d ecdc 903d 693d aa3c 53e6 173c
000001c0: 0f91 83bc cb19 ddbb 939e 37ba 353f 45bd
000001d0: aff2 ebbc ca5f 38ba 4538 d1bc 985e 8c3d
000001e0: b71c 1bbd 9680 fbbc 26e2 c53c 2e5f 613d
000001f0: 3004 7c3d d6f3 133c 3065 d53b 33f0 12bc
00000200: df43 14bd 6924 973c 1baa be3b 6a68 4fbc
00000210: f758 6f3c 053b 223a 0e94 d03c 9b51 9dbd
00000220: fd1d 91bc 9469 0fbd f93a fcbc c9d4 85bc
00000230: 926a d3bc c700 e83c 5f13 82bb b26b d039
00000240: dd4c 85bc ef7f 00bc 6a62 9ebc f561 f13b
00000250: 89bb 7a3b 6edb 29bc f459 01bc e0d0 57bd
00000260: b197 9fb9 071e cebc 0028 d0bc 6911 11bd
00000270: 319b b0ba da54 b2bc 4b4d c93c e410 9a3c
00000280: 49d0 73bd f999 04bd a0a7 933a f727 04bd
00000290: d4a4 c1b9 a641 febc e069 2ebd 64ac fbbc
000002a0: c41a 2e3d bf21 b3bd 36b7 81bb c108 ee3c
000002b0: 57d5 11bb ed2d 9eb9 7fb0 90bc 10c9 c3bc
000002c0: 6f30 b23a d842 5c3c e09d 7abc 2e07 d83c
000002d0: 9639 ce3c df71 f8bc 9d16 9938 c451 12bd
000002e0: edec e4bc e63c e83c e39e 58bc c6f5 4e3d
000002f0: 3ca5 41bd bfd1 d2bc 75c0 99bd 36ab 343c
00000300: f5c9 ccbc da3b 7f3c fed0 b6bc 7669 99bd
00000310: acfe 72bd 44ef adbc 2875 ac3c 1ce9 e03c
00000320: 64f2 1f3d e043 00bd c43d 3bbd 5de1 123d
00000330: 548a 9a3d 5e6d 80bd 90df ddbc 98c3 19bd
00000340: cab6 c0bc 0bee 19bd 4909 b33b e066 16bc
00000350: 816d 6c3c 0007 0cbd 3a1d 58bd b3e9 d2bc
00000360: d68f 83bc eb5a c73c a840 8b3c 1054 35bd
00000370: e9b0 333d 54a8 af3b 8c56 80bd d06c f1bc
00000380: cfe8 98bd 92c4 873c e6e8 b2bc 54d1 97bc
00000390: 5717 643d 6df7 c8ba 00e4 47bd 8ffb 4abc
000003a0: 4f83 103d bea4 55bb 25ae 16bb 2247 32bc
000003b0: 0365 063c 1793 aebc 51ea fb3c e5a7 76bd
000003c0: ae7c c53c 8541 e6bc be6c 823c 48c9 d23b
000003d0: 72f1 de3c ce09 b53c 98d7 1dbd 7e8b 743c
000003e0: f622 8dbc fb49 9cbd ffd0 9abc 63cd b8bc
000003f0: 8da6 053d 2eca aebc 4a11 e73c 2ec3 49bd

network_body.linear_encoder.seq_layers.4.weight f4 [256, 256]
-0.1546336 0.10212894 -0.12719369 -0.178283 0.05823365 -0.078644864 0.18474393 0.04801682
0.0028004376 -0.023992652 -0.0021344188 0.035487276 -0.016049316 0.001567403 -0.18027885 0.005863115
-0.092443325 0.062749654 0.038818624 0.068405166 -0.06106888 -0.09538134 -0.023346508 0.06816272
-0.017254148 -0.1499002 -0.01887191 0.07452597 0.03983334 -0.19097546 -0.049501687 0.065426804
0.13687769 -0.07371438 0.050440785 0.20160742 -0.056774057 -0.094025634 -0.0069682277 0.15078755
-0.118449755 0.08671311 0.052948814 -0.022107663 0.022082122 -0.011136484 -0.07361263 0.045524854
-0.08594572 0.030743437 0.006317588 -0.034085397 -0.030263407 -0.017977009 -0.0027264955 0.03661163
-0.06406628 -0.08544477 0.077554 0.033494934 -0.20283052 -0.0679829 0.09190616 0.012036676
0.12149688 0.029783739 0.026977127 0.008780437 0.009479808 0.022312839 0.1107764 0.026518177
-0.08189618 0.0008986956 -0.18456845 -0.10657742 -0.014824788 -0.05130609 -0.01580589 0.04478609
0.16140279 0.03333565 0.05940585 0.0027917773 0.04219915 0.06138576 -0.0035150272 0.026641823
0.038774457 -0.12824881 0.0047284532 0.022984477 -0.08768993 -0.07640881 0.04900754 -0.06469494
-0.14564888 -0.025666969 -0.11842762 -0.17359826 0.0006657207 -0.12289826 -0.18432878 -0.0015183869
0.010765376 0.05547132 0.0008448856 0.12524839 0.013160288 0.02424255 -0.031063998 0.07790047
-0.033764623 -0.011334597 -0.039241374 0.074455366 -0.053583104 0.12417864 0.046985436 -0.017125282
-0.036648087 0.089594774 -0.08767074 -0.06507991 -0.018294984 0.15957229 -0.037006494 -0.0978665
0.17028964 0.042989332 0.08823381 0.038719185 -0.06455842 -0.01761631 0.043234516 0.08423482
-0.10428863 0.08539557 -0.08833003 -0.022726882 -0.03597505 0.020927228 -0.05368126 -0.014001068
0.021525823 -0.16910666 -0.022682585 -0.0042748265 -0.084208906 -0.004408743 0.09428315 -0.04351367
-0.10817472 0.0063889893 0.0177842 -0.04312216 -0.015962295 0.06391871 0.07430184 -0.01586103
0.098245345 0.15088359 0.003216 -0.07840854 -0.09079974 0.077353306 0.07075421 -0.046788763
-0.009515081 0.0015879772 -0.0895365 0.094399735 -0.024526758 0.092875354 0.046869207 0.0568935
-0.07222851 0.097187735 -0.08419336 0.12886514 0.22568698 0.0062384494 0.044902585 -0.07072253
-0.072488174 -0.115751885 -0.05969669 0.13700408 -0.018256094 -0.023681894 -0.03129283 0.05496697
0.054941475 -0.092770584 -0.06726047 -0.0010284447 0.07041698 0.0032261887 0.012625554 -0.05412031
-0.13907923 0.0073011047 -0.046685677 0.060347125 0.03251963 -0.026366279 -0.09476931 0.07230144
0.06598289 0.017273856 0.03811388 0.0048100264 -0.072054364 -0.07340526 0.1418984 -0.06344472
0.059625097 -0.08448822 -0.088476084 -0.01594667 -0.047456674 -0.01618971 -0.035179343 -0.12851639
-0.042732757 0.14759865 -0.00025594753 -0.03958022 0.030333702 -0.05026623 0.009371661 0.048390016
-0.0024768922 -0.029152945 -0.14824651 -0.09352652 0.17562316 0.1111467 -0.037587132 0.0845256
0.013073385 0.0062051746 0.112334676 0.07146162 -0.034290083 0.09413787 -0.1444602 -0.06865295
-0.004710452 0.11344224 0.11287302 0.0088766245 -0.085399956 -0.017695796 -0.101721816 0.13647519
00000000: 4558 1ebe fa28 d13d 103f 02be d28f 36be
00000010: 6886 6e3d 8f10 a1bd 832d 3d3e 49ad 443d
00000020: 8c87 373b 3d8c c4bc 9be1 0bbb 1b5b 113d
00000030: db79 83bc 5171 cd3a 059b 38be 601f c03b
00000040: ed52 bdbd e482 803d 4700 1f3d 0218 8c3d
00000050: 5d23 7abd 4b57 c3bd 2d41 bfbc e598 8b3d
00000060: 9258 8dbc 707f 19be 4499 9abc 12a1 983d
00000070: 4928 233d 128f 43be 48c2 4abd 7dfe 853d
00000080: aa29 0c3e 91f7 96bd ff9a 4e3d 2d72 4e3e
00000090: ea8b 68bd 8390 c0bd bb55 e4bb 0d68 1a3e
000000a0: c995 f2bd a596 b13d dbe0 583d 211b b5bc
000000b0: 91e5 b43c cd75 36bc 38c2 96bd 4578 3a3d
000000c0: 4f04 b0bd a9d9 fb3c c503 cf3b 219d 0bbd
000000d0: f7ea f7bc 8544 93bc 01af 32bb 14f6 153d
000000e0: 2f35 83bd abfd aebd a2d4 9e3d fc31 093d
000000f0: ceb2 4fbe 9e3a 8bbd 4c39 bc3d 7a35 453c
00000100: 5bd3 f83d 07fd f33c 23ff dc3c d2db 0f3c
00000110: 3251 1b3c 6ac9 b63c bdde e23d a63c d93c
00000120: 2fb9 a7bd 7196 6b3a 83ff 3cbe 4345 dabd
00000130: abe3 72bc 5626 52bd 5b7b 81bc 9e71 373d
00000140: c646 253e f68a 083d 8c53 733d 40f6 363b
00000150: 04d9 2c3d a26f 7b3d 5f5c 66bb f43f da3c
00000160: f7d1 1e3d a853 03be 24f1 9a3b f149 bc3c
00000170: c796 b3bd 397c 9cbd 21bc 483d c87e 84bd
00000180: fb24 15be 8943 d2bc 2e8a f2bd bec3 31be
00000190: c383 2e3a 15b2 fbbd afc0 3cbe 9c04 c7ba
000001a0: 4261 303c e535 633d 507b 5d3a 1d41 003e
000001b0: 409e 573c 5098 c63c ed79 febc 488a 9f3d
000001c0: c64c 0abd bfb4 39bc 90bb 20bd 0e7c 983d
000001d0: f579 5bbd 5f51 fe3d cd73 403d 524a 8cbc
000001e0: 4e1c 16bd 777d b73d b88c b3bd 9e48 85bd
000001f0: 5ddf 95bc eb66 233e 1f94 17bd 3b6e c8bd
00000200: 6860 2e3e 9515 303d eeb3 b43d 0298 1e3d
00000210: 3437 84bd 1450 90bc ad16 313d 4e83 ac3d
00000220: 4795 d5bd dfe3 ae3d 60e6 b4bd ba2d babc
00000230: 935a 13bd 946f ab3c e2e0 5bbd bc64 65bc
00000240: ec56 b03c 4c2a 2dbe d4d0 b9bc d813 8cbb
00000250: b875 acbd 3877 90bb 8617 c13d 643b 32bd
00000260: b58a ddbd ba5a d13b 2cb0 913c dda0 30bd
00000270: 5cc3 82bc d0e7 823d 902b 983d feee 81bc
00000280: db34 c93d 3a81 1a3e 87c3 523b a894 a0bd
00000290: 37f5 b9bd 696b 9e3d 95e7 903d 93a5 3fbd
000002a0: 24e5 1bbc ac23 d03a ea5e b7bd a654 c13d
000002b0: 57ec c8bc 6f35 be3d edf9 3f3d 2909 693d
000002c0: 8bec 93bd 5d0a c73d 916d acbd 39f5 033e
000002d0: 7d1a 673e e86b cc3b c6eb 373d f9d6 90bd
000002e0: ae74 94bd 530f edbd 8484 74bd cc4a 0c3e
000002f0: ce8d 95bc 8800 c2bc e92c 00bd 0c25 613d
00000300: 500a 613d 81fe bdbd dbbf 89bd e1cc 86ba
00000310: c736 903d 776e 533b 69db 4e3c 42ad 5dbd
00000320: c96a 0ebe 1b3e ef3b 7b39 3fbd 8c2e 773d
00000330: 4e33 053d 18fe d7bc 6916 c2bd c712 943d
00000340: 0a22 873d e781 8d3c 4d1d 1c3d 6d9d 9d3b
00000350: 3d91 93bd 7f55 96bd d04d 113e 4eef 81bd
00000360: 7239 743d 2908 adbd f332 b5bd 97a2 82bc
00000370: ee61 42bd 48a0 84bc 3718 10bd cd99 03be
00000380: 8b08 2fbd 1a24 173e b230 86b9 de1e 22bd
00000390: 627e f83c f6e3 4dbd 988b 193c 9c34 463d
000003a0: 5b53 22bb 28d2 eebc efcd 17be d58a bfbd
000003b0: 8fd6 333e e2a0 e33d f7f4 19bd c21b ad3d
000003c0: c031 563c c754 cb3b b90f e63d 785a 923d
000003d0: c273 0cbd 5bcb c03d 60ed 13be eb99 8cbd
000003e0: 235a 9abb 6854 e83d f829 e73d 436f 113c
000003f0: 2ce6 aebd c6f6 90bc 8753 d0bd 27c0 0b3e
