results/rdesktop_run_002/Robotarm/Robotarm-8499996.onnx (onnx, 554549 bytes, 9 tensors)

action_model._continuous_distribution.log_sigma f4 [1, 5]
000000 87 a3 6d c0 0f 58 43 c0 be fb 43 c0 1c de 90 bf
       -3.713106 -3.0522497 -3.0622401 -1.1317782
000010 82 5c 70 bf
       -0.93891156

action_model._continuous_distribution.mu.bias f4 [5]
000000 23 2b 48 3d aa 8c 9f 3c 59 d5 0d bd a4 7c 75 bd
       0.048869263 0.019476254 -0.034627292 -0.05993332
000010 c2 98 a8 3c
       0.020580653

action_model._continuous_distribution.mu.weight f4 [5, 256]
000000 50 85 83 bc e7 a1 08 bd 91 68 8a bc cf 19 43 bb
       -0.01605478 -0.033357527 -0.016895564 -0.0029770022
000010 02 24 9b 3c f4 c5 60 3d 6b 65 4d bb 28 c3 7f bc
       0.018938068 0.054876283 -0.0031340967 -0.015610494
000020 60 90 32 bc cf 2c 58 39 cb 07 ba bc aa f8 97 b9
       -0.0108986795 0.00020616058 -0.022708794 -0.00028986234
000030 e8 1c 8e bc 23 d5 98 3c 6e 08 7b 3b 04 cb a7 bc
       -0.017347768 0.018656319 0.0038304585 -0.020482548
000040 d1 c1 35 bc 76 d1 6a bc 58 72 87 bb ee ad a5 3c
       -0.011093573 -0.014332166 -0.004133504 0.020224538
000050 4e 3f 2a bc 3d f6 fc bc 9e 73 e0 bc d2 89 a3 3b
       -0.01039107 -0.030879134 -0.02739888 0.0049907947
000060 ff ba e0 bc ed 73 83 3c 37 83 cf bc 5e 4b dd 3b
       -0.027432917 0.016046489 -0.025331123 0.0067533692
000070 b7 65 1c 3d 55 80 24 bc 69 a3 17 bb ed e4 9a 3c
       0.03818294 -0.010040362 -0.0023138172 0.018907988
000080 72 d3 c9 bb 24 f8 5a bb 8c 8e c6 bc 02 37 26 bd
       -0.0061592394 -0.0033412063 -0.024237894 -0.040579803
000090 e0 2b 1c bd 61 39 a0 3c 72 19 2f 3d ba e5 2d bb
       -0.03812778 0.01955861 0.042748876 -0.0026534633
0000a0 a8 7f 96 bc 15 42 e2 bc 74 c8 e2 bc 4a d8 d1 bc
       -0.018371418 -0.027619401 -0.027683474 -0.02561583
0000b0 2a d0 84 3c 0c 86 97 3b 72 ca 0b bc 78 d1 99 bc
       0.016212542 0.004624134 -0.008532153 -0.01877664
0000c0 a1 e3 8d 3c 00 49 0c 3c bc 62 fa bc b3 c8 dc bc
       0.017320456 0.008562326 -0.030564658 -0.02695117
0000d0 b1 5a 67 bc 1f 1a f9 b9 59 04 2a bc a1 97 a3 3c
       -0.014120744 -0.00047512443 -0.010377013 0.019969763
0000e0 15 05 36 bc 98 d2 6c 3c 1e de fa bb 43 6c 7e 3c
       -0.01110961 0.014454506 -0.007655873 0.015528741
0000f0 30 66 93 bc 11 7f 4b ba 94 62 c8 bc 06 4d e4 bb
       -0.017993063 -0.000776277 -0.024461068 -0.0069671897
000100 7f 89 c1 bc b4 3a 28 3c d5 46 3c 3c 4b 95 9c 3c
       -0.023625134 0.010267902 0.011491497 0.019114157
000110 d2 e3 89 3c 9f e7 2f bc fd ee 16 3a b6 92 8a 3b
       0.016832266 -0.010736375 0.0005757658 0.004228915
000120 88 94 0d bd 70 fe d0 bc d2 4a 5d bb 78 16 6a bd
       -0.03456548 -0.02551195 -0.003376652 -0.057150334
000130 e0 09 70 bc 89 06 db 3c e7 5e 1b bd 28 62 0d bd
       -0.014650792 0.026736515 -0.037932303 -0.034517437
000140 bc 48 b9 ba 5f 7e e2 bb 97 48 90 3b 59 b6 85 3b
       -0.0014136056 -0.0069120373 0.0044031846 0.0040805754
000150 13 67 a7 bc 57 83 c9 bb 69 ad 9a 3b 13 a9 a1 bc
       -0.020434892 -0.00614969 0.004720379 -0.019733941
000160 7d 5a 18 bd 8b a0 8c bc 68 88 2e bc 91 ea 49 b9
       -0.03719567 -0.017166397 -0.010652639 -0.00019256237
000170 d6 07 ed 3a db 7f 09 bd 6d 55 c7 3c 0d b0 a5 bc
       0.0018084 -0.033569198 0.024332726 -0.02022555
000180 8c 04 db b9 2d bb d8 bc 05 2e 63 bd ab 97 be bc
       -0.00041774323 -0.02645644 -0.05546381 -0.02326568
000190 79 2e a1 bb 3a 32 f9 bb 71 a1 6e bc 5f 3f 13 bc
       -0.00491887 -0.0076048644 -0.014564858 -0.008987277
0001a0 1e fe 0c 3c 04 fb d0 3c df 61 a5 3c 18 25 9b ba
       0.008605508 0.025510319 0.02018827 -0.0011836616
0001b0 9b 4f 3f 3d e4 18 b1 3c bb b3 5a 3d c9 30 47 3b
       0.046706777 0.021618314 0.05339406 0.0030394068
0001c0 17 69 46 bc f9 bd 2f bc a0 27 c4 bc 5e 7c 41 bd
       -0.012110016 -0.010726445 -0.023944676 -0.047237746
0001d0 20 c6 c8 bc b3 80 f1 ba d8 08 b6 3c d6 9b 3b 3c
       -0.024508536 -0.0018425196 0.022221014 0.011450728
0001e0 24 74 2b bc 97 33 cb bc 81 63 9c 3c 2a a6 f0 3c
       -0.010464702 -0.024804873 0.019090416 0.029376108
0001f0 bc 13 34 3c e9 da 9a bc 84 64 1f 3d b8 ad 96 3c
       0.010991033 -0.018903213 0.03891422 0.018393382
000200 88 b6 81 3d 68 ec 57 bc 79 b2 e2 bb 20 73 f2 3b
       0.06333643 -0.013178922 -0.0069182483 0.007398978
000210 0d 22 5d 3b 18 4b a0 3c 0c a4 5a bb cc 45 2c bb
       0.003374222 0.019567057 -0.003336194 -0.002628672
000220 ed 85 c4 bb 89 c8 bb bc 7f 48 d3 bc 01 50 37 bd
       -0.0059974105 -0.022922771 -0.025791405 -0.044754032
000230 53 0d 80 bc 6a 78 04 bc e8 fe 15 bc 75 a7 f3 bb
       -0.015631353 -0.00808535 -0.009155013 -0.007435734
000240 3b 37 c6 bb 13 5b 5c ba a5 08 9d bc 64 7c 0e bc
       -0.0060490645 -0.0008405905 -0.019169161 -0.008696649
000250 a3 b3 00 bb 7d d0 0c 3c 34 aa ac bc b6 7f e2 bc
       -0.0019638322 0.008594629 -0.021077253 -0.027648788
000260 50 60 ed bb 5b 7e 32 bb c2 72 a4 bc b8 0f 0a bc
       -0.0072441474 -0.0027235958 -0.020074252 -0.008426599
000270 6c 3c 23 bc eb c0 f3 3c 39 a0 1c bb bb c2 5b 3c
       -0.009963136 0.029755076 -0.002389921 0.013413127
000280 6a 81 eb bc 18 35 9e bc b8 47 b3 3b 31 82 f9 bc
       -0.028748233 -0.019312426 0.005471196 -0.030457588
000290 7e 56 bd bc 8d 1a c8 bc 54 1e 0c bc 5b 91 37 3b
       -0.023112532 -0.024426723 -0.008552153 0.0028010223
0002a0 3e 65 01 3c 42 48 99 bc 67 e7 90 bc 16 f3 8b 3c
       0.007897673 -0.018711213 -0.017688466 0.017083686
0002b0 b8 e1 89 3b 89 60 8b 3c 03 0b 0a 3c ba 2b d0 bc
       0.004207816 0.017013805 0.008425477 -0.025411475
0002c0 70 5d 91 bc 36 c4 f2 ba c9 d1 07 bd 8a ac f6 3c
       -0.01774475 -0.001852161 -0.03315905 0.03011157
0002d0 7e cd a9 3c 4b 4d 06 bd 89 fb 96 bb f0 f1 95 3c
       0.02072787 -0.032788556 -0.004607622 0.018303841
0002e0 bf a0 3c bb f0 7e 03 ba 9b 67 91 bc 16 6d 16 3b
       -0.0028782336 -0.00050161686 -0.017749598 0.0022953204
0002f0 4f 85 a4 bc 80 77 14 bb 30 16 42 bc 8e 19 b5 3b
       -0.020083098 -0.0022654235 -0.01184611 0.005526728
000300 60 24 65 bc 62 1c a7 b8 d1 68 a4 bc 44 75 c5 bc
       -0.013985723 -7.968467e-05 -0.020069512 -0.024103768
000310 7a dd a8 bc cb 4c 91 bc e2 c4 a9 3c b8 0c 23 bc
       -0.02061342 -0.017736813 0.020723764 -0.009951763
000320 21 fb 80 bc 0f aa 9b bb 44 68 e1 bb b1 e8 5c 3c
       -0.015744748 -0.004750497 -0.0068788845 0.013483212
000330 b8 45 a8 3c c2 cc b7 bc 1a 3d 6a bc 6e c6 93 bc
       0.020541057 -0.022436503 -0.014296794 -0.018038955
000340 d1 86 57 bb d9 a3 95 3c e1 9a 0f bc 3a d6 f8 3b
       -0.0032886753 0.018266605 -0.008764953 0.007593897
000350 b8 a5 12 3b 04 56 2b bc b8 bd 30 bc 86 3a b7 bc
       0.0022376608 -0.010457519 -0.01078742 -0.022366773
000360 85 7b 24 bc 41 6e a0 3a 12 86 6b ba 9d 78 b5 bc
       -0.010039215 0.001223989 -0.00089845166 -0.02215224
000370 77 a0 dc 3c 98 10 66 3c 7d ab 42 3a 1b 7f be 3b
       0.026931984 0.014042042 0.00074260664 0.005813492
000380 be 0d b4 bc 04 45 e8 bb bd 19 90 3b c5 7b 2d 3d
       -0.021979209 -0.0070883054 0.0043975995 0.042354364
000390 ad f5 c3 3c 85 05 d1 bb 22 7b 8e bc 39 f4 6d bc
       0.023920858 -0.006378832 -0.017392699 -0.014523559
0003a0 b8 f7 19 3d c6 ae dd bb 17 ec 2e bc 00 f6 79 3c
       0.03758976 -0.0067652194 -0.010676405 0.015256405
0003b0 7f b6 87 3c 2d 06 a9 bc 87 5e 8b 3c 5a 34 a5 bc
       0.016566513 -0.020632828 0.017012848 -0.020166565
0003c0 a7 3e 86 b9 04 ae 9c b9 6d b0 ce bc 86 ec a8 3a
       -0.0002560515 -0.0002988429 -0.02523061 0.0012887872
0003d0 18 cc 2f bb 2e 38 c3 bb 6b e9 fc 39 43 56 dc bb
       -0.002682453 -0.005957625 0.00048239095 -0.0067241504
0003e0 a3 93 f6 bb 2b 0a 21 bc e6 83 52 39 0e fd 06 bd
       -0.007524924 -0.009829084 0.00020076297 -0.032956176
0003f0 c2 39 f0 3b 0a c8 7b bc 87 69 b9 bb 7c 0f b7 bc
       0.007331104 -0.015367517 -0.005658332 -0.02234625

network_body.linear_encoder.seq_layers.0.bias f4 [256]
000000 84 ec 55 bd 1a 94 ca bb 50 86 69 3b 3c d2 e5 3d
       -0.052227512 -0.006182206 0.0035633035 0.1122174
000010 88 09 51 3c af a6 94 bc 5b 9f 2b bc 90 dc 4f bd
       0.01275862 -0.018145887 -0.010475005 -0.050747454
000020 64 fb b3 bc af 04 6f bd b6 30 84 3c 9a fd 56 bd
       -0.021970458 -0.058354076 0.016136508 -0.052487947
000030 89 c3 06 3a d7 62 d0 bc 12 eb da bc c5 04 a8 bc
       0.00051408313 -0.025437756 -0.026723418 -0.020510087
000040 3c 32 75 3c 14 52 c4 3b dc 66 94 3c ff 3f e5 3a
       0.01496559 0.00599123 0.018115453 0.0017490386
000050 4d 0d de bc 07 14 c0 bc 25 86 f8 bb 45 16 35 bd
       -0.027105952 -0.02344705 -0.0075843506 -0.04421069
000060 25 bf ee 3c 5c 21 4c 3c 83 ad c4 bc b6 1b b9 3c
       0.02914388 0.012459125 -0.024008518 0.022596221
000070 a3 bb a2 3d ac 5e 60 bc 86 59 90 bc 79 32 0d 3c
       0.07945945 -0.0136944465 -0.017620813 0.008617991
000080 6b 2d 2d bc 69 c6 08 3d 18 45 18 bd 96 f9 a8 bc
       -0.0105699105 0.033392344 -0.037175268 -0.020626824
000090 4d 64 5d bc 3e 09 10 3c 66 b0 78 3d 31 5c 68 3d
       -0.013512683 0.008791266 0.0607151 0.056728546
0000a0 2a 83 d6 bc 5f 45 32 bd 06 0a 05 3d ef 85 99 3b
       -0.02618559 -0.04352319 0.032480262 0.0046851556
0000b0 4f ee e5 bc 71 7e af 3c 48 7e 8a 3d 83 dc 53 bd
       -0.028067736 0.021422597 0.067623675 -0.05172397
0000c0 07 da a9 3c 05 dc 36 bb 05 18 c1 3c e1 ca 51 3d
       0.020733846 -0.0027902138 0.023571024 0.05121887
0000d0 89 b9 20 3d 04 9f 1a bb 9f fc f9 3b f4 63 c6 3b
       0.03923944 -0.0023593316 0.0076289917 0.006054396
0000e0 dc 71 86 3d 87 1c 70 bc 0e a0 aa 3c b6 6c 9e 3d
       0.06564686 -0.014655239 0.020828273 0.07735579
0000f0 5b 8a 35 3c 1e 72 94 3c 80 4d 69 bd 72 ee cc 3d
       0.01108035 0.018120822 -0.056958675 0.10006417
000100 f8 b2 fb bb 2e b4 85 ba bb 53 c2 3b 50 70 93 bc
       -0.007681247 -0.0010200792 0.0059303916 -0.01799789
000110 e5 a5 0a bd 35 b4 8a 3d 61 44 22 bb 3a ae 3e 3d
       -0.033849616 0.06772653 -0.0024759995 0.046552874
000120 75 02 39 bd 93 bb b0 3b 73 2f 9f bc d2 08 a5 3d
       -0.04516836 0.0053934543 -0.019431805 0.08058323
000130 aa fc 89 3c a0 71 3d bc d8 4f 80 bc 2b ea 69 3d
       0.016844112 -0.011562735 -0.015663072 0.057108086
000140 c0 8d fe 39 1b bd 32 3c 15 dd 6e bc ce b9 cc 3a
       0.00048552267 0.010909344 -0.014579077 0.0015619339
000150 8b 50 52 bb 31 36 79 3c 73 54 1f bc 90 bb 44 bd
       -0.0032091464 0.015210674 -0.009724724 -0.048030436
000160 58 0d ba 3c c5 9f ac bc b6 62 f5 bc 39 92 e5 bc
       0.02271144 -0.021072278 -0.029954296 -0.028023826
000170 ff f1 93 39 0c 8f 7d 3c e6 43 c9 bb 5e 98 89 bd
       0.00028218326 0.015476 -0.0061421273 -0.06718515
000180 0f 9b 84 ba 5c fe 35 3d 46 01 04 3d 06 cd 12 bc
       -0.0010117012 0.04443203 0.032227777 -0.008960014
000190 29 ed b8 bc 33 06 28 3d 7e a3 4d bb 6a 29 20 3a
       -0.022574024 0.041021537 -0.0031377967 0.0006109687
0001a0 ba c8 dc 3c 45 88 2a 3d bf e6 05 3c 22 73 ae 39
       0.026951183 0.041633863 0.00817269 0.00033273647
0001b0 6a 39 6b bb 12 12 61 3b 38 fc 59 bd b9 8e c6 3a
       -0.0035892376 0.0034343046 -0.05321905 0.0015148736
0001c0 a2 0c b4 3d cb 46 07 bb 6d ff 99 3b ef ce 03 bd
       0.08791472 -0.002064156 0.0046996386 -0.03217977
0001d0 6a 6d 77 bd a5 f4 8c 3c fa 88 19 3c 4a 0c 0f bd
       -0.06040708 0.0172065 0.009371037 -0.03492383
0001e0 99 7d d5 3c 41 9f ff ba 81 82 2d bc 74 a0 6e bd
       0.026060866 -0.0019502417 -0.010590197 -0.05825849
0001f0 f3 a6 cd bb c9 d6 d7 bb e1 04 47 3c b8 92 af bc
       -0.0062760054 -0.0065868837 0.012147159 -0.021432266
000200 69 67 be bb 67 6a 4e bd 53 18 28 bd 36 71 2a 3d
       -0.0058106673 -0.050394442 -0.041038822 0.041611873
000210 40 c7 b6 bb 25 50 60 bc 73 25 e3 3a 6b f9 db bc
       -0.0055779517 -0.013690983 0.0017329886 -0.02685233
000220 6a ff ee bc 02 65 d0 bc df cb 49 bc c7 16 17 bb
       -0.029174525 -0.02543879 -0.012316673 -0.0023054348
000230 a5 5a 69 bc 9a d1 c0 3b b9 22 48 bb 16 37 88 bd
       -0.014242803 0.0058843615 -0.0030538274 -0.06651132
000240 7b 4a 46 3d 77 47 02 3c 8f 1f ad bc b3 22 fd bc
       0.048410874 0.007951609 -0.021133212 -0.030900335
000250 64 af d4 bc 03 79 75 bb 8e c9 c9 b9 43 f1 48 3a
       -0.025962539 -0.0037456162 -0.00038487877 0.00076653453
000260 eb b1 08 3d ac fa d9 bc ac 14 a7 bc 9d 79 49 bb
       0.0333728 -0.026608787 -0.0203956 -0.0030742653
000270 44 40 83 3d 15 1f 79 bb 2c 42 9e bd 5b b4 74 bd
       0.06408742 -0.003801291 -0.07727465 -0.059742313
000280 bc 7c ea 3c 57 a3 75 3b 11 30 97 3d 39 78 da 3b
       0.028623931 0.0037481391 0.07382215 0.0066671637
000290 fa 96 77 3c ef 35 1e bc 88 d4 71 3d ca 14 e2 3c
       0.015111679 -0.009656413 0.059040576 0.027597804
0002a0 0f 42 e4 3b 63 5d 7e 3d 89 43 3d bd f7 f8 55 3d
       0.0069658826 0.06210078 -0.046206985 0.052239385
0002b0 e9 0c eb bc 6e b4 22 3c a9 09 bd ba 1b 3c fa 39
       -0.02869268 0.009930713 -0.0014422435 0.00047728498
0002c0 e0 a4 3b bd e4 17 aa 3c e1 74 0c 3d ed 56 c4 3c
       -0.045811534 0.020763345 0.034291152 0.02396723
0002d0 c5 ed 66 3d af cb 14 bc 37 5a 99 bc 1a f5 20 3b
       0.0563791 -0.009081765 -0.018719776 0.0024560154
0002e0 93 a7 47 3c 60 b4 58 3d bc ce 32 bd 16 d4 93 3c
       0.012185949 0.052906394 -0.04365419 0.018045466
0002f0 39 78 e3 3b 7f 51 13 3d b5 20 76 bc 8a 37 2b 3d
       0.006941822 0.035966393 -0.015022446 0.041801013
000300 4c d0 2b 3b 6c 6d 42 3d 0c 86 04 3d 42 8f 31 3d
       0.0026216684 0.047467634 0.0323544 0.043349512
000310 bf 9a b1 bc fa 22 00 bd 7b a5 8c 3c 65 2a 71 3c
       -0.021680234 -0.031283356 0.017168751 0.01471958
000320 7d a3 02 3d 74 43 5c bc f2 98 61 3d ad 06 1b bc
       0.031894196 -0.013443816 0.0550775 -0.009462041
000330 83 5d da bc 44 7b 3a 3d a4 1b 0c bc 63 ed 6e bd
       -0.026655918 0.04552771 -0.008551512 -0.05833186
000340 87 ad 03 bc 74 a5 78 3c a5 33 0d bc b0 01 65 3d
       -0.008036978 0.015176166 -0.00861827 0.055909812
000350 83 89 30 bc 30 11 9f 3c cc f9 2b 3d b9 fb 03 bd
       -0.010774973 0.019417375 0.04198627 -0.032222483
000360 b8 40 5b 3c f6 54 24 bc 1c ed 2b 3d 91 8e 26 bd
       0.013382129 -0.010030022 0.041974172 -0.040663306
000370 87 c6 1a 3c 7f 1f 87 3b 34 0a 78 ba 6c 0c 04 bd
       0.009446747 0.0041236277 -0.00094619696 -0.03223841
000380 55 4b 19 3c 47 ea 32 bd 22 26 84 bd 6d 19 58 3d
       0.009356339 -0.043680456 -0.06452586 0.052758623
000390 6d 0d 77 3d cc fc 97 bc ca 5f 39 bd 0d 94 99 bb
       0.06031554 -0.01855316 -0.045257367 -0.0046868385
0003a0 dc ca aa bc 9d 1d 15 ba fc 46 f3 3c 3a 23 3e bc
       -0.020848684 -0.00056883116 0.029696934 -0.011605078
0003b0 4a 0f e7 3a fd c5 7b bd 3c e4 45 3d 39 57 0e bd
       0.0017628458 -0.061468113 0.048313364 -0.03475115
0003c0 f4 ca 8f 3b 25 19 f8 3c fe 70 bd 3b d1 f3 a3 3d
       0.0043882076 0.030285427 0.005781292 0.08005489
0003d0 40 fc f2 3b d4 f5 d5 3d 44 29 c3 3c 0a 11 28 bc
       0.0074153244 0.104472786 0.023823388 -0.010257969
0003e0 91 d2 14 bd 52 8f d0 3b 96 a9 38 3d 7f e7 48 3c
       -0.036333624 0.0063647414 0.045083605 0.012262224
0003f0 8a b4 64 bc 4d 62 82 3d f6 ca 96 3c fb 77 e1 ba
       -0.0139590595 0.06366406 0.018407326 -0.0017201895

network_body.linear_encoder.seq_layers.0.weight f4 [256, 19]
000000 62 79 49 bd 06 7d 8c be cb 78 a5 3d b8 ec 4f 3e
       -0.049188025 -0.27439135 0.0807968 0.20305145
000010 84 36 9f 3e 2b 24 90 bc c7 3e a3 3d 17 c3 30 be
       0.3109628 -0.017595371 0.07970958 -0.17261921
000020 ec 5f 5d 3e 6c 92 b3 3d 0e 27 89 3d c6 dc a9 3d
       0.21618623 0.08768162 0.06696902 0.08294062
000030 ba 2c b3 3d 18 4e 09 bc 33 6f ad bd c9 00 32 be
       0.08748765 -0.008380435 -0.08468475 -0.17383112
000040 30 b0 8f 3d ac ff 08 be 89 d5 03 3e 9b 8d 01 be
       0.07016027 -0.13378781 0.12874426 -0.12651674
000050 0a 30 5a bd 80 d7 ce bc 9a d8 54 3e 62 aa 61 be
       -0.05326847 -0.025249243 0.20785752 -0.22037652
000060 65 97 3c 3e cd 24 9c 3e 60 c0 29 bd 54 15 22 3e
       0.18417127 0.30496827 -0.04144323 0.15828449
000070 90 85 da bd 0f da 5f bd 3d 95 db 3d 62 e9 ae 3e
       -0.10670006 -0.054651316 0.10721824 0.34162432
000080 45 97 df 3e 50 78 40 be e5 7c 4d be 40 64 a0 3e
       0.43670097 -0.18795896 -0.20067175 0.31326485
000090 0b 91 47 3d b5 2b 69 3e b1 dc 4e 3e ad 5a 11 be
       0.048722308 0.22770579 0.20201375 -0.14194746
0000a0 a1 09 75 be c4 cf f4 3d 47 a8 95 3e d0 fa c4 be
       -0.23929454 0.11953691 0.29229948 -0.38472605
0000b0 9f a0 a6 be 24 ce df bc a2 c0 03 be d2 da 9a 3e
       -0.3254442 -0.027319975 -0.12866452 0.30245072
0000c0 2a 2c c0 bd c4 a8 a8 bd e6 04 34 3e 7b e2 e0 be
       -0.093834236 -0.082353145 0.17579994 -0.4392279
0000d0 2c 5d 78 be 43 3e d6 bc 90 28 fb be 18 74 bd 3e
       -0.24254292 -0.026152736 -0.49054384 0.37002635
0000e0 45 76 cd 3e 05 e9 9d 3e 1a 96 c6 be e7 18 16 3e
       0.40129295 0.30841842 -0.38786393 0.14657937
0000f0 e3 83 b3 be a4 65 8c be b3 a5 68 be b5 ab 0d 3f
       -0.3506156 -0.27421296 -0.22719459 0.5534013
000100 2a fc a4 be 4e d1 58 be 6d 3b db 3b af 4d 0a 3d
       -0.32223636 -0.21173593 0.0066904337 0.03376549
000110 8e 3f 50 3d 53 b6 9b 3e 0d 31 a1 3c 1d 6a cd be
       0.05084186 0.3041254 0.01967671 -0.4012002
000120 ca 48 1e 3e 02 3d b6 be bd a9 06 be 62 60 dd 3e
       0.15457454 -0.3559342 -0.13150688 0.43237597
000130 85 8d 06 bf b3 71 bf 3d 0d e9 d7 3e 5c 81 d1 be
       -0.5255969 0.09347858 0.4216999 -0.40919006
000140 04 8e 13 be 5b b5 7a be 5c 8c 17 bc 46 27 95 be
       -0.14409643 -0.24483244 -0.009249773 -0.29131526
000150 56 07 1d 3d 94 c0 a8 be 79 cf 85 be 34 e4 36 3e
       0.038337074 -0.32959425 -0.26134852 0.1786049
000160 60 2b 92 be 3a 1e 91 be 4f 41 28 3d 81 1e 84 3d
       -0.28548717 -0.28343374 0.041077908 0.06451131
000170 12 6d a2 3e 5d 80 44 3d b3 4a 45 bd d4 d7 44 be
       0.3172384 0.04797398 -0.04816694 -0.19222957
000180 5f c3 ac 3d 22 b1 a1 3d 32 ce 89 be 8f ae 76 be
       0.084357016 0.078951135 -0.26915127 -0.24090026
000190 1f a4 dd 3e 77 87 28 bf 1e 03 82 3e 30 23 bd 3c
       0.43289277 -0.658317 0.25393003 0.023088068
0001a0 35 a9 9c 3e 33 e7 fd 3d 7e 47 54 be 6c 53 05 be
       0.30597845 0.123976134 -0.20730397 -0.13020104
0001b0 72 ae 37 3f fe 83 56 3e b3 23 88 3e 24 ed 31 be
       0.7175056 0.20948789 0.26589736 -0.17375618
0001c0 fe b6 54 3e 59 a3 6d 3e bb b3 5d 3e 6f f7 98 bc
       0.20772931 0.23206843 0.21650593 -0.018672673
0001d0 b8 60 4a be 5d 95 f9 3d d5 4e f5 3d 10 ad a3 3d
       -0.19763458 0.12186692 0.11977927 0.079919934
0001e0 6f 4d 1a bc 5d 74 e0 3e 7c 84 99 3c bd b2 6d 3e
       -0.009417876 0.43838778 0.018739931 0.23212714
0001f0 37 9c 42 3d e5 d8 06 3e 27 f1 6e be a9 13 24 be
       0.04751226 0.13168676 -0.2333418 -0.16023125
000200 0c 79 15 bd 74 d7 8a 3d 82 91 dc 3d bc 43 33 3d
       -0.036492392 0.06779376 0.10769941 0.04376577
000210 25 e0 23 be fe 53 b5 be 22 ee 02 be 6f 58 ef 3e
       -0.16003473 -0.35415643 -0.12786153 0.46747157
000220 f5 58 cd be 1c 27 01 3e 6b dc f8 3d ca 38 6b 3e
       -0.4010693 0.12612575 0.121514164 0.22970882
000230 3b be 83 bd 6f 23 9d 3e ec ed 7f be e3 12 95 3e
       -0.06432768 0.30691096 -0.24993104 0.29115972
000240 ae 71 81 3d 9a 29 44 be 7f 36 a1 bd 10 b4 0c 3e
       0.06320511 -0.19156495 -0.078717224 0.13740563
000250 d0 8e 4f bd 31 d5 d1 bd 94 a7 14 3f 93 a5 b2 be
       -0.050673306 -0.10245741 0.58068204 -0.34891948
000260 db 99 4f 3c cf b1 c8 bd 28 a9 bc 3d 68 dd 6a 3d
       0.012670959 -0.09799539 0.092119515 0.057340056
000270 f9 ed 47 be 2e b3 e1 be 97 17 75 3e ce 50 e8 3d
       -0.19524373 -0.44082016 0.2393478 0.11343537
000280 98 f5 63 be e9 a5 a7 be a9 d5 50 be ff 76 fb be
       -0.22261655 -0.32743767 -0.20394005 -0.49114224
000290 da 20 4e 3e 8a d5 9e 3e f0 c5 ad 3e a6 dc a6 bd
       0.2012972 0.31022292 0.33940077 -0.08147554
0002a0 36 bf 27 be a3 4d 95 be 4a f3 57 3d 19 cd 39 be
       -0.16381535 -0.29160795 0.052722253 -0.18144645
0002b0 4a 23 cd 3e d8 d2 50 be 87 0b c1 bd 2e 67 88 be
       0.40065986 -0.2039293 -0.09426027 -0.2664122
0002c0 b2 99 e6 bd 17 cb 12 3d 02 51 81 be 50 5b c6 bc
       -0.11259784 0.035838213 -0.25257117 -0.024213463
0002d0 f9 b6 59 3e 58 a0 bd 3d 3d d3 a4 bd 85 09 aa bd
       0.21261205 0.09259099 -0.08048103 -0.08302597
0002e0 f8 6b 54 3d c9 53 be be e6 dc dc 3e 98 70 8f 3e
       0.05186078 -0.37173298 0.43137282 0.2801559
0002f0 6a 8f 03 3f 76 48 67 3e fa f8 d1 bd 7a c1 86 be
       0.5139071 0.22586235 -0.10252567 -0.26319486
000300 14 5a 25 be de 26 29 be 33 33 d4 3d c8 10 75 be
       -0.16147643 -0.16518733 0.10361328 -0.23932183
000310 b7 11 3e bd e8 43 28 be d7 ed 5d bd 2d 5b 17 3e
       -0.046403613 -0.16432154 -0.0541819 0.14780875
000320 de b6 aa 3e 56 ae 7c be 45 d4 90 3e c7 82 29 be
       0.33342642 -0.24675879 0.2828695 -0.16553794
000330 c7 2e 16 be 35 8c 18 be 5d c4 a8 be 73 0e 81 bd
       -0.14666282 -0.14897235 -0.32962313 -0.06301584
000340 c5 32 76 3d c4 ce 1d be 50 36 ae 3e e3 bf 9c bd
       0.06010701 -0.15410906 0.34025812 -0.07653787
000350 6d 68 77 bd be 93 16 be 3b 8e 54 3d 95 5c 06 3d
       -0.060402323 -0.14704797 0.051893454 0.032803137
000360 d0 33 4a 3e 98 e8 c6 be 3d 58 d9 3e ff 3f 21 be
       0.19746327 -0.3884933 0.42450133 -0.15747069
000370 45 3e 28 3e ba 97 1c 3e 0b ad 18 3e 72 33 4d 3e
       0.16430004 0.15292254 0.1490976 0.20039156
000380 f2 cb ec bc 20 47 c5 bd 8e 69 b8 3e cf d9 e8 bc
       -0.028905842 -0.09632707 0.36018032 -0.028424172
000390 ee a6 b1 3d f0 ce 86 be ed f5 77 be b7 7c 52 be
       0.086744174 -0.26329756 -0.24214907 -0.20555387
0003a0 de a1 08 3f e3 d7 91 3c b5 f3 3a bb ed 56 2c be
       0.5337199 0.017803138 -0.0028526608 -0.16830035
0003b0 79 37 98 bd ab b5 71 3e 1f ec be 3d 68 9d b6 3a
       -0.074324556 0.23604457 0.0932238 0.0013932409
0003c0 09 5a 73 3e f7 9e b0 be 45 d2 cb 3d 8f 2e 7c be
       0.23764814 -0.3449628 0.09952215 -0.24627136
0003d0 62 75 0d 3f c1 dd f1 3e cb e0 ae 3e bd 06 9a 3e
       0.55257237 0.47239497 0.34155878 0.30083266
0003e0 0f 3b 14 3e f6 e6 40 be 6b 96 a1 3d 08 74 d5 be
       0.14475654 -0.18838105 0.07890018 -0.41690087
0003f0 f0 48 a6 3d 07 6a 07 3f 39 6d 6e 3e 6e 89 48 3e
       0.081193805 0.5289616 0.23283853 0.19583675

network_body.linear_encoder.seq_layers.2.bias f4 [256]
000000 f0 31 60 3c 52 14 11 bc 6f e7 d6 bc 7c 62 7c b6
       0.013683781 -0.008854942 -0.026233403 -3.7608252e-06
000010 79 2a 70 bd 48 f5 9e 3b e2 5c 22 3d 4e ed df bc
       -0.058634255 0.004851017 0.03963936 -0.027334835
000020 1f ee 02 3d de db 29 bd 5f 16 ce bc 4b 9b 03 bc
       0.03196537 -0.041469447 -0.025157152 -0.00803263
000030 26 42 9f bd 97 6a 01 3d e4 03 29 3c 96 96 ac bd
       -0.07776289 0.031595793 0.010315869 -0.084271595
000040 a9 0a 78 3c 18 ac 9e 3c 3a a4 77 bc f2 5c 1b 3b
       0.01513926 0.01936917 -0.015114838 0.0023706523
000050 ea 53 fb 3b c0 7b 95 bc 79 f4 96 bd e8 4e 71 bd
       0.0076699154 -0.018247485 -0.07370848 -0.05891314
000060 76 ac 9b bd 44 f6 fd 3c 8b 6b b5 bb 66 7c be bc
       -0.07601254 0.031001218 -0.0055365018 -0.023252677
000070 66 49 4a bd b3 b5 59 3b d0 a9 9b 3c 3c fb 8d bb
       -0.049386404 0.0033219873 0.019001871 -0.004332928
000080 fc 2c 08 bd 7a 6f bf bc dc 89 41 3d c4 99 97 bc
       -0.033246025 -0.023368586 0.047250614 -0.018505938
000090 9e 67 c9 bc 9f a1 1f bd 63 3e 54 3b 93 78 9b bd
       -0.024585541 -0.038972493 0.0032385818 -0.07591357
0000a0 53 4d ef bd 81 19 82 bd 41 41 13 bc 8c c9 8f bc
       -0.1168467 -0.06352521 -0.008987726 -0.01755216
0000b0 0a ff 1e bd 2c c8 86 bd d0 01 95 3c ca 0b 09 39
       -0.038817443 -0.065811485 0.01818934 0.0001306973
0000c0 0c 0c 9a 3c e9 de dd 3c a6 0e d5 3b fd 1f a7 3b
       0.018804573 0.02708383 0.0065019904 0.005100249
0000d0 c7 ea 46 3b bd 16 a2 bd 39 9c 9b bd 9e df d5 bd
       0.003035234 -0.07914493 -0.075981565 -0.10443042
0000e0 54 66 6e 3c 69 59 9e 3b 58 9c e2 bc b3 54 e4 bb
       0.014550764 0.004832436 -0.027662441 -0.0069681047
0000f0 ee 1f 98 bb 50 ba a1 3b 91 d7 8c bc c2 ca 8b bd
       -0.004642478 0.0049355403 -0.017192634 -0.06825782
000100 67 6d a9 bc 10 2a a4 bd 4d e4 f0 3c 21 d7 08 3d
       -0.02068205 -0.08015835 0.029405737 0.033408288
000110 74 0b b6 bc cf 4c 62 bd 93 53 96 3c 61 70 21 bd
       -0.022222258 -0.05524903 0.018350398 -0.039413814
000120 13 c2 b2 bc 85 e2 20 3c 78 a0 a6 3c 6b 18 32 bc
       -0.021821057 0.009819631 0.02034019 -0.0108700795
000130 c0 43 97 3c 0a 75 14 bd eb f3 df bc 8d 44 59 bd
       0.018464923 -0.03624443 -0.027337989 -0.05304389
000140 64 08 d9 bd c6 bc 85 bc b8 40 86 bc 78 0b 10 bd
       -0.105973035 -0.016325366 -0.016388282 -0.035167187
000150 39 f8 74 3a 42 85 a7 3c 77 e4 88 bb b0 e3 94 3c
       0.00093448494 0.020449284 -0.0041776258 0.018174976
000160 ee 5d 89 bd b7 5c 89 bc 76 55 d4 bd 66 75 da bc
       -0.06707369 -0.016767843 -0.10367863 -0.026667308
000170 b6 ce 70 bd b4 85 7c bb 61 de 8f bc b7 5c 70 bd
       -0.058790885 -0.0038531842 -0.017562093 -0.05868217
000180 b6 27 04 3c 8a 0c 3d 3b 4a 57 32 3c 6f c7 0c 3c
       0.008066108 0.0028846585 0.010885069 0.008592471
000190 6f dd a8 3b 05 30 9c 3a 4e 3a 0b 3d 02 0f 6c ba
       0.00515335 0.0011916166 0.03399115 -0.0009004922
0001a0 b9 fd e9 bc 0e 33 9f 3c e5 b9 5f bd 15 49 d2 bc
       -0.028563367 0.019433524 -0.054620642 -0.025669614
0001b0 34 ba d1 bc 54 e8 94 bd 05 ad 75 39 5e 48 30 bd
       -0.025601484 -0.072708756 0.00023429476 -0.043037765
0001c0 5d fb 3c 3c fa 99 f0 bc 19 b6 9b 3b 5c b0 3e bd
       0.011534539 -0.029370297 0.0047519323 -0.04655491
0001d0 57 07 83 bd 7e ba aa bd 68 1e 20 bd 96 05 8f bd
       -0.06397884 -0.08336352 -0.039091498 -0.06983487
0001e0 0b 07 e8 bc b5 1f af 3c b5 cb ca 3c d0 42 a7 bd
       -0.02832367 0.021377424 0.024755338 -0.0816704
0001f0 df f9 9d 3b da 6a 33 bc 25 cc 0f 3d f5 88 7e ba
       0.0048210467 -0.010950768 0.035106797 -0.0009709739
000200 29 7f b9 bb 1b b6 15 bc b7 ea 92 bc ae 4b c6 bc
       -0.0056609106 -0.009137656 -0.017934186 -0.024206009
000210 d2 e3 7d bd 16 25 e1 3c 1e ac 50 3a 24 81 d7 bc
       -0.061984845 0.027483504 0.0007960218 -0.026306696
000220 34 ce 58 bc ac 93 b8 3c bb de bd bc 37 63 2d 3c
       -0.013232756 0.022531353 -0.023177495 0.010582737
000230 08 12 84 bd 6b e8 df 3c 75 8c 0f bd 4c ef b7 3c
       -0.06448752 0.027332505 -0.03504606 0.022452973
000240 ba 3b 59 bc ae 2d 3b bd e6 2f c7 bd 0d 66 b8 bc
       -0.013258869 -0.04569786 -0.09725933 -0.0225096
000250 dd 65 19 bc 31 b3 a5 3c b8 5a a1 bc 44 73 ee bc
       -0.009362665 0.020227047 -0.019696578 -0.029107697
000260 e9 8c ec 3b f6 06 19 ba b7 96 81 bd e9 80 d7 3c
       0.0072189462 -0.0005837524 -0.06327575 0.026306586
000270 c9 b1 cd 3c 13 1b 8e bc 1a df b7 bc 20 30 84 bb
       0.025109189 -0.017346894 -0.02244525 -0.0040340573
000280 68 94 96 bd 5b 12 ec bd 00 db b2 3b eb f9 9c b9
       -0.07352525 -0.115269385 0.0054582357 -0.00029940842
000290 d8 6b 6b bd 2c 3e de 3c 9d f8 b2 3c 08 c6 14 3d
       -0.057475895 0.027129255 0.021847064 0.03632167
0002a0 43 47 23 3d 8d 2e ff bd 1f 58 d4 bb 4b b7 9b bd
       0.039862882 -0.12460051 -0.0064802314 -0.0760332
0002b0 b3 a0 82 bd cc 59 ea bd fb e9 68 bc 2a 92 b5 bc
       -0.06378307 -0.11442909 -0.014215942 -0.022164423
0002c0 d9 7a 1a 3a 8b c2 d4 bb d9 7d f6 bc 82 48 15 bd
       0.00058929395 -0.006492918 -0.030089306 -0.036446102
0002d0 87 4b 31 bd 46 b8 c9 bc ba 6d 2d bd 26 68 b5 bb
       -0.04328492 -0.024624001 -0.04234097 -0.005536097
0002e0 d6 f9 e7 bb 26 8a 01 3c fb b1 41 3d ad a9 ae 3c
       -0.0070793433 0.007906472 0.047288876 0.021321142
0002f0 bd 01 d7 ba 85 fa 29 bb 5f f7 d4 bc 3a ff e2 bd
       -0.0016403716 -0.0025936675 -0.025996862 -0.11083837
000300 c3 cc 91 bc ec 6e 70 3c c5 74 03 bd ed 78 45 bd
       -0.017797833 0.014674883 -0.032093782 -0.048211027
000310 c1 b9 1d bd 93 96 e4 bd 5f af c8 3c 16 3e 88 3b
       -0.038507227 -0.11161532 0.024497686 0.004157792
000320 81 99 d8 3c e8 6a 95 bc 83 91 3b bc 50 c0 c3 bb
       0.026440384 -0.018239453 -0.011448267 -0.005973853
000330 d9 6d e6 3c 79 b1 66 bd 89 a8 64 bc 87 1e 40 bc
       0.028128551 -0.056321595 -0.013956198 -0.011726028
000340 45 df 04 3d 0f ef cd 3c 25 67 71 bd 4d 86 76 bd
       0.03243949 0.025138406 -0.058936257 -0.060186673
000350 30 44 e9 bb e2 e5 64 bd a9 ef 82 bd 1c 03 6f 3a
       -0.0071187243 -0.055883296 -0.06393368 0.000911759
000360 c0 75 9f bc 6a 11 04 3d 4a 97 94 bc ae 2d 85 bd
       -0.019465327 0.03224317 -0.018138546 -0.06502853
000370 ba 4a b4 bc 53 e2 66 bc 0c 29 42 3c c4 50 7f bc
       -0.022008289 -0.014092046 0.011850607 -0.015583221
000380 cb ae a8 bc e7 47 8d 39 aa 86 8d bd d6 8e 16 3d
       -0.02059116 0.00026947187 -0.06910451 0.036757313
000390 4f 2d 75 3a 12 79 7c bd 0e dd 04 bd 33 b3 c2 bc
       0.000935276 -0.0616389 -0.032437377 -0.02376709
0003a0 66 ae 81 b9 91 13 ac 3c 2d aa 19 3d 6d 6f 6c 3b
       -0.00024734734 0.021005424 0.037515808 0.0036077157
0003b0 a3 d2 bb bb fc 6c be bd fe 0a 40 3c e3 c8 3b bd
       -0.005731897 -0.09298131 0.011721371 -0.045845877
0003c0 8d ad 2c 3c 60 65 32 3d 16 94 48 bc 0c e2 97 bc
       0.010539425 0.04355371 -0.012242338 -0.018540405
0003d0 22 48 2f bd 46 40 5d bb 12 cf 8c bc dd f3 e6 3c
       -0.0427934 -0.0033760234 -0.017188583 0.028192455
0003e0 26 7c e1 bd 76 50 ff 3c 1a 53 af bd b1 92 14 3d
       -0.110100076 0.031166296 -0.08560772 0.03627271
0003f0 6d 6f 48 bd d6 da 16 3d a7 cd 99 3c 48 2f 88 bb
       -0.04893439 0.036829792 0.01877482 -0.004156027

network_body.linear_encoder.seq_layers.2.weight f4 [256, 256]
000000 d6 e2 5c bd 58 f1 e6 bd ba 3e 28 bd ef bb 6c bd
       -0.053927265 -0.112765014 -0.041075446 -0.057796415
000010 9e 5b 18 3d ac 52 33 bd 81 e3 c2 3c 30 98 34 3c
       0.037196748 -0.043780014 0.023790123 0.011022612
000020 2e ba 02 3e 8d e9 4f bd 73 b0 b2 bd 8b 2f 1d bd
       0.12766334 -0.05075984 -0.08725061 -0.03837542
000030 2d c9 77 3c 8a 6d 78 bd b4 af c5 3c b1 d8 5b bd
       0.015123648 -0.06065134 0.024131633 -0.05367345
000040 68 f9 b4 3c b4 a4 a7 bd 77 4d 92 3d 65 9f a1 bd
       0.022091582 -0.081857115 0.071436815 -0.0789173
000050 ef 1e ad 3d 8c 96 d8 bd 9c 55 b8 3c 15 3c 4d bd
       0.08453166 -0.105755895 0.02250176 -0.050106127
000060 58 1b 17 bd 8e f0 f8 3c 9e 0e 6a bd 5a db 42 bd
       -0.03689131 0.030388143 -0.057142846 -0.04757247
000070 23 3d 15 3d 63 99 68 bd 9d 59 4d be 7d f7 c7 3b
       0.036435258 -0.056786906 -0.20053716 0.006102501
000080 39 2c f5 3b 85 fa 9f 3d e5 e2 8c bd 87 68 80 bb
       0.0074820784 0.07811455 -0.06879214 -0.0039187106
000090 7b db 59 3d c1 8a b5 bd f3 af cc 3d 01 cb b7 3b
       0.05318783 -0.08864356 0.09994497 0.0056089167
0000a0 b3 57 30 3d 9d a2 a9 bd 92 5b ab 3d 26 8f 8c 3c
       0.043052386 -0.08282969 0.08367075 0.017158102
0000b0 31 2a 02 3e f1 a7 36 bd b9 da ce 3d 61 7e e3 bd
       0.12711407 -0.044593755 0.10100312 -0.11108089
0000c0 e7 b2 da 3d cf 89 4d 3d 1b 9a 1a bb ce 50 9d 3d
       0.10678654 0.050180253 -0.002359039 0.07681428
0000d0 a5 fc 01 bd e4 e3 38 bd 22 ea b3 3c 91 dd d3 bd
       -0.03173508 -0.04513921 0.02196223 -0.10344995
0000e0 4b 1e 35 bd 82 c8 94 3c 16 3e df bd bd f1 32 3d
       -0.044218343 0.018162016 -0.10900514 0.04368757
0000f0 8c bb 7b 3c cf 27 b4 bd d7 f0 7c 3d 0b 02 26 be
       0.015364539 -0.087966554 0.06175312 -0.16211717
000100 67 93 52 3d 84 71 5a bd 71 c6 1b bc 6c 5e 46 be
       0.051410105 -0.053330913 -0.009507761 -0.19371957
000110 0c e2 e4 3d 42 ec 62 bc 1f 09 06 bd 23 21 5e bd
       0.111759275 -0.013850274 -0.032723542 -0.05423082
000120 eb 35 50 3e 93 62 8f 3c 63 6a 8a bd 54 de c0 bd
       0.20333068 0.017503059 -0.06758573 -0.09417406
000130 04 e0 99 3d 0c fd ed bd de 77 05 bd 56 37 d7 3d
       0.07513431 -0.116205305 -0.032585017 0.10508601
000140 af 1b 5b 3c 60 22 45 3d 95 5d 2f 3d f1 a8 50 3d
       0.0133732995 0.048128486 0.042813856 0.050942365
000150 cb e1 78 3d 5d 9d da 3d 97 f0 2c 3e 15 ef 20 bd
       0.060762208 0.10674546 0.16888653 -0.039290506
000160 79 36 75 bc 3b 4b c3 3d 3a c9 bf bc 0e c7 22 bd
       -0.014966601 0.095358334 -0.023411382 -0.039740615
000170 34 21 c6 3d 4e c7 47 3d 17 ab b3 3c e8 aa 1d bd
       0.09674302 0.048774056 0.021932168 -0.038493067
000180 64 c5 0a be d3 c8 cd bd 2b ec a9 3c c6 66 42 3b
       -0.13551861 -0.1004807 0.020742496 0.0029663309
000190 9d 21 91 3d ac ff 51 bd 74 fe df bd 07 98 2c bd
       0.07086489 -0.05126922 -0.10937205 -0.042137172
0001a0 26 a3 64 3e a5 0f 94 3c 63 78 4f 3c 3d ce f6 bb
       0.22327861 0.018073866 0.01266298 -0.0075319097
0001b0 3f da bd 3c 46 85 03 3e d3 a3 ae 3d d6 33 7b bd
       0.023175357 0.12843809 0.08527341 -0.06132873
0001c0 db aa 34 3c d7 0f 3a 3d d1 0b c8 3d fb f8 77 3d
       0.011027063 0.045425262 0.09767879 0.06054018
0001d0 f3 48 87 3d d0 43 b3 bd a0 40 43 ba a4 67 db 3d
       0.06605711 -0.087531686 -0.00074482895 0.10713127
0001e0 9f db 16 bc d2 1b 17 3e ca f4 4b 3d 47 70 b5 3d
       -0.009207635 0.14756706 0.049793996 0.08859306
0001f0 86 e5 1c bd d2 d3 90 bd 1a da 7c 3e 54 28 a2 3d
       -0.038304828 -0.070716515 0.24692574 0.07917848
000200 84 fb d6 bb f9 55 06 bd 7b 7c 5d 3d 60 af 03 be
       -0.0065607447 -0.032796834 0.054073792 -0.12859869
000210 37 fa 32 bc 89 8a 30 bc a6 8b 0a be 67 6e fc 3d
       -0.010923914 -0.010775217 -0.13529834 0.12325745
000220 cc 2e 09 bd 5d 99 37 bd 0a 6a 24 3e 04 de bc bd
       -0.033491895 -0.044823993 0.16056076 -0.092220336
000230 fd f4 1f be ba 2c d3 bd 79 a6 5d 3d dd 92 66 3d
       -0.156208 -0.10311265 0.05411384 0.056292403
000240 45 6e a0 bd 6c d9 6c 3c 8a 7c c6 3c 6e 90 22 3c
       -0.07833532 0.014456134 0.024229307 0.00992213
000250 4e dd 86 bc 28 43 4a 3b 3f c5 7c bd 00 e1 c2 bd
       -0.016462948 0.0030862782 -0.061711546 -0.095155716
000260 f9 a7 1b 3e b2 79 dd 3d 0a 78 95 3d a0 3e 48 3d
       0.15200795 0.10814227 0.07298286 0.04888785
000270 ce 4b fe 3c 4e 39 dc bd 41 9a 83 bd 3a 90 06 bd
       0.031042006 -0.107531175 -0.06425906 -0.03285239
000280 1c 04 26 bd ab 65 27 bd 12 39 05 be 76 6e 7f bd
       -0.040531263 -0.040868443 -0.13010052 -0.062361203
000290 ba 88 3d 3d 30 c0 00 be ed f8 82 3d f7 f4 f1 3d
       0.04627297 -0.12573314 0.06395135 0.118143015
0002a0 c4 b9 85 3d 50 50 dc bd 49 6c 6d 3d b7 b9 e4 bd
       0.065295726 -0.10757506 0.057964597 -0.11168235
0002b0 23 e6 ed bd b0 00 a7 bd d0 97 23 be a4 7a 25 3d
       -0.11616161 -0.08154428 -0.1597588 0.040400162
0002c0 76 d0 82 3d 75 74 13 bd 82 2b 0b bc 1c a2 8c 3e
       0.06387417 -0.035999734 -0.00849426 0.2746743
0002d0 ce e7 11 be 1f 82 e1 bc 09 39 6c bc 3e 91 54 3d
       -0.14248583 -0.027527867 -0.014417895 0.051896326
0002e0 3c 8e 07 be 33 91 d3 3d 33 b1 64 3b 60 92 23 3e
       -0.13237852 0.10330429 0.0034895658 0.15973806
0002f0 c1 51 d9 3c 2a 05 d1 3d d1 84 a4 bc c0 75 4f bc
       0.026528241 0.10206063 -0.020082863 -0.012662351
000300 6a e4 b8 bd 3e 5c 2b bd c3 39 3e 3c 12 89 f9 bb
       -0.090279415 -0.041836016 0.011610451 -0.007615217
000310 6d 7a 76 bd fd 04 a2 bd bf ff 1a 3d ac 4c 03 be
       -0.060175348 -0.07911108 0.037841555 -0.12822217
000320 44 ab cd 3d 6b 24 ad bd 7f c0 05 bd 26 e8 d4 bd
       0.10042432 -0.08454212 -0.03265428 -0.10395841
000330 15 17 cc bc a7 b5 d4 bd 1c ad e4 3d 9b a7 19 bc
       -0.02491335 -0.1038621 0.111658305 -0.009378339
000340 db cb 22 3d 2c 17 bd 3d e6 4f 05 be 98 e9 73 3b
       0.039745193 0.09232935 -0.1301876 0.003721809
000350 58 45 67 bd 28 4c ed bd 59 ab 7f 3d bb c1 9b 3d
       -0.056462616 -0.11586791 0.06241927 0.076053105
000360 1f fd 33 3e ca 02 d1 3c 5c 70 8d bc b5 9c c7 bd
       0.17577027 0.025514025 -0.017265491 -0.09746686
000370 f6 1e b7 bd 97 db 41 3c a2 01 26 3d 50 71 20 bd
       -0.08941452 0.011832139 0.0405289 -0.039170563
000380 55 d9 46 bd 4e 20 28 be b9 51 d0 bd 4e bb 8f bd
       -0.048547108 -0.16418573 -0.10171837 -0.070181474
000390 e2 ee e9 bd 6a 0d 2a 3b 32 b3 f2 3d f0 6e e0 bd
       -0.114225164 0.0025947937 0.11850585 -0.1095866
0003a0 66 2f 77 3e 1f aa 38 3d c1 56 a2 3d 7d 37 b8 3c
       0.24139175 0.045084115 0.07926703 0.022487396
0003b0 6f 97 5e bd 8a 5f 4a bd 7a 69 6e 3e 62 51 aa 3d
       -0.054343637 -0.04940752 0.23282424 0.08316304
0003c0 95 e2 16 3d 73 85 f4 3d c6 22 08 3e 94 79 4f bd
       0.03683718 0.11939516 0.13294515 -0.050653055
0003d0 f0 53 95 3d b5 6a 96 ba a5 94 aa bc f1 2d a4 3d
       0.072914004 -0.0011475893 -0.020822832 0.08016575
0003e0 19 5b aa 3d 33 2a 07 be 12 61 ef 3c ea 9f 4b 3d
       0.08318157 -0.13199691 0.029221091 0.049713053
0003f0 61 a4 6c bd df e9 a8 bd 71 ca 05 bd 75 2a 13 bd
       -0.05777395 -0.08247732 -0.032663766 -0.035929162

network_body.linear_encoder.seq_layers.4.bias f4 [256]
000000 e6 01 64 bd 86 3e bb bc 08 1e 80 bc 22 b1 81 bd
       -0.055665873 -0.022856962 -0.01563932 -0.063326135
000010 ea d7 e3 3b d1 a9 63 3d 04 04 cc bc 5a 0f 01 bd
       0.006953229 0.05558187 -0.024904259 -0.03150878
000020 0b 13 69 3d 67 a1 0a bc 43 6c ad bc 07 5e 90 3c
       0.056902926 -0.008461333 -0.021169787 0.01762296
000030 4f af ef bc b3 f7 67 bc 82 9f ad 3c 37 ae 3b bd
       -0.029258398 -0.014158177 0.021194223 -0.04582044
000040 2e 36 93 bc d1 87 36 bd 20 a3 1d bd 56 e4 76 3d
       -0.01797017 -0.04456312 -0.038485646 0.060276352
000050 c1 9a c6 bc d0 a7 46 bd fd 59 e6 bb b3 23 5f 3c
       -0.024243714 -0.048499882 -0.0070297704 0.013619351
000060 1c 2c 5a bb aa 67 64 3d f6 85 1a bd fc 5d 2a 3d
       -0.0033290451 0.055762924 -0.03772541 0.041593537
000070 5d 98 b9 ba 9a 82 23 bc 0e 92 93 bc 76 1a 4a 3c
       -0.0014159788 -0.009979868 -0.01801398 0.01233541
000080 3b 54 23 bc 4a 4f 48 3c 88 37 2e bd e4 31 05 bd
       -0.009968813 0.012225935 -0.042533427 -0.032518283
000090 0e f5 5f bd 1e 49 7b bd 5d 5b 85 3d 87 a1 bd 3c
       -0.05467706 -0.061349027 0.06511567 0.023148311
0000a0 ce 50 ab bc c2 68 51 bd 90 35 ce bc e6 c8 a7 bc
       -0.020912554 -0.051125295 -0.025172025 -0.020481538
0000b0 c8 0a 7f 3d 35 1b fb 3b 40 0a 62 3c 50 0a 85 bd
       0.06226614 0.0076631554 0.013796389 -0.064961076
0000c0 82 50 21 3d 9a 25 16 3b 0a 83 05 bd 76 89 96 bd
       0.03938342 0.0022910596 -0.03259567 -0.07350437
0000d0 61 71 8b bb 0b 59 ab 3c 74 66 dc ba 30 fa 64 3c
       -0.004255459 0.020916482 -0.0016815201 0.013975665
0000e0 b5 38 a9 bc a5 5c 3a 3c 2f 87 a3 bc 88 11 2a 3d
       -0.020656923 0.011374627 -0.019961921 0.041520625
0000f0 96 50 ca bc 0e 12 42 3c 6c f3 af bd b2 cc 5a bc
       -0.02469663 0.011845125 -0.08591351 -0.013354467
000100 5e 11 97 bd 9b 96 87 bc 6b 19 50 3d b1 2f a4 bc
       -0.073763594 -0.016551306 0.05080549 -0.020042272
000110 90 00 68 3d 81 3b 87 bd e0 22 83 3b 78 18 3c 3c
       0.05664116 -0.06603146 0.00400196 0.011480443
000120 8f 5c d3 3b a1 4f 9d bd ef f9 82 3b 97 22 94 bd
       0.006450243 -0.07681204 0.0039970796 -0.0723316
000130 d9 c6 56 bc 4d ec 18 3d 58 e8 51 3b 7d d1 ba bc
       -0.013108932 0.03733473 0.0032029357 -0.02280497
000140 d8 52 d1 bc c7 71 81 bd 56 b9 aa 3c 5b b8 24 3d
       -0.025552198 -0.063205294 0.020840328 0.040214878
000150 44 d4 61 3b 98 19 0a bd 6f 32 b9 3c 4d c1 8a bd
       0.0034458796 -0.033715814 0.022607056 -0.067751504
000160 67 23 8f bd 33 57 a8 3c 5c 97 a8 bb c9 69 f5 3c
       -0.06989174 0.020549392 -0.0051449966 0.029957669
000170 26 d4 8a 3c 94 ac 90 bc 78 5c 6f 3d d2 e6 8b bc
       0.016946863 -0.017660417 0.058437794 -0.017077837
000180 3b 1c 25 bd 79 b5 c1 bc 76 4c aa bd 38 57 50 bd
       -0.040310126 -0.023646103 -0.08315365 -0.05086443
000190 09 1a 4c bc d3 a9 42 3c 47 c0 77 bd 2c 9c f6 bc
       -0.012457379 0.01188131 -0.060486104 -0.030103765
0001a0 fd f8 e2 3b 81 b7 33 3d c5 49 26 3d 4c 52 24 bd
       0.0069266544 0.043876175 0.040597696 -0.040117547
0001b0 12 2b 06 3d 12 3d 92 3d 84 0e af 3c b8 45 25 3c
       0.03275592 0.071405545 0.021369226 0.010087423
0001c0 8a e5 8d bc 11 ff f9 bb 89 3c 3d ba bb f9 43 bd
       -0.017321367 -0.0076292832 -0.0007218798 -0.047845583
0001d0 7c 3b e2 bc f0 26 25 bb 22 c6 ed bc 13 b5 8d 3d
       -0.027616255 -0.002520021 -0.029025141 0.06919303
0001e0 85 54 1e bd f0 24 fc bc 62 38 d1 3c 3e c0 63 3d
       -0.038654823 -0.030779332 0.02553958 0.05560326
0001f0 68 7c 7e 3d a9 12 0f 3c a7 43 ce 3b ef 4d 0e bc
       0.06213036 0.008732476 0.006294686 -0.008685573
000200 e3 5a 13 bd 76 f8 ab 3c e3 c7 c6 3b bd 11 4b bc
       -0.03597535 0.020992499 0.006066309 -0.012394366
000210 83 11 69 3c 3b 62 1c ba 9f f1 c4 3c 61 eb 9e bd
       0.0142253665 -0.0005965565 0.024040995 -0.07759739
000220 85 a0 96 bc e8 26 10 bd ba 90 fa bc a3 4a 87 bc
       -0.018387089 -0.035193354 -0.03058659 -0.016515082
000230 02 05 a6 bc 57 8a ed 3c 6e 75 bb bb ad fa b9 ba
       -0.02026606 0.02899663 -0.005720786 -0.0014189087
000240 ed d8 86 bc a7 72 50 bc 71 e0 91 bc 0f 07 13 3c
       -0.01646086 -0.012722648 -0.017807217 0.008973851
000250 65 ef 58 3b ac ca 33 bc ec e2 8c bb 5b ed 5c bd
       0.0033101675 -0.010973614 -0.004299512 -0.053937297
000260 8d 46 5a ba 15 f2 cf bc e7 a9 b6 bc bc 03 0e bd
       -0.0008326553 -0.025383988 -0.022297813 -0.03467153
000270 d1 83 27 bb 74 48 aa bc ca 85 c7 3c d1 a6 99 3c
       -0.0025560746 -0.020786501 0.024355788 0.018756302
000280 84 4f 6f bd 05 3b 01 bd 22 c4 a3 b9 9e 24 0e bd
       -0.05842544 -0.031550426 -0.00031235913 -0.03470289
000290 7f 79 df 3a ec 95 03 bd 45 61 24 bd af b6 f7 bc
       0.0017049758 -0.0321254 -0.040131826 -0.030238478
0002a0 d0 00 2f 3d 0f 0f b1 bd 2a 44 31 bb e5 36 e5 3c
       0.042725384 -0.0864545 -0.0027048686 0.027980277
0002b0 29 f2 9a bb 54 46 57 ba 0f f9 99 bc 40 29 bd bc
       -0.004728575 -0.0008212079 -0.018795518 -0.023090959
0002c0 d4 ee 86 3a 9f 9b 41 3c 41 e7 84 bc 8d 5c d4 3c
       0.0010294565 0.011816888 -0.016223552 0.025923038
0002d0 23 43 ca 3c bb 09 04 bd 36 73 1d bb aa b1 14 bd
       0.024690216 -0.032235842 -0.002402497 -0.036302246
0002e0 59 89 be bc 58 d0 ff 3c 51 16 75 bc e8 ce 58 3d
       -0.023258852 0.031227276 -0.014958934 0.052931696
0002f0 a6 3a 3b bd f8 47 d2 bc 87 5f 99 bd a9 f7 28 3c
       -0.04571023 -0.025669083 -0.074889235 0.010312953
000300 ae eb d6 bc 3c 06 a9 3c 17 9e af bc 99 38 9c bd
       -0.026235428 0.020632856 -0.021437688 -0.07627983
000310 aa 64 71 bd 60 48 a6 bc 8b 6e a4 3c ed cf ee 3c
       -0.05893389 -0.020298183 0.020072242 0.029151881
000320 86 f9 21 3d de 85 05 bd 90 72 3d bd 9c 40 10 3d
       0.039544605 -0.03259837 -0.046251833 0.035217866
000330 92 85 9b 3d c7 6d 77 bd 6c c2 d1 bc d7 e1 19 bd
       0.07593836 -0.060407426 -0.025605403 -0.037568893
000340 ee e3 be bc 66 c2 2a bd f7 cf 9e 3b fe 0b 1f bc
       -0.023302045 -0.0416893 0.0048465687 -0.009707449
000350 ce f5 82 3c bc 9b 02 bd b3 73 58 bd 35 e6 ce bc
       0.01598635 -0.0318868 -0.052844714 -0.025256256
000360 09 10 81 bc 0a 3e ab 3c 42 ff af 3c 21 e3 3c bd
       -0.015754716 0.020903606 0.021484021 -0.046115045
000370 b7 bc 31 3d f2 54 a5 3b a6 1c 82 bd dc b0 eb bc
       0.043392863 0.0050455267 -0.063531205 -0.028770857
000380 40 18 97 bd 63 e7 88 3c c7 cc b4 bc 5d 2e 99 bc
       -0.07377672 0.016711896 -0.022070302 -0.018698866
000390 d3 fd 60 3d 7c 02 d4 ba 8b fb 4a bd bd 70 60 bc
       0.054929566 -0.0016175057 -0.049556296 -0.013698754
0003a0 65 7d 11 3d fe 8d 78 bb df 70 93 ba 02 7e 38 bc
       0.035519976 -0.003792643 -0.0011248848 -0.011260511
0003b0 70 ee 09 3c 27 35 a9 bc ee e1 00 3d 95 91 6b bd
       0.008418664 -0.020655228 0.031465463 -0.057511885
0003c0 57 c4 c8 3c 66 27 e6 bc ae 15 88 3c 58 1a d9 3b
       0.024507685 -0.028094959 0.0166119 0.006625455
0003d0 5a 50 00 3d 3e 21 ce 3c 0c 60 15 bd 7c 50 54 3c
       0.03132663 0.025162335 -0.03646855 0.012958642
0003e0 1a 74 84 bc 75 75 9b bd ce 1f 94 bc 00 f8 af bc
       -0.016168643 -0.075907625 -0.018081572 -0.02148056
0003f0 1e 89 09 3d a9 f4 b1 bc 59 d9 e0 3c 8c 98 52 bd
       0.03357803 -0.021723108 0.02744739 -0.05141501
