results/rdesktop_run_002/Robotarm/Robotarm-8999939.onnx (onnx, 554549 bytes, 9 tensors)

action_model._continuous_distribution.log_sigma f4 [1, 5]
000000 8c 2d 6f c0 56 b0 45 c0 1e 20 46 c0 f0 4d 92 bf
       -3.737155 -3.0888877 -3.0957103 -1.1430035
000010 23 c6 72 bf
       -0.9483358

action_model._continuous_distribution.mu.bias f4 [5]
000000 00 de 48 3d aa 80 a4 3c 74 ec 0c bd 22 04 6d bd
       0.04903984 0.020080883 -0.034405187 -0.05786527
000010 d5 18 90 3c
       0.017589966

action_model._continuous_distribution.mu.weight f4 [5, 256]
000000 62 cf 6f bc f9 08 07 bd 5d eb 8c bc 18 16 cf 39
       -0.014636846 -0.03296754 -0.017202074 0.00039498578
000010 da 08 99 3c 25 11 62 3d 48 69 73 bb 5a 2a 76 bc
       0.018680979 0.05519213 -0.003714161 -0.015024746
000020 f9 0a 33 bc 52 83 51 ba c9 ae b8 bc 44 77 be 39
       -0.010927909 -0.00079922855 -0.022544282 0.00036328484
000030 98 f1 95 bc 0f bd 96 3c 4d b4 46 3b 2d 8b ad bc
       -0.018303677 0.018400697 0.003031987 -0.021184528
000040 d1 b4 1d bc c3 89 6a bc 14 ca a7 bb 0e f0 a5 3c
       -0.0096256295 -0.0143150715 -0.005120525 0.020256069
000050 2a ea 2e bc 90 db fe bc 54 fc da bc b1 ba aa 3b
       -0.010675946 -0.031110555 -0.026731648 0.0052102436
000060 7c 47 e0 bc 4a b2 81 3c 1d be ce bc 3b 20 f0 3b
       -0.027377836 0.015832085 -0.025237137 0.007328061
000070 86 ca 1e 3d 86 ed 17 bc 69 74 aa ba c8 56 9c 3c
       0.03876736 -0.009272939 -0.0013004664 0.01908435
000080 5d fa ce bb 77 d9 38 39 26 ca c3 bc 98 5b 25 bd
       -0.0063164667 0.0001762862 -0.023900103 -0.040370554
000090 f1 0b 1e bd b9 d6 96 3c 2f 19 30 3d 6d b8 ab ba
       -0.038585607 0.018412935 0.042992767 -0.0013101228
0000a0 de 80 92 bc 2b 97 dd bc 8a c9 de bc 77 32 d6 bc
       -0.017883714 -0.027049622 -0.02719571 -0.02614711
0000b0 5f 24 85 3c 0c d0 91 3b cf c8 05 bc 75 d5 99 bc
       0.016252695 0.00444985 -0.008165552 -0.018778542
0000c0 24 d5 8f 3c c7 56 12 3c 54 eb f8 bc 16 f6 d9 bc
       0.017557688 0.008931822 -0.03038565 -0.0266066
0000d0 b9 1a 76 bc 1e 20 6d b8 b8 15 2a bc c3 6b a5 3c
       -0.01502102 -5.6535115e-05 -0.010381155 0.020192986
0000e0 54 d6 39 bc d5 47 70 3c e6 27 01 bc 1b 6e 84 3c
       -0.011342604 0.014665564 -0.007883048 0.016165784
0000f0 81 08 8d bc 45 02 63 bb cf 54 ca bc 9f 9b ee bb
       -0.017215969 -0.0034638804 -0.024698643 -0.007281735
000100 8b 88 bc bc f2 64 29 3c ad dc 3f 3c 0c d0 97 3c
       -0.023014328 0.010339009 0.011710328 0.018531822
000110 e6 20 9a 3c 3b dd 29 bc 58 8a 49 b9 9d cd be 3b
       0.018814515 -0.010367687 -0.00019220391 0.005822851
000120 9a 36 0e bd 58 e1 cf bc 5c ae cb b9 33 b9 69 bd
       -0.03472004 -0.025376007 -0.00038849085 -0.057061385
000130 6e 76 6e bc 8f 9e d7 3c d5 6a 19 bd 72 58 0d bd
       -0.014554603 0.026320724 -0.0374554 -0.034508176
000140 60 98 b5 ba 3c f3 e1 ba 2e e5 b2 3b fc f9 81 3b
       -0.0013854615 -0.0017238627 0.0054594493 0.003966568
000150 ad ba a2 bc 4d 25 ca bb f0 81 b3 3b de 44 a0 bc
       -0.019864405 -0.0061689974 0.0054781362 -0.019564088
000160 41 95 1e bd d5 2b 8c bc a4 a4 35 bc 8f 04 20 bb
       -0.03871656 -0.017110744 -0.011086617 -0.002441678
000170 dd 8e 0c 3b 38 c3 06 bd 89 c3 cd 3c 76 41 a0 bc
       0.0021447458 -0.03290102 0.025117652 -0.019562464
000180 95 48 0d ba f2 37 e1 bc 08 11 65 bd 72 99 c0 bc
       -0.0005389539 -0.027492497 -0.055924445 -0.023510668
000190 b0 6f 6a bb e0 46 f7 bb 30 c1 73 bc 65 47 12 bc
       -0.0035772137 -0.0075462908 -0.014877602 -0.008928155
0001a0 50 86 17 3c ca 58 d3 3c 9a b9 a7 3c 73 82 b4 ba
       0.009248331 0.025799174 0.020474244 -0.0013771787
0001b0 a5 0f 40 3d 68 1c b1 3c 5b df 5d 3d d9 93 77 3b
       0.04688992 0.02161999 0.054168086 0.0037777333
0001c0 a0 6c 2f bc aa af 2e bc c2 50 bc bc ff 6b 41 bd
       -0.010707051 -0.010661999 -0.022987727 -0.047222134
0001d0 84 b9 c7 bc 4f 27 56 ba 5d fb d0 3c d9 8a 3a 3c
       -0.024380453 -0.00081693096 0.025510484 0.011385643
0001e0 c8 72 2d bc c2 6f ca bc cf 06 a8 3c 9a 81 f1 3c
       -0.010586448 -0.024711493 0.02051106 0.029480744
0001f0 85 0a 37 3c 08 38 9b bc 6a 2b 23 3d da 46 95 3c
       0.011171942 -0.018947616 0.039836325 0.018222261
000200 bf 2e 7d 3d 43 2e 52 bc 03 21 d0 bb 51 7b fa 3b
       0.06181216 -0.0128284125 -0.0063515916 0.007644095
000210 ff fe 87 3b 5a 42 a4 3c 21 60 34 bb 22 2a 09 bb
       0.004150271 0.02005117 -0.0027523118 -0.0020929654
000220 f1 78 bc bb b1 73 bf bc f6 c5 d0 bc 1e 61 35 bd
       -0.005751722 -0.023370596 -0.02548502 -0.04428207
000230 52 ca 73 bc d0 69 00 bc a2 d8 0c bc 34 41 e5 bb
       -0.01487978 -0.007837728 -0.008596571 -0.006996298
000240 5d 61 ba bb 3c b3 9e ba 5b c6 9b bc 49 6f 0c bc
       -0.005687876 -0.0012107859 -0.019015482 -0.008571454
000250 4a 3b bb ba 95 e4 0b 3c a6 39 9d bc 84 5c e2 bc
       -0.0014284637 0.008538385 -0.019192528 -0.027632006
000260 4c 0e d0 bb d4 c8 52 bb 08 86 9e bc 0b cd 0d bc
       -0.0063493606 -0.003216316 -0.01935102 -0.008654843
000270 16 dc 21 bc 89 bb 03 3d 83 4e f7 ba 74 43 5c 3c
       -0.009879133 0.03216127 -0.0018868003 0.013443816
000280 6f 47 ec bc b1 07 a0 bc 22 ea ae 3b f0 bb fa bc
       -0.028842656 -0.019534918 0.0053379694 -0.030607194
000290 cb 70 b0 bc 25 a6 c7 bc e1 25 e3 bb 26 e2 30 3b
       -0.021538159 -0.024371216 -0.0069320058 0.0026990264
0002a0 3a aa 03 3c 06 43 9a bc 83 37 8a bc 06 6c 95 3c
       0.008036191 -0.018830787 -0.016872173 0.018239986
0002b0 25 51 8b 3b e9 5a 89 3c 8b 36 15 3c 39 5b c7 bc
       0.0042516165 0.016766982 0.009107242 -0.02433549
0002c0 f8 86 8d bc 41 1f 0d bb d6 3c 08 bd 18 8f fe 3c
       -0.017276272 -0.0021533521 -0.033261143 0.031074092
0002d0 ac c4 a9 3c e1 75 06 bd 8d 6f 48 bb af 21 9b 3c
       0.020723663 -0.03282726 -0.0030584068 0.01893696
0002e0 b5 63 3e bb ea 2f 5a ba 08 44 87 bc 48 a9 1a 3b
       -0.002905113 -0.000832318 -0.016511932 0.0023599435
0002f0 c3 dc 9f bc 1b 26 23 bb 6e d3 3f bc 2d 88 b2 3b
       -0.019514447 -0.0024894539 -0.011708124 0.0054483623
000300 05 54 69 bc 83 5a 22 3a 40 5f a2 bc c2 97 c6 bc
       -0.014241223 0.0006193297 -0.01982081 -0.024242286
000310 dd 91 a8 bc 04 9f 86 bc 96 e3 aa 3c 54 21 14 bc
       -0.020577366 -0.016433246 0.020860475 -0.009041149
000320 c7 e7 7f bc 74 c6 89 bb 3c 0a e6 bb 12 bb 67 3c
       -0.015619225 -0.0042045657 -0.007020263 0.014143722
000330 db 21 a9 3c d9 f6 c4 bc 0d 39 5c bc 22 68 86 bc
       0.020646026 -0.024043487 -0.013441336 -0.016407076
000340 51 67 4f bb 7c 9f a1 3c 20 aa 06 bc 91 c6 eb 3b
       -0.0031647275 0.019729368 -0.008219272 0.007195302
000350 e9 db 0d 3b a1 6f 2f bc 06 f8 26 bc 77 b0 bd bc
       0.002164597 -0.010707767 -0.010190969 -0.023155434
000360 15 83 23 bc 56 43 93 b8 5b cb 98 ba de 35 b8 bc
       -0.009979983 -7.0220485e-05 -0.0011657284 -0.022486623
000370 65 78 e0 3c 19 0d 76 3c 9d 67 1f 3a 9c 01 af 3b
       0.027401159 0.015017771 0.0006080808 0.005340768
000380 80 35 af bc a4 36 fb bb 80 2a 8c 3b 71 dd 28 3d
       -0.021387815 -0.007666426 0.0042775273 0.041226808
000390 53 20 ca 3c d7 f8 b2 bb 96 b9 8b bc 83 a9 66 bc
       0.024673617 -0.005461793 -0.017056268 -0.014078501
0003a0 fb 65 20 3d fa cd e0 bb 1a 5f 3e bc 51 d6 79 3c
       0.039159756 -0.006860492 -0.011619354 0.015248851
0003b0 f8 2e 8b 3c ab 21 a9 bc af cc 8e 3c ff 56 a1 bc
       0.01699017 -0.020645937 0.017431585 -0.019694803
0003c0 28 59 21 ba 6e 8c ca 39 9e 33 cd bc 5b e6 cc 3a
       -0.0006154948 0.0003863307 -0.025049027 0.0015632616
0003d0 e7 6e 2a bb c5 e6 bb bb 1d 92 64 3a bd 2a d1 bb
       -0.0026006044 -0.005734297 0.00087192823 -0.0063832686
0003e0 18 6c f3 bb 01 f0 1c bc 86 e9 02 3b a8 cd 03 bd
       -0.0074286573 -0.009578706 0.0019975617 -0.03217855
0003f0 4c 81 ee 3b cc 71 7c bc 02 d5 a5 bb 78 6e b9 bc
       0.007278597 -0.015407991 -0.005060793 -0.022635683

network_body.linear_encoder.seq_layers.0.bias f4 [256]
000000 0b 72 4f bd 14 6c c4 bb 19 d4 62 3b 00 5f e6 3d
       -0.05064587 -0.005994329 0.0034611283 0.112485886
000010 d7 8e 51 3c 39 ae 94 bc d6 3f 2b bc a8 6a 4f bd
       0.012790403 -0.018149482 -0.010452231 -0.050638825
000020 08 7d b2 bc e4 e7 76 bd bd b2 87 3c c4 1b 59 bd
       -0.021788135 -0.060279742 0.016564721 -0.053004995
000030 3d 9c 67 3a 95 fc cf bc d9 77 dd bc 8d 00 a6 bc
       0.0008835232 -0.025388995 -0.027034687 -0.020263935
000040 a1 8e 7d 3c c0 06 e3 3b 87 94 97 3c 21 76 d0 3a
       0.0154759 0.006928295 0.01850344 0.0015904346
000050 4c fe df bc 3e a9 bd bc 72 3a e5 bb 08 0a 33 bd
       -0.027342938 -0.02315199 -0.0069954926 -0.04371074
000060 c7 55 ee 3c 0b 1a 52 3c c7 8c c7 bc 6e 17 bd 3c
       0.029093636 0.012823592 -0.02435912 0.023082461
000070 8d 06 a3 3d c7 cf 5f bc 21 8d 91 bc dd a2 0f 3c
       0.07960234 -0.013660378 -0.01776749 0.008766857
000080 4b 15 2d bc 58 5b 07 3d 54 49 17 bd b5 10 ab bc
       -0.010564159 0.033046097 -0.036935166 -0.02088199
000090 4e 43 63 bc a9 11 ed 3b 50 36 78 3d ea a3 69 3d
       -0.013871027 0.0072347713 0.06059867 0.057041086
0000a0 25 4a d4 bc 8f 0d 35 bd ea 9d 05 3d a8 8c 98 3b
       -0.025914261 -0.044202384 0.0326213 0.0046554394
0000b0 48 5d e6 bc fd 39 af 3c 39 64 8a 3d 03 8f 52 bd
       -0.028120652 0.021389956 0.06757397 -0.051405918
0000c0 ed 02 ad 3c a6 05 5b bb c2 38 b6 3c 84 58 4f 3d
       0.02111956 -0.0033420115 0.022243861 0.050621524
0000d0 52 1c 21 3d c5 de 3c bb 41 f4 06 3c 52 dc e9 3b
       0.03933365 -0.0028819304 0.008236946 0.00713686
0000e0 01 e8 86 3d 71 83 66 bc 8e 14 aa 3c 73 04 a0 3d
       0.0658722 -0.014069424 0.020761754 0.078133486
0000f0 ef fc 2d 3c e8 33 95 3c a5 9b 6a bd ef ed cc 3d
       0.010619386 0.018213227 -0.05727734 0.1000632
000100 5c 08 05 bc 38 58 ac 39 9c 1d b2 3b 2a 33 92 bc
       -0.008119669 0.00032872125 0.0054356586 -0.017846663
000110 7c 4d 0b bd f7 26 8a 3d 39 19 bb ba 79 44 3e 3d
       -0.03400944 0.06745713 -0.0014274485 0.04645202
000120 87 af 39 bd 54 6a b6 3b 72 74 9c bc 76 52 a5 3d
       -0.04533341 0.0055668745 -0.019098494 0.08072369
000130 b3 41 95 3c 7f 15 49 bc ed 7f 80 bc d2 ae 66 3d
       0.018219804 -0.0122731915 -0.015686 0.056319065
000140 c4 e5 36 3b a8 74 33 3c 15 9a 6f bc c7 e4 d9 3a
       0.0027907947 0.010953106 -0.014624138 0.0016623967
000150 44 0c 58 bb f2 33 79 3c 8f bd 20 bc f4 b3 45 bd
       -0.0032966295 0.015210139 -0.009810819 -0.04826732
000160 73 58 b7 3c bc 47 b1 bc 0e d0 f7 bc d0 a6 e1 bc
       0.022381043 -0.02164065 -0.030250575 -0.027545363
000170 35 3b c9 39 e6 e1 78 3c 4d 75 c6 bb d6 7f 89 bd
       0.0003838182 0.015190577 -0.006056464 -0.06713836
000180 89 eb 06 ba 3e 07 36 3d 35 ef 06 3d 1b 12 15 bc
       -0.0005146792 0.0444405 0.03294297 -0.009098555
000190 d9 b6 c0 bc 97 52 29 3d 74 bc 49 bb 3e 8b 9b 3a
       -0.023524689 0.04133853 -0.0030782493 0.0011867059
0001a0 a8 30 d9 3c 4e fc 2a 3d 5a b0 06 3c 8f dc 1b 3a
       0.026512459 0.041744523 0.008220756 0.00059456466
0001b0 36 bd 75 bb 74 3b 2a 3b 78 0d 5e bd 11 ea 3c 3a
       -0.0037496812 0.0025975378 -0.054212064 0.00072065095
0001c0 ae 24 b4 3d 35 28 e4 ba 4a b9 83 3b 1f 12 05 bd
       0.087960586 -0.0017407002 0.004019891 -0.032487985
0001d0 c8 d0 78 bd 36 a8 88 3c 04 0c 22 3c 75 47 0f bd
       -0.060745984 0.016681772 0.00989056 -0.034980256
0001e0 b3 1f d5 3c c9 4b 05 bb 7c 14 30 bc 98 5d 73 bd
       0.026016092 -0.002033936 -0.010747071 -0.05941543
0001f0 7d 29 c9 bb 0a ad da bb d6 63 42 3c 0a ea b0 bc
       -0.006138979 -0.00667346 0.011864623 -0.021595974
000200 ca bd a5 bb 90 60 4e bd 65 b9 27 bd 25 71 26 3d
       -0.005058025 -0.050385058 -0.04094829 0.040635247
000210 8a 74 be bb 73 51 5b bc f1 75 d2 3a 7f 55 d5 bc
       -0.0058122324 -0.013386118 0.0016056878 -0.026041744
000220 29 29 ea bc 78 44 d1 bc ce d9 48 bc ef 35 14 bb
       -0.02858408 -0.025545344 -0.01225896 -0.0022615155
000230 a4 31 67 bc 34 d1 c4 3b 96 8c 52 bb 88 5b 88 bd
       -0.014110956 0.0060063843 -0.0032127253 -0.06658083
000240 56 6e 49 3d d3 30 f7 3b ce 51 a7 bc 9e 4f ff bc
       0.04917749 0.007543662 -0.02042475 -0.031165894
000250 e1 3a ca bc c7 61 85 bb d1 b4 f4 b9 1f 32 15 3a
       -0.024686279 -0.004070494 -0.00046674025 0.00056913676
000260 ac 9c 06 3d dd 61 db bc be 6a a8 bc 0d 48 40 bb
       0.032864258 -0.026780063 -0.020558711 -0.002933982
000270 f2 65 82 3d ab 9d 6b bb fb b2 9d bd a1 e8 73 bd
       0.06367101 -0.0035952132 -0.077001534 -0.059548024
000280 40 7d e9 3c b3 42 7f 3b 81 4a 98 3d 4b 1e e0 3b
       0.028502107 0.0038949668 0.074360855 0.0068395487
000290 c0 31 6f 3c 0b 3d 0b bc 37 df 71 3d ac 9d e2 3c
       0.014599264 -0.0084984405 0.059050765 0.027663074
0002a0 fd 19 db 3b a3 62 7d 3d eb a8 3e bd 99 ff 56 3d
       0.0066864477 0.061861645 -0.04654781 0.05248985
0002b0 38 29 ed bc 84 ce 33 3c f9 7b 8f ba 5f 23 df 39
       -0.028950319 0.01097453 -0.0010946981 0.00042560228
0002c0 e1 4a 3b bd d3 f3 a8 3c 85 4e 0d 3d 52 cf c2 3c
       -0.045725707 0.020624077 0.03449871 0.023780499
0002d0 da f3 66 3d 1f f7 06 bc e0 7d 99 bc 14 0c 43 3b
       0.0563849 -0.008237629 -0.01873678 0.0029761838
0002e0 8f 75 4a 3c 6d 72 57 3d f6 b8 31 bd 2c 53 90 3c
       0.01235713 0.05259936 -0.043389283 0.017617784
0002f0 b7 73 ea 3b 99 dd 11 3d aa d5 61 bc 91 68 2b 3d
       0.0071549076 0.035611723 -0.013783852 0.04184777
000300 ac fa 4a 3b 28 c3 42 3d a2 c3 04 3d 5c ac 35 3d
       0.0030972166 0.047549397 0.032413132 0.044353828
000310 38 04 b5 bc 4a 21 01 bd 47 03 8b 3c 4d a6 6e 3c
       -0.022096738 -0.031525888 0.016969336 0.014566016
000320 3f de 02 3d 14 a2 50 bc 7b 46 62 3d ea 06 10 bc
       0.03195023 -0.012733955 0.055242997 -0.008790711
000330 80 7f d2 bc 03 07 3a 3d 98 fb 0f bc f3 e4 6b bd
       -0.025695562 0.045416843 -0.008788012 -0.05759139
000340 d9 31 08 bc 1e e5 79 3c 5b fc 0f bc 0c e3 64 3d
       -0.008312666 0.01525238 -0.008788194 0.05588059
000350 14 cf 38 bc a8 df 9f 3c f0 86 26 3d b8 b2 02 bd
       -0.01127984 0.019515827 0.04065603 -0.03190872
000360 fc 68 4b 3c 4f 4e 29 bc 0b 0f 30 3d 55 01 22 bd
       0.012415167 -0.010333612 0.042983096 -0.03955205
000370 b0 f0 0d 3c bf dd 5b 3b 8b 14 8b ba 19 20 ff bc
       0.008663341 0.003354892 -0.0010610981 -0.031143235
000380 0d 0e 16 3c 5a 04 32 bd 79 54 84 bd 11 7e 59 3d
       0.009158623 -0.04346118 -0.064614244 0.053098742
000390 f1 22 78 3d d4 52 a0 bc e3 c0 3a bd 28 49 8a bb
       0.060580198 -0.019570746 -0.045594107 -0.0042201467
0003a0 c2 0f ae bc 7a 5a cc b6 3c 91 f1 3c 80 6b 39 bc
       -0.021247748 -6.0902066e-06 0.029488198 -0.011317134
0003b0 6f 7b c8 3a 66 20 7c bd ac 7f 44 3d ca 8d 11 bd
       0.0015295575 -0.061554335 0.04797332 -0.03553561
0003c0 b7 e4 74 3b 7f 06 fc 3c ee 71 b1 3b ba 2f a4 3d
       0.003736777 0.030764816 0.005415193 0.080169156
0003d0 75 be eb 3b 7f a6 d6 3d 78 6d c4 3c 25 9f 39 bc
       0.007194335 0.10480975 0.02397798 -0.011329447
0003e0 dd 66 13 bd 94 dd e3 3b 7c fe 3d 3d 2b 24 44 3c
       -0.03598677 0.0069539044 0.046385273 0.011971514
0003f0 ae 87 4a bc 0e 16 82 3d 87 0f 98 3c 4b 9d 32 ba
       -0.01236145 0.06351863 0.018562092 -0.00068135996

network_body.linear_encoder.seq_layers.0.weight f4 [256, 19]
000000 7a 4c 47 bd 76 16 8c be 20 96 a5 3d cb e7 4e 3e
       -0.048656918 -0.27360886 0.08085275 0.2020561
000010 1c d0 9f 3e 94 04 92 bc c7 3e a3 3d 7f 24 32 be
       0.31213462 -0.017824449 0.07970958 -0.17396735
000020 54 e5 5d 3e c5 a0 b8 3d e2 33 87 3d 4c 24 a9 3d
       0.21669513 0.09015039 0.06601693 0.08258876
000030 73 6a b6 3d 1e 26 20 bc bf ad ac bd 6b f0 31 be
       0.08907022 -0.009774713 -0.08431577 -0.17376868
000040 70 1f 94 3d 0c 26 08 be c1 d7 0c 3e b9 84 02 be
       0.07232559 -0.13295764 0.13754179 -0.12745942
000050 5b ea 5b bd 46 f8 d2 bc 87 ba 55 3e 2d ef 61 be
       -0.053690296 -0.025753152 0.20871936 -0.22063895
000060 4b a7 3d 3e cd 24 9c 3e 90 5c 2e bd da 71 23 3e
       0.18520848 0.30496827 -0.042568743 0.159614
000070 22 a6 db bd 98 6d 60 bd 74 7c dd 3d 18 f4 ae 3e
       -0.10725047 -0.054792017 0.10814753 0.34170604
000080 8a ef de 3e 6c a3 40 be 9c fd 4c be 34 4b a0 3e
       0.4354213 -0.1881234 -0.2001862 0.31307375
000090 c3 d9 46 3d 7e 0b 72 3e d7 80 4f 3e cd ce 11 be
       0.048547518 0.23637196 0.20263992 -0.14239044
0000a0 8b 0b 76 be e3 c5 f5 3d 04 73 95 3e 1f 1e c5 be
       -0.24027841 0.120006345 0.29189312 -0.38499543
0000b0 9f a0 a6 be 68 22 d7 bc 09 53 04 be 2d 59 9b 3e
       -0.3254442 -0.026261523 -0.129223 0.30341473
0000c0 ff 88 be bd e5 d4 a8 bd 83 61 34 3e 36 4d e0 be
       -0.09303474 -0.082437314 0.17615323 -0.43808907
0000d0 bb c8 78 be 4f e0 dd bc 2f e9 fa be d1 ab bd 3e
       -0.24295323 -0.027084498 -0.4900603 0.37045148
0000e0 bd 1b cb 3e ff 7e 9e 3e 88 7f c6 be e2 d7 14 3e
       0.396696 0.30956265 -0.38769174 0.14535478
0000f0 f7 ac b3 be 60 79 8c be af f8 68 be b5 ab 0d 3f
       -0.350929 -0.27436352 -0.22751115 0.5534013
000100 9f 01 a5 be b8 12 59 be ba c5 dd 3b d4 fd 08 3d
       -0.322278 -0.21198547 0.0067679556 0.033445194
000110 dc 0c 4f 3d 74 a2 9c 3e c9 89 a0 3c c6 b5 cd be
       0.050549373 0.30592692 0.019596951 -0.40177745
000120 6e 9a 1c 3e 43 f5 b5 be fa cb 05 be 76 b4 da 3e
       0.15293285 -0.35538682 -0.13066092 0.42715806
000130 69 b5 06 bf 81 8b be 3d 39 ce d7 3e 53 7e d1 be
       -0.5262056 0.09303952 0.42149523 -0.4091669
000140 48 32 13 be 48 93 7a be 5c 8c 17 bc 89 42 95 be
       -0.1437465 -0.24470246 -0.009249773 -0.29152325
000150 cc 44 1d 3d 46 d7 a8 be 79 e2 85 be ef e6 36 3e
       0.038395688 -0.3297674 -0.26149347 0.17861532
000160 10 1b 93 be e3 39 91 be 75 38 28 3d cb e1 84 3d
       -0.28731585 -0.28364477 0.041069467 0.06488379
000170 c8 48 a2 3e 78 1f 46 3d df 44 2e bd 9e 1c 45 be
       0.31696153 0.048369855 -0.04254615 -0.19249198
000180 2c 5a af 3d e8 74 9e 3d 0a 72 8a be 9e e6 76 be
       0.08562121 0.07737142 -0.2704013 -0.24111411
000190 96 ab dd 3e 77 87 28 bf 9a a9 81 3e 8f 2b c2 3c
       0.43294972 -0.658317 0.25324708 0.023702411
0001a0 53 65 9c 3e 72 3e fe 3d 41 83 54 be 71 c8 04 be
       0.30546054 0.12414254 -0.20753194 -0.12967087
0001b0 1e 60 37 3f 09 b3 56 3e 2f 7f 88 3e 62 dc 32 be
       0.7163104 0.20966734 0.26659533 -0.17466882
0001c0 a3 d5 53 3e c7 9e 71 3e 56 3a 5e 3e f9 a9 93 bc
       0.20686965 0.23595725 0.21701941 -0.018025385
0001d0 d3 db 49 be e0 e7 f8 3d c5 9d f5 3d d2 32 a3 3d
       -0.19712763 0.12153602 0.11992983 0.079686776
0001e0 6f 4d 1a bc 9e 5f e0 3e db 0e 97 3c e3 76 6d 3e
       -0.009417876 0.4382295 0.0184397 0.23189883
0001f0 ea 28 41 3d e4 9e 06 3e ca c3 70 be 87 34 24 be
       0.04715816 0.1314655 -0.23512188 -0.16035663
000200 81 ce 18 bd 85 8d 89 3d 89 9b dd 3d 31 f3 30 3d
       -0.037306312 0.06716446 0.108206816 0.043200675
000210 f3 ad 28 be 72 65 b5 be b4 63 03 be 16 df ee 3e
       -0.16472606 -0.3542896 -0.12831002 0.46654576
000220 04 5e cd be 08 58 01 3e 68 4d fa 3d ca 38 6b 3e
       -0.4011079 0.12631238 0.12221795 0.22970882
000230 28 d0 84 bd 02 81 9d 3e 30 54 80 be e4 da 94 3e
       -0.06485015 0.30762488 -0.2506423 0.2907325
000240 a0 99 82 3d e3 bb 44 be ce 56 a2 bd d5 54 0c 3e
       0.06376958 -0.19212298 -0.07926713 0.13704236
000250 c4 92 50 bd 86 03 d2 bd f0 a3 14 3f 0a eb b0 be
       -0.050921217 -0.10254578 0.5806265 -0.3455432
000260 ba df 6d 3c 91 c7 c7 bd 9e b7 b7 3d 75 8b 68 3d
       0.014518673 -0.09754861 0.08970569 0.05677362
000270 01 f4 47 be af e3 e1 be 97 17 75 3e 8d c1 e6 3d
       -0.19526674 -0.4411902 0.2393478 0.11267386
000280 31 34 64 be 38 f0 a7 be 5c c8 51 be fc 7d fb be
       -0.22285534 -0.3280046 -0.20486587 -0.49119556
000290 3a 4f 4d 3e 8b 8e 9e 3e 21 25 ae 3e 32 0d aa bd
       0.20049754 0.30968127 0.34012702 -0.08303298
0002a0 cb ae 28 be c7 00 95 be e6 09 46 3d dc 19 3c be
       -0.16472928 -0.29102156 0.048349284 -0.1836924
0002b0 63 65 cc 3e 44 e0 4e be 49 fc bb bd e3 e1 89 be
       0.39921102 -0.20202738 -0.09178979 -0.2693015
0002c0 58 11 e5 bd 17 cb 12 3d c8 24 80 be 5d d8 c7 bc
       -0.11184949 0.035838213 -0.25028062 -0.024395162
0002d0 70 4e 5b 3e 34 97 c1 3d 56 a5 a3 bd c6 df a9 bd
       0.2141664 0.09452668 -0.0799052 -0.082946345
0002e0 f8 d1 5e 3d 18 88 be be 55 e0 dc 3e 22 70 8e 3e
       0.05439946 -0.37213206 0.43139902 0.27819926
0002f0 b4 20 03 3f e3 fa 66 3e 80 05 d1 bd 30 e4 86 be
       0.51221776 0.22556643 -0.10206127 -0.26345968
000300 79 56 27 be 00 12 29 be 0e e8 d3 3d 8b 33 76 be
       -0.1634158 -0.16510773 0.10346995 -0.240431
000310 b7 11 3e bd 96 33 27 be a2 be 5f bd d1 70 18 3e
       -0.046403613 -0.16328272 -0.05462516 0.14886786
000320 12 33 ab 3e a3 bd 7d be 44 4e 91 3e ee 42 28 be
       0.334374 -0.24779372 0.28380024 -0.16431782
000330 bf 52 15 be f7 e2 1a be f3 a6 a8 be 4b 6a 7a bd
       -0.14582346 -0.15125643 -0.32939872 -0.061136525
000340 f2 e8 89 3d 67 8f 1e be c2 f7 ad 3e 6f df 9a bd
       0.06733884 -0.15484391 0.33978087 -0.07562148
000350 4c 86 73 bd 83 25 17 be c3 f5 54 3d 95 5c 06 3d
       -0.059454247 -0.14760403 0.05199219 0.032803137
000360 80 e2 4a 3e b7 0b c7 be 36 67 d9 3e 99 15 20 be
       0.19812965 -0.38876125 0.42461556 -0.15633239
000370 39 69 28 3e f0 bc 1d 3e 6c 7e 19 3e de c4 4b 3e
       0.1644639 0.15404105 0.14989632 0.19899318
000380 1e b5 f9 bc c8 9e c6 bd ec 4f b8 3e 0b 08 e9 bc
       -0.030481871 -0.09698254 0.35998476 -0.028446218
000390 5b ee b3 3d b6 7a 86 be 3c 08 78 be 1d 3e 53 be
       0.08785697 -0.26265496 -0.24221891 -0.20629163
0003a0 53 fb 08 3f b4 5a 8b 3c b5 f3 3a bb eb a5 2c be
       0.5350849 0.017011024 -0.0028526608 -0.16860168
0003b0 f5 b4 9b bd 2c 44 72 3e 5f 84 be 3d 34 0e 2e 3a
       -0.07602874 0.23658818 0.093025915 0.00066396897
0003c0 dd 2c 72 3e 05 b1 b0 be d8 48 ca 3d df 76 7b be
       0.23649926 -0.34510055 0.09877175 -0.24557064
0003d0 7d f0 0d 3f 63 fd f1 3e 42 d3 af 3e bd 37 9a 3e
       0.5544508 0.4726363 0.34340864 0.3012065
0003e0 bc cb 14 3e c6 01 41 be a8 8a a1 3d 03 ba d5 be
       0.14530843 -0.18848333 0.07887775 -0.41743478
0003f0 49 86 a7 3d 07 6a 07 3f f7 c0 6e 3e f2 54 49 3e
       0.0817991 0.5289616 0.23315798 0.1966131

network_body.linear_encoder.seq_layers.2.bias f4 [256]
000000 c8 eb 5d 3c 80 83 23 bc 6e 4c d0 bc 40 f1 d5 b7
       0.013544984 -0.0099800825 -0.02542707 -2.550392e-05
000010 2e 9d 77 bd 3b b9 9f 3b b9 2b 22 3d dd 9f db bc
       -0.060452633 0.004874376 0.03959248 -0.026809627
000020 2d 4d 00 3d 1c cb 2a bd 4c e7 d2 bc 9a 20 0a bc
       0.0313236 -0.041697606 -0.025745057 -0.008430624
000030 26 ac 9d bd b2 a8 01 3d 02 b9 31 3c c9 de aa bd
       -0.0769885 0.03165502 0.010847332 -0.08343274
000040 43 1f 76 3c d8 6a 9c 3c 68 e2 77 bc 01 5f 53 3b
       0.015022102 0.019093916 -0.015129663 0.0032252672
000050 56 f1 dc 3b 4a c0 93 bc e8 42 96 bd c8 16 71 bd
       0.0067426367 -0.018036027 -0.0733698 -0.058859617
000060 7c 12 9c bd 83 04 fb 3c c4 bb bc bb 43 a2 b8 bc
       -0.07620713 0.0306418 -0.005759688 -0.02253831
000070 31 b9 55 bd 97 e1 41 3b a8 b1 9e 3c 15 97 b6 bb
       -0.052178565 0.0029583925 0.019371822 -0.0055722096
000080 96 16 0a bd 35 4a c4 bc cf 13 42 3d 7a 72 93 bc
       -0.033712946 -0.023961166 0.047382172 -0.017998923
000090 60 65 ca bc e7 48 20 bd 20 56 77 3b 9f d1 9d bd
       -0.024706542 -0.039132025 0.0037740543 -0.07705998
0000a0 c0 56 f1 bd f5 53 81 bd 32 ec 11 bc 96 0f 94 bc
       -0.117841244 -0.06314842 -0.008906411 -0.018073838
0000b0 7b e6 1d bd bf b0 86 bd 18 2f 95 3c c1 8a 70 ba
       -0.03854988 -0.065766804 0.018210933 -0.00091759494
0000c0 8e a3 a0 3c 75 51 df 3c 97 d4 f8 3b 5b 34 d4 3b
       0.019609239 0.027260521 0.007593702 0.006475968
0000d0 94 36 2c 3b eb 82 9c bd 2c 8a 99 bd 3d 19 d7 bd
       0.0026277648 -0.07642158 -0.07497057 -0.10502861
0000e0 18 70 6e 3c dd ba a7 3b 8a 96 e7 bc da cb 00 bc
       0.014553092 0.0051187114 -0.028270025 -0.007861102
0000f0 48 e9 93 bb 93 ff ac 3b 67 5d 8d bc 21 d8 8a bd
       -0.0045138933 0.0052794903 -0.017256452 -0.067795046
000100 e0 b0 aa bc 5f 47 a5 bd bc 3e ed 3c 89 18 07 3d
       -0.020836294 -0.080702536 0.028960578 0.032982383
000110 d0 d4 b8 bc 09 66 62 bd d5 b2 9c 3c e0 07 27 bd
       -0.022562414 -0.05527309 0.019128243 -0.040778995
000120 cf 6e b1 bc ae 4e 07 3c 8c ce a4 3c cd f0 37 bc
       -0.021659283 0.008258505 0.02011802 -0.011226845
000130 d8 3c 97 3c 8f e3 13 bd 17 67 e0 bc 20 31 54 bd
       0.01846163 -0.03610569 -0.027392907 -0.05180466
000140 cd 21 d9 bd 7f ed 86 bc bb f3 7e bc a3 cb 0f bd
       -0.1060215 -0.016470669 -0.01556104 -0.035106312
000150 d1 a5 08 ba 45 98 ab 3c 32 75 65 bb c6 60 87 3c
       -0.0005212697 0.020946631 -0.003501248 0.016525637
000160 d1 b1 8a bd bd 69 74 bc 6e 91 d4 bd 6b 62 dc bc
       -0.06772197 -0.014917788 -0.10379301 -0.026902398
000170 ba f2 6f bd aa 5d 8e bb b8 bd 8f bc 89 a6 6b bd
       -0.05858109 -0.0043446617 -0.01754652 -0.057531867
000180 83 91 0b 3c 93 18 a3 3a e1 2d 27 3c 60 0d fb 3b
       0.008518579 0.0012443237 0.0102038095 0.0076615065
000190 74 a6 a3 3b 70 45 e2 3a 3d f0 09 3d 3c 02 13 ba
       0.004994208 0.0017263126 0.033676375 -0.0005607938
0001a0 fb af e8 bc d1 b3 9b 3c bc 40 62 bd 61 13 d5 bc
       -0.028404227 0.019006642 -0.055237517 -0.026010217
0001b0 ba 41 cf bc f1 cb 94 bd 26 c2 70 39 46 56 2f bd
       -0.025299896 -0.07265461 0.0002296051 -0.042806886
0001c0 93 fe 3b 3c b1 bd f2 bc fd 9e 82 3b ff 54 40 bd
       0.011474269 -0.029631468 0.003986238 -0.04695606
0001d0 72 b1 84 bd 85 ae a9 bd 7b 9f 22 bd 26 4a 90 bd
       -0.064791575 -0.0828524 -0.039702874 -0.07045393
0001e0 5a c9 e9 bc 95 ed aa 3c 08 6c c7 3c b8 18 a9 bd
       -0.028538395 0.020865241 0.024343506 -0.08256668
0001f0 bf 34 8f 3b 71 fc 2d bc 0b c6 0f 3d 1e 5d b8 ba
       0.0043703015 -0.010619269 0.035100978 -0.0014065837
000200 91 02 cf bb 08 26 3d bc 81 2b 84 bc 08 78 c9 bc
       -0.0063174446 -0.011544712 -0.016134026 -0.024593368
000210 2d 69 80 bd 79 7c dd 3c 34 ab f2 39 c2 04 df bc
       -0.06270061 0.027036892 0.00046285393 -0.027223948
000220 7d 76 4a bc ad 75 b7 3c 23 18 c9 bc 3e ed 34 3c
       -0.012357351 0.02239498 -0.024547642 0.011042891
000230 ca d1 84 bd ee 2d e2 3c 14 74 10 bd 6b 84 ba 3c
       -0.064853266 0.027609792 -0.03526695 0.02276822
000240 1c b5 74 bc 53 2d 3b bd 68 ba c7 bd e3 db b0 bc
       -0.014935758 -0.04569752 -0.09752351 -0.021589225
000250 79 18 17 bc 08 de 9d 3c d2 e6 93 bc 0a 11 ee bc
       -0.009222143 0.019270912 -0.0180544 -0.02906086
000260 ad 02 e0 3b 46 7f d1 39 32 a3 81 bd 8d 65 c8 3c
       0.0068362565 0.00039958413 -0.06329955 0.024462486
000270 b9 aa ce 3c ce f8 95 bc 55 65 c0 bc 99 e3 92 bb
       0.025227891 -0.018307116 -0.023485819 -0.004482698
000280 e3 a8 96 bd 26 ea ed bd 03 8e e1 3b 53 03 67 ba
       -0.07356431 -0.11616926 0.006883384 -0.0008812446
000290 22 25 67 bd 17 4e dd 3c 99 1f af 3c e0 9b 13 3d
       -0.056431897 0.027014775 0.021377372 0.036037326
0002a0 b1 0c 24 3d dc 94 fe bd ec e6 fa bb 93 1d 9c bd
       0.040051166 -0.124307364 -0.0076569226 -0.07622828
0002b0 f9 ac 81 bd 51 44 ec bd 33 91 73 bc 41 1d 9d bc
       -0.0633182 -0.11536468 -0.014866161 -0.019178988
0002c0 a3 33 97 b9 3e 2b c3 bb 5d 83 f3 bc 52 2f 15 bd
       -0.00028839437 -0.0059560826 -0.029725725 -0.03642208
0002d0 e4 35 3c bd 0d 1d c1 bc e1 cd 31 bd 66 0a bb bb
       -0.04594983 -0.023573423 -0.043409232 -0.0057080267
0002e0 7b 2f da bb 0d 62 f4 3b 9b bb 3b 3d f8 28 ab 3c
       -0.006658492 0.0074579776 0.04583321 0.020893559
0002f0 71 2a 00 bb e6 9a 00 bb e1 2f d9 bc 5a 4d e0 bd
       -0.0019556547 -0.0019623577 -0.026512088 -0.10952254
000300 38 5b 99 bc d9 87 79 3c 03 c2 09 bd f4 46 3f bd
       -0.018720254 0.0152301425 -0.03363229 -0.046698526
000310 0d 71 1b bd 93 df e6 bd fd 71 c4 3c bb 0f 8d 3b
       -0.03794961 -0.11273112 0.023980135 0.0043048537
000320 8a 28 d8 3c 2d 46 97 bc a0 b7 2f bc 8e 73 d9 bb
       0.026386518 -0.01846608 -0.010724932 -0.0066360896
000330 e4 c3 e0 3c ca 79 6a bd 6d 43 6e bc b2 52 4e bc
       0.027437158 -0.057245053 -0.014542443 -0.012592958
000340 28 e3 06 3d 7c 2f cc 3c 45 6c 76 bd 64 e4 79 bd
       0.032931477 0.024924986 -0.060161848 -0.061008826
000350 3d e8 de bb 4a e8 5e bd 38 d2 7e bd d4 09 1f 39
       -0.0068025873 -0.054420747 -0.0622122 0.00015167083
000360 4b 94 a4 bc f5 f4 02 3d 9f 80 90 bc 74 84 83 bd
       -0.020090243 0.03197189 -0.017639456 -0.06421748
000370 fb 7f ac bc 8b c0 63 bc 53 37 38 3c 4c 9f 7b bc
       -0.02105712 -0.013900886 0.011243659 -0.015357804
000380 c9 55 aa bc 9b 91 a8 b9 b0 42 8e bd 2c d9 20 3d
       -0.020792859 -0.00032151942 -0.069463134 0.03926961
000390 83 ea 67 38 b6 f7 75 bd c7 f2 07 bd 2e 69 c6 bc
       5.5293098e-05 -0.06005069 -0.033190515 -0.024220075
0003a0 68 38 11 ba 6f 87 a4 3c 82 fd 18 3d c7 99 74 3b
       -0.0005539716 0.020084111 0.03735114 0.0037323104
0003b0 ab 33 9b bb 72 a2 c0 bd 66 ac 51 3c 9c 91 42 bd
       -0.004736384 -0.09405984 0.012797451 -0.047502145
0003c0 de ad 2d 3c e1 25 2d 3d e9 40 39 bc 07 59 96 bc
       0.010600535 0.042272452 -0.01130698 -0.018352998
0003d0 a9 5f 30 bd 8d b0 59 bb b8 61 8f bc 4d 68 e5 3c
       -0.04305998 -0.0033216805 -0.01750265 0.028003836
0003e0 9d 3b e5 bd 81 95 fc 3c 31 88 b1 bd 8c b2 16 3d
       -0.11193011 0.030833008 -0.086685546 0.03679137
0003f0 df d4 4d bd 30 79 16 3d 71 71 98 3c 1f 9d 89 bb
       -0.050251838 0.036736667 0.01860878 -0.0041996385

network_body.linear_encoder.seq_layers.2.weight f4 [256, 256]
000000 03 fb 60 bd e9 ac e7 bd 53 25 27 bd 2e 19 6c bd
       -0.054926883 -0.11312277 -0.04080708 -0.0576412
000010 bc ea 17 3d f1 d9 31 bd ea d4 cc 3c 70 80 32 3c
       0.037089095 -0.043420736 0.02500387 0.01089488
000020 ed 61 03 3e 1f 8b 4f bd 24 ef b2 bd 20 d0 15 bd
       0.12830324 -0.050669786 -0.08737019 -0.036575437
000030 2e 10 75 3c 28 53 76 bd ab 0c c1 3c d7 48 60 bd
       0.014957471 -0.060137898 0.02356561 -0.054756965
000040 df 96 b2 3c b5 11 a8 bd e4 8b 91 3d 4d 08 a3 bd
       0.021800457 -0.08206502 0.0710676 -0.079605676
000050 b9 62 ab 3d 62 5e d7 bd ba d6 b3 3c 1e 62 4c bd
       0.08368439 -0.10516049 0.021952976 -0.04989826
000060 bc cb 16 bd 75 88 f7 3c a1 5c 6a bd 37 c4 3e bd
       -0.03681539 0.030216435 -0.057217244 -0.046573844
000070 65 f4 1c 3d e8 17 6a bd a6 ec 4c be 10 3a d0 3b
       0.03831901 -0.057151705 -0.20012149 0.006354578
000080 4e e3 04 3c 61 df 9d 3d 20 ea 8a bd 72 e6 6b bb
       0.008110834 0.07708622 -0.06782937 -0.003599551
000090 c7 d7 5e 3d 5e 27 b4 bd 17 11 ce 3d a7 f8 ae 3b
       0.054405 -0.08796571 0.100618534 0.0053397003
0000a0 4b 7a 39 3d e6 44 a7 bd e9 2a ab 3d 8b 2f 90 3c
       0.045282643 -0.08167438 0.08357794 0.017600795
0000b0 36 46 02 3e da 9b 30 bd f1 8f ce 3d c9 99 e3 bd
       0.12722096 -0.04311738 0.100860484 -0.111133166
0000c0 04 26 db 3d a8 07 4d 3d 46 32 2e bb 49 d4 9e 3d
       0.1070061 0.05005613 -0.0026580258 0.07755334
0000d0 c4 c2 01 bd 03 ec 37 bd aa 01 bd 3c 24 d7 d4 bd
       -0.031679884 -0.044902813 0.023072083 -0.10392597
0000e0 9f 34 32 bd 5c 0f 97 3c 65 8e de bd 1e b8 32 3d
       -0.043507215 0.018439941 -0.10867003 0.04363262
0000f0 0f c5 7c 3c 58 e6 b4 bd 28 b2 7e 3d 9f d2 24 be
       0.015427842 -0.08832997 0.06218162 -0.1609597
000100 29 01 54 3d 3f 2c 5b bd ce f0 21 bc 0b 3f 45 be
       0.05175892 -0.053508993 -0.0098840725 -0.1926233
000110 19 ad e4 3d f2 2d 62 bc 89 68 04 bd 24 d7 5b bd
       0.11165828 -0.0138048995 -0.032326255 -0.05367197
000120 3d e1 50 3e ae cc 90 3c b3 1d 8d bd 71 f0 c0 bd
       0.20398422 0.017675724 -0.0689043 -0.094208606
000130 2c 44 9a 3d 23 fd ec bd 3a 8c 05 bd cd 4e d6 3d
       0.07532534 -0.115717195 -0.032604434 0.10464249
000140 88 86 5a 3c a7 17 45 3d ce 60 36 3d 95 14 4c 3d
       0.013337739 0.04811826 0.044525914 0.049824316
000150 9f 98 79 3d cb 7e dc 3d 4e 19 2e 3e 66 b3 21 bd
       0.060936566 0.10766371 0.1700184 -0.03947773
000160 44 c3 6a bc 80 47 c3 3d 33 ce bd bc cf 69 26 bd
       -0.0143287815 0.09535122 -0.023169613 -0.04062825
000170 fc 17 c7 3d 85 28 49 3d d1 18 ad 3c 3d a5 19 bd
       0.097213715 0.049110908 0.021129997 -0.0375111
000180 88 94 0a be 19 9b ce bd 11 40 ad 3c 82 c1 83 3b
       -0.13533223 -0.10088176 0.021148713 0.0040208707
000190 3e fa 90 3d 1c b0 53 bd 2e 04 e0 bd 76 83 2f bd
       0.0707898 -0.051681623 -0.10938297 -0.04284998
0001a0 3c 17 66 3e 89 c5 9a 3c f0 18 4b 3c 82 0a d2 bb
       0.224698 0.01889302 0.012396082 -0.006409944
0001b0 a3 70 c4 3c 18 28 03 3e 6d 5a af 3d 91 c0 76 bd
       0.02397949 0.12808263 0.08562169 -0.06024224
0001c0 98 08 26 3c 87 0e 3b 3d 40 49 c8 3d 6c f3 7b 3d
       0.010133885 0.04566815 0.09779596 0.061511442
0001d0 56 cc 86 3d b9 14 b3 bd d9 a5 1e 3a 57 28 dd 3d
       0.06581943 -0.08744187 0.0006051935 0.1079871
0001e0 30 c2 17 bc 2b a7 16 3e 54 03 48 3d 62 46 b4 3d
       -0.0092626065 0.14712207 0.0488313 0.08802487
0001f0 de 83 1b bd 7e 93 8f bd 28 86 7c 3e c8 4a a0 3d
       -0.037967555 -0.07010554 0.24660552 0.078267634
000200 b5 aa cc bb da 36 08 bd 5f 7e 5f 3d ca 79 02 be
       -0.006245936 -0.033255436 0.054563876 -0.12741771
000210 80 5b 37 bc 1b 58 41 bc 2b 6c 0b be f0 b2 fb 3d
       -0.011191249 -0.011800791 -0.13615482 0.12289989
000220 75 f2 08 bd ce e4 37 bd 12 f8 24 3e 52 e6 bc bd
       -0.03343435 -0.04489594 0.16110256 -0.092236176
000230 cf 31 1f be 78 57 ce bd f3 41 5c 3d 1e d4 65 3d
       -0.15546344 -0.10075277 0.05377383 0.056110494
000240 69 e2 9d bd 1c c0 79 3c 35 18 c9 3c 96 64 1d 3c
       -0.077092 0.015243556 0.024547676 0.009606501
000250 2a 70 89 bc 5f 85 79 3b 1d 9d 7e bd c3 3e c4 bd
       -0.016777117 0.003807388 -0.062161554 -0.09582283
000260 23 5d 1b 3e 10 be de 3d 58 b7 95 3d c6 d0 48 3d
       0.15172248 0.10876095 0.07310361 0.049027227
000270 61 f6 ff 3c bc 8d dc bd d5 31 84 bd df 10 0a bd
       0.031245412 -0.10769221 -0.06454817 -0.033707496
000280 39 08 23 bd 40 85 1e bd c8 f9 04 be 60 f4 73 bd
       -0.039802764 -0.038701296 -0.12985909 -0.059559226
000290 bb a9 3a 3d 0a 19 01 be cd 4d 84 3d 20 7d f2 3d
       0.045572024 -0.12607208 0.06460152 0.11840272
0002a0 a9 ac 84 3d c2 67 dc bd 8f 99 6b 3d 40 91 e3 bd
       0.06478245 -0.10761978 0.05751949 -0.111116886
0002b0 c6 e0 eb bd 18 ff a6 bd 9b 88 23 be 78 7f 25 3d
       -0.115174815 -0.08154124 -0.1597008 0.040404767
0002c0 39 39 7d 3d ec 12 11 bd e8 1c 16 bc db ac 8c 3e
       0.06182215 -0.035418436 -0.009162165 0.27475628
0002d0 4b 61 11 be d6 0a e0 bc b8 35 89 bc f2 18 5d 3d
       -0.1419727 -0.027348917 -0.016749248 0.053978868
0002e0 6a ac 04 be ba 95 d3 3d 94 6d 75 3b b5 f1 22 3e
       -0.12956396 0.103312925 0.0037449347 0.15912516
0002f0 bc 33 dd 3c eb 51 d2 3d 63 d5 a0 bc 03 b7 53 bc
       0.027002208 0.10269531 -0.019633 -0.012922051
000300 a3 1a b9 bd 92 0b 22 bd c5 d5 56 3c ae 8a fa bb
       -0.09038284 -0.039561816 0.01311249 -0.0076459264
000310 23 f9 79 bd 44 bb a5 bd 4c 70 1d 3d 04 4d 01 be
       -0.06102861 -0.08092359 0.038437173 -0.12627035
000320 3a 29 ce 3d a2 5f ae bd 48 1d 07 bd 90 cd d6 bd
       0.10066457 -0.08514334 -0.03298691 -0.10488427
000330 75 dd c3 bc 82 d9 d3 bd 9e 10 e3 3d a8 48 24 bc
       -0.02390931 -0.10344221 0.11087154 -0.010027088
000340 bf b0 20 3d a4 6b bc 3d 7b 87 03 be 5f 2b 91 3b
       0.03923106 0.09200218 -0.1284465 0.004430219
000350 9f f3 68 bd da 64 ea bd 88 fd 81 3d 28 85 9a 3d
       -0.05687296 -0.11445017 0.063471854 0.07544929
000360 ae 3c 34 3e f2 f0 d1 3c e6 cb 7e bc 30 37 c8 bd
       0.17601272 0.025627587 -0.015551543 -0.09776151
000370 3e ee b9 bd 63 62 4a 3c 00 b6 22 3d 45 6f 22 bd
       -0.09078644 0.012352559 0.03972435 -0.039656896
000380 9e 74 46 bd a9 57 28 be c3 f3 d1 bd 1a fb 8d bd
       -0.04845106 -0.1643969 -0.10251572 -0.069326594
000390 61 4a ec bd 09 e1 2c 3b cc 60 f2 3d a5 c4 de bd
       -0.11537624 0.0026379249 0.11834869 -0.10877351
0003a0 87 4d 77 3e f0 10 39 3d e9 41 a3 3d b0 26 b8 3c
       0.24150668 0.04518217 0.07971556 0.022479385
0003b0 00 c6 60 bd f8 f0 4b bd 77 88 6e 3e d9 62 aa 3d
       -0.054876328 -0.049790353 0.23294245 0.08319635
0003c0 f8 59 12 3d 89 aa f3 3d d2 c0 07 3e d6 79 4d bd
       0.035730332 0.118977614 0.13257149 -0.05016502
0003d0 ff 20 94 3d 76 9c 60 bb ea c1 9f bc 1a 3a a7 3d
       0.07232856 -0.0034272945 -0.019501645 0.08165379
0003e0 10 be ac 3d ff 52 08 be 60 e7 ef 3c 6b 47 48 3d
       0.08434689 -0.1331291 0.029285133 0.048896234
0003f0 59 f8 6d bd d5 ac a9 bd de d2 08 bd bc e0 0f bd
       -0.05809817 -0.08284918 -0.033404224 -0.035126433

network_body.linear_encoder.seq_layers.4.bias f4 [256]
000000 03 e1 6e bd de 73 bd bc 00 f4 94 bc 24 ed 7b bd
       -0.058320057 -0.023126539 -0.018182755 -0.06150545
000010 51 0a f8 3b 7a ce 62 3d e0 3b cd bc af 89 01 bd
       0.007569589 0.055372693 -0.025052965 -0.031625446
000020 91 3b 67 3d e6 5b 1b bc ee 55 ad bc 4d 62 6b 3c
       0.05645329 -0.0094823595 -0.021159139 0.014366698
000030 8e ac f1 bc 8c fb 5a bc 1a 6c 94 3c 3b d2 3a bd
       -0.029501226 -0.0133656375 0.018117953 -0.045610648
000040 46 98 a0 bc 4a b7 2f bd 07 3d 1d bd da 9d 74 3d
       -0.01960386 -0.042899407 -0.03838828 0.05972085
000050 64 44 ba bc 86 07 40 bd 71 46 1d bc e4 42 67 3c
       -0.02273769 -0.046882175 -0.009599314 0.014115069
000060 0f 1e 69 bb 46 37 5e 3d 86 33 1b bd e4 15 21 3d
       -0.0035570895 0.05425193 -0.037890933 0.039327517
000070 a8 11 ce ba 47 f5 24 bc 2b c3 90 bc 95 e0 56 3c
       -0.0015721815 -0.010068244 -0.017671188 0.013115068
000080 1d 78 20 bc 70 d5 4b 3c 2e 5e 33 bd e6 07 0b bd
       -0.009794262 0.012441024 -0.04379099 -0.03394308
000090 e4 0a 62 bd 3e 14 78 bd 40 2a 84 3d 33 98 b9 3c
       -0.055186167 -0.06056618 0.06453371 0.022655582
0000a0 0c ed b0 bc 3f e3 58 bd 46 58 cf bc 41 00 9c bc
       -0.021597408 -0.052951094 -0.025310647 -0.01904309
0000b0 11 77 7d 3d ee a0 03 3c ff 08 66 3c bd e0 87 bd
       0.06188113 0.008033974 0.014040231 -0.06634662
0000c0 c8 61 1c 3d 3a af e7 3a 93 09 03 bd 27 1a 9b bd
       0.03817919 0.0017676123 -0.031991553 -0.075733475
0000d0 a6 4d 67 bb a3 34 98 3c b4 19 0b bb b2 30 58 3c
       -0.0035294085 0.018579787 -0.0021225037 0.013195204
0000e0 6c 64 a5 bc bd f7 1e 3c d5 23 96 bc ed 5d 27 3d
       -0.020189486 0.00970262 -0.018327633 0.04086106
0000f0 ad a7 cf bc 4c c4 29 3c fb a2 af bd 6e af 74 bc
       -0.025348509 0.010361742 -0.08576008 -0.014934404
000100 79 4c 9a bd 54 01 83 bc 02 3a 4a 3d f2 15 a1 bc
       -0.07534117 -0.015991844 0.049371727 -0.019663785
000110 39 1e 68 3d 3b 65 88 bd e8 98 b7 3b d0 9b 27 3c
       0.056669448 -0.06659933 0.0056029446 0.01023002
000120 65 cb de 3b 07 bd 9d bd 8a 1e a0 3b a9 79 94 bd
       0.006799149 -0.0770207 0.004886453 -0.07249767
000130 32 1c 4f bc 3d 8d 18 3d 40 79 2e 3b 1a 43 be bc
       -0.012641 0.03724407 0.0026622564 -0.023225356
000140 ee 88 d4 bc f5 09 7c bd 75 e7 af 3c ea a3 23 3d
       -0.0259442 -0.061532933 0.021472672 0.039951243
000150 ff c7 65 3b 31 c1 08 bd 31 d9 ba 3c df 75 8c bd
       0.0035061834 -0.033387367 0.022808643 -0.068584196
000160 f2 01 92 bd 60 b9 9c 3c 0f 12 90 bb 88 ff f4 3c
       -0.07129277 0.019131362 -0.004396684 0.029907003
000170 4a 87 81 3c 46 4d 9a bc 95 15 73 3d 51 c5 8f bc
       0.015811581 -0.018835675 0.059346754 -0.017550142
000180 6d 41 2d bd c9 fa be bc cd f3 aa bd 73 60 4e bd
       -0.042298723 -0.023312943 -0.083472826 -0.05038495
000190 de 7c 42 bc 33 a0 28 3c de d1 72 bd 2c 48 f4 bc
       -0.011870591 0.010292101 -0.059282176 -0.02981957
0001a0 6e e6 8e 3b 24 63 34 3d 02 a6 27 3d 0e 3f 27 bd
       0.0043609655 0.04403986 0.0409298 -0.040831618
0001b0 23 0f 05 3d 6b 7f 91 3d fe b6 b0 3c f5 29 0b 3c
       0.03248514 0.07104381 0.021571632 0.00849389
0001c0 5e 5c 8e bc fe 5d e0 bb 92 aa 94 ba b8 70 48 bd
       -0.017378028 -0.0068471422 -0.0011342338 -0.048935622
0001d0 2c 31 ec bc 4b a4 0e 3a 99 5a d2 bc 17 27 8c 3d
       -0.02883204 0.00054413517 -0.025677966 0.06843393
0001e0 68 ae 15 bd be 05 fe bc a8 a7 c8 3c cd eb 61 3d
       -0.03654328 -0.031008597 0.024494007 0.055156518
0001f0 2a 7b 7a 3d c2 45 10 3c 18 dd c5 3b 81 4a 10 bc
       0.061152615 0.008805694 0.0060383193 -0.008806826
000200 4a d0 12 bd 11 a7 98 3c b4 41 b6 3b 2f c2 4a bc
       -0.03584317 0.018634351 0.0055620316 -0.012375399
000210 89 32 6f 3c 13 a3 6d 39 a3 ff c7 3c d3 f5 9f bd
       0.014599451 0.00022662831 0.02441389 -0.07810559
000220 b1 cd 8f bc 03 93 10 bd 14 f5 ff bc b0 69 8b bc
       -0.017554136 -0.03529645 -0.031244792 -0.01701817
000230 be 0f bf bc 8f c0 ec 3c 71 1d be bb 09 9f ac ba
       -0.023322936 0.028900413 -0.0058018495 -0.0013169955
000240 c2 f6 85 bc a9 19 38 bc 8f b2 a0 bc f8 c6 0a 3c
       -0.016353015 -0.011236587 -0.019616393 0.008470289
000250 fa 46 6b 3b e3 d1 28 bc 1d 8e ef bb f3 92 5c bd
       0.003590046 -0.010303947 -0.0073106424 -0.05385108
000260 2d 31 0a ba 2b 78 ce bc 3a 57 ca bc da a5 13 bd
       -0.000527161 -0.025203785 -0.024699796 -0.03604684
000270 6b a6 cb ba 6c 24 ae bc 8f 48 c5 3c 06 e5 98 3c
       -0.0015537267 -0.021257602 0.02408245 0.018663894
000280 f7 e8 71 bd c2 fa 05 bd 0f 01 5a 3a ad cf 04 bd
       -0.059060063 -0.032709844 0.0008316198 -0.032424618
000290 29 8e 07 ba 93 f4 03 bd 4d 60 2d bd 3a be ef bc
       -0.0005171025 -0.032215666 -0.042328168 -0.029265512
0002a0 a2 ec 2a 3d 42 2d b1 bd a9 89 87 bb a1 a5 ec 3c
       0.041729577 -0.0865121 -0.0041362834 0.028887572
0002b0 5e 30 88 bb 85 06 c2 b9 10 eb 83 bc 85 11 c7 bc
       -0.0041561564 -0.0003700742 -0.016103297 -0.024300346
0002c0 30 1a 67 3a e2 aa 55 3c bb 7b 81 bc f6 8e d9 3c
       0.0008815853 0.01304123 -0.01580607 0.026557427
0002d0 1e b8 d0 3c 9a 86 f9 bc 6c 94 c3 ba 45 11 11 bd
       0.025478419 -0.03045969 -0.0014921553 -0.03541686
0002e0 a8 b9 eb bc f4 c1 f3 3c 3e eb 73 bc 9b 8f 4f 3d
       -0.028775051 0.02975557 -0.014887629 0.050674062
0002f0 2c d4 41 bd f1 9e d9 bc cd 5c 9a bd 99 ff 3c 3c
       -0.047321483 -0.026565047 -0.075372316 0.011535549
000300 a2 07 d0 bc b5 41 9a 3c 6d 5c b7 bc 09 95 97 bd
       -0.025394265 0.01883016 -0.02238294 -0.07401473
000310 c6 56 75 bd ff 00 af bc 60 db b1 3c c0 80 e2 3c
       -0.059897207 -0.02136278 0.021711051 0.027649283
000320 63 f1 1e 3d 1a 64 04 bd f4 81 3b bd b6 50 0d 3d
       0.038804423 -0.032322027 -0.04577823 0.0345008
000330 64 e5 9a 3d ee aa 81 bd 24 e9 e0 bc d2 11 19 bd
       0.07563284 -0.063314304 -0.02745492 -0.03737051
000340 bb ab bd bc 47 77 1e bd 58 a2 a9 3b 81 0e 17 bc
       -0.023153177 -0.03868797 0.0051768236 -0.009219767
000350 24 15 58 3c 90 bb 04 bd 48 f3 5c bd ae b9 ce bc
       0.013188634 -0.032405436 -0.05394295 -0.025235023
000360 3c 15 86 bc 8a 17 b6 3c 02 82 98 3c 26 19 36 bd
       -0.016367547 0.022228021 0.01861668 -0.044457577
000370 50 95 31 3d 68 8e b6 3b 1b 25 84 bd 98 09 f3 bc
       0.043355286 0.0055711754 -0.0645239 -0.02966766
000380 e8 5b 99 bd df e0 84 3c 68 01 b4 bc f9 b3 93 bc
       -0.07488233 0.016220508 -0.021973327 -0.018030154
000390 aa 7c 61 3d 18 03 3a bb d1 15 49 bd c7 c8 6c bc
       0.05505053 -0.0028383192 -0.04909307 -0.014452166
0003a0 49 92 12 3d 1c a8 5d bb 8f 0e c8 ba 52 d7 46 bc
       0.03578404 -0.0033822125 -0.0015263128 -0.012136297
0003b0 0c 9e f9 3b ab b2 ac bc d0 ea f9 3c f1 5a 73 bd
       0.0076177176 -0.02108129 0.030507475 -0.0594129
0003c0 ab 2f bf 3c a2 29 e4 bc dd 33 86 3c 6b 7f e0 3b
       0.02333816 -0.027851883 0.016382152 0.006851127
0003d0 9f d8 01 3d e0 9a bb 3c d5 80 1d bd 5b 8d 40 3c
       0.031700727 0.022900999 -0.038452942 0.011752452
0003e0 41 19 85 bc 69 6f a1 bd 55 43 a8 bc ed 1f b8 bc
       -0.016247394 -0.07882578 -0.020539919 -0.02247616
0003f0 38 7f 06 3d db f0 ae bc 8d 1d e4 3c 1b db 53 bd
       0.03283617 -0.021355083 0.027846122 -0.051722627

network_body.linear_encoder.seq_layers.4.weight f4 [256, 256]
000000 c3 8c 1c be 62 4f d7 3d d0 50 fe bd 9a c1 36 be
       -0.15288071 0.10513188 -0.124177575 -0.1784729
000010 8d 89 67 3d d7 25 9e bd c2 63 3f 3e 55 37 44 3d
       0.056527663 -0.07722061 0.18690398 0.04790433
000020 14 7e 83 3b af de c7 bc 02 f3 a9 bb c4 6a 0f 3d
       0.0040128324 -0.024398176 -0.0051864395 0.03501393
000030 cd 70 92 bc 00 8a 53 3b 35 1f 39 be ed d8 57 3b
       -0.017876053 0.00322783 -0.18078311 0.0032935694
000040 f2 e9 bc bd f2 33 80 3d 8e f5 14 3d 49 42 8a 3d
       -0.09224309 0.06259908 0.03636699 0.06750924
000050 af b6 6f bd 66 9c be bd 93 76 c5 bc fd c7 87 3d
       -0.05852383 -0.093071744 -0.024104392 0.066299416
000060 ed 1c a0 bc 92 f4 16 be 2a 0a 8a bc 1d b3 94 3d
       -0.019545043 -0.14741734 -0.01685055 0.07260726
000070 f1 3b 17 3d 9f f4 41 be ed 96 43 bd 3b eb 8b 3d
       0.0369224 -0.18940972 -0.047751356 0.06831976
000080 5f 5d 0c 3e 1e 48 93 bd b0 be 56 3d a4 b0 50 3e
       0.13707493 -0.0719149 0.052427948 0.20379883
000090 2e 12 72 bd 55 db b9 bd ea b9 e9 bb 8d ea 18 3e
       -0.05909937 -0.090750374 -0.0071327584 0.14933224
0000a0 b0 87 f5 bd de 54 b1 3d c0 cc 5f 3d d1 ce c7 bc
       -0.11988771 0.08658765 0.054638624 -0.02439061
0000b0 f8 a5 aa 3c 54 aa 4c bc 3a 74 9a bd 80 5d 44 3d
       0.020831093 -0.012491781 -0.075417 0.04794073
0000c0 25 7e a7 bd 1e 83 ee 3c 12 53 c0 3b c0 32 08 bd
       -0.08178357 0.029115256 0.0058692778 -0.033251524
0000d0 7f bd e7 bc 22 08 ac bc 31 b1 80 bb a6 f7 0f 3d
       -0.028288601 -0.020999972 -0.003927373 0.035148285
0000e0 4e 13 7c bd 9b 9f af bd db c9 99 3d 7d 88 12 3d
       -0.061541848 -0.08575364 0.07509204 0.035774697
0000f0 f1 84 4e be 74 38 86 bd cb 83 b6 3d 53 71 23 3c
       -0.201679 -0.06553736 0.08911856 0.009975749
000100 0e 94 f4 3d 73 7c e4 3c 2b d5 e1 3c 99 3b 2b 3c
       0.11942302 0.027891373 0.027567467 0.010451221
000110 31 ba fc 3b bd 20 b0 3c 61 a7 ed 3d 6d 00 bf 3c
       0.0077126254 0.021499986 0.116041906 0.023315633
000120 3f 9e a2 bd 13 80 a3 39 bb d6 3a be 01 89 e0 bd
       -0.07940339 0.00031185205 -0.18245976 -0.109636314
000130 62 c6 35 bc ae f1 50 bd 46 14 63 bc 91 b6 3c 3d
       -0.011094661 -0.051011734 -0.013859814 0.046072546
000140 96 0d 24 3e 78 f8 0b 3d 6a 36 64 3d c4 9f 8f 3b
       0.16020808 0.034172505 0.055715956 0.004383059
000150 e3 6a 39 3d 3d 16 6c 3d b5 f2 2d bb 80 ff f4 3c
       0.04526795 0.057638396 -0.002654237 0.029906988
000160 46 45 13 3d fb 74 03 be ed 81 6d 3b 8d 3e c1 3c
       0.035954736 -0.12837593 0.0036240772 0.023589397
000170 b9 b0 b6 bd 6a 9a 98 bd 32 7e 47 3d 68 b2 83 bd
       -0.08920426 -0.07451327 0.048704334 -0.06430513
000180 66 cb 15 be 6f 06 ca bc 36 78 ec bd 2e b4 30 be
       -0.14628372 -0.02466127 -0.11546366 -0.17256233
000190 cd fd ac b9 8c 0a fd bd b7 3b 3c be d5 3a 78 bb
       -0.00032995493 -0.12355527 -0.18382154 -0.0037876863
0001a0 da 53 0c 3c 33 8f 6a 3d 9d fb 8a 3a f1 6d 01 3e
       0.008564914 0.05726547 0.0010603551 0.12639596
0001b0 cd a7 56 3c fc 24 bc 3c 40 ce ed bc 82 bd 9e 3d
       0.01310153 0.022966854 -0.029029012 0.077509895
0001c0 e9 97 04 bd 4b d9 25 bc f5 b7 22 bd 59 b1 96 3d
       -0.032371435 -0.010122607 -0.039726216 0.07358045
0001d0 1f 2d 5a bd a3 75 fa 3d 49 7c 33 3d e4 a4 a0 bc
       -0.053265687 0.12229469 0.0438197 -0.019609876
0001e0 0d cd 1f bd 10 8d bb 3d 4f 5a af bd b4 08 84 bd
       -0.03901391 0.09157765 -0.08562147 -0.064469725
0001f0 88 d5 82 bc 85 e1 22 3e ea 3b 08 bd 4a b5 c7 bd
       -0.01597096 0.15906341 -0.033260264 -0.09751375
000200 9a de 30 3e 13 e6 2d 3d 99 69 ae 3d 1f 91 15 3d
       0.17272416 0.042455744 0.08516235 0.03651535
000210 e8 28 87 bd 57 c2 7a bc c4 3d 29 3d 89 4a b4 3d
       -0.06599599 -0.015305123 0.04131867 0.08803279
000220 b1 bb da bd 9c 3d a8 3d d7 83 b3 bd 82 09 b0 bc
       -0.106803305 0.08214876 -0.08765381 -0.021488909
000230 c5 cf 14 bd a7 ea 96 3c 25 b3 56 bd bd 7f 79 bc
       -0.036330957 0.018422438 -0.05241694 -0.015228209
000240 b1 69 c3 3c 87 8e 2d be e0 c7 c9 bc 42 a4 7b bb
       0.023854109 -0.16948901 -0.02463144 -0.0038397466
000250 c0 08 aa bd ab 21 98 bb ab 36 c3 3d fb 7a 32 bd
       -0.0830245 -0.0046426854 0.095319115 -0.043574315
000260 6d 3a db bd e3 cb cf 3b 0a e4 8e 3c 09 aa 23 bd
       -0.10704503 0.006341444 0.017442722 -0.03995708
000270 bf 64 5d bc 92 b4 80 3d 05 2b 92 3d c4 64 94 bc
       -0.013512789 0.06284441 0.071371116 -0.018114455
000280 11 2e c6 3d b0 6b 18 3e 9f 7a 3c 3b d1 cb 9e bd
       0.09676755 0.1488483 0.0028759611 -0.07753719
000290 ca dd bd bd e2 97 a3 3d ee e3 91 3d 7f ee 3a bd
       -0.092708185 0.07987954 0.07123552 -0.045637604
0002a0 8f 51 06 bc 40 1a 0a 3b d0 5f b2 bd f5 a5 be 3d
       -0.008198156 0.0021072775 -0.08709681 0.093089975
0002b0 d1 66 cc bc 46 19 bc 3d 31 8a 33 3d e6 83 71 3d
       -0.02495137 0.09184508 0.04383296 0.05896368
0002c0 56 0e 91 bd 0a 93 c9 3d 7d a8 a9 bd b9 d4 05 3e
       -0.070828125 0.098424986 -0.0828409 0.13069429
0002d0 2e ec 66 3e cf 84 08 3c 29 e3 2d 3d b4 be 8a bd
       0.22551033 0.008332445 0.042452965 -0.06774655
0002e0 0b 0b 94 bd c2 ac e9 bd d9 7a 6b bd 02 c3 0d 3e
       -0.07228669 -0.11409904 -0.057490204 0.13843921
0002f0 d3 ce 96 bc b4 9e b6 bc f2 bc fa bc 6a 46 5b 3d
       -0.018409168 -0.022292472 -0.030607674 0.05353395
000300 76 7b 6b 3d 9c 03 bf bd 73 18 8f bd 13 ad c8 b9
       0.05749079 -0.0932686 -0.06987085 -0.00038275923
000310 8b 79 8a 3d 33 cf d4 b9 42 43 82 3c 79 29 58 bd
       0.06761464 -0.00040590166 0.015901212 -0.052773926
000320 97 bd 0c be a0 97 a4 3b 92 54 40 bd 93 d2 7e 3d
       -0.13744198 0.005022958 -0.046955653 0.062212538
000330 20 c0 10 3d 1d 57 e6 bc 96 92 c7 bd 7c b1 8e 3d
       0.035339475 -0.02811771 -0.09744756 0.06967446
000340 8b ee 81 3d ca ff 9a 3c cc 58 0a 3d 55 67 b4 3a
       0.063443266 0.018920798 0.03377609 0.0013763706
000350 e8 44 96 bd 2b 55 94 bd 04 6e 11 3e 9e 19 7f bd
       -0.073373616 -0.07242807 0.14202124 -0.06228029
000360 dd 62 71 3d 26 79 a8 bd c8 6a b4 bd f6 68 87 bc
       0.058932174 -0.08226232 -0.088094294 -0.016529541
000370 cb a2 3d bd 59 68 5f bc c7 27 09 bd 08 32 05 be
       -0.04629783 -0.013635718 -0.0334852 -0.13007367
000380 fe dc 34 bd dc 59 18 3e f1 57 02 bb 44 07 2a bd
       -0.044156067 0.14878029 -0.0019888843 -0.041510835
000390 38 0f 07 3d 6b 2b 4c bd 72 fd 19 3c 72 82 3e 3d
       0.032973498 -0.049846094 0.009398805 0.04651112
0003a0 b8 fc 88 b9 3a 62 e6 bc 2b 2c 16 be 38 b8 bf bd
       -0.00026128232 -0.02812301 -0.14665286 -0.09361309
0003b0 ca 01 36 3e 48 34 e2 3d 6e de 16 bd 40 30 a8 3d
       0.1777412 0.11045128 -0.03683322 0.08212328
0003c0 78 37 84 3c b7 f9 03 3c 59 bb ea 3d 5a 52 8f 3d
       0.01613973 0.008055142 0.11461515 0.06998129
0003d0 a8 5d 0a bd 04 00 c2 3d 67 ec 12 be 1d 25 89 bd
       -0.033780724 0.09472659 -0.14347993 -0.06696532
0003e0 d4 03 e8 bb cf 62 eb 3d 24 e5 e5 3d cd d5 3e 3c
       -0.0070805345 0.114934556 0.11225346 0.011647654
0003f0 16 fa ad bd fb 67 85 bc 5e ea cd bd a3 d4 0b 3e
       -0.08494966 -0.016284933 -0.100544676 0.13655333
