results/rdesktop_run_002/Robotarm/Robotarm-9499999.onnx (onnx, 554549 bytes, 9 tensors)

action_model._continuous_distribution.log_sigma f4 [1, 5]
0	0xc070d82e	-3.7631946
1	0xc046e1f7	-3.1075418
2	0xc04714fb	-3.1106555
3	0xbf9344c7	-1.1505364
4	0xbf720d91	-0.9455195

action_model._continuous_distribution.mu.bias f4 [5]
0	0x3d48d77f	0.049033638
1	0x3ca03519	0.019556569
2	0xbd0ce8a0	-0.034401536
3	0xbd6684cb	-0.056278985
4	0x3cbfec44	0.02342809

action_model._continuous_distribution.mu.weight f4 [5, 256]
0	0xbc65b3e0	-0.014019936
1	0xbd080d20	-0.033215642
2	0xbc85e895	-0.016346255
3	0x38c3789b	9.320789e-05
4	0x3c959be8	0.018262818
5	0x3d62834b	0.055300992
6	0xbb775631	-0.0037740583
7	0xbc7c1c4c	-0.015387606
8	0xbc3bd08b	-0.011463295
9	0xba6ec573	-0.0009108402
10	0xbcc08db5	-0.023505071
11	0x3a24bd53	0.0006284315
12	0xbc96cfc2	-0.018409614
13	0x3c99a614	0.01875595
14	0x3b4304ee	0.0029757577
15	0xbcb04655	-0.021517912
16	0xbc1cff44	-0.009582344
17	0xbc6af569	-0.014340737
18	0xbbad9e16	-0.0052983863
19	0x3ca643bb	0.020295968
20	0xbc330344	-0.010926072
21	0xbd002d2f	-0.03129309
22	0xbcdaae09	-0.026694315
23	0x3bb7742e	0.0055985665
24	0xbcde98a6	-0.027172398
25	0x3c801c10	0.015638381
26	0xbcd146e6	-0.025546502
27	0x3bd99ee0	0.006641254
28	0x3d1eaa15	0.03873642
29	0xbc1ed32e	-0.009693904
30	0xba7ba49b	-0.0009599418
31	0x3c9517cc	0.018199824
32	0xbbd53f47	-0.0065077874
33	0x3a4e080f	0.0007859477
34	0xbcc196e3	-0.023631519
35	0xbd2540c2	-0.04034496
36	0xbd1c97b3	-0.03823061
37	0x3c970c08	0.018438354
38	0x3d30b59c	0.043141946
39	0xbb120ab5	-0.0022284214
40	0xbc9369cb	-0.017994782
41	0xbcda8b4e	-0.026677754
42	0xbcde205c	-0.02711504
43	0xbcd9596a	-0.026531894
44	0x3c839e2d	0.016066635
45	0x3b974016	0.004615794
46	0xbc10cb5c	-0.008837547
47	0xbc9b38dc	-0.018948011
48	0x3c937913	0.018002069
49	0x3c14201c	0.009040859
50	0xbcfb47f7	-0.030673964
51	0xbcd4c9ef	-0.025975196
52	0xbc7fd27e	-0.01561415
53	0x39d6d685	0.0004097709
54	0xbc34ef6c	-0.011043411
55	0x3ca727da	0.020404745
56	0xbc4080d7	-0.011749468
57	0x3c6eb2e2	0.014569016
58	0xbbffd50c	-0.0078073796
59	0x3c821ce6	0.01588292
60	0xbc80cdd8	-0.015723154
61	0xbb8c4031	-0.004280113
62	0xbccd90f7	-0.025093539
63	0xbbeb9472	-0.007189327
64	0xbcb38ff1	-0.021919223
65	0x3c2c6d7a	0.010524148
66	0x3c3f5e4b	0.011680196
67	0x3c9afe47	0.018920077
68	0x3c9e3c9e	0.019316014
69	0xbc2d360b	-0.010571967
70	0x3a3c1dd0	0.0007176073
71	0x3b9fd37a	0.004877505
72	0xbd0fafab	-0.03507964
73	0xbccfbcb7	-0.025358541
74	0x39ecbd80	0.00045154616
75	0xbd6a4b58	-0.05720076
76	0xbc70b73c	-0.014692124
77	0x3cd68bdf	0.026189743
78	0xbd19f8d2	-0.03759081
79	0xbd0e89a1	-0.034799222
80	0xbb36d77e	-0.002789944
81	0xbabd3b07	-0.0014437147
82	0x3bb4c62d	0.0055167885
83	0x3b8d3f53	0.0043105274
84	0xbca502e7	-0.020142986
85	0xbbc7e63d	-0.0061004446
86	0x3baf4ba1	0.005349592
87	0xbca12134	-0.019669153
88	0xbd1894ad	-0.037251163
89	0xbc930c20	-0.017950118
90	0xbc39b518	-0.01133468
91	0xbb6746c4	-0.0035289982
92	0x3b1d43bb	0.002399667
93	0xbd06c3ca	-0.032901563
94	0x3ccd10dc	0.025032453
95	0xbc9f2bfc	-0.019430153
96	0xb85b3802	-5.226583e-05
97	0xbce5119b	-0.027962497
98	0xbd63446b	-0.05548517
99	0xbcc0b439	-0.023523437
100	0xbb6f498a	-0.0036512339
101	0xbbe53839	-0.0069952277
102	0xbc754131	-0.014969156
103	0xbc1821ef	-0.009285434
104	0x3c2042ea	0.009781579
105	0x3cd40f5e	0.025886234
106	0x3ca4458a	0.02005269
107	0xbab9ce04	-0.0014175777
108	0x3d408d2f	0.047009643
109	0x3cb2494c	0.021763466
110	0x3d5ec3b4	0.054385856
111	0x3b619099	0.0034418462
112	0xbc22dcf7	-0.009940377
113	0xbc3586a3	-0.011079463
114	0xbcc27a7a	-0.023740042
115	0xbd418908	-0.047249824
116	0xbcc960f6	-0.024582367
117	0xbafac098	-0.0019130884
118	0x3cd595c7	0.026072396
119	0x3c3a2394	0.011361022
120	0xbc2e8dba	-0.010653907
121	0xbcccb6ff	-0.024989603
122	0x3cae32eb	0.021264514
123	0x3cf23155	0.029564539
124	0x3c3671c0	0.011135519
125	0xbca2ca46	-0.019871842
126	0x3d23e91e	0.04001724
127	0x3c96a0fc	0.01838731
128	0x3d7c0de5	0.06153669
129	0xbc547848	-0.01296813
130	0xbbd61865	-0.00653367
131	0x3bfa9c7e	0.00764805
132	0x3b817da2	0.003951744
133	0x3ca98a84	0.020695932
134	0xbb220c13	-0.0024726435
135	0xbb0a2db3	-0.0021084368
136	0xbbc22aeb	-0.0059255264
137	0xbcbf5428	-0.023355559
138	0xbcd2713e	-0.025688764
139	0xbd38994c	-0.04506807
140	0xbc69b463	-0.014264199
141	0xbc014b41	-0.007891477
142	0xbc0ad8ef	-0.008474573
143	0xbbd848e0	-0.0066004843
144	0xbbc9a18e	-0.006153292
145	0xbadd3abf	-0.001687847
146	0xbc9e3abc	-0.019315116
147	0xbc192531	-0.009347246
148	0xbaf2991a	-0.0018508763
149	0x3c0d38ba	0.008619482
150	0xbc9ce455	-0.019151846
151	0xbce93a06	-0.02847005
152	0xbbd5ccbb	-0.00652465
153	0xbb395d8c	-0.0028284518
154	0xbc9f9d3b	-0.019484153
155	0xbc0f81c5	-0.008758967
156	0xbc253504	-0.010083441
157	0x3d02986c	0.031883642
158	0xbb715a35	-0.003682745
159	0x3c61b0b7	0.013775042
160	0xbced863a	-0.028994668
161	0xbc9fd536	-0.019510847
162	0x3bacad96	0.0052697165
163	0xbcfbce8e	-0.030738141
164	0xbcb30e49	-0.021857398
165	0xbcca074a	-0.024661679
166	0xbbd64c5b	-0.006539864
167	0x3b320a17	0.0027166659
168	0x3bf3f44e	0.007444895
169	0xbc9a5046	-0.018837105
170	0xbc8913f0	-0.01673314
171	0x3c94efcf	0.018180756
172	0x3b8c0bfb	0.004273889
173	0x3c8cc444	0.01718343
174	0x3c143f23	0.009048256
175	0xbcc24b70	-0.023717612
176	0xbc9157f8	-0.017742142
177	0xbb265ace	-0.0025383714
178	0xbd0a311b	-0.033738237
179	0x3d00e0de	0.03146445
180	0x3ca4a530	0.020098299
181	0xbd065b47	-0.032801893
182	0xbb00539c	-0.0019581085
183	0x3ca1a8b4	0.019733764
184	0xbb3667aa	-0.0027832785
185	0xbadd6b50	-0.0016892944
186	0xbc732715	-0.014840861
187	0x3af85a0d	0.0018947736
188	0xbca6ab4e	-0.020345356
189	0xbb26150c	-0.0025342135
190	0xbc4639e6	-0.012098765
191	0x3bb4d70a	0.0055187987
192	0xbc6a4c6d	-0.014300448
193	0x3ae6d562	0.00176112
194	0xbca3f2eb	-0.020013293
195	0xbcc6db19	-0.024274396
196	0xbcaba338	-0.020951852
197	0xbc7c3ed7	-0.015395842
198	0x3cac5586	0.021036875
199	0xbc1dd818	-0.00963404
200	0xbc8264d6	-0.015917223
201	0xbb34a71b	-0.0027565423
202	0xbbe7c467	-0.0070729735
203	0x3c6a38da	0.014295781
204	0x3ca672c1	0.02031839
205	0xbcc1331d	-0.023583943
206	0xbc54e51d	-0.012994078
207	0xbc867274	-0.016411997
208	0xbb5aa579	-0.003336279
209	0x3ca354da	0.019937921
210	0xbc09034a	-0.008362601
211	0x3bf0f19c	0.007353021
212	0x3b234087	0.0024910287
213	0xbc2b78cd	-0.010465813
214	0xbc2c3e19	-0.010512852
215	0xbcc03340	-0.023461938
216	0xbc219907	-0.009863145
217	0xbabcf1f4	-0.0014415369
218	0xba209437	-0.00061256014
219	0xbcb8dfac	-0.022567593
220	0x3ce43f13	0.027862107
221	0x3c7a5811	0.015279786
222	0x39484605	0.0001909957
223	0x3bb2ddcf	0.0054585706
224	0xbcada4d9	-0.02119677
225	0xbc014f15	-0.00789239
226	0x3ba2878a	0.004960005
227	0x3d297860	0.041374564
228	0x3ccac0f2	0.024750207
229	0xbbc944d5	-0.0061422386
230	0xbc8e0b40	-0.017339349
231	0xbc631376	-0.01385962
232	0x3d238600	0.039922714
233	0xbc038000	-0.008026123
234	0xbc4549f8	-0.012041561
235	0x3c7c46cd	0.01539774
236	0x3c8ab168	0.016930297
237	0xbca7ad3c	-0.020468347
238	0x3c933801	0.01797104
239	0xbca1db83	-0.019757992
240	0xba888280	-0.0010414869
241	0x3a511bcc	0.00079768593
242	0xbcd18f06	-0.025580894
243	0x3a8d0a99	0.0010760605
244	0xbb2d7615	-0.0026468087
245	0xbbbb50a8	-0.005716402
246	0x3a2bff63	0.0006561188
247	0xbc019819	-0.007909798
248	0xbbfb24a5	-0.0076642805
249	0xbc2048ba	-0.009782964
250	0x3a05decb	0.0005106746
251	0xbd048f58	-0.032363266
252	0x3bc9a2d9	0.006153446
253	0xbc8051eb	-0.015664062
254	0xbbb3be44	-0.005485328
255	0xbcbd4c88	-0.023107782

network_body.linear_encoder.seq_layers.0.bias f4 [256]
0	0xbd4ff556	-0.05077108
1	0xbbd82ccc	-0.006597137
2	0x3b7bc76f	0.0038418432
3	0x3de62fcd	0.11239586
4	0x3c53c41c	0.012925174
5	0xbc99faf2	-0.018796418
6	0xbc2e083f	-0.010622083
7	0xbd50da28	-0.0509893
8	0xbcaed6ca	-0.021342654
9	0xbd7471f6	-0.059678994
10	0x3c901cf3	0.017591929
11	0xbd5c4dcd	-0.053785134
12	0x3a677421	0.0008829255
13	0xbcd68ca2	-0.026190106
14	0xbce2b883	-0.027675873
15	0xbca6aea9	-0.020346956
16	0x3c78d138	0.0151866
17	0x3bcf0546	0.0063177673
18	0x3c980b9f	0.018560229
19	0x3af33e08	0.0018557915
20	0xbcddbc17	-0.027067227
21	0xbcc1e107	-0.023666872
22	0xbbdce05b	-0.0067406124
23	0xbd36edd2	-0.044660397
24	0x3cf3d2ea	0.029763658
25	0x3c5923db	0.0132531775
26	0xbcc56c0d	-0.024099374
27	0x3cbafd6c	0.02282592
28	0x3da41b88	0.08013064
29	0xbc636ee1	-0.013881416
30	0xbc95a0f0	-0.018265218
31	0x3c05e8a8	0.008173145
32	0xbc309263	-0.010777089
33	0x3d09662e	0.03354471
34	0xbd196e38	-0.03745863
35	0xbcb13e3b	-0.02163612
36	0xbc6d99d6	-0.014502009
37	0x3bf82531	0.007572793
38	0x3d79dcb5	0.0610015
39	0x3d697c24	0.057003155
40	0xbcd8e5bf	-0.026476739
41	0xbd35e1a8	-0.044404656
42	0x3d073f1d	0.033019174
43	0x3b94a79e	0.004536583
44	0xbce5df99	-0.028060721
45	0x3cb39dc1	0.021925809
46	0x3d8ad56b	0.067789875
47	0xbd53b7af	-0.051688846
48	0x3cabdcc8	0.0209793
49	0xbb43deea	-0.0029887506
50	0x3cbad454	0.022806324
51	0x3d4de86f	0.050270494
52	0x3d217e85	0.0394273
53	0xbb4db835	-0.0031390314
54	0x3bfcc1be	0.0077135256
55	0x3bb5de46	0.0055501787
56	0x3d86d602	0.065837875
57	0xbc748160	-0.0149234235
58	0x3ca98da9	0.020697432
59	0x3da1f80d	0.0790864
60	0x3c30d19f	0.010792165
61	0x3c95e733	0.018298721
62	0xbd6bd5d0	-0.057576954
63	0x3dcca2ef	0.099920146
64	0xbc01208e	-0.007881297
65	0xba152c92	-0.00056905404
66	0x3bc1847e	0.005905687
67	0xbc93d2f4	-0.018044926
68	0xbd0bcacd	-0.034128953
69	0x3d8a75f5	0.0676078
70	0xbaf485e0	-0.001865562
71	0x3d3f3ce2	0.04668892
72	0xbd39a5d9	-0.04532418
73	0x3bb14b18	0.005410563
74	0xbc9c63bf	-0.019090531
75	0x3da50d3c	0.08059165
76	0x3c9e2b46	0.019307744
77	0xbc52016b	-0.012817721
78	0xbc816475	-0.015794972
79	0x3d697949	0.057000432
80	0x3a92fb5b	0.0011213826
81	0x3c3432ae	0.010998411
82	0xbc79e4d4	-0.015252311
83	0x3b0ade40	0.00211896
84	0xbb70a916	-0.0036721877
85	0x3c7c58fc	0.015402075
86	0xbc26d688	-0.010182984
87	0xbd45cfee	-0.048294
88	0x3cbb1483	0.02283693
89	0xbcb25583	-0.02176929
90	0xbcfa2275	-0.030534009
91	0xbce61cf8	-0.028089985
92	0x3972dc2f	0.00023160943
93	0x3c7b2e29	0.01533083
94	0xbbd1f48c	-0.006407326
95	0xbd8b39ff	-0.06798171
96	0xbaa75a60	-0.0012768023
97	0x3d36cea4	0.04463066
98	0x3d082348	0.03323677
99	0xbc18de6e	-0.009330375
100	0xbcc47fe1	-0.023986759
101	0x3d28dad6	0.041224323
102	0xbb40519a	-0.0029345513
103	0x3aa7d93f	0.0012805833
104	0x3cdc9603	0.026927
105	0x3d2ebb08	0.042658836
106	0x3c07f3e9	0.008297899
107	0x3938b43f	0.00017614754
108	0xbb7e3bac	-0.0038792891
109	0x3b305452	0.0026905728
110	0xbd5dceb5	-0.05415221
111	0x3a45b044	0.0007541219
112	0x3db49fc6	0.08819537
113	0xbaddb69b	-0.0016915383
114	0x3b914013	0.004432687
115	0xbd055f9c	-0.032561883
116	0xbd7b2355	-0.061312992
117	0x3c8f3fb6	0.017486434
118	0x3c37f57f	0.011227964
119	0xbd122381	-0.03567839
120	0x3cd5780a	0.026058216
121	0xbafef2bf	-0.0019451006
122	0xbc374908	-0.011186846
123	0xbd6ffb67	-0.058589365
124	0xbbe306f4	-0.006928319
125	0xbbfd2bbd	-0.0077261613
126	0x3c45cc80	0.012072682
127	0xbcafdabb	-0.021466604
128	0xbbcaac97	-0.006185125
129	0xbd51a09c	-0.05117856
130	0xbd277392	-0.0408817
131	0x3d28afa9	0.041183148
132	0xbbb8b787	-0.0056371125
133	0xbc62606e	-0.013816936
134	0x3ad47177	0.0016208132
135	0xbcd42759	-0.025897669
136	0xbced421a	-0.028962184
137	0xbcd094c0	-0.025461555
138	0xbc432e37	-0.011912874
139	0xbb3603c6	-0.0027773245
140	0xbc600831	-0.013673828
141	0x3bc2fdd3	0.0059506684
142	0xbb4a8964	-0.0030904645
143	0xbd880127	-0.06640845
144	0x3d4993ab	0.049213093
145	0x3bf1a148	0.0073739626
146	0xbcab9bde	-0.020948347
147	0xbd005b39	-0.031336997
148	0xbcd0899b	-0.02545624
149	0xbb72b3d6	-0.003703346
150	0x3704808d	7.897744e-06
151	0x3a4defdd	0.0007855872
152	0x3d0874a6	0.03331437
153	0xbcd9aa93	-0.026570594
154	0xbcaca412	-0.021074329
155	0xbb4010e2	-0.0029306938
156	0x3d843b2e	0.064566
157	0xbb70aa80	-0.003672272
158	0xbd9d929a	-0.07693978
159	0xbd7602b3	-0.060061168
160	0x3ce789a0	0.028263867
161	0x3b636e38	0.0034703147
162	0x3d991975	0.07475559
163	0x3bdb28ba	0.0066882046
164	0x3c81968b	0.015818855
165	0xbc067197	-0.008205793
166	0x3d73314d	0.05937319
167	0x3ce4089d	0.027836138
168	0x3beccb10	0.0072263554
169	0x3d7fd7b6	0.062461577
170	0xbd400b80	-0.046885967
171	0x3d56e8d9	0.052468155
172	0xbcf06102	-0.029343132
173	0x3c292f06	0.010326153
174	0xbb04472b	-0.002018402
175	0x39f231ce	0.00046194944
176	0xbd38b679	-0.045095894
177	0x3cac3d6e	0.021025386
178	0x3d0da028	0.034576565
179	0x3cc35adf	0.023847042
180	0x3d673964	0.056451216
181	0xbc07fe9c	-0.00830045
182	0xbc977a9e	-0.018491086
183	0x3b3cf04e	0.0028829756
184	0x3c472242	0.012154164
185	0x3d580cc7	0.05274656
186	0xbd34e164	-0.04416026
187	0x3c8f8130	0.017517656
188	0x3bebd6d3	0.00719724
189	0x3d138485	0.036015052
190	0xbc74f641	-0.01495129
191	0x3d2b9591	0.041890685
192	0x3b4813e6	0.0030529439
193	0x3d412a1b	0.047159296
194	0x3d0290ec	0.03187649
195	0x3d360da5	0.044446606
196	0xbcb26659	-0.021777319
197	0xbcffda25	-0.03123195
198	0x3c8d05a4	0.017214604
199	0x3c701ebf	0.014655768
200	0x3d04ab88	0.032390147
201	0xbc5a68e5	-0.013330673
202	0x3d6522b2	0.05594129
203	0xbc1b9a2a	-0.009497205
204	0xbcd6db25	-0.026227543
205	0x3d3a90e6	0.045548342
206	0xbc0d3d7a	-0.008620614
207	0xbd6d3c57	-0.057918873
208	0xbbfe31b9	-0.0077573922
209	0x3c80ff7e	0.015746828
210	0xbc1b802a	-0.009491006
211	0x3d65f0d7	0.056137886
212	0xbc22d630	-0.009938762
213	0x3c9f0f95	0.01941661
214	0x3d2b29a9	0.041787777
215	0xbd05e11b	-0.03268538
216	0x3c58548c	0.013203751
217	0xbc24dbb7	-0.01006215
218	0x3d2fa65f	0.042883273
219	0xbd24e8f3	-0.04026122
220	0x3c12ab65	0.008951996
221	0x3b95a88b	0.004567211
222	0xba85ded6	-0.0010213505
223	0xbd00ac5b	-0.03141437
224	0x3c1a8200	0.0094304085
225	0xbd34f6d6	-0.044180714
226	0xbd83fa23	-0.06444194
227	0x3d5c8005	0.053833026
228	0x3d78c262	0.060732253
229	0xbc98531d	-0.018594319
230	0xbd3c4a43	-0.04596926
231	0xbb9ac3ff	-0.0047230716
232	0xbcae6e82	-0.021292929
233	0x3a5d3a5e	0.00084391783
234	0x3cf0bad5	0.029385963
235	0xbc3a58a0	-0.011373669
236	0x3ab96b51	0.0014146363
237	0xbd7c45ef	-0.06159013
238	0x3d444e89	0.04792646
239	0xbd0fa491	-0.035069052
240	0x3b89af39	0.0042017964
241	0x3d003da4	0.031308785
242	0x3bc83479	0.006109771
243	0x3da60123	0.081056856
244	0x3bf995b2	0.007616722
245	0x3dd6dfa8	0.10491878
246	0x3cc332f7	0.023828013
247	0xbc3929c4	-0.011301462
248	0xbd14884d	-0.0362628
249	0x3bc7a4d4	0.006092647
250	0x3d3ff3f2	0.046863504
251	0x3c4fb6b1	0.012677834
252	0xbc4d892d	-0.012544912
253	0x3d822f23	0.06356647
254	0x3c99256b	0.0186946
255	0xba7f97a0	-0.0009750072

network_body.linear_encoder.seq_layers.0.weight f4 [256, 19]
0	0xbd488105	-0.048951168
1	0xbe8c22ba	-0.27370244
2	0x3da67d4a	0.08129366
3	0x3e4edbbc	0.2020101
4	0x3e9fb208	0.31190515
5	0xbc9447af	-0.018100588
6	0x3da33ec7	0.07970958
7	0xbe31742a	-0.1732947
8	0x3e5dbc22	0.21653798
9	0x3db975ba	0.09055658
10	0x3d885601	0.06657029
11	0x3da869a3	0.082232736
12	0x3db59b31	0.08867491
13	0xbc156428	-0.009118117
14	0xbdaca328	-0.08429557
15	0xbe32bf03	-0.17455678
16	0x3d939c69	0.07207567
17	0xbe08264e	-0.13295862
18	0x3e0c5753	0.13705187
19	0xbe026119	-0.12732352
20	0xbd5bf60d	-0.05370145
21	0xbcd9941d	-0.026559884
22	0x3e56a2d0	0.20960546
23	0xbe62a26d	-0.22132273
24	0x3e3d68bb	0.18496983
25	0x3e9c24cd	0.30496827
26	0xbd29b504	-0.041432396
27	0x3e23dcec	0.16002244
28	0xbddd2cd2	-0.107995644
29	0xbd611846	-0.05495479
30	0x3ddd5db1	0.10808886
31	0x3eaef161	0.34168532
32	0x3edfd6ea	0.43718654
33	0xbe408160	-0.18799353
34	0xbe4d40dc	-0.20044273
35	0x3e9fcfb0	0.3121314
36	0x3d461e21	0.048368577
37	0x3e6f96c5	0.23397358
38	0x3e4fe030	0.20300364
39	0xbe123bfc	-0.14280695
40	0xbe761875	-0.24032767
41	0x3df5b715	0.11997811
42	0x3e953870	0.2914462
43	0xbec51770	-0.38494444
44	0xbea6a09f	-0.3254442
45	0xbcda6b9a	-0.026662637
46	0xbe04bdaa	-0.12962976
47	0x3e9bb6a3	0.30412778
48	0xbdbe4a8e	-0.09291564
49	0xbda989d7	-0.08278244
50	0x3e341038	0.17584312
51	0xbee0b678	-0.43889213
52	0xbe78cc9c	-0.24296802
53	0xbcdb3bab	-0.02676185
54	0xbefa9d09	-0.48947933
55	0x3ebdf863	0.37103567
56	0x3ecc383c	0.39886653
57	0x3e9e67c8	0.30938554
58	0xbec6993e	-0.3878879
59	0x3e15bf2f	0.14623712
60	0xbeb3773c	-0.35051906
61	0xbe8c870f	-0.27446792
62	0xbe6926dc	-0.2276873
63	0x3f0dabb5	0.5534013
64	0xbea4faa0	-0.32222462
65	0xbe59517b	-0.21222489
66	0x3c0963b3	0.008385587
67	0x3d09e8f2	0.03366942
68	0x3d4e68e4	0.050393
69	0x3e9dd649	0.3082755
70	0x3ca0caba	0.019627918
71	0xbecda1f6	-0.4016263
72	0x3e1a51ed	0.15070315
73	0xbeb60b91	-0.355557
74	0xbe043525	-0.12910898
75	0x3edc4e9c	0.43028724
76	0xbf06b5b7	-0.52621025
77	0x3dbeb83e	0.09312485
78	0x3ed79fd6	0.42114133
79	0xbed19e3d	-0.4094104
80	0xbe134e82	-0.14385417
81	0xbe7a679d	-0.24453588
82	0xbc178c5c	-0.009249773
83	0xbe953505	-0.29142013
84	0x3d1da068	0.038483053
85	0xbea8eddb	-0.3299397
86	0xbe85da7d	-0.26143256
87	0x3e36fe6b	0.1787049
88	0xbe93ec42	-0.28891188
89	0xbe912f68	-0.2835648
90	0x3d27652f	0.04086798
91	0x3d869a28	0.06572372
92	0x3ea23e68	0.31688237
93	0x3d42aac6	0.047526143
94	0xbd3902b2	-0.045168586
95	0xbe44e7b3	-0.19229011
96	0x3db13435	0.08652536
97	0x3d9aef15	0.075651325
98	0xbe8a2cb9	-0.26987246
99	0xbe7592d6	-0.23981795
100	0x3edd7344	0.43252003
101	0xbf288777	-0.658317
102	0x3e81e013	0.25366268
103	0x3cc2860c	0.02374556
104	0x3e9bc37c	0.3042258
105	0x3dfc9ea8	0.12334949
106	0xbe546e9a	-0.20745316
107	0xbe04c716	-0.1296657
108	0x3f37bc6b	0.7177188
109	0x3e56ed06	0.20988855
110	0x3e87fe6e	0.26561302
111	0xbe338581	-0.17531396
112	0x3e533a77	0.20627771
113	0x3e6c7011	0.23089625
114	0x3e5e1bfd	0.21690364
115	0xbc9586c6	-0.018252742
116	0xbe49269c	-0.19643635
117	0x3df981b4	0.12182942
118	0x3df56a7a	0.119831994
119	0x3da2fbe0	0.079581976
120	0xbc1a4d6f	-0.009417876
121	0x3ee04697	0.43803856
122	0x3c973ebb	0.01846253
123	0x3e6e8d5e	0.23296115
124	0x3d4033d6	0.046924435
125	0x3e067fde	0.13134715
126	0xbe700b11	-0.23441721
127	0xbe24958e	-0.16072676
128	0xbd176f46	-0.036971353
129	0x3d8928d9	0.06697244
130	0x3ddd3781	0.10801602
131	0x3d3381a4	0.043824807
132	0xbe254f96	-0.16143641
133	0xbeb561e3	-0.35426244
134	0xbe033885	-0.12814529
135	0x3eeee323	0.46657667
136	0xbecd7203	-0.40126047
137	0x3e0135cf	0.12618183
138	0x3dfa9e2c	0.122372
139	0x3e6b38ca	0.22970882
140	0xbd83b73e	-0.06431435
141	0x3e9dbfbc	0.30810344
142	0xbe80ea0f	-0.25178573
143	0x3e94fda1	0.29099753
144	0x3d82ec39	0.06392712
145	0xbe450e69	-0.19243778
146	0xbda11c40	-0.078667164
147	0x3e0c082a	0.1367499
148	0xbd4d5ea2	-0.050139077
149	0xbdd28fc2	-0.10281326
150	0x3f14786f	0.5799627
151	0xbeb3ee34	-0.35142672
152	0x3c6c17e2	0.014409991
153	0xbdc9744a	-0.098366335
154	0x3db827a8	0.08991939
155	0x3d69e554	0.05710347
156	0xbe47b1de	-0.19501445
157	0xbee1db7b	-0.44112763
158	0x3e751797	0.2393478
159	0x3de141a5	0.10998849
160	0xbe64f063	-0.22357325
161	0xbea76b55	-0.32699075
162	0xbe53bbb4	-0.20677072
163	0xbefb8ed7	-0.49132416
164	0x3e4d2944	0.20035273
165	0x3e9cd427	0.3063061
166	0x3eae3dc5	0.340315
167	0xbda9729a	-0.08273812
168	0xbe2770f1	-0.16351677
169	0xbe94690e	-0.289864
170	0x3d4464cd	0.047947694
171	0xbe3bfa8b	-0.18357293
172	0x3ecc0aa8	0.3985188
173	0xbe4f4f53	-0.20245104
174	0xbdbc6df6	-0.09200661
175	0xbe8a2bbf	-0.269865
176	0xbde49a64	-0.1116226
177	0x3d12cb17	0.035838213
178	0xbe810e2f	-0.25206134
179	0xbcc690e6	-0.024239015
180	0x3e5b3324	0.21406227
181	0x3dbddfdc	0.092712134
182	0xbda3f9e3	-0.080066465
183	0xbdaae327	-0.08344107
184	0x3d536075	0.05160566
185	0xbebe6a93	-0.37190685
186	0x3edd9f4c	0.43285596
187	0x3e8e853f	0.27836034
188	0x3f031e87	0.51218456
189	0x3e618f95	0.22027428
190	0xbdd0e9ff	-0.10200881
191	0xbe86f13a	-0.26355916
192	0xbe27b289	-0.163767
193	0xbe29c21f	-0.16577958
194	0x3dd43e51	0.103634484
195	0xbe771e6b	-0.24132697
196	0xbd3e11b7	-0.046403613
197	0xbe2735f0	-0.1632917
198	0xbd660398	-0.05615577
199	0x3e19a2cd	0.1500351
200	0x3eab7ac3	0.33492097
201	0xbe7f077a	-0.24905196
202	0x3e916066	0.2839386
203	0xbe289694	-0.16463691
204	0xbe15c9fc	-0.14627832
205	0xbe1c5755	-0.1526769
206	0xbea7ee85	-0.32799163
207	0xbd76627d	-0.06015252
208	0x3d91088b	0.070817076
209	0xbe1ea38f	-0.1549208
210	0x3eadfa2e	0.33979934
211	0xbd9b02e5	-0.075689115
212	0xbd72ed35	-0.05930825
213	0xbe16bb60	-0.14719915
214	0x3d58abab	0.05289809
215	0x3d065c95	0.032803137
216	0x3e4a883b	0.1977853
217	0xbec6ce20	-0.38829136
218	0x3ed86de0	0.42271328
219	0xbe20bfe0	-0.15698195
220	0x3e29767c	0.16549104
221	0x3e1b626a	0.1517426
222	0x3e18fc50	0.1494
223	0x3e4b1ed5	0.1983598
224	0xbce7bf00	-0.028289318
225	0xbdc77a3d	-0.09740112
226	0x3eb70367	0.35744783
227	0xbd01b6d5	-0.031668503
228	0x3db1ea75	0.08687297
229	0xbe87192b	-0.2638639
230	0xbe76c920	-0.2410016
231	0xbe52776a	-0.20553365
232	0x3f08966b	0.5335452
233	0x3c932e18	0.017966315
234	0xbb3af3b5	-0.0028526608
235	0xbe2beba5	-0.1678911
236	0xbd99d874	-0.07511988
237	0x3e72c112	0.23706463
238	0x3dc033d1	0.09384883
239	0x3aad1d27	0.0013207541
240	0x3e71daeb	0.23618667
241	0xbeb099f6	-0.34492463
242	0x3dc68d73	0.09694948
243	0xbe7aacc5	-0.24479969
244	0x3f0df29f	0.55448335
245	0x3ef212cb	0.47279963
246	0x3eb2b96c	0.3490709
247	0x3e9a1fb8	0.30102324
248	0x3e151693	0.14559393
249	0xbe40fe2c	-0.18846959
250	0x3da311a5	0.0796235
251	0xbed57062	-0.41687304
252	0x3da7b785	0.081893004
253	0x3f076a07	0.5289616
254	0x3e6ec415	0.23316987
255	0x3e49f3db	0.1972193

network_body.linear_encoder.seq_layers.2.bias f4 [256]
0	0x3c5e7b69	0.013579228
1	0xbc10ac49	-0.0088301385
2	0xbcd43ed6	-0.025908869
3	0x37c60797	2.3606974e-05
4	0xbd7df1e6	-0.06199827
5	0x3ba35711	0.0049847444
6	0x3d21a18d	0.039460707
7	0xbcdb1b67	-0.026746465
8	0x3cff74c9	0.031183617
9	0xbd27b1c4	-0.040941015
10	0xbcd817cc	-0.026378535
11	0xbbfe534e	-0.0077613955
12	0xbd9ea844	-0.07746938
13	0x3cfeeb3c	0.031118028
14	0x3c2d997d	0.0105956765
15	0xbdaa8091	-0.08325303
16	0x3c736a5b	0.0148569
17	0x3ca217c3	0.019786721
18	0xbc80d822	-0.01572806
19	0x3b4493c8	0.002999531
20	0x3be3795e	0.0069419583
21	0xbc92e31e	-0.017930564
22	0xbd957e53	-0.07299485
23	0xbd76d24a	-0.06025914
24	0xbda0cb57	-0.07851284
25	0x3cf9ddb3	0.030501222
26	0xbb98fd47	-0.004668865
27	0xbcc41df6	-0.023940068
28	0xbd525e79	-0.051359627
29	0x3b276536	0.0025542504
30	0x3ca0bf7f	0.019622562
31	0xbbc7205b	-0.006076855
32	0xbd0d116c	-0.034440443
33	0xbcb8b806	-0.022548687
34	0x3d4132b1	0.047167484
35	0xbc97abbb	-0.018514505
36	0xbcd5d2ca	-0.026101489
37	0xbd1bf206	-0.03807261
38	0x3b5ffb50	0.0034176894
39	0xbd9d0244	-0.07666448
40	0xbdf655fe	-0.120281205
41	0xbd82d858	-0.063889205
42	0xbc062336	-0.008187106
43	0xbc9a2cc7	-0.01882018
44	0xbd1d736c	-0.038440153
45	0xbd858fe0	-0.065215826
46	0x3c94a370	0.01814434
47	0xba0da480	-0.00054032356
48	0x3ca61702	0.020274643
49	0x3cde5d89	0.02714421
50	0x3c000324	0.007813249
51	0x3bc461cc	0.0059931036
52	0x3b27816b	0.0025559317
53	0xbd9f2965	-0.07771567
54	0xbd985493	-0.07438006
55	0xbdda328f	-0.106541745
56	0x3c718a75	0.014742483
57	0x3ba5b703	0.005057217
58	0xbce9123c	-0.028451078
59	0xbbfba5c8	-0.007679675
60	0xbb95ae1d	-0.004567875
61	0x3bb0816a	0.005386521
62	0xbc8e952d	-0.017405117
63	0xbd8d3d0b	-0.06896409
64	0xbcb4030f	-0.021974115
65	0xbda4713c	-0.0802941
66	0x3cec8218	0.028870627
67	0x3d0599a5	0.03261723
68	0xbcbb2a1c	-0.022847228
69	0xbd6b4653	-0.057440113
70	0x3ca46895	0.0200694
71	0xbd2e35c0	-0.04253173
72	0xbcb1cd1c	-0.02170425
73	0x3c0e266c	0.008676153
74	0x3ca57ee5	0.02020211
75	0xbc3edf7a	-0.011649961
76	0x3c9796cf	0.018504528
77	0xbd1663e4	-0.036716357
78	0xbcda4ee9	-0.026648955
79	0xbd55606d	-0.052093912
80	0xbdd7b92e	-0.10533367
81	0xbc80a47b	-0.01570343
82	0xbc814aea	-0.015782792
83	0xbd10f95f	-0.03539407
84	0x3a7ebbe7	0.00097173307
85	0x3cad3aee	0.021146264
86	0xbb4cb9f9	-0.0031238778
87	0x3c94c7d7	0.018161697
88	0xbd8aa39e	-0.06769489
89	0xbc8a3845	-0.016872535
90	0xbdd52812	-0.104080334
91	0xbcdf44fd	-0.027254576
92	0xbd76cd13	-0.060254168
93	0xbb8f62d6	-0.004375796
94	0xbc92e04a	-0.017929215
95	0xbd6cffe2	-0.057861216
96	0x3c00bd58	0.007857643
97	0x3ab0d13f	0.0013490095
98	0x3c326c5b	0.010890092
99	0x3c050456	0.00811871
100	0x3b6664df	0.0035155339
101	0x3a93eefd	0.0011286434
102	0x3d08cd5a	0.033398964
103	0xba1c7dc4	-0.0005969668
104	0xbcee4109	-0.029083746
105	0x3c9d2408	0.01918222
106	0xbd64e693	-0.055883955
107	0xbcd74b11	-0.026280912
108	0xbcd55c2b	-0.026044926
109	0xbd9730fb	-0.07382389
110	0x3a0ac54d	0.00052936823
111	0xbd338113	-0.043824267
112	0x3c3afd9d	0.011413005
113	0xbcf9eb35	-0.030507663
114	0x3b9f147d	0.0048547373
115	0xbd406fbf	-0.04698157
116	0xbd865300	-0.065588
117	0xbdac3781	-0.08409024
118	0xbd247c3e	-0.04015755
119	0xbd917382	-0.071021095
120	0xbce7852e	-0.028261747
121	0x3caaca28	0.020848349
122	0x3cc91221	0.024544777
123	0xbda664d2	-0.08124699
124	0x3b8b86ee	0.004258028
125	0xbc2977ee	-0.010343535
126	0x3d0fbc64	0.035091773
127	0xba0f2324	-0.00054602535
128	0xbbde7d5b	-0.006789846
129	0xbc3e4046	-0.011612004
130	0xbc783210	-0.015148655
131	0xbcd2e4a8	-0.025743797
132	0xbd76cb15	-0.060252268
133	0x3cddca32	0.027073953
134	0xba6532c0	-0.0008743219
135	0xbce1b1b3	-0.027550554
136	0xbc4c0cd3	-0.012454229
137	0x3cba222c	0.022721373
138	0xbcbcc8a2	-0.023044888
139	0x3c34bfb3	0.011032033
140	0xbd8a0120	-0.06738496
141	0x3cddbd28	0.027067736
142	0xbd0f5b87	-0.034999397
143	0x3cbab863	0.022793
144	0xbc62e9ab	-0.013849656
145	0xbd3c37d1	-0.04595167
146	0xbdcb17da	-0.09916659
147	0xbcb6c2d3	-0.022309696
148	0xbc180647	-0.00927884
149	0x3c9eca36	0.019383531
150	0xbc928d09	-0.017889516
151	0xbcf1188e	-0.029430654
152	0x3be89a83	0.0070984974
153	0x39e20612	0.00043110602
154	0xbd83ca8f	-0.06435119
155	0x3cce377f	0.025172947
156	0x3cd0f605	0.025507936
157	0xbc94ae55	-0.018149534
158	0xbcc2670f	-0.023730783
159	0xbbb4144b	-0.005495583
160	0xbd951018	-0.0727846
161	0xbdedfcff	-0.11620521
162	0x3bd72d3e	0.0065666726
163	0xba1a6f5b	-0.0005891227
164	0xbd6812b2	-0.056658454
165	0x3cdbd87b	0.026836624
166	0x3cad53cc	0.021158122
167	0x3d13746a	0.035999693
168	0x3d22ba00	0.039728165
169	0xbe00de96	-0.1258491
170	0xbbdc22a6	-0.0067179976
171	0xbd9b877a	-0.075941995
172	0xbd839526	-0.06424932
173	0xbdec68d7	-0.11543434
174	0xbc7dc548	-0.01548893
175	0xbc8dcb84	-0.017308958
176	0xba0b954a	-0.0005324675
177	0xbbaf21b6	-0.005344595
178	0xbcf2a83c	-0.029621236
179	0xbd15f819	-0.036613557
180	0xbd3e199a	-0.046411134
181	0xbcccf438	-0.025018796
182	0xbd325105	-0.043534297
183	0xbbb725bc	-0.005589215
184	0xbbd43404	-0.0064759273
185	0x3bf94c1b	0.0076079494
186	0x3d3e430f	0.04645067
187	0x3caaa4c1	0.020830514
188	0xbb5133ce	-0.0031921747
189	0xbb3f10bc	-0.0029154262
190	0xbcc9c08d	-0.024627948
191	0xbddfe6f5	-0.109327234
192	0xbc983ee7	-0.018584682
193	0x3c5f9aa4	0.013647709
194	0xbd0e0dbd	-0.03468107
195	0xbd46cd13	-0.048535418
196	0xbd1c0315	-0.038088877
197	0xbde8c339	-0.11365361
198	0x3cc5099d	0.024052436
199	0x3b96ef13	0.0046061366
200	0x3cd77780	0.0263021
201	0xbc9ab21c	-0.018883757
202	0xbc2fc7ab	-0.010728757
203	0xbc04190b	-0.008062611
204	0x3ce46e70	0.027884692
205	0xbd6f05e2	-0.05835522
206	0xbc77ed44	-0.015132252
207	0xbc54730e	-0.012966884
208	0x3d0a4e7c	0.033766255
209	0x3cca4867	0.024692727
210	0xbd798c7b	-0.06092499
211	0xbd79fc29	-0.061031494
212	0xbbe9e521	-0.00713791
213	0xbd605e59	-0.054777477
214	0xbd7f3fa5	-0.062316556
215	0xb92e84ae	-0.0001664336
216	0xbca8cf55	-0.020606676
217	0x3d03996a	0.03212873
218	0xbc8e8dd3	-0.017401611
219	0xbd814065	-0.063111104
220	0xbcb07205	-0.021538744
221	0xbc6191cb	-0.01376767
222	0x3c3aeb57	0.011408648
223	0xbc923dd1	-0.017851742
224	0xbcba8bc9	-0.022771733
225	0x3a422877	0.00074065424
226	0xbd8e86b0	-0.06959283
227	0x3d1fd204	0.039018646
228	0x3a08b766	0.0005215317
229	0xbd74b8e9	-0.059746657
230	0xbd0ac0a8	-0.033875138
231	0xbccb0c45	-0.024786124
232	0xba526e89	-0.0008027335
233	0x3c9d6720	0.019214213
234	0x3d18f5e4	0.037343875
235	0x3b344a7f	0.0027510223
236	0xbbb77192	-0.0055982554
237	0xbdc05882	-0.093918815
238	0x3c5c2026	0.013435399
239	0xbd42f5c5	-0.047597665
240	0x3c304810	0.010759369
241	0x3d2f37f1	0.04277796
242	0xbc483e37	-0.012221864
243	0xbc98474c	-0.018588684
244	0xbd363e9d	-0.044493306
245	0xbb3b85ed	-0.0028613762
246	0xbc8ca82e	-0.017170038
247	0x3ce57ba5	0.02801306
248	0xbde61389	-0.11234195
249	0x3cfdb379	0.030969368
250	0xbdaf4c4d	-0.08559475
251	0x3d15d01a	0.036575414
252	0xbd508b8d	-0.050914336
253	0x3d15194a	0.03640107
254	0x3c94d722	0.01816899
255	0xbb7558a8	-0.0037436876

network_body.linear_encoder.seq_layers.2.weight f4 [256, 256]
0	0xbd607345	-0.05479743
1	0xbde763f0	-0.112983584
2	0xbd2500ea	-0.040284075
3	0xbd6b1765	-0.057395358
4	0x3d17b288	0.037035495
5	0xbd341b53	-0.04397137
6	0x3cc94855	0.024570623
7	0x3c2f3de8	0.010695912
8	0x3e02f262	0.12787774
9	0xbd50bd03	-0.050961506
10	0xbdb30230	-0.087406516
11	0xbd1895dc	-0.037252292
12	0x3c74b8c4	0.01493663
13	0xbd76aa83	-0.060221206
14	0x3cc11215	0.023568192
15	0xbd5b824f	-0.05359107
16	0x3cba35ab	0.022730669
17	0xbda77699	-0.081769176
18	0x3d91f36d	0.07126508
19	0xbda1de4c	-0.07903728
20	0x3dabc4ed	0.0838717
21	0xbdd5f77d	-0.10447595
22	0x3cb770b6	0.022392612
23	0xbd4cf579	-0.05003879
24	0xbd185008	-0.0371857
25	0x3cf77978	0.030209288
26	0xbd663be0	-0.056209445
27	0xbd41766c	-0.047232077
28	0x3d1bb50c	0.038014457
29	0xbd68e128	-0.05685535
30	0xbe4ca57c	-0.19985002
31	0x3bcd1158	0.006258171
32	0x3c0363cc	0.008019399
33	0x3da0bfad	0.07849059
34	0xbd8b6250	-0.06805861
35	0xbb9a1989	-0.004702751
36	0x3d5ccf29	0.0539085
37	0xbdb35af0	-0.08757579
38	0x3dcb9e59	0.09942312
39	0x3ba9eebc	0.00518593
40	0x3d35c141	0.044373754
41	0xbda69c3a	-0.081352666
42	0x3dabef17	0.08395212
43	0x3c9264e7	0.01787038
44	0x3e01ed24	0.12688118
45	0xbd2f4209	-0.042787585
46	0x3dcf3a1a	0.10118504
47	0xbde3f5e0	-0.11130881
48	0x3dda33d7	0.10654419
49	0x3d4e907e	0.050430767
50	0xbb3081f4	-0.0026932927
51	0x3d9fbbfa	0.077995256
52	0xbcfcff8d	-0.030883575
53	0xbd38b94e	-0.045098595
54	0x3cb95689	0.022624271
55	0xbdd4c78f	-0.10389625
56	0xbd2d3740	-0.04228902
57	0x3c980b43	0.018560058
58	0xbdde0a62	-0.10841824
59	0x3d340104	0.04394628
60	0x3c7a609f	0.015281825
61	0xbdb3c7f7	-0.08778375
62	0x3d7da0f2	0.061921068
63	0xbe246739	-0.16055001
64	0x3d556b12	0.052104063
65	0xbd5ab30f	-0.05339342
66	0xbc1bf49d	-0.00951877
67	0xbe44ae61	-0.19207145
68	0x3de3df64	0.11126593
69	0xbc69ee7f	-0.014278053
70	0xbd0602e4	-0.0327176
71	0xbd5bd29d	-0.053667653
72	0x3e50200c	0.20324725
73	0x3c8f26ca	0.01747455
74	0xbd8c7077	-0.068573885
75	0xbdbf792c	-0.093492836
76	0x3d997170	0.074923396
77	0xbdede941	-0.11616755
78	0xbd05ab26	-0.032633923
79	0x3dd6cba5	0.10488061
80	0x3c5c2e71	0.013438807
81	0x3d4553e4	0.048175707
82	0x3d33b606	0.043874763
83	0x3d4baf3b	0.04972766
84	0x3d7ac08f	0.061218794
85	0x3ddcae71	0.107754596
86	0x3e2d9f6f	0.1695535
87	0xbd1dcbae	-0.038524322
88	0xbc6985b4	-0.014253069
89	0x3dc31cba	0.095269635
90	0xbcc1507f	-0.023597954
91	0xbd25ccdf	-0.040478583
92	0x3dc723fe	0.09723662
93	0x3d485edd	0.048918594
94	0x3cad93f1	0.021188708
95	0xbd17ec5d	-0.037090648
96	0xbe0aa14d	-0.13538094
97	0xbdceb09b	-0.100922786
98	0x3cb077cc	0.021541499
99	0x3b6b4f7f	0.0035905538
100	0x3d8fa810	0.07014477
101	0xbd5237df	-0.051322814
102	0xbde02dc9	-0.10946233
103	0xbd2eef87	-0.0427089
104	0x3e6407f4	0.22268659
105	0x3c9ab581	0.018885376
106	0x3c50325f	0.012707322
107	0xbbe0a818	-0.006855976
108	0x3cc5cf5b	0.024146726
109	0x3e03cf1a	0.12871972
110	0x3daf4c86	0.085595176
111	0xbd752652	-0.059851
112	0x3c25b56d	0.010114056
113	0x3d3b8de7	0.045789625
114	0x3dc82b5c	0.09773895
115	0x3d7b8772	0.061408468
116	0x3d868b2c	0.06569514
117	0xbdb1ac07	-0.0867539
118	0x3a6a8fe5	0.00089478336
119	0x3ddd406f	0.10803305
120	0xbc1702a7	-0.009216941
121	0x3e167f06	0.14696893
122	0x3d467d3f	0.048459288
123	0x3db40ca1	0.08791471
124	0xbd1bcca8	-0.038036972
125	0xbd90afc5	-0.070647754
126	0x3e7bf6f3	0.24605922
127	0x3da0b787	0.07847505
128	0xbbd12b65	-0.006383347
129	0xbd0c15ed	-0.034200598
130	0x3d5edd00	0.05440998
131	0xbe010c95	-0.12602456
132	0xbc40f01b	-0.011775996
133	0xbc401726	-0.011724269
134	0xbe0a8778	-0.1352824
135	0x3dfac360	0.12244296
136	0xbd062bfe	-0.032756798
137	0xbd382d79	-0.04496524
138	0x3e248ffe	0.16070554
139	0xbdbcb1ac	-0.09213576
140	0xbe1ea514	-0.1549266
141	0xbdcc7862	-0.09983899
142	0x3d55e424	0.052219525
143	0x3d648b84	0.055797115
144	0xbd9ee585	-0.07758621
145	0x3c7ea71d	0.015542773
146	0x3cca7efa	0.02471875
147	0x3c00ae89	0.007854112
148	0xbc8600af	-0.016357748
149	0x3b7ff357	0.0039054954
150	0xbd7f33e7	-0.062305357
151	0xbdc52c72	-0.09627618
152	0x3e1b2447	0.15150557
153	0x3dddf348	0.10837418
154	0x3d96612f	0.07342755
155	0x3d46e131	0.048554603
156	0x3d000593	0.031255316
157	0xbddca09f	-0.107728235
158	0xbd822de8	-0.06356412
159	0xbd0ce80e	-0.034400992
160	0xbd215635	-0.039388854
161	0xbd1dde84	-0.038542286
162	0xbe047178	-0.1293391
163	0xbd74cba1	-0.05976451
164	0x3d3980d4	0.045288876
165	0xbdff3c64	-0.124626905
166	0x3d842f45	0.064543284
167	0x3df1fb39	0.11815495
168	0x3d84c023	0.0648196
169	0xbddb20ff	-0.10699653
170	0x3d6c9da4	0.057767525
171	0xbde3ffb3	-0.11132755
172	0xbdec7ac6	-0.11546855
173	0xbda69b23	-0.08135059
174	0xbe22f6c7	-0.1591445
175	0x3d263a40	0.040582895
176	0x3d7e4102	0.062073715
177	0xbd144210	-0.036195815
178	0xbc0276e6	-0.007962918
179	0x3e8c5ea8	0.27415967
180	0xbe101a72	-0.14072588
181	0xbce504f9	-0.027956473
182	0xbc8c9bc3	-0.017164117
183	0x3d5b53f6	0.05354687
184	0xbe04a8d9	-0.12955035
185	0x3dd3113b	0.10306021
186	0x3b7185b8	0.0036853384
187	0x3e22810f	0.15869544
188	0x3cdbf68c	0.026850961
189	0x3dd1aba8	0.10237819
190	0xbca35a47	-0.019940509
191	0xbc4ad137	-0.012378982
192	0xbdb807a1	-0.0898583
193	0xbd216b16	-0.039408766
194	0x3c4e8682	0.012605311
195	0xbbffee97	-0.0078104245
196	0xbd794adc	-0.060862407
197	0xbda4193e	-0.08012627
198	0x3d21b555	0.039479572
199	0xbe00898e	-0.12552473
200	0x3dcff634	0.101543814
201	0xbdae8371	-0.08521164
202	0xbd087261	-0.033312205
203	0xbdd6c4aa	-0.104867294
204	0xbccb844f	-0.024843363
205	0xbdd1486f	-0.10218894
206	0x3de178bf	0.110093586
207	0xbc26c31b	-0.010178353
208	0x3d1ff25d	0.039049495
209	0x3dbbc1f7	0.09167855
210	0xbe03dff3	-0.12878399
211	0x3b9fd33c	0.004877476
212	0xbd690350	-0.056887925
213	0xbdea0f0d	-0.11428652
214	0x3d835d0c	0.06414232
215	0x3d9a36b0	0.07529962
216	0x3e33f0c5	0.17572315
217	0x3cd55fbe	0.02604663
218	0xbc7f77e4	-0.015592549
219	0xbdc8045c	-0.097664565
220	0xbdb8a191	-0.09015191
221	0x3c48a858	0.0122471675
222	0x3d20c019	0.0392457
223	0xbd263e82	-0.040586956
224	0xbd45627d	-0.04818963
225	0xbe284648	-0.1643306
226	0xbdd1a60c	-0.10236749
227	0xbd8dc415	-0.06922165
228	0xbdebbf88	-0.11511141
229	0x3b2790bb	0.0025568444
230	0x3df1e090	0.1181041
231	0xbddf9996	-0.10917966
232	0x3e7700bf	0.24121378
233	0x3d39a798	0.045325845
234	0x3da257ae	0.0792688
235	0x3cb8f9f0	0.022580117
236	0xbd5fc2aa	-0.054629005
237	0xbd49c776	-0.049262486
238	0x3e6e6834	0.23281938
239	0x3daa0233	0.08301201
240	0x3d142a8a	0.03617338
241	0x3df1e8d2	0.11811985
242	0x3e083b0f	0.13303779
243	0xbd4bdb3a	-0.049769618
244	0x3d932958	0.0718562
245	0xbb3a14ff	-0.0028393862
246	0xbca5be91	-0.02023247
247	0x3da7a7a5	0.081862725
248	0x3daae204	0.0834389
249	0xbe089556	-0.13338217
250	0x3cf2d529	0.029642658
251	0x3d489c2a	0.048977055
252	0xbd6e588b	-0.05818991
253	0xbda75fe0	-0.081725836
254	0xbd0c0a57	-0.03418955
255	0xbd0e398f	-0.03472286

network_body.linear_encoder.seq_layers.4.bias f4 [256]
0	0xbd6f015a	-0.0583509
1	0xbcb54ff2	-0.022132847
2	0xbca40c8a	-0.02002551
3	0xbd7d0aec	-0.061777994
4	0x3bdd5e70	0.0067556426
5	0x3d633323	0.05546869
6	0xbcce2e4c	-0.02516856
7	0xbd004399	-0.031314466
8	0x3d658ce7	0.056042578
9	0xbc06ceee	-0.008228047
10	0xbcaa721e	-0.020806368
11	0x3c579caf	0.013159915
12	0xbcef5f57	-0.029220266
13	0xbc64e0e4	-0.013969634
14	0x3c924abc	0.017857902
15	0xbd38beda	-0.045103885
16	0xbca8175a	-0.020518947
17	0xbd2eb067	-0.0426487
18	0xbd13c558	-0.036076874
19	0x3d74b994	0.059747294
20	0xbcbc624b	-0.022996088
21	0xbd3dadbb	-0.04630826
22	0xbc1e1e2b	-0.009650747
23	0x3c66e6a0	0.014093071
24	0xbb77d6b7	-0.003781719
25	0x3d60ca11	0.054880206
26	0xbd1c52ee	-0.038165025
27	0x3d22f4c4	0.039784208
28	0xbac549a4	-0.0015051854
29	0xbc260b61	-0.010134549
30	0xbc955109	-0.018227117
31	0x3c5439c4	0.0129532255
32	0xbc246383	-0.010033491
33	0x3c63c4b2	0.013901876
34	0xbd2dbd43	-0.042416822
35	0xbd0a74ab	-0.03380267
36	0xbd616b8a	-0.055034198
37	0xbd7a1604	-0.061056152
38	0x3d8491ef	0.06473147
39	0x3caec5e5	0.021334598
40	0xbcb163ab	-0.02165397
41	0xbd57d1f7	-0.052690472
42	0xbccc5fa5	-0.02494795
43	0xbc9c1463	-0.01905269
44	0x3d7bff4f	0.061522778
45	0x3bf8fb66	0.0075983284
46	0x3c66216d	0.014046055
47	0xbd8775fe	-0.06614302
48	0x3d1e826a	0.03869859
49	0x3ab3388d	0.001367347
50	0xbd001d11	-0.03127772
51	0xbd9c9b6f	-0.07646834
52	0xbb0e603d	-0.0021724843
53	0x3ca14ad7	0.019689007
54	0xbb218a64	-0.0024649138
55	0x3c5fa5f3	0.013650405
56	0xbca41ce4	-0.020033307
57	0x3c16c3d2	0.009201961
58	0xbc9bc055	-0.01901261
59	0x3d277432	0.040882297
60	0xbccd33a7	-0.025049044
61	0x3c518ec2	0.012790384
62	0xbdaecb16	-0.08534829
63	0xbc73bf88	-0.014877208
64	0xbd9d048c	-0.07666883
65	0xbc8369c0	-0.016041636
66	0x3d4d12d4	0.050066784
67	0xbca59aa2	-0.020215336
68	0x3d6cc949	0.057809148
69	0xbd89cb0f	-0.067281835
70	0x3aadcf05	0.0013260549
71	0x3c2bdc06	0.010489469
72	0x3c037afc	0.008024927
73	0xbd9fd379	-0.07804007
74	0x3bc7889c	0.006089283
75	0xbd94d6ef	-0.07267558
76	0xbc4b4510	-0.0124066025
77	0x3d193ac2	0.03740955
78	0x3b930082	0.0044861445
79	0xbcbc1825	-0.022960732
80	0xbccba879	-0.024860607
81	0xbd7a2cf7	-0.061078038
82	0x3cac7a4b	0.021054408
83	0x3d228991	0.039681975
84	0x3ba00303	0.0048831715
85	0xbd0b5066	-0.03401222
86	0x3cb74785	0.02237297
87	0xbd8c2d05	-0.06844524
88	0xbd9147c0	-0.07093763
89	0x3c9d25d2	0.019183073
90	0xbb96c067	-0.004600573
91	0x3d03822c	0.032106563
92	0x3c823598	0.015894696
93	0xbc99969d	-0.018748576
94	0x3d70cb55	0.058787663
95	0xbc865c1b	-0.016401341
96	0xbd25a906	-0.040444396
97	0xbcba13a9	-0.022714453
98	0xbdac8d80	-0.084254265
99	0xbd50bf15	-0.05096348
100	0xbc4e11d0	-0.012577489
101	0x3c250c63	0.010073754
102	0xbd72c253	-0.059267353
103	0xbcf88e5a	-0.030341316
104	0x3b3e2a0d	0.0029016763
105	0x3d350d0d	0.0442019
106	0x3d27bbe4	0.04095067
107	0xbd25a03b	-0.04043601
108	0x3d051cd7	0.032498207
109	0x3d9109eb	0.0708197
110	0x3cafd1db	0.021462372
111	0x3c168673	0.009187329
112	0xbc85e226	-0.016343188
113	0xbbdbe422	-0.006710545
114	0xba537839	-0.0008066926
115	0xbd44b668	-0.04802552
116	0xbce6c6cc	-0.028170966
117	0xba8dcd73	-0.0010818675
118	0xbcd86221	-0.026413979
119	0x3d8c72e6	0.06857853
120	0xbd185296	-0.037188135
121	0xbcfc4955	-0.030796686
122	0x3cc559be	0.024090644
123	0x3d616a19	0.055032823
124	0x3d7bd1fc	0.061479554
125	0x3c0f9fec	0.008766156
126	0x3bd9f534	0.006651545
127	0xbc0fccd7	-0.008776865
128	0xbd148a58	-0.036264747
129	0x3c9712f7	0.01844166
130	0x3bb417fd	0.0054960237
131	0xbc4a87e5	-0.012361501
132	0x3c69ff5f	0.014282077
133	0x39719586	0.00023039253
134	0x3cd455d5	0.025919834
135	0xbd9e815c	-0.07739517
136	0xbc937888	-0.01800181
137	0xbd11d320	-0.035601735
138	0xbcff697e	-0.031178232
139	0xbc84d956	-0.016216915
140	0xbcca4082	-0.024688963
141	0x3ce96fd3	0.028495705
142	0xbb7f85a5	-0.003898957
143	0x3a1966e0	0.00058518164
144	0xbc89598e	-0.016766336
145	0xbc116544	-0.008874241
146	0xbca25907	-0.019817842
147	0x3bf601cf	0.00750754
148	0x3b519eca	0.0031985515
149	0xbc335dae	-0.010947628
150	0xbc0346e4	-0.008012507
151	0xbd5892ca	-0.052874364
152	0xba8dd91b	-0.0010822149
153	0xbcd241c8	-0.025666133
154	0xbccaa8c2	-0.024738673
155	0xbd10e5f6	-0.035375558
156	0xbaec571b	-0.001803133
157	0xbcabf01e	-0.02098852
158	0x3cccacc5	0.024984727
159	0x3c99a480	0.018755198
160	0xbd7498d5	-0.059716064
161	0xbd04b493	-0.03239877
162	0x3a72f177	0.00092675484
163	0xbd01cfdf	-0.031692382
164	0xba13821c	-0.0005626993
165	0xbd000001	-0.031250004
166	0xbd2be3e8	-0.041965395
167	0xbcf62e69	-0.030051427
168	0x3d2f9a99	0.042872045
169	0xbdb288c6	-0.08717494
170	0xbb63c3c3	-0.0034754134
171	0x3ce7c120	0.028290331
172	0xbb353160	-0.0027647838
173	0xba420d4c	-0.0007402494
174	0xbc88e228	-0.016709402
175	0xbcc2d2dc	-0.023782186
176	0x3ad29b0b	0.0016067935
177	0x3c57d355	0.013172944
178	0xbc77c3ed	-0.015122396
179	0x3cda4654	0.026644863
180	0x3cd1ce6b	0.025611123
181	0xbcf69d20	-0.03010422
182	0xb9a567d3	-0.00031548608
183	0xbd1135f7	-0.035451856
184	0xbce39172	-0.027779315
185	0x3cee2a80	0.029073
186	0xbc6101bd	-0.013733325
187	0x3d4ff95a	0.05077491
188	0xbd42f2ed	-0.047594953
189	0xbcd01ecc	-0.02540531
190	0xbd99e0f6	-0.07513611
191	0x3c38c4e6	0.011277413
192	0xbcc957f6	-0.024578076
193	0x3c8a293b	0.016865363
194	0xbcba96e8	-0.022777036
195	0xbd98b675	-0.07456676
196	0xbd754c88	-0.05988744
197	0xbcad5852	-0.021160278
198	0x3cac7673	0.021052575
199	0x3cdf78bf	0.027279256
200	0x3d2003c6	0.0390661
201	0xbd01eb3f	-0.03171849
202	0xbd3c921f	-0.04603779
203	0x3d1288b3	0.035774898
204	0x3d9a4eaf	0.07534539
205	0xbd80c405	-0.06287388
206	0xbcddefb7	-0.027091844
207	0xbd1bd8a0	-0.038048387
208	0xbcc382f7	-0.02386616
209	0xbd1d6ac2	-0.03843189
210	0x3b9d9b87	0.0048098
211	0xbc2071e1	-0.009792776
212	0x3c699503	0.014256719
213	0xbd09c3a8	-0.033633858
214	0xbd57bcd9	-0.052670334
215	0xbccd0c10	-0.025030166
216	0xbc8418f3	-0.016125178
217	0x3cc37fbf	0.023864625
218	0x3c93df8a	0.018050928
219	0xbd34cfd6	-0.04414352
220	0x3d326a1e	0.043558232
221	0x3ba9c0f4	0.0051804725
222	0xbd800a4d	-0.06251965
223	0xbcefc47d	-0.029268498
224	0xbd99228c	-0.074772924
225	0x3c86cc18	0.016454741
226	0xbcb8353c	-0.022486322
227	0xbc983bcc	-0.0185832
228	0x3d62ffd5	0.05541976
229	0xbaec9ae7	-0.0018051536
230	0xbd49e036	-0.04928609
231	0xbc463e27	-0.012099779
232	0x3d115dae	0.03548973
233	0xbb3f6cbb	-0.0029209096
234	0xbab74e0c	-0.0013985052
235	0xbc306510	-0.010766283
236	0x3bfefd30	0.007781647
237	0xbcac1928	-0.02100809
238	0x3cfe217c	0.031021826
239	0xbd796655	-0.060888607
240	0x3cc5d078	0.024147257
241	0xbce9bed4	-0.028533377
242	0x3c852845	0.016254554
243	0x3bd89057	0.0066090035
244	0x3ce4da7f	0.027936218
245	0x3cb7202b	0.022354206
246	0xbd1e1fb7	-0.038604464
247	0x3c6b3092	0.014354842
248	0xbc8aa049	-0.016922133
249	0xbd9ffc10	-0.07811749
250	0xbc9d6950	-0.019215256
251	0xbcb7df0b	-0.022445222
252	0x3d088291	0.033327643
253	0xbcaf80b7	-0.02142368
254	0x3ce1c06b	0.027557572
255	0xbd4dc4f8	-0.050236672

network_body.linear_encoder.seq_layers.4.weight f4 [256, 256]
0	0xbe1e05a6	-0.15431842
1	0x3dd2e34c	0.1029726
2	0xbe01f441	-0.12690832
3	0xbe35a711	-0.17739512
4	0x3d716945	0.058938283
5	0xbda1b32f	-0.07895505
6	0x3e3e93a5	0.1861101
7	0x3d4250b1	0.047440235
8	0x3b76915b	0.003762326
9	0xbccfd09a	-0.025368024
10	0xbb4657b2	-0.0030264673
11	0x3d0d1359	0.03444228
12	0xbc8c49fa	-0.017125119
13	0x3b2ba311	0.0026189724
14	0xbe39d6b3	-0.18148308
15	0x3b9eba86	0.0048440127
16	0xbdbd763c	-0.09251067
17	0x3d7f045a	0.06226001
18	0x3d1c8409	0.038211856
19	0x3d8b2c1d	0.06795523
20	0xbd76b338	-0.06022951
21	0xbdc18031	-0.09448279
22	0xbcc7972b	-0.024364075
23	0x3d8a8ebf	0.06765508
24	0xbc91a51b	-0.017778924
25	0xbe191ffc	-0.14953607
26	0xbc9c6058	-0.019088909
27	0x3d9839a8	0.07432872
28	0x3d205a38	0.03914854
29	0xbe438b38	-0.19096076
30	0xbd49aab7	-0.049235072
31	0x3d875697	0.066083126
32	0x3e0ce949	0.13760866
33	0xbd96aa58	-0.07356709
34	0x3d5288cb	0.051399987
35	0x3e4ed6aa	0.20199075
36	0xbd6ac4f6	-0.057316743
37	0xbdbef0c1	-0.09323264
38	0xbbea9c91	-0.0071597775
39	0x3e197e27	0.1498953
40	0xbdf59f9e	-0.11993335
41	0x3db2104d	0.086945154
42	0x3d5c42cc	0.05377464
43	0xbcb80d69	-0.022467332
44	0x3cb057ea	0.021526296
45	0xbc4a63f3	-0.012352931
46	0xbd98af2d	-0.07455287
47	0x3d3f9a10	0.046777785
48	0xbdad2a52	-0.084553376
49	0x3cfc211e	0.03077751
50	0x3bbc7879	0.005751666
51	0xbd0afca9	-0.03393236
52	0xbcf4bb17	-0.029874368
53	0xbc9e1727	-0.01929815
54	0xbb793db1	-0.0038031156
55	0x3d11e3d9	0.035617683
56	0xbd805e0e	-0.062679395
57	0xbdaf794d	-0.08568058
58	0x3d9d9768	0.07694894
59	0x3d0a58ba	0.033776022
60	0xbe4fc6cf	-0.20290683
61	0xbd8996d1	-0.06718219
62	0x3dbc8774	0.09205523
63	0x3c3f300c	0.01166917
64	0x3df7ff56	0.12109248
65	0x3ce8dd4f	0.02842584
66	0x3cdc7216	0.02690987
67	0x3c21f3ea	0.009884814
68	0x3c127b6e	0.008940561
69	0x3cb40478	0.021974787
70	0x3de61322	0.11234118
71	0x3cd1aa16	0.025593799
72	0xbda4d303	-0.0804806
73	0x3a3176da	0.00067697244
74	0xbe3cb8be	-0.18429849
75	0xbddbf5c8	-0.107402384
76	0xbc607132	-0.013698863
77	0xbd513451	-0.051075283
78	0xbc8698d3	-0.016430294
79	0x3d357d19	0.044308756
80	0x3e242fe0	0.16033888
81	0x3d0aa84c	0.033851907
82	0x3d6f1f54	0.058379486
83	0x3b7a6971	0.003820982
84	0x3d31cc21	0.043407563
85	0x3d7b06de	0.061285846
86	0xbb89d60c	-0.0042064246
87	0x3ce4cc6d	0.027929509
88	0x3d1ce44f	0.03830367
89	0xbe035e7f	-0.12829016
90	0x3b6f9a96	0.0036560646
91	0x3cc141c2	0.023590926
92	0xbdb3d4fd	-0.08780859
93	0xbd9aa16e	-0.075503215
94	0x3d4a85f0	0.04944414
95	0xbd84e247	-0.064884715
96	0xbe160e75	-0.14653952
97	0xbcd1ce0a	-0.025610942
98	0xbdf0e8b4	-0.117631346
99	0xbe31cf40	-0.17364216
100	0x3aaf16ea	0.0013358269
101	0xbdfb5e5e	-0.122738585
102	0xbe3ce56c	-0.18446892
103	0xbb0da024	-0.0021610344
104	0x3c2a42f6	0.010391941
105	0x3d674138	0.05645868
106	0x3a73e73b	0.00093041704
107	0x3e0149ba	0.1262578
108	0x3c61a8dc	0.013773169
109	0x3cc25dac	0.023726307
110	0xbcf949e1	-0.030430736
111	0x3d9f5b9a	0.077811435
112	0xbd0582ad	-0.032595325
113	0xbc3317f4	-0.010931004
114	0xbd2253b8	-0.03963062
115	0x3d97b04e	0.07406674
116	0xbd5a433a	-0.05328677
117	0x3dfbeb10	0.12300694
118	0x3d3ce044	0.046112314
119	0xbc8df775	-0.01732991
120	0xbd1a967c	-0.03774117
121	0x3db82d8f	0.089930646
122	0xbdb1e5a5	-0.08686379
123	0xbd871905	-0.06596569
124	0xbc8ab1bd	-0.016930455
125	0x3e22efd3	0.15911798
126	0xbd0fd386	-0.035113834
127	0xbdc9a220	-0.09845376
128	0x3e2ffd33	0.17186432
129	0x3d2ec9ad	0.0426728
130	0x3db2af44	0.087248355
131	0x3d1bfd85	0.038083572
132	0xbd85f974	-0.0654172
133	0xbc8dfe8b	-0.01733329
134	0x3d2fafbc	0.042892203
135	0x3dad6c26	0.08467893
136	0xbdd86e7b	-0.105679475
137	0x3dad0f48	0.0845018
138	0xbdb663eb	-0.089057766
139	0xbcbc99f5	-0.023022631
140	0xbd14c69f	-0.036322232
141	0x3ca6b8c0	0.020351768
142	0xbd5cb099	-0.053879354
143	0xbc72f71c	-0.014829423
144	0x3cb2b469	0.021814542
145	0xbe2db45f	-0.16963337
146	0xbcc11b3a	-0.023572553
147	0xbb60992f	-0.0034270992
148	0xbdaa4d86	-0.08315568
149	0xbb9f8138	-0.004867699
150	0x3dbf83a8	0.09351283
151	0xbd301cb8	-0.04299614
152	0xbddee570	-0.108836055
153	0x3bb6f7d0	0.005583741
154	0x3c9637af	0.018337099
155	0xbd2dbf8d	-0.042419005
156	0xbc7a9879	-0.015295141
157	0x3d80fafe	0.06297873
158	0x3d9561be	0.072940335
159	0xbc86e186	-0.01646496
160	0x3dc6f6e7	0.09715062
161	0x3e193c96	0.14964518
162	0x3b3adedb	0.002851418
163	0xbda02244	-0.07819036
164	0xbdbccff5	-0.09219352
165	0x3da03180	0.078219414
166	0x3d926344	0.0714784
167	0xbd3d9b4d	-0.046290684
168	0xbc10dfc1	-0.00884241
169	0x3a3445ea	0.0006876873
170	0xbdb764f2	-0.08954801
171	0x3dbff000	0.09371948
172	0xbccc0ac4	-0.024907477
173	0x3dbb2797	0.091384105
174	0x3d3c6c9d	0.04600202
175	0x3d6a690d	0.05722909
176	0xbd9404cc	-0.072274774
177	0x3dc6ccca	0.09707029
178	0xbdaf9ab7	-0.085744314
179	0x3e045b6b	0.12925498
180	0x3e67c595	0.22633965
181	0x3be8f183	0.0071088686
182	0x3d35e7e9	0.04441062
183	0xbd903a0e	-0.07042323
184	0xbd950567	-0.07276421
185	0xbdec5498	-0.115395725
186	0xbd721410	-0.059101164
187	0x3e0d8228	0.13819182
188	0xbc95b794	-0.018276013
189	0xbcc02546	-0.023455273
190	0xbd0274da	-0.03184972
191	0x3d5cb885	0.05388691
192	0x3d66cb4f	0.056346234
193	0xbdbeea69	-0.09322054
194	0xbd8b80da	-0.06811686
195	0xba727b44	-0.00092499354
196	0x3d8d1472	0.06888665
197	0x3ad61656	0.0016333561
198	0x3c60cb36	0.013720324
199	0xbd5ea7d6	-0.05435928
200	0xbe0de580	-0.13857079
201	0x3bdd70d2	0.006757834
202	0xbd424d3a	-0.04743693
203	0x3d795ce8	0.060879618
204	0x3d0a13da	0.03371034
205	0xbcde483c	-0.027134053
206	0xbdc3e9f1	-0.09566105
207	0x3d925e9f	0.07146954
208	0x3d85f5da	0.06541033
209	0x3c9a702d	0.018852318
210	0x3d15f952	0.036614724
211	0x3b519e49	0.0031985214
212	0xbd93acd5	-0.072106995
213	0xbd96a723	-0.073560975
214	0x3e11f4c3	0.14253525
215	0xbd7ef3ae	-0.06224411
216	0x3d769f3c	0.06021045
217	0xbdac3449	-0.0840841
218	0xbdb6d1c4	-0.08926728
219	0xbc8c072f	-0.01709327
220	0xbd402858	-0.046913475
221	0xbc7f0177	-0.015564314
222	0xbd0df39f	-0.034656163
223	0xbe03bb38	-0.12864387
224	0xbd300ac4	-0.042979017
225	0x3e168bb7	0.14701734
226	0xba548ce4	-0.00081081525
227	0xbd239fbe	-0.039947264
228	0x3cfbacaf	0.03072199
229	0xbd4fbd02	-0.05071736
230	0x3c28dc40	0.010306418
231	0x3d439e67	0.047758486
232	0xbacfc636	-0.0015851918
233	0xbce72b8e	-0.02821901
234	0xbe172be9	-0.14762844
235	0xbdbe0d75	-0.092799105
236	0x3e354c53	0.17704897
237	0x3de1e6b0	0.11030328
238	0xbd19d643	-0.03755785
239	0x3dab79d8	0.08372849
240	0x3c693571	0.014233933
241	0x3be1135e	0.006868764
242	0x3de6a347	0.112616114
243	0x3d8f7cb2	0.070062056
244	0xbd0a8e8c	-0.03382735
245	0x3dc00ee8	0.09377843
246	0xbe1436b2	-0.1447399
247	0xbd899376	-0.06717579
248	0xbbbb9a24	-0.005725162
249	0x3dea6192	0.11444391
250	0x3de51224	0.11185101
251	0x3c25634e	0.010094477
252	0xbdb230d8	-0.087007225
253	0xbc88cfd0	-0.016700655
254	0xbdd04f29	-0.101713486
255	0x3e0ae864	0.13565212
