results/ra_01/Robotarm/Robotarm-235438.onnx (onnx, 147507 bytes, 9 tensors)

action_model._continuous_distribution.log_sigma f4 [1, 5]
00000000: c3bc 42bf a66a adba 54ff 08bf 6975 66be
00000010: 85f0 15be
-0.7606928 -0.0013230636 -0.535146 -0.22505726 -0.14642532

action_model._continuous_distribution.mu.bias f4 [5]
00000000: 02f9 073b d223 9b3d ad81 593a 1d00 56bd
00000010: ffce 283c
0.0020747785 0.075751916 0.0008297216 -0.0522462 0.010303258

action_model._continuous_distribution.mu.weight f4 [5, 128]
00000000: dcd2 d7bd 632a 303c 6c75 343c e104 5d3c
00000010: 987a e8bc cf6e 84bd 7bbf 4dbd d9ad 993c
00000020: dcf4 0c3d b988 acbc ed79 b1bd 0e3e 663d
00000030: d533 9b3c fe2c ec3b efc5 b4bc 7619 acbc
00000040: 050e 1bbd 55b1 3a3c ce56 49bd 634c 9abc
00000050: 5f87 a1bd 8728 063c 4a66 2bbc 986f 68bc
00000060: 377e 393d 98b7 ecbc f806 633c 8b7b 593c
00000070: 7b43 debc 3337 93bb 001a 06bd 8a4e d9bc
00000080: e980 703c fb83 183d 8bcd 34bc 17b5 0f3d
00000090: a53b bb3b d983 c73b c595 d8bc ee95 453c
000000a0: 6fe3 753c d9da 353c 3bb6 46bd f2d3 bb3a
000000b0: bb2f 93bb 4e67 79bd 7a85 83bd 2098 f63c
000000c0: 99c9 cc3c 67f0 f23c 5fa9 243d 1531 a6bd
000000d0: 1e0a af3d 8823 dc3b a7f5 c03c 8148 9a3c
000000e0: bf41 9abc c3f3 d6bc 6676 f9bc 73dc dabc
000000f0: 79d7 5abd 87e1 fcbc b9f1 a63c a912 8e3c
00000100: 69a7 6ebc 963d 88bd 40a7 de3c 1d30 9e3b
00000110: 76cc 00bd 28a5 d5bc 3cc9 c1bc 87ca 2f3d
00000120: ee0d caba 7674 bcbd 073d 963d 4b2f 98bd
00000130: f16b d1bb f928 653d fd04 043c 41fc 0ebd
00000140: 6a83 39bc 947d 18bd d88d c73c 5b3d 80bc
00000150: 266e 19bc 6ae0 20bc 52db 8bbb d07c 36bd
00000160: a2b2 bebd e72c a5bc 44e4 aabc 24d8 1ebd
00000170: 3bf3 e2bc 29a3 0c3e ce2a cdbc 41cd a93c
00000180: d02c 903c 9d9f 713d 6fe1 5d39 c124 b33c
00000190: 6b44 643c 69ae ba3b ed8e 08bd c7fa 49bd
000001a0: b6c2 123b 5b58 703c 292f 58bd 9dd9 8d3d
000001b0: af7c 1ebc ce3a 863c c581 5d3c 144a d5bc
000001c0: b57c a0bc fefc 223d 4a2f 6ebd acad 8b3c
000001d0: 4474 b3bc 614f 45bd 0425 74bc 1a29 e93b
000001e0: 7a96 503d 1f2e 2e3d 092a 91bc 07e2 af3c
000001f0: 04db 483d becb 673c 83d1 9b3d 2ad6 973c
00000200: f9a2 9dbc 1441 fbbd 7343 47bc a355 803d
00000210: 705b 25be 9963 efbd 1404 15be 0bdd 6b3d
00000220: 602e 383d f8cc ecbd b8f7 7f3d 388b 24bb
00000230: 3f0c 7f3d 1318 08be 1d43 1cbe 137d 8f3d
00000240: 3c9e 17bd 48d7 853d 5bec 1ebe b60d 923d
00000250: 8310 98bc ffc7 f3bd d4e3 92bc 2414 57bd
00000260: e62a 733d e173 d13c af0b 743d 9e1d aebd
00000270: 4500 dd3c 4101 893d 413e 08be c25e 283d
00000280: 1554 9a3d 6957 093d 798e 25be 2ea3 85bd
00000290: 7c49 e1bd 81ff 843d b058 833d 46de 253d
000002a0: 9658 ad3d 5b0c a33d 2c50 38be c832 ea3c
000002b0: 0942 bf3d b06a 01be bd8f edbd 1ce6 983d
000002c0: 3377 963d 6028 803c bd49 9e3d 7fd6 38be
000002d0: 9b0e 733c cc36 513c 1a92 b13d b49f 933d
000002e0: 70ce 4e3d 2c24 c1bd d5f7 14be bc9f e8bd
000002f0: 7eaf 553d 0fa8 debd 6c27 f6bd 2eca 843d
00000300: d90e 1a3d e8c9 c4bd 14ee b13d 1d68 01be
00000310: 1af7 c7bd b63d 14be bf91 333d 4bd3 4eba
00000320: 09ee 7c3d 3e4d cabd d94c a1bc 8e41 723d
00000330: 325c a63c 2557 303d 5ebf 1f3d 8757 25be
00000340: bdc7 ce3d 720a 893d 11b7 0e3e 7172 86bc
00000350: 1c4f ae3d b56c 74ba db45 bbbd 7d4a f1bd
00000360: d2b1 0bbe bbae ec3c 46c7 09be 7fba 04be
00000370: 8c9c 02be 7770 da3c 1be5 abbd 1504 943a
00000380: 9177 babd e8a5 7d3d 546e e3bd d374 dabd
00000390: 4a34 af3c 6fe5 e83d f3ec 11be 4927 213d
000003a0: 9097 ee3d bc4b abbd 0cc3 18be dcaf f63c
000003b0: 3e29 cfbd 504e 28bd e989 a3bd 0bfc 1cbe
000003c0: 56b6 a43d eccf 4c3d 19bb 01be 7865 1b3d
000003d0: 17f8 3ebc af6c 07be aa36 8f3c 15cb 8c3d
000003e0: f799 2d3c 447a db3d 610a 0abe 299f 943d
000003f0: 3763 553d c9eb 34bc 3d37 1bbd bd62 943c
-0.10538265 0.010752293 0.011014324 0.013489933 -0.02837877 -0.064664476 -0.050231438 0.018759655
0.034413204 -0.021061288 -0.086658336 0.056211524 0.018945614 0.007207512 -0.022067038 -0.021008234
-0.037855167 0.011394818 -0.04915505 -0.018835252 -0.07887148 0.008188373 -0.010461399 -0.014186762
0.045286383 -0.028896138 0.013856642 0.013274084 -0.027131787 -0.0044926642 -0.03273964 -0.026526708
0.014679172 0.03723524 -0.011035333 0.03508481 0.0057138973 0.0060887155 -0.026438603 0.012059672
0.015007838 0.011099541 -0.048513632 0.0014330132 -0.004491774 -0.060889535 -0.06421943 0.030101836
0.024998473 0.029655648 0.040200587 -0.081148304 0.085468516 0.006718103 0.023554636 0.0188334
-0.018830178 -0.026239282 -0.030451965 -0.026716447 -0.053428147 -0.030869259 0.020378934 0.017342882
-0.014566281 -0.066523716 0.02717936 0.004827513 -0.03144499 -0.02607973 -0.023655526 0.042917755
-0.0015415528 -0.09201901 0.07335859 -0.074308954 -0.0063910414 0.055947278 0.00805783 -0.034908537
-0.011322835 -0.037229136 0.024359629 -0.015654257 -0.00936464 -0.0098191295 -0.0042680884 -0.044552624
-0.09311415 -0.020163013 -0.020860799 -0.038780347 -0.027703872 0.13734116 -0.025044825 0.020727756
0.017599493 0.05899011 0.00021160183 0.021868112 0.013932328 0.005697061 -0.03333943 -0.049311426
0.0022393889 0.014669503 -0.05277935 0.06926272 -0.009673282 0.016385462 0.013519709 -0.0260363
-0.019590715 0.039792053 -0.058150567 0.017050587 -0.021906026 -0.048171405 -0.014901403 0.0071154954
0.050924756 0.042524453 -0.01772024 0.021470083 0.049036995 0.014147697 0.076083206 0.018534739
-0.01924275 -0.12268272 -0.012162077 0.06266334 -0.16148162 -0.116889186 -0.14552337 0.05758385
0.0449661 -0.11562532 0.062492102 -0.0025107395 0.06226754 -0.13290434 -0.15259977 0.07006278
-0.03701614 0.06535202 -0.1551985 0.071315214 -0.01856256 -0.119033806 -0.017930903 -0.052509442
0.059367083 0.02556795 0.059581455 -0.08501743 0.026977668 0.06689692 -0.13304998 0.041105993
0.075355686 0.033530626 -0.1616763 -0.06525265 -0.11000344 0.06494046 0.064134 0.04049518
0.08464162 0.07961341 -0.17999333 0.028588668 0.09338767 -0.12638354 -0.115996815 0.07465765
0.07346954 0.015644252 0.07728908 -0.18050574 0.014835025 0.012769412 0.08670445 0.07208195
0.050489843 -0.09430727 -0.14547665 -0.11358592 0.052169316 -0.108718984 -0.12019238 0.06483875
0.037611816 -0.09608823 0.08687988 -0.12637372 -0.09763928 -0.14476666 0.043840166 -0.00078897615
0.061750446 -0.09878014 -0.019689964 0.05914455 0.020307634 0.043051858 0.03900086 -0.1614667
0.10096691 0.066914454 0.13937022 -0.016411992 0.08511183 -0.000932406 -0.09144183 -0.11781786
-0.13642052 0.028891912 -0.13454923 -0.12961768 -0.1275503 0.026664956 -0.08393308 0.001129272
-0.09104837 0.0619258 -0.11105028 -0.10666814 0.021387238 0.11371886 -0.14250545 0.039344106
0.11650002 -0.083640546 -0.14918154 0.030113153 -0.10115288 -0.04109031 -0.07985289 -0.15330522
0.0804259 0.050002977 -0.12669028 0.037938565 -0.011655829 -0.13225053 0.01748212 0.06874672
0.01059579 0.1071668 -0.13480522 0.0725692 0.05209657 -0.011042544 -0.037894476 0.018113488

network_body.linear_encoder.seq_layers.0.bias f4 [128]
00000000: cba7 6bbd 761a 353d 99f5 7d3d 9f57 6f3d
00000010: c54b 913d d31e 8e3d b38f 363b aca1 b73a
00000020: 0945 c33a d2ea c13d f502 413d cbf0 9f3c
00000030: bb5c 813d c280 533d 5eeb c0bd 379b 85bd
00000040: ccaf 0f3e 7b0e 603d b8f5 913d 15dc af3d
00000050: 1943 b03c 506a 6d3d ea04 9a3d cc0c 1d3b
00000060: 16cb 95bd bb0a d2bc 062d fe3c 9bcc a3bc
00000070: 5b2d 763d 016c 78bc fd5c 7d3d d529 1fbd
00000080: ba0b 28bd b258 d93d 735e e93c d3ed 153d
00000090: 6f12 973d a6a3 a73c d84d 533b 1b0e a33d
000000a0: 0615 4f3d fd19 ddbc 1d42 343d 9185 ad3d
000000b0: 0353 f33d 02de 933d c542 4c3d 95ff b7bb
000000c0: e04c bf3d 796f 2fbd cf1a a13d af71 3abd
000000d0: d99e 6abd 0197 093e 2f10 873d 297d 613d
000000e0: ebf8 eb3c e5cc 3c3d 0c19 10bd 8326 5d3d
000000f0: 3efc 3abd a834 713d e23b f3bc 2b69 423d
00000100: a7fa 0c3c daf0 c83d a114 e9bb 318d 573d
00000110: 23f9 573d 3963 a4bc bd03 b93d 971a 8e3d
00000120: 633b c83c 915f 5c3d feb7 663d 0f48 40bd
00000130: 8e12 873c 802a 8bbc fc3f 573d 4b77 2dbd
00000140: 94b6 3cbd 38ba 493d c955 343d 452e 16bd
00000150: fa14 353b 0e7a 0c3a 8461 883c ed92 2c3c
00000160: d594 683d 15d1 9dbd 96f5 873d 2d0a b83d
00000170: 2017 f7bd 090b 793d 2c0c 223b 16f0 b43d
00000180: e80d 57bd 0f6b 3cbd 7937 813d dcc8 59be
00000190: d35a a93d 6c0b 9d3d e24c 413d ace9 7e3d
000001a0: 665f a9ba ef32 39bc 34b3 5d3d 3acc d5bd
000001b0: 74b5 df3d 9fbe dc3d 2d93 913d 3aa1 e03d
000001c0: 1324 eabd b176 ac3c 4524 ea3d a760 d6bc
000001d0: dfec 223d e24e 973d 9130 df3d db63 f13c
000001e0: 1a1a c63d e8e9 75bc c1be d33d 8993 c53d
000001f0: 13d2 eebd 7935 c93c 26b3 383d da6b a03c
-0.057533067 0.04421469 0.0620018 0.05843317 0.0709453 0.06939473 0.0027856648 0.0014009974
0.0014897893 0.094686165 0.04712196 0.019523999 0.06316515 0.051636465 -0.09419893 -0.065237455
0.14031905 0.05470131 0.07126945 0.08586899 0.02151637 0.057962716 0.075204685 0.0023963926
-0.07314126 -0.025639882 0.031027328 -0.019995024 0.060101848 -0.015162469 0.06185626 -0.038858254
-0.04102681 0.106126204 0.02848742 0.03660376 0.07376563 0.020463776 0.0032242443 0.07961675
0.05055716 -0.026989931 0.044008363 0.084727414 0.118810676 0.07220079 0.049868364 -0.0056151845
0.093408346 -0.042830918 0.078664415 -0.045518573 -0.057280395 0.1343651 0.06594884 0.055051003
0.028805217 0.04609384 -0.035180137 0.053991806 -0.045650713 0.058888108 -0.02969164 0.047463577
0.008604682 0.09811564 -0.007113055 0.052624885 0.05272783 -0.020066844 0.09033916 0.06938665
0.02444238 0.053802077 0.056327812 -0.04694372 0.01648834 -0.016988039 0.052551255 -0.042350095
-0.046072558 0.049249858 0.044027124 -0.03666522 0.0027630911 0.0005358764 0.016648062 0.010533077
0.056782562 -0.07705895 0.06638639 0.08986316 -0.120649576 0.06080154 0.0024726493 0.08834855
-0.052503496 -0.046000537 0.06309409 -0.21268028 0.082692765 0.07668194 0.04719246 0.062234566
-0.0012922108 -0.011303647 0.05412598 -0.10439344 0.10923281 0.107785456 0.0710815 0.109682515
-0.11432662 0.02105269 0.11432699 -0.026169134 0.03977668 0.073880926 0.10897935 0.02946656
0.09672947 -0.015009381 0.10339118 0.09647281 -0.11661162 0.02456163 0.045092724 0.019582678

network_body.linear_encoder.seq_layers.0.weight f4 [128, 19]
00000000: 3e70 bcbd aced fbbd ff18 8ebd 0614 91be
00000010: 7765 eebd 29c9 8c3e 1642 7abc 77bf c93d
00000020: 4a37 cabd 6499 1d3d d2c2 67bd 13d5 7b3d
00000030: e0ca a83d afc7 57be 367a 44be 0754 debd
00000040: d046 a5bb b032 bbbe fb16 743d a7f0 3bbe
00000050: d3c8 773d ec08 d93d 45ab 25be b187 0ebe
00000060: ade2 933e 0881 4b3e 06ae 68be f4d4 fc3b
00000070: 719c 2ebe 0aab 3fbe 2f96 373e fb65 23be
00000080: 33c9 19bd 1603 c13e 9ff1 a43e be45 0e3c
00000090: b77a fa3d df21 3f3e 7b02 cabd 26c0 aa3e
000000a0: 3304 2a3d 25cf 6ebd 641c c93e 771b 113d
000000b0: 413a 18be 580d 7b3e 95d2 203e 1517 99bd
000000c0: 7ac0 633e f887 a53d 9c8e e93d 4238 d53e
000000d0: 3a64 d43e e4b1 8cbd 3657 ccbc 5f90 c03d
000000e0: 4852 0f3e fbea ba3d b8c9 3d3e d558 0dbc
000000f0: f72c cebe 834b 703d 9759 96bd e933 fb3d
00000100: e38e babd e6c4 dabe 1659 ae3d 7c64 93be
00000110: 3eab 71be 22b3 653d 9262 5e3c b894 373d
00000120: 4454 28be f74e 2abd e909 af3e 55f4 0ebe
00000130: 32f0 b63d 1e91 c23d 9a2c 313e aaf9 65be
00000140: 686f ebbd fae4 703e f8c2 c9be 9275 0e3d
00000150: c3b2 353c 2a19 0d3e fc02 b53d 47a5 a53d
00000160: 5704 09be 1a54 273b ca3c 843e 680a 95be
00000170: ac1b 213f aeb2 2d3d a9ba 41bd 40b5 213d
00000180: 2c7f 98bc c275 1c3f db1c d03b cbb2 8c3b
00000190: 1bf4 8f3e 5e7e 32be d909 73be 0fe6 51be
000001a0: 3ee8 07be df79 b4be 5d79 50be 39b0 893e
000001b0: cab7 ccbd e8df f7bd a51b 0abf deec 89bd
000001c0: d840 bdbd 0dbd 9a3e 8181 9cbe 3520 5dbd
000001d0: e473 243c 2c01 eebc 09dd 743e 22c4 d4be
000001e0: a80d b93d 166f 803e 18f5 d9be 87ec 0cbe
000001f0: 16f4 f7be 626c ed3e 2406 92bc 3afd 693e
00000200: 3e64 983d 5fb6 d43e ed11 60be 88cb fb3a
00000210: 7ef3 8abe eb2a 273f c37c 223e 02a6 91be
00000220: 4ee2 303e d93c 80be 1ad1 2abe 8d11 12be
00000230: 2e7c 82be e0ce e23c 749f eebe 0d85 17be
00000240: b2b8 eb3d 1c15 5cbe b957 23bd e8c1 703e
00000250: 9d9c 373e 7e00 c03c 1706 f039 c6a4 3fbe
00000260: daf0 593e be41 eebd 8fac c5bc 977c 513e
00000270: 306b 1bbe 1e42 c5be 006f 10bd 7d62 bcbe
00000280: 82c1 81bd 6eae bc3d d895 fa3c 6c70 8c3e
00000290: ca3e 523e 0442 dbbe 9e39 603d 45fa a83e
000002a0: e7d5 98be b58b c8bc 8677 7dbe 0964 57bd
000002b0: ed8e cb3d a0fd 873e 3067 1c3d 167f 66be
000002c0: 4966 083f 5ece d2bc 5273 8ebe cd51 d53e
000002d0: ce33 1c3e 85a8 0bbd 1cfe dcbd 560a 9e3e
000002e0: cf57 e3bc 83c2 a5be a38a 05be d405 a9be
000002f0: 9751 aa3c 88d4 8b3e 6e56 783d 31b9 81be
00000300: d6c4 543e b77f 6fbe c6bb 093b 1a4f 16be
00000310: 765d e93d 0634 d6bd 7f89 4f3e 8b0a 683e
00000320: b87c fb3d 5fd3 aa3c 3b50 ef3e cfd3 17bc
00000330: aacf 753d a0b3 4bbe 077c 49bd 8d7f c53e
00000340: c47b f33d 9a5c f5bd 7b75 183e 5c46 b93e
00000350: 906f d03c b854 773e 6c50 893d aba8 cd3d
00000360: 02bb fbbd 73d7 de3d d7e3 a73e da89 873d
00000370: edf8 f33e cf6a 3abe a0ca 1e3f 659e a93e
00000380: 7071 d83e 43d0 033f d4c2 71be 3ae9 64be
00000390: 90a8 d8bd 3d51 3b3e 96c4 b03d 84e7 71be
000003a0: 8cbd 093e a372 41bd 312f 23bd 42c0 843e
000003b0: 0a40 32be 0f40 aabe df31 b03c 261d 8abd
000003c0: 3c40 8bbd b506 ab3d 0e0a c23e 74f2 9fbe
000003d0: 4277 6d3e d98f 7e3e 66ea c53d 9042 bfbd
000003e0: 56d0 153e d6cf e5be 0b78 093e 3296 0a3e
000003f0: 77c5 f8bc 224c 2b3d 1540 273d ec79 de3e
-0.09201096 -0.12301192 -0.069383614 -0.2833559 -0.11640447 0.27497223 -0.015274545 0.09850972
-0.09873827 0.038476363 -0.05658228 0.0614825 0.0824182 -0.21072267 -0.19187245 -0.10855871
-0.005043842 -0.3656211 0.05959223 -0.1835352 0.060494255 0.10597405 -0.16178615 -0.1391895
0.28883877 0.1987344 -0.22722635 0.0077158157 -0.17051865 -0.1871759 0.17928384 -0.15956871
-0.037545394 0.37697667 0.32215592 0.00868362 0.12230437 0.18665265 -0.09863754 0.33349723
0.04150791 -0.058303017 0.39279473 0.035426583 -0.14865972 0.24516809 0.1570533 -0.07475106
0.22241393 0.080825746 0.11404154 0.41644484 0.41482717 -0.068698674 -0.02494393 0.094025366
0.13996232 0.0912685 0.18533981 -0.008627136 -0.4026868 0.058665764 -0.07341307 0.122657605
-0.09109285 -0.42728347 0.085130855 -0.287876 -0.2360048 0.056079037 0.013573306 0.044819564
-0.16438395 -0.041579213 0.34187248 -0.13960393 0.08932532 0.09500335 0.1730217 -0.2245852
-0.114958584 0.23524848 -0.39406562 0.034780093 0.011089983 0.1377913 0.0883846 0.08088165
-0.13380562 0.0025532306 0.25827628 -0.29109502 0.6293285 0.04240673 -0.047297154 0.039479494
-0.018615328 0.61117184 0.006351096 0.0042937747 0.28115925 -0.17431018 -0.23734225 -0.20497917
-0.13272187 -0.3524923 -0.20358796 0.2689226 -0.099959925 -0.121032536 -0.5394843 -0.06734632
-0.092408836 0.3022236 -0.30567554 -0.053985793 0.010037396 -0.029053293 0.23912443 -0.41555887
0.09035808 0.25084752 -0.42569804 -0.13762103 -0.4842841 0.46371752 -0.017825194 0.22850505
0.07440995 0.41545388 -0.21881838 0.0019210437 -0.27138895 0.6529986 0.15867905 -0.28446966
0.17273828 -0.25046423 -0.16681328 -0.14264508 -0.25485367 0.027686536 -0.46606028 -0.14796849
0.11509837 -0.21492428 -0.03987858 0.2351147 0.17930837 0.023437735 0.00045780904 -0.187152
0.21283284 -0.11633633 -0.024130134 0.20457684 -0.15177608 -0.38527006 -0.035262108 -0.3679389
-0.06335737 0.09212957 0.03058903 0.2742952 0.20531765 -0.42823803 0.054742448 0.3300344
-0.29850695 -0.02448068 -0.24752626 -0.052585635 0.0993937 0.26560688 0.038184345 -0.22509417
0.53281075 -0.02573317 -0.27822357 0.41663972 0.15254137 -0.03409626 -0.10790655 0.3086726
-0.027751831 -0.32374963 -0.13041167 -0.3301226 0.020790858 0.27310586 0.0606293 -0.25336602
0.20778212 -0.23388563 0.0021016463 -0.14678612 0.113947794 -0.104591414 0.20267294 0.22660272
0.122796476 0.020852743 0.46740898 -0.009266808 0.060012497 -0.1989274 -0.049190547 0.38573876
0.11888841 -0.11980553 0.14888565 0.36186492 0.025443822 0.24153411 0.067047924 0.100419365
-0.12291528 0.108809374 0.32791016 0.0661809 0.47650853 -0.18204807 0.6202793 0.33128658
0.42274046 0.5148966 -0.23609477 -0.22354594 -0.10579026 0.18292709 0.08631246 -0.23623472
0.13451213 -0.047228467 -0.039839927 0.2592793 -0.17407241 -0.33251998 0.021508155 -0.06743841
-0.06799361 0.08350889 0.37898296 -0.31239665 0.23190024 0.24859561 0.096638486 -0.09338868
0.14630255 -0.4488513 0.13424699 0.13533857 -0.030367596 0.041820653 0.040832598 0.43452394

network_body.linear_encoder.seq_layers.2.bias f4 [128]
00000000: b160 253d 0c24 b53d e131 e0bd ceaa b7bd
00000010: 90f0 2b3d 0168 ca3d 58d4 e4bd dc52 d0bd
00000020: bfdd 623d 15b1 cb3b e7e8 0abc 6478 9f3d
00000030: 36a6 8d3d d797 973d 6945 503c 4904 873d
00000040: a974 1d3d ba3d 663d 5ff8 44bc 4502 4c3d
00000050: 3875 bcbd 48cb 103d fa38 b13d 91de 563d
00000060: 2034 923d 439e e03d 7833 963c 2443 56bd
00000070: ab1e b53c 94d7 99bd 2092 91bd 1ef2 c3bd
00000080: d64f 813d f919 9f3d 52ec 653d 6634 be3d
00000090: 554b 6abd f47f 7fbd 2e85 5fbd a7a7 afbd
000000a0: 74cf 69bc ca2a 10bd 9e46 d2bd d574 89bd
000000b0: 9f82 febd c6fe 853d a988 94bd cd3c 90bd
000000c0: 66ff 03bd 31fa 7abd 9a68 c73b c5a1 0a3d
000000d0: 39e1 94bd 25cf dcbc 8427 5d3d 4f38 253d
000000e0: 1e54 8dbd 0aad ae3d 5a12 3d3d af7b a93d
000000f0: 1810 9e3d ad38 b43d c656 623d a59a 783d
00000100: 2628 c93c a8bb a33b bfd9 e6bd 0c54 66bd
00000110: 4700 aebd e02e cd3d 9d69 a33d 8ebe adbd
00000120: 8a0d 9c3b 48fe 56bd 8c75 a13d def7 81bd
00000130: 5198 d0bd b1a2 e8bd bf66 cb3c f75e a03d
00000140: 8732 b53d edb4 2ebc 5baa ec3b 9c7f 473c
00000150: 32b6 ab3c dcf7 93bd 27d1 99bd bb9e 373d
00000160: 14de 623d 980a 60bd 6696 12bd ba53 b4bd
00000170: a2e9 6bbd 9776 c53d 19a3 8e3d 753c 0bbd
00000180: 81cb 81bc 98aa a13d c892 8c3d dd0f d53d
00000190: 0768 7f3d 2317 853d a313 683d ac98 ac3d
000001a0: 4916 9a3d 20b6 6f3d b95d 1d3d b5e0 4a3d
000001b0: feb2 a83d b2a4 b13d 1a0a 94bd 811b a2bd
000001c0: 42ee 43bd 01de 703c 6943 74bd e42a c3bd
000001d0: 71ad f63c 3fce d1bd a4be 803d e68a 383d
000001e0: 280c c3bd b201 5abd 4f62 29bd f403 7d3d
000001f0: 8899 ccbd f391 b13d af98 2abc bc09 843d
0.040375415 0.08844766 -0.10947014 -0.08968125 0.041977465 0.098831184 -0.11173314 -0.10172054
0.055387255 0.006216178 -0.00847838 0.077866346 0.06916468 0.07402008 0.012711861 0.06592614
0.038441334 0.05621121 -0.012022107 0.049806852 -0.09202045 0.035350114 0.086534455 0.05245835
0.07138848 0.10967686 0.01833509 -0.052310124 0.02210935 -0.075118214 -0.07107949 -0.095676646
0.063140556 0.07768626 0.056133576 0.09287338 -0.05720075 -0.062377885 -0.05457037 -0.08576899
-0.014270652 -0.035197057 -0.102673754 -0.06711737 -0.12427258 0.06542735 -0.07252628 -0.07042847
-0.03222599 -0.061273757 0.0060854675 0.03384568 -0.0726952 -0.026954243 0.053992763 0.040336903
-0.0690081 0.08529098 0.04616008 0.08275544 0.077179134 0.087998725 0.055258535 0.060694356
0.024555277 0.0049967356 -0.112720005 -0.056232497 -0.08496147 0.10018706 0.079791285 -0.08483611
0.004762356 -0.052488595 0.078837484 -0.06346105 -0.10185302 -0.11359156 0.024829267 0.07830613
0.08847528 -0.010663253 0.0072224564 0.012176421 0.020960901 -0.0722501 -0.07510596 0.04482911
0.05538757 -0.054697603 -0.035787962 -0.08805032 -0.057595856 0.0964176 0.06964702 -0.033993203
-0.015844109 0.07893866 0.06863934 0.10403416 0.062355068 0.064985536 0.056659352 0.08427557
0.07523782 0.058523297 0.03841946 0.049530704 0.08237265 0.08673991 -0.07228489 -0.07915402
-0.047834642 0.014701367 -0.0596346 -0.09529665 0.030112 -0.102444164 0.06286362 0.04505434
-0.09523803 -0.053224273 -0.04135352 0.061771348 -0.09990221 0.08670416 -0.010412379 0.06447169

network_body.linear_encoder.seq_layers.2.weight f4 [128, 128]
00000000: 4abb 25be 86e6 ae3c cc36 0b3e 0a0a 953d
00000010: ba39 0a3e e57d 6d3d 8945 2e3d 7421 9abd
00000020: b6ad 14be 55c6 693e 5dff 20bd 71e1 87bb
00000030: 7b10 7b3d 5102 d63c efaf cc3b 734e 04be
00000040: 364b 2abe 1180 ba3d a05c 74bd 927f 8bbb
00000050: 2caa efbd bf14 5ebd fc1d 0fbe 4415 65be
00000060: 03aa 4b3e d5e9 ea3c 54da dfbd 7c6b 30bd
00000070: 7ab9 9ebd ab1b 84be a41d 043e 0c62 a9bd
00000080: 510a 09bd d9b5 133d bcc1 533d 3f61 943d
00000090: 4eff f23d 9f51 6bbc 90bc 8f3d 8f5f 923e
000000a0: 6ab7 153d 5751 70bd c612 babd 325d e0bd
000000b0: e726 3d3d 7e94 b93d 331d 16be 2502 f1bc
000000c0: fffa e0bd a918 c8bd 00c3 333e 75c7 a2bd
000000d0: 389d a5bc 189d 63bc 0df5 0d3e 8c92 a63c
000000e0: 6c4c 9b3c b1a6 0d3e f82d 34be b272 af3d
000000f0: b5cb 21be 3121 e03d 7208 083e 3768 1b3e
00000100: 4543 22be c610 99bc 9e51 d3bd 8d77 a13d
00000110: 6493 a93c 9aec d4bd 27b9 b13c f54b 91bc
00000120: a24d c7bc b369 0a3e c6ce 0b3c 624b 1dbe
00000130: a0db 793d 2910 ac3d 591f da3c f656 6fbd
00000140: 8f57 5a3c 5a12 12be e4f7 383d 3ed1 d9bc
00000150: 5cb4 0cbd 17f5 2e3e ccd1 ce3d 0dfd 803b
00000160: 9157 9ebd 8c05 61bc 2bb2 093e b2d3 203e
00000170: 2c1d 963d 5062 6fbd 5111 b3bc 6642 403e
00000180: 1f9a aa3d 529d e3bb 0568 32bd 3484 4bbd
00000190: f9f3 043e a7d9 193c 8d70 c93d 067b c0bd
000001a0: 8417 06be 4f0e 26be 08f2 333e 7918 aabd
000001b0: 9422 adbc e6c0 9f3d 1774 533e d383 143d
000001c0: 1a3a 1dbe a711 8dbd e347 8bbb b0e0 d5bc
000001d0: 2073 34bd 3cca f23c ad61 5a3d 1f51 bebc
000001e0: 8216 263d 3177 46bd 7890 e33c acfa 48bd
000001f0: 67d5 e8bd f136 aebd d80a 223e de92 12bd
00000200: 5892 82bd 964f 013d d8c0 2a3c d8b4 8dbd
00000210: a64d b5bd 3d0a 5b3e 011a d03c 4049 7d3d
00000220: eb3b 96bd 3dcf e63d 5167 873d 212d a63c
00000230: fc44 6bbe b44e 0a3e 5399 e5bd eaf0 05be
00000240: 7035 e5bd f6d3 34be aa60 1b3e 2f96 cc3d
00000250: a285 443e 553d 793e 4de9 31bd 2684 513e
00000260: a99e 6b3b bb1e 36bd f0b1 26bb cb00 17bd
00000270: 330e ee3d 82aa 59bd d085 2cbe c76d 9dbd
00000280: 10a3 4fbb ff16 843d 68d1 243e 7567 94bd
00000290: cfdf e8bd a3e0 343e 7bdc bb3d de1e 4ebc
000002a0: ae52 043e c5ab a5bc e8ed f23d b3f4 2c3e
000002b0: 5762 9b3c 9744 7fbd eb97 333e 0081 49bd
000002c0: cfb5 b53c 20cf 90bd 41ee 283c 8e74 44bc
000002d0: 80ef 1a3e 5357 1c3e fef2 ba3a e711 163e
000002e0: 0ef6 bf3d 3323 48be dd2e 34be 1331 423e
000002f0: e949 2e3d 68e6 c63d 9bf0 08bc 5ceb b93d
00000300: a0f1 9b3d ba42 cbbc f624 45bd c9d4 8a3d
00000310: d1d9 d33d 0310 583e 4ebb 7a3c 164c 1a3d
00000320: a346 73bd a867 c8bd a415 5cbc 063d b8bd
00000330: 7f74 7ebd 7ff8 c3bc 765d 853c b16d df3d
00000340: fe7e a8bc 3a57 333e 9096 243d c19f 28bc
00000350: 8cf9 2c3d 29ba 53be d336 79bd e5e9 713c
00000360: 5c6f f6bd 92b1 47bd cf6b 5b3d b656 603d
00000370: 0487 b6bc 2cbe c2bd f475 e13c f3f5 643d
00000380: 895a 283d ec4d 8e3e 839d 5a3d 29b7 04be
00000390: a96b 843d ff33 edbc 10c3 5b3d f4dc 98bd
000003a0: 959c 4bbd e8aa d1bd 2bdd 023b 5556 843c
000003b0: c729 bebc 06ac a73d 2de3 e53c ac02 1f3e
000003c0: 7f52 8abd 5b02 27bd 32c5 dd3d 5731 b93d
000003d0: 55f7 6f3d c291 b03d 4304 893c 593b 3f3e
000003e0: 8c52 643d 0cd4 503d bf41 84bc ac45 c5bd
000003f0: d82b f0bd c891 88bd 9e03 b6bd 17cc 033e
-0.16184726 0.021350157 0.13595122 0.072773054 0.13498583 0.05798139 0.042546783 -0.07525912
-0.1451939 0.22829564 -0.039306033 -0.0041467478 0.061295014 0.026124151 0.006246559 -0.12920551
-0.16630253 0.09106458 -0.059658647 -0.004257151 -0.117023796 -0.054219004 -0.13976282 -0.22371393
0.19889073 0.028675953 -0.10930315 -0.043071255 -0.077502206 -0.2580236 0.12901932 -0.08270654
-0.033457104 0.036062095 0.05169843 0.07245111 0.11865102 -0.014362722 0.07018387 0.2858853
0.03655187 -0.05867132 -0.09085612 -0.109552756 0.04617968 0.09061526 -0.14659576 -0.029419968
-0.10985374 -0.097703286 0.17554855 -0.079482 -0.02021657 -0.013892435 0.1386301 0.02033355
0.01895734 0.13833119 -0.1759566 0.08566798 -0.15800364 0.10943831 0.13284472 0.15176474
-0.15845974 -0.018684756 -0.103183016 0.078841306 0.020700164 -0.10396691 0.021694733 -0.017736414
-0.02432901 0.13516884 0.008533185 -0.15360788 0.061000466 0.0840152 0.026626276 -0.05843254
0.01332654 -0.14264813 0.045158282 -0.026589032 -0.03435169 0.17085682 0.10098609 0.003936416
-0.07731546 -0.013734233 0.13446872 0.15705755 0.07329783 -0.058443367 -0.021858843 0.18775329
0.083301775 -0.0069462443 -0.043556232 -0.049686626 0.12983693 0.009390271 0.098359205 -0.09398465
-0.13094908 -0.16216396 0.17572796 -0.08305449 -0.021134652 0.07800464 0.20649754 0.03625853
-0.15354195 -0.068881325 -0.004250513 -0.026108116 -0.044055104 0.029637448 0.053315807 -0.02323204
0.04054881 -0.048453514 0.027778849 -0.049067184 -0.11368828 -0.08506573 0.15824449 -0.035784595
-0.06375569 0.03157004 0.010421954 -0.06919259 -0.08852701 0.21390624 0.025403025 0.061837435
-0.07335647 0.11269996 0.06611503 0.020285191 -0.22975534 0.13506585 -0.11210885 -0.13080183
-0.11191833 -0.17658982 0.15173593 0.09989583 0.19191602 0.24339803 -0.043435384 0.20460567
0.0035952723 -0.0444629 -0.002543565 -0.03686599 0.11623802 -0.053141125 -0.1684792 -0.07686954
-0.0031682886 0.06449699 0.16095507 -0.07246295 -0.11370813 0.17663817 0.09172913 -0.0125806015
0.12922165 -0.020223508 0.11861783 0.1689022 0.01896779 -0.06232127 0.17538421 -0.04919529
0.02218142 -0.07070756 0.01031071 -0.011990679 0.15130424 0.15267687 0.0014263091 0.14655267
0.09373103 -0.19544677 -0.17596002 0.18964033 0.042550955 0.09711915 -0.008358146 0.09078094
0.07614446 -0.024812091 -0.04813095 0.06778867 0.103442796 0.21099858 0.015303446 0.037670217
-0.059393536 -0.09785396 -0.013432894 -0.08996014 -0.062122818 -0.023922203 0.016279917 0.10909594
-0.020568367 0.17513743 0.04018265 -0.010291995 0.042230174 -0.20676483 -0.0608433 0.014765237
-0.12032959 -0.04875333 0.05356961 0.054770194 -0.022281177 -0.09508929 0.027522065 0.055898618
0.041101966 0.27793825 0.05337287 -0.12960495 0.06465847 -0.028955458 0.053652823 -0.074640185
-0.049709875 -0.10237676 0.0019968252 0.016154448 -0.02321328 0.08187108 0.028062427 0.15528363
-0.06754016 -0.04077373 0.10828628 0.09042614 0.058585484 0.08621551 0.016725665 0.18674983
0.055742785 0.050983474 -0.016144631 -0.096324295 -0.117271125 -0.066684306 -0.08887409 0.12870823

network_body.linear_encoder.seq_layers.4.bias f4 [128]
00000000: 6782 013d 1a6f debc fd32 bdbc ec09 283d
00000010: 705c 50bc 1bd9 c2ba d949 37bc a6e2 8b3d
00000020: 6520 b23d 84ca 643c 61b1 293d 9069 14bd
00000030: 476a 473d 619a 01bd 928f 163c ec93 8e3d
00000040: 53ca 9c3d 09fd 853d 02c5 f4bb bde4 333d
00000050: 1936 003d c0af c0bc d622 66bd 483a 25bd
00000060: 4b34 e03c 2c38 8d3d 2646 b73d fab6 0fbd
00000070: ac0b 613d f0ba 593d fa58 53bc 2ea1 563d
00000080: 2055 ae3d ede1 8e3d d2ab 11bd 0ff0 dbbc
00000090: f081 13bd e433 623d b11e 4a3d 2f04 cc3c
000000a0: ffcc be3d 463d b83d 3158 8abc e784 8b3d
000000b0: ffbb 293d 423d 0fbc e54e cbb9 6db2 923d
000000c0: e981 c43d 2886 c6bc 9e63 aa3d 0d7a f63b
000000d0: 5c2f bdbc 9624 873d e04d b63d 4bd5 7f3d
000000e0: 8b56 833d a9a1 f5bc dd73 60bc 950c 06bd
000000f0: 1577 e23c d9f7 cebc cf61 30bd 8272 803d
00000100: 821b fb3c 8729 20bc aba9 df3d 2705 8fbc
00000110: 85eb 70bc 8f81 b1bb a339 653d 417b 34bd
00000120: cd2d 9b3d ef86 53bb 0f45 733c ec4b 343d
00000130: e7b1 9b3c ec6f 723d c82a 893d aa8f 95bc
00000140: 710c b53d c044 5c3d 70e2 ce3d eb14 9739
00000150: 1a2f 913d 94c6 be3c 94a4 05bd 6548 a5bb
00000160: e503 8d3c 5b82 823d da69 00bd 1e71 a2bc
00000170: ba6e 1fbc 4883 083d 83f7 0dbd e4cf 0abd
00000180: 8066 05bd 3a98 513d fbab c4bc bed4 21bd
00000190: d5b2 473d 8c2a af3d 5749 d2bb 7c45 6c3d
000001a0: fd41 bb3d 8c01 e7bc 745c bcba dae3 213d
000001b0: cb8e ccbc 9784 23bd 1db6 1bbd 6da9 89bc
000001c0: d6ed 8f3d e16e 9e3d 07c2 89bc 4fc3 783d
000001d0: 12b6 ca3c 6529 18bc 72bd 9a3d 70dd b33d
000001e0: 489c 213d 2eb9 d73d 5e50 a7ba 455d 623d
000001f0: 5aec 6a3d 3483 1e3a 490f 06bc 9ca6 813d
0.031618502 -0.027152587 -0.023095602 0.041025087 -0.012717351 -0.0014865728 -0.01118704 0.06830339
0.08697585 0.013964299 0.041428927 -0.036233485 0.04868534 -0.031641368 0.009189503 0.069618076
0.07655778 0.06542403 -0.007469774 0.043919314 0.03130159 -0.023521304 -0.056185566 -0.040338784
0.027368685 0.068954796 0.08948927 -0.03508661 0.05494277 0.053156793 -0.012899632 0.052399807
0.0851233 0.06976686 -0.03556425 -0.026847867 -0.03601259 0.055225268 0.049345676 0.024904339
0.09316444 0.08996062 -0.016887756 0.068124585 0.041439053 -0.008742632 -0.00038777958 0.07162938
0.09595091 -0.024233893 0.08319782 0.007521874 -0.023093872 0.06598775 0.08901572 0.06245927
0.06412991 -0.029984312 -0.013699499 -0.032726843 0.027644673 -0.025264667 -0.043062028 0.06271841
0.030652765 -0.009775526 0.109210335 -0.017458512 -0.01470459 -0.005417056 0.05596317 -0.044062857
0.07577095 -0.0032276472 0.014848008 0.044017717 0.019005729 0.05918877 0.06697613 -0.01825698
0.08840264 0.053776503 0.10101783 0.0002881655 0.07089062 0.023288049 -0.032627657 -0.0050440305
0.017213771 0.063725196 -0.031350948 -0.01982933 -0.009730989 0.033328325 -0.034659874 -0.033889666
-0.032568455 0.051170565 -0.024007788 -0.039509527 0.048754532 0.08553037 -0.006417434 0.057683453
0.09143446 -0.02819898 -0.0014370815 0.039523937 -0.024970433 -0.03992137 -0.038015474 -0.016804421
0.070277855 0.07735992 -0.016816152 0.060733136 0.024745021 -0.009287213 0.07555665 0.0878247
0.039455682 0.10533367 -0.001276504 0.05526473 0.05735431 0.00060467725 -0.008182355 0.06330606

network_body.linear_encoder.seq_layers.4.weight f4 [128, 128]
00000000: 3c74 d43d 4763 0a3e ef4d 8abd 9a54 fd3d
00000010: ce64 ff3c 587c e73c db70 153e bbfc c4bd
00000020: e493 28be 8520 eebd 6bb3 3fbe e522 2fbe
00000030: 23d2 d73c 1976 44be 045c 4bbe 48bb cfbd
00000040: 52ee 1cbe a4c7 06be 2e53 2c3d caf5 543e
00000050: 8315 883d aaae 30be d9e6 9c3d 2f94 1a3c
00000060: 4721 553d 81f8 6abd d807 0cbc bb8a 31bd
00000070: e131 b93d 42af 1dbe ee09 2dbe de70 8cbc
00000080: 0240 9bbd 12bc 823d 07e7 9bbc c191 d2bd
00000090: 85c7 e33d b67f 12be ff15 f13d f82d b93c
000000a0: b21e 4ebe 219a cbbd 7494 82be 3384 23be
000000b0: 8afd 18be 2ced 6b3e 5101 85bd 25fb 1ebe
000000c0: adf1 e93c 7cb9 343c b12d 41bd ffc2 bcbc
000000d0: ca41 6bbe 8063 513e 22e4 4bbe a10e e8bb
000000e0: b37d df3b 3775 3e3d f5be 613d 4fbb 423e
000000f0: a697 34bd c99a 1d3e 6a07 d7bc 424e 89bb
00000100: e80d 443d 5747 94bd e2ed 90bd 19be b5bd
00000110: 4576 9abd a05f 7a3d 10ca 2abd eff5 283d
00000120: 476e 86bd 24bd 41be d685 7cbe c11d 613d
00000130: 3b72 26bc 715d 24be 6b96 b7bd 23c8 293e
00000140: b6fa d6bc eb1a 743d 224a 44bc a167 9abd
00000150: 7021 1f3e 6366 a5bd 020c 4e3c f090 0a3c
00000160: 2bdd 81bd f790 8d3b 179d 933d eb9e 033e
00000170: c9ac 313b 5b5d c5bb bd4f e93d 1209 b2bc
00000180: 87a9 f4bd 838b fa3d 99a5 db3d 200a f1bc
00000190: abd1 253e 3537 74bd cdab 9cbd 3eb3 eb3d
000001a0: 0982 3b3e 1bba 413e 9166 b33d e48c 29be
000001b0: cf80 453e 32a3 febc fc29 c5bd 578b 1dbb
000001c0: 8f58 5cbd 56ec 3ebc d681 f4bd 40a1 18bd
000001d0: e9e6 6f3a 503c adbd 2b8e a13d ca8b 5abe
000001e0: d31a 8e3d 3ca5 9abe f6c4 f23d d0c0 76bc
000001f0: 1b16 a33d bb2e 2b3e f53a 73be 0b20 b6bd
00000200: 5044 9cbe b986 e2bd 540b df3b 1c76 ee3d
00000210: e41b 04bd c03f 0cbe a09f c23d 813a b6bd
00000220: b19a 5dbd 04f3 83bd 542a 923c daf4 273d
00000230: 1a23 61be 1f45 39bd b2a3 233e 5afe 1abd
00000240: 710e a8bd 6366 2cbd 57cb cc3d fc37 11bd
00000250: b979 b63d a6af c2bd c14e 1abe c3b3 71bd
00000260: 5668 0bbd 6080 31be 87a7 2a3d 4b93 1e3d
00000270: 9591 aa3d feb4 f43d 8812 b7bc aa81 7f3c
00000280: 7aff 8cbc 73ac 6e3d 21bc cbbc 276e c4bd
00000290: 6c20 19be b520 11bb fd9a 123e 607b a1bd
000002a0: 729a 3b3e 2058 62bc f57e 84bc 3c72 a0bd
000002b0: 287e 49bd f0f9 933d e920 1b3e 946a 8a3c
000002c0: 97db 893d a774 fe3d f39a f3bd 27ea 8dbd
000002d0: 45c0 033d 018c ed3d d269 1ebe 9d6f 063d
000002e0: 85b3 8b3c 4b63 cfbc 94fd bebd cad3 a03d
000002f0: 1672 15be d0ad 9e3d 03ea adbb f617 243d
00000300: 8aa0 54be 2941 7d3d 6a38 87bd 31c3 04bd
00000310: bff4 51be cd09 99bd 6d1b 2ebe 41c1 283e
00000320: 9913 0fbe 189c 15bc 690e 453d 931a 9f3c
00000330: ae65 0cbe 8741 653d 1509 0bbe d3f0 1a3d
00000340: 78b5 bcbc d9ca cdbd 798f 49bd 8e1a 12bd
00000350: eafb d43c d928 7f3d 3587 6e3d e94b 623e
00000360: 462a c2bc f5d9 57bd 64f7 263d bdc0 573c
00000370: 21bb 183d c076 8e3d c3ea 2f3d 21da b43d
00000380: 0ae6 4cbd 8454 00be ed9f 993d 8c95 50bd
00000390: 72d5 b0bd 59ce 64bd 8f2e 87bd d807 ddbd
000003a0: ba05 fcbc 08b9 c1bd de53 80ba 9fd5 2ebc
000003b0: b906 b2bd ec24 06be 56e0 f63d 3f86 163e
000003c0: 3d19 50bd c9be da3d 35d7 123d 5f6e 1a3c
000003d0: 283b f2bd 5ec2 ad3d 9326 0ebe 277e 8abc
000003e0: 98f9 563e d32b ed3c 8e0a 8b3d 7fae c3bc
000003f0: 92ba 033e 3dbc 69be 4d6d 123d 108c b9bd
0.103737324 0.13514434 -0.06753146 0.12369652 0.031175997 0.028257534 0.14593832 -0.09618517
-0.16462666 -0.11627296 -0.18720786 -0.17103155 0.026345318 -0.19185676 -0.1985932 -0.10143143
-0.15325287 -0.13162094 0.042071514 0.20796886 0.06644728 -0.17254129 0.07661218 0.009434744
0.05203369 -0.057365898 -0.008546792 -0.043345194 0.09042717 -0.15398887 -0.16898319 -0.017143663
-0.07580568 0.06383528 -0.01903106 -0.102817066 0.1112204 -0.1430653 0.117717735 0.022604927
-0.20128897 -0.09941507 -0.25503886 -0.15968399 -0.14940467 0.23039693 -0.06494392 -0.15525492
0.028557623 0.011030551 -0.047162715 -0.0230422 -0.22974315 0.20448112 -0.19911245 -0.007081822
0.0068204044 0.046498504 0.05511375 0.19016765 -0.044089936 0.15391077 -0.026248652 -0.0041902373
0.047864825 -0.072401695 -0.070766225 -0.08874149 -0.075420894 0.06112635 -0.041696608 0.041250166
-0.065640025 -0.18919808 -0.2466043 0.054960016 -0.010159071 -0.1605127 -0.08964237 0.16580252
-0.026242595 0.059595983 -0.011980565 -0.07539297 0.15540099 -0.08076169 0.012576105 0.008457407
-0.063410126 0.0043202597 0.07207697 0.12853591 0.0027111045 -0.0060230917 0.11392162 -0.02173284
-0.11946397 0.12233641 0.107249446 -0.029423773 0.16193263 -0.059622962 -0.07649956 0.11508797
0.18311323 0.1891865 0.08759797 -0.16557652 0.19287418 -0.031083677 -0.096271485 -0.0024039352
-0.053795394 -0.011653027 -0.11938827 -0.037263155 0.0009151535 -0.08458769 0.078884445 -0.21342388
0.0693871 -0.3020419 0.118539736 -0.0150606185 0.07963201 0.16717045 -0.23752959 -0.088928305
-0.30520868 -0.110608526 0.0068067703 0.11643621 -0.03225316 -0.13696194 0.09503102 -0.088978775
-0.054102603 -0.06442836 0.01784245 0.041004993 -0.21986046 -0.045231935 0.15980414 -0.037840225
-0.082058795 -0.04208983 0.099997215 -0.03545378 0.089099355 -0.095061585 -0.15069105 -0.059009325
-0.03403505 -0.17334127 0.041663673 0.03871469 0.08328549 0.11948584 -0.022347704 0.015594879
-0.017211664 0.05826993 -0.02486998 -0.095913224 -0.14953774 -0.002214474 0.14316936 -0.0788486
0.18320635 -0.013814956 -0.01617382 -0.078342885 -0.049192578 0.07225406 0.15149273 0.016896524
0.067313366 0.124245934 -0.118947886 -0.06929427 0.032165784 0.11598969 -0.15470055 0.032821286
0.017053375 -0.025315901 -0.0932571 0.078528956 -0.14594302 0.07747996 -0.0053074374 0.040061913
-0.20764366 0.06182972 -0.06602557 -0.03241271 -0.2050352 -0.074725725 -0.1700265 0.1647997
-0.1397232 -0.009131454 0.048109446 0.019421851 -0.13710663 0.055970695 -0.13577683 0.037827324
-0.02303575 -0.10048456 -0.04920909 -0.035669856 0.025999028 0.062294815 0.058234412 0.2209927
-0.023701798 -0.052698094 0.040763274 0.013168511 0.037287835 0.069562435 0.042948496 0.08830667
-0.05002407 -0.1253224 0.075012065 -0.05092387 -0.086344615 -0.05586085 -0.06600677 -0.10792512
-0.03076445 -0.0945912 -0.0009790619 -0.010671048 -0.086926885 -0.13100022 0.120545074 0.14699648
-0.05080532 0.10680921 0.03584977 0.009425729 -0.118276894 0.08484338 -0.13881902 -0.016905857
0.2099365 0.028951561 0.067891225 -0.023886917 0.1286414 -0.22825713 0.03574877 -0.09059918
